model_save/simple_spread_schednet/model.pt (torch_old, 44339 bytes, 38 tensors)

value_dict.action_critic.weight f4 [1, 32]
00000000: 992d 04be b741 34bd 1461 a3bd 1ca8 9b3e
00000010: f847 453c 7b9f fdbe b976 da3e d642 023d
00000020: 7faa f63c ab71 3fbf c5f3 81bc 7137 e83e
00000030: 3bb0 a83d 0075 04bf 4c53 5b3f 7f04 15bb
00000040: 3793 01bf ca6d 423e 2f08 b93e e96d a93d
00000050: 5968 eb39 1c1c 98be 31d8 d3be 375d 12bf
00000060: 3870 b4be c2f9 053f 36b0 173d 9639 b33e
00000070: ef36 2fbe eaee bfbe f54b ffbe fe8c 663d
-0.12908019 -0.044007983 -0.079775006 0.30401695 0.0120410845 -0.49535736 0.42668703 0.03180202
0.030110596 -0.7478282 -0.015863309 0.45354798 0.08236738 -0.5174103 0.85673976 -0.0022738276
-0.5061526 0.18987194 0.36139056 0.08272917 0.00044900438 -0.29708946 -0.41375878 -0.57173485
-0.35241866 0.52334225 0.037033282 0.35004872 -0.17110799 -0.37486964 -0.49862638 0.056286804

value_dict.share_critic.weight f4 [32, 18]
00000000: 9f76 23bf 7448 c4bd 5cd8 1b3e 6aec 8a3e
00000010: b28c 4cbe b590 a6bc 2c5a 37be 0ed6 003e
00000020: 13f3 46be b7d6 9abd f7dc ac3e c352 2a3e
00000030: 1128 86bd fa3e 57be 479c e9bd 8bce d5bc
00000040: 6870 a53d 32c9 90bd f529 9f3e ac73 66be
00000050: 9fdb f9bd ccd5 89bd 1f27 d5bd 7576 2ebe
00000060: 78f5 dd3c 01fa de3d a28d 5c3d ed13 43be
00000070: a6a5 8abe 0a37 bb3d dc6e 223e d92e 95bc
00000080: 7cd9 8e3c b5b7 59be 8b93 91bc 62d9 30be
00000090: 2da9 cd3e 94f5 913e 7d8f f8bc 41d1 d3be
000000a0: f1bf 963e 643f 0a3e fe24 133d c67a 1cbe
000000b0: f802 a13e c19f 96bd 636e 75be 8123 e3ba
000000c0: 5a64 5ebd ecb6 b23e 7c41 3f3c 77af 63bd
000000d0: bb1e 98bd a31f 2abe 76f8 773d 9a9f 973f
000000e0: 3878 9b3e ae9f 1fbe 4c40 fcbc af4f 9bbd
000000f0: 2ae3 4cbe a57f 3cbe 4822 d6bd ed9d 5abd
00000100: 9e1f c3bc d7b3 853e fb45 ff3d d4fd b03e
00000110: a614 babd 3bc2 2bbe 379b af3d 505f 703e
00000120: 0075 a33e 085d 743c 1c78 f5bd 04bf 97be
00000130: 1a4b 953d 7dfc f9bc 5729 6d3e f81a 0bbe
00000140: eced 823e c613 98be f504 c6be 0a86 123d
00000150: fd8f d6bd 7920 d43d 346e 383e c400 86bd
00000160: 476e cc3d 58f8 b23d 17ef 17bf cded 703d
00000170: e230 edbc 0c2e e03d 47d7 5fbe 1a8a 6dbd
00000180: 59f3 73be d7ff dc3e 53b3 4c3d 0287 263e
00000190: 6d41 9e3e 0f32 47bd e55c 383e 7c47 50bd
000001a0: 7f4a 033c 5a7b 02be a4ce a93c 67d7 8abd
000001b0: 7076 2f3f 1df6 833e 3715 6bbd 9635 e0bd
000001c0: 1db8 7b3d 6376 b93c ead2 b13d c21b 51be
000001d0: bcf0 a93e 6bf7 61be 5958 133c 6cba 6ebc
000001e0: 1710 12be ef92 523e d394 69bd 0d97 423d
000001f0: 0336 d53d 58e6 57bb 3ebe 063f d9a3 793e
00000200: 6633 1e3d e379 22be 434b 27bd 3c33 0ebd
00000210: c8b4 a6bb 87ba 79bd 05f0 d0bc ec5d 1d3d
00000220: 1033 8d3d 7880 223d 053c 2bbd dda6 2d3d
00000230: 8bc0 0d3d ea5c 35bc 9a0a debd 3fdd 073e
00000240: b278 b73e b9c8 013e ef2b 11be 40df bebd
00000250: f816 123d da96 0a3e bf94 fb3d 084e 1fbe
00000260: e34a dd3d 44ad afbd dd50 bcbd 3130 c4bd
00000270: 26a4 b33d cd6e 9f3e 539b d93b 63da 073d
00000280: 873c bebd 4e96 88bc 72e2 18bf ca3a 9a3d
00000290: 2f8c 323e e799 333d 01e4 43be 180f 5a3d
000002a0: 898a edbd 512f 5a3e 9353 adbd b076 46bd
000002b0: a9f5 773e bf01 09bd 3c45 7b3d 07e5 53be
000002c0: 2b06 94bc 1ae4 dfbd cbcf 083e 08e5 ee3d
000002d0: 7d2a dc3e e7ca 23be 701a 883d 8680 bbbd
000002e0: 10f3 7c3e 775b b7bd 8115 853e 36be 68bd
000002f0: 3f66 a13c c22d cbbc e312 12be 422a f0bb
00000300: 9a4d 903d 9b9b 61be cba4 92bc 3081 713d
00000310: 7432 adbd d463 893c 83e9 973e 3f45 ff3b
00000320: 6cb0 2c3d 91b4 09be df64 063e d6bc 523d
00000330: 7d81 4f3e 2305 e1bc 895c a63e fc07 95bd
00000340: e7b5 88be b236 96bd 4ad7 05be 7b54 413e
00000350: 6e6d 20be b7e1 083e ddb3 93bd 25aa dabd
00000360: 9869 833e 6783 3d3e f08f 1bbe cc7d cbbd
00000370: f7bc c73d 105e 633d abfb 9d3e b4c1 91bd
00000380: 1242 ad3d 200d 98bd 3720 32be 7706 b4bc
00000390: dcf4 733b 20fd a43e 7352 803d ecd1 173e
000003a0: 66af 323e 55f3 9abd 3ff5 26bf a878 173d
000003b0: b8c8 843b da21 6e3e 8805 79be d4b2 01be
000003c0: 28dd 04be 44e7 113e 0c39 73be d7d9 4d3e
000003d0: f51f 4e3e 8421 f6bd a552 a93d 959e 2cbe
000003e0: 90a5 52bd cb42 c1bd 76fe 1abd 0b5e a9bd
000003f0: a546 de3e f94e a1bd b6be 82bb e860 05be
-0.63852876 -0.09584132 0.15219253 0.27133495 -0.19975546 -0.020332674 -0.17905492 0.12581655
-0.19428663 -0.07560485 0.33762333 0.16633134 -0.06550611 -0.21020117 -0.11406761 -0.026099464
0.080780804 -0.07069625 0.31086698 -0.22505063 -0.122000925 -0.06730232 -0.104078524 -0.17037375
0.027094588 0.10887528 0.05384601 -0.1905057 -0.27079505 0.09141357 0.15862602 -0.018210815
0.017437689 -0.21261485 -0.01777055 -0.17270425 0.40168133 0.28507674 -0.030341858 -0.41370586
0.29443315 0.13500744 0.03592395 -0.1528121 0.31447577 -0.073546894 -0.2396789 -0.0017329307
-0.05429492 0.34905183 0.011673328 -0.05558726 -0.07427736 -0.16613631 0.060539685 1.1845582
0.30365157 -0.15588257 -0.030792378 -0.07583558 -0.20008531 -0.18408068 -0.104557574 -0.053373266
-0.023818787 0.2611377 0.124645196 0.34568655 -0.090859696 -0.16773312 0.08574527 0.23473859
0.319252 0.0149147585 -0.119858 -0.2963792 0.07289715 -0.030515904 0.23160301 -0.13584507
0.25572145 -0.29702586 -0.38675657 0.03577236 -0.10476682 0.10357756 0.18010789 -0.06543115
0.09981971 0.08738774 -0.593492 0.058820534 -0.028953973 0.10946283 -0.21859466 -0.057993032
-0.23823299 0.4316394 0.049975704 0.16262439 0.3090929 -0.048631724 0.18004186 -0.050849423
0.008013367 -0.12742367 0.020728417 -0.06779366 0.68540096 0.25773707 -0.05739328 -0.10947721
0.06145488 0.022639459 0.08682807 -0.20420745 0.33191478 -0.22067039 0.008993232 -0.014570814
-0.1426395 0.20563863 -0.057026695 0.047507335 0.104106925 -0.0032943692 0.52634037 0.24378909
0.038623236 -0.15866809 -0.04084326 -0.03471683 -0.005087469 -0.060968902 -0.025505075 0.03841965
0.06894505 0.0396733 -0.041805286 0.04239546 0.03460745 -0.011069516 -0.10841866 0.13267992
0.3583427 0.12674226 -0.14176916 -0.09319925 0.035666436 0.13534108 0.122842304 -0.1555711
0.10805299 -0.0857797 -0.09195111 -0.09579504 0.08771543 0.31139222 0.0066408305 0.033167254
-0.092888884 -0.016673233 -0.5972053 0.075307444 0.17436288 0.043847945 -0.19129945 0.05323705
-0.11598689 0.21307112 -0.08463206 -0.048453033 0.24214806 -0.03344893 0.061345324 -0.20692836
-0.018069347 -0.10932179 0.13360517 0.11664778 0.43001166 -0.1599537 0.066456676 -0.09155373
0.24702096 -0.089529924 0.2599297 -0.056822024 0.019702075 -0.024802092 -0.14265017 -0.0073292563
0.07046051 -0.22032015 -0.017900845 0.058961093 -0.08456889 0.016771235 0.29670343 0.007790237
0.042160437 -0.13447787 0.13124417 0.05144962 0.2026424 -0.02746827 0.32492474 -0.072769135
-0.2670128 -0.07334651 -0.13070408 0.18879883 -0.15666744 0.13367353 -0.072120406 -0.10676984
0.256665 0.18507157 -0.15191627 -0.09936103 0.09752839 0.055509627 0.3085607 -0.07117024
0.084598675 -0.074243784 -0.17395101 -0.021975739 0.0037224805 0.3222437 0.06265726 0.14826173
0.17449722 -0.07565943 -0.65217966 0.0369803 0.004052248 0.23255101 -0.24318516 -0.12665874
-0.1297499 0.14248377 -0.2375223 0.2010263 0.20129378 -0.12018111 0.08267716 -0.16857369
-0.051427424 -0.09436568 -0.03784033 -0.082698904 0.43413273 -0.07876391 -0.0039900197 -0.13025248

value_dict.share_critic.bias f4 [32]
00000000: 2ea6 0540 56f3 adbf c20a debf a0e1 9dbf
00000010: 7fd2 f2bf bf5f 0840 f5c3 09c0 2f56 a3bf
00000020: 1b6a f7bf 5dec 0a40 930c 0a3e 5c11 0dc0
00000030: 507c 00c0 5637 0640 d6fa 05c0 354e ffbf
00000040: def7 af3f f17c 01c0 3956 0ec0 292e ddbf
00000050: 0622 debf c2c4 f33f 61a5 0040 6820 0340
00000060: 446d 0b40 9a9d b7bf 2def 9e3f e240 ebbf
00000070: 20e0 fb3f ef4b fd3f 501f 0940 1630 583f
2.0882678 -1.3589885 -1.7347033 -1.233448 -1.8970488 2.1308439 -2.1525853 -1.2760676
-1.9329256 2.1706765 0.13481359 -2.2041845 -2.0075874 2.0971274 -2.0934348 -1.9945742
1.3747518 -2.0232508 -2.2240126 -1.7279712 -1.7354133 1.9044421 2.010094 2.048853
2.178544 -1.4344971 1.2416741 -1.8379176 1.9677773 1.9788798 2.1425362 0.84448373

value_dict.weight_critic.weight f4 [1, 33]
00000000: 30d4 cabd e5de 463c 5460 be3d 89e9 7ebd
00000010: 70ab b83d 2977 0cbd 9fd4 6dbd 6b16 c43d
00000020: 523d 2b3d 4b47 9a3d cf99 c4bc 539a a8bc
00000030: 85fb 703e a794 0e3d 097a 293d 89b2 58bd
00000040: a9fd 99bd 072a bd3d b1f0 b3bc d1a4 71bd
00000050: 85e3 ac3d 3888 f43d 80f9 343d 09ba 8c3d
00000060: 25a0 873e 45fd 093c 062b e33b 8843 98bb
00000070: f357 d4bd 9093 25bd 4d05 f33b 17b6 eb3b
00000080: 0189 183c
-0.09903753 0.012138103 0.09295717 -0.062234435 0.09017074 -0.034293327 -0.0580641 0.095745884
0.041806526 0.07533129 -0.023999123 -0.0205814 0.23533447 0.034809735 0.041376147 -0.05290464
-0.07519085 0.09236532 -0.021965357 -0.05899507 0.084418334 0.11940044 0.044183254 0.06871421
0.26489368 0.008422201 0.006932619 -0.004646722 -0.103683375 -0.04042393 0.0074164034 0.0071933377
0.009310008

action_dict.action_selector.0.weight f4 [5, 114]
00000000: cbb6 9d3e fdd7 ef3c dfea 683f 525d 853f
00000010: cd9e 8fbf f2e4 a3bf 00d9 97bf 9fc5 84bf
00000020: 59b6 80bf d4ef 81bf ada1 9b3f ff3f 16be
00000030: 21b7 a63f 6ee9 8fbf d71c 05be 2b98 533d
00000040: 1b25 e9bd 316c c4bd 3731 0abf 214d c0be
00000050: 7b10 353f 103a 973e 49f0 0d3f 74c8 803f
00000060: 9170 2bbf fe66 c63e 5199 b53f c2b1 813e
00000070: ea35 73bf 76cc b43e 9f3f 7bbe b259 af3d
00000080: 83d6 2abf 367e de3e 9123 cebe f475 bb3f
00000090: 7a95 a23e 0825 2fbf 28d2 de3e e98c c1bd
000000a0: af90 de3e 81da 643e b17e 1e3f 2002 71be
000000b0: 821f f3be f9b1 03bf d314 d03e 642b 05bf
000000c0: 5d6c 8ebe b575 c1be d06a 8a3d 7a10 2bbf
000000d0: b748 05bf 1ce0 4dbf 2825 98bd b7b4 103f
000000e0: 78a5 7ebf fd6d 7ebc 588e 02be 0b0c dbbe
000000f0: a3e3 69be a490 ebbe 81b8 7dbe b31a a63c
00000100: f0c4 2a3e ea5a 0abf 1dc9 d13e 5542 173e
00000110: f766 c23e 6622 193e ad45 203e 170a eb3d
00000120: cd5b 83bf 9f0b be3d 80f3 acbe c7a8 333e
00000130: 5523 56bf 8242 243e 3854 4c3e 8725 5abf
00000140: 9105 1abe 8e7b 77bd a038 52bf f6fb 3cbf
00000150: baaa 75bf 963f 3abf 7f3e 84bf 41c3 543f
00000160: 56d3 81bf 188a 7c3f 7bfb 6bbf 7f95 603f
00000170: 46c2 573f 94d8 46bf aba2 643f c80e 7dbf
00000180: 7b2f 55bf f410 873f 035a 803f 73d5 68bf
00000190: 99a7 63bf ffd1 873f 4fc9 7b3f 979a 7f3f
000001a0: 4c1f 703f d85f 84bf 3dc9 45bf 7860 863f
000001b0: 20e6 543f 64ee 8fbf 274a 813f d593 6fbf
000001c0: 5248 6f3f 65bf 77bf 2f99 373e 3483 49bf
000001d0: b077 abbe 7e46 b6bf 3f26 ea3e 7f89 bc3f
000001e0: 9ef2 2e3f be61 a23f 0e66 1b3f 909c b33f
000001f0: 528c 8f3f 4ac7 a53f cf21 c53f a18a a63f
00000200: ac26 853d e2f7 6d3d ed13 39bd 8311 a53c
00000210: c7a5 41bd 30c6 2abd df66 c13d 38bd 01be
00000220: c2b6 70bd 8308 1ebd 78e3 53be e4ba fdbd
00000230: d391 193d bd03 8d3d c872 72bc b282 0abe
00000240: 9ee6 84bd 80a1 323e c2f4 443c ee61 893d
00000250: 6ccc 79bd 8689 3c3d bd8e 513e cb89 93be
00000260: 8ded ad3d 710e a3be 444e c73d 449b c1bc
00000270: f335 3fbe de0f 26be 4437 03be bfd8 26be
00000280: fd8b 56bd ac7d d8bd 744d 43be d275 cabd
00000290: 9659 493e c091 11bf 3b50 3fbf 3f3d 55be
000002a0: 8e07 21bf 52a7 e33e 27d6 6cbe 2212 f83e
000002b0: 525b b53e e3d0 1cbf a410 d5be 5ee8 e5be
000002c0: 333e 17be 457f e23e 89c1 e2be 3d34 19bf
000002d0: aa98 e0be e12b 39bf 4d8d 163f 4714 603e
000002e0: 9de0 f43e 817c 36bf dedc adbe 94d2 d5be
000002f0: bfd5 10bf 7d02 083e a7d4 b5be 40fe 363f
00000300: cf1b 2a3e d09d a6bc 16f7 d9be 4875 dd3e
00000310: de01 90bf 1a90 a4bf cda7 95bf 2797 81bf
00000320: 4356 b1bf 487f 993f f0e9 95bf 5671 913f
00000330: cb55 9cbf 8ea4 983f a93a 843f 2148 88bf
00000340: 0dce 8a3f 1a72 adbf a41f a7bf 3aaf a33f
00000350: aae3 a53f dcd3 b4bf efdc bcbf d5c2 bd3f
00000360: 9658 8f3f 5626 a43f df02 a03f 1dc2 abbf
00000370: a41b 9cbf bac0 aa3f fa47 9c3f 7bdb 9fbf
00000380: 9a9b 9d3f 6ca4 92bf cf3d 933f e433 bdbf
00000390: e29d 953e c8d4 883e cabe 993f 9e96 47be
000003a0: c7a1 73bf ca1a a73e 8bf0 8bbf 0c3b 4f3e
000003b0: 6f8b 8fbf 84ee 603d d099 0b3e ef11 7a3f
000003c0: d2c3 9f3f 4516 223f c834 503d 3f57 11bd
000003d0: b943 8f3d 1f89 153e 58e3 62bf 3ab4 63bf
000003e0: f3be 703f ee8d 743f 80af 863f b734 903f
000003f0: 71e6 71bf 4c7e 653f 55ca 933f fd7c 833f
0.30803522 0.029277796 0.90983385 1.0419104 -1.1220337 -1.2804244 -1.1863098 -1.0372809
-1.0055648 -1.0151315 1.2158715 -0.1467285 1.3024637 -1.1243112 -0.12999283 0.05165879
-0.113840304 -0.095909484 -0.53981346 -0.37558845 0.7072827 0.29536486 0.5544477 1.0061173
-0.6696864 0.38750452 1.4187413 0.2533093 -0.9500414 0.3531224 -0.24535988 0.0856203
-0.6673357 0.43455666 -0.4026151 1.4645371 0.31754667 -0.6841588 0.43519711 -0.094507046
0.4346976 0.22348978 0.61912066 -0.23535967 -0.47484976 -0.5144344 0.40640888 -0.52019334
-0.2781705 -0.37785116 0.06758654 -0.66822016 -0.5206408 -0.8042009 -0.07428962 0.5652575
-0.99471235 -0.015529153 -0.12749612 -0.42782626 -0.22840743 -0.4600879 -0.24777414 0.020276403
0.16676688 -0.54044974 0.4097375 0.14771397 0.3796918 0.14954528 0.15651579 0.11476534
-1.026239 0.0927956 -0.33779526 0.17544852 -0.8364766 0.16040996 0.19954002 -0.8521351
-0.15041186 -0.060420565 -0.8211765 -0.7382196 -0.95963633 -0.72753274 -1.0331572 0.83110434
-1.014262 0.98648214 -0.92180604 0.8772811 0.8428081 -0.7767422 0.8931071 -0.9885068
-0.83275574 1.0552049 1.0027469 -0.909507 -0.8892761 1.0610961 0.9835405 0.9984526
0.93797755 -1.0341749 -0.7726019 1.049819 0.8316364 -1.1244626 1.0100754 -0.9358495
0.9346973 -0.9677642 0.17929529 -0.78715825 -0.33489752 -1.4240263 0.45732304 1.472946
0.68338954 1.2686079 0.607026 1.4032154 1.1214697 1.2951443 1.5400943 1.3011056
0.06501517 0.058097728 -0.04518502 0.020149952 -0.04727724 -0.041692913 0.09443449 -0.12669837
-0.05876804 -0.038582336 -0.20692241 -0.12389162 0.037492584 0.06885479 -0.014797874 -0.13526419
-0.06489299 0.1744442 0.012021245 0.06708132 -0.060985968 0.04602959 0.20464607 -0.28816065
0.08492575 -0.31846955 0.09731725 -0.023633607 -0.18672924 -0.1621699 -0.12814051 -0.1629362
-0.052379597 -0.10570845 -0.19072515 -0.09885754 0.1966308 -0.5686302 -0.74731797 -0.20824145
-0.6290215 0.44463593 -0.23128568 0.48451334 0.35421234 -0.61256236 -0.41614258 -0.44903845
-0.14769821 0.44237724 -0.4428828 -0.59845334 -0.43866473 -0.7233258 0.5880936 0.21882735
0.47827616 -0.7128373 -0.3395757 -0.4176222 -0.5657615 0.13282199 -0.35513803 0.71481705
0.1661217 -0.020338923 -0.42571324 0.4325354 -1.125057 -1.2856476 -1.1691834 -1.0124253
-1.385445 1.1991968 -1.1712017 1.1362712 -1.2213682 1.1925218 1.0330402 -1.0647012
1.0844132 -1.3550446 -1.3056531 1.278785 1.2960103 -1.4127154 -1.4754924 1.4825083
1.1198909 1.2824199 1.2500876 -1.3418614 -1.2195935 1.3340065 1.2209466 -1.2488855
1.2313111 -1.1456428 1.1503237 -1.4781461 0.29222018 0.2672484 1.2011349 -0.1949105
-0.9516873 0.32637626 -1.0932783 0.20237368 -1.1214427 0.054914966 0.13632894 0.97683614
1.2481635 0.6331523 0.050831586 -0.035483595 0.06995339 0.14603089 -0.8862815 -0.8894688
0.94041365 0.9552907 1.0522308 1.1266087 -0.9449225 0.8964584 1.1546122 1.0272518

action_dict.action_selector.0.bias f4 [5]
00000000: d25c 66be d611 aa3e 29b5 1abe a671 9b3f
00000010: 9f8f 89bf
-0.22496346 0.33216733 -0.1510817 1.2144058 -1.0746955

action_dict.action_selector.1.weight f4 [5, 114]
00000000: 5e4a 17be b091 99bc d2f1 98bf 5932 4c3f
00000010: 21d3 833f 7a3a 86bf 92eb 663f fd19 5abf
00000020: 1e35 873f de93 6cbf 9c85 9b3f 512e 733f
00000030: da63 9d3f 8e8e 11bf a32d 23be f7e7 9a3b
00000040: bb26 b83c 400c 72bd 5b49 b7bf fd92 abbf
00000050: 5e17 b03f ff68 bf3f e54c bd3f dcf1 3b3f
00000060: 81ed b4bf d549 b83f f76c 26bf 72de bc3f
00000070: 6d9d 79bf e5c8 bf3f f5ed abbf 6071 d03f
00000080: 5e7c a8bf e563 b53f f6dd bbbf 3a2b 8ebf
00000090: 3601 c83f 8d33 c3bf bb58 d43f 8c2e c5bf
000000a0: 0cff c03f 35eb bd3f a894 bb3f f944 b7bf
000000b0: 097f c3bf 303c c2bf 4cf9 d53f 99cd b2bf
000000c0: a5f7 b6bf 3bf9 b6bf 9328 7e3f 1142 96bf
000000d0: 94fb 97bf 75da a1bf ffe9 c6bf 466e 8f3f
000000e0: 472e 89bf 2071 b33f f675 9d3f cd36 4ebf
000000f0: c1e3 9dbf e4c9 9dbf de91 b5bf 3ad8 a23f
00000100: 8230 afbf f747 94bf 9c86 d4bf 574e b4bf
00000110: ea5f af3f 2bd6 5d3f db61 a63f e5f3 c9bf
00000120: fd11 1dbf 8166 c3bf e0d8 9ebf 22f2 a63f
00000130: 22bc 9fbf b3b1 c13f 3f88 af3f 390b 0bbf
00000140: e587 c0bf 399f b13f d3b7 2ebf 7c14 30bf
00000150: 7eb1 33bf 50d8 37bf aff8 5dbf b70b ee3e
00000160: 802f 56bf 3c49 4a3f 0047 44bf 100e 253f
00000170: a1c6 613f 6be3 1abf c40f 353f a134 4fbf
00000180: 13ba 29bf 50c6 873f c217 513f 89de 49bf
00000190: f71e 39bf 43ae 4f3f 7bd2 1a3f 787f 453f
000001a0: e1e6 2f3f 4e54 4cbf 7fac 0bbf a925 6e3f
000001b0: 21e3 233f b6ee 5bbf 8a06 333f 5cee 5abf
000001c0: 7877 4b3f 98d6 78bf 6473 28bf 7e26 c73d
000001d0: 9338 61bf 1268 493f a83d 7c3f 2989 3ebf
000001e0: e588 6c3f b1e8 66bf 7fe2 4c3f 9be1 8bbf
000001f0: bd5d 903f 69c3 8b3c 7673 303f 969f 94bf
00000200: 6b4b 43bd da45 8dbd ecaf 44be c488 3d3d
00000210: a729 073f 495e 1c3f c7e1 95be d885 88be
00000220: cc75 cdbe 8cfc aebe 54f5 113f afdd f3be
00000230: 1d83 143e c771 ccbe eea4 813e 3893 c4be
00000240: 6afa ae3e 126b a2be 849b fb3e dde5 d4be
00000250: 171a 083f 5954 483e 24e9 02bf 5c47 0d3f
00000260: b71e 11bf e842 ec3e c708 22bf 311b 0ebf
00000270: 1419 10bf 023d 053f 5bd2 303f ea06 e53e
00000280: b66a 05bf 252b aa3e 2a1e be3e d92f a63e
00000290: 0e55 a13f baef acbf e165 b6bf fc2e 14bf
000002a0: 970e 87bf 1fb3 ae3f 830f 21bf b149 823f
000002b0: 4ef6 763f 140c 0dbf a78b 95bf 6cd1 acbf
000002c0: 91fd a9bf 7310 a93f 41b8 85bf 5b63 b0bf
000002d0: 7f67 73bf c4b5 7dbf a9a7 893f 5e20 dd3e
000002e0: 9bd7 b63f b373 85bf ee46 ecbe dd26 8abf
000002f0: 6c7e b5bf 655f 563f 2773 b1bf 6ee3 873f
00000300: d44a 9f3f e637 473f 1f77 95bf 50ec 903f
00000310: c269 a93f 7568 9d3f a42f a53f 2e04 a33f
00000320: f3aa 8d3f 44cd 9bbf 4150 aa3f ff84 91bf
00000330: 5509 9a3f d5a2 9fbf fe0b a0bf 7f9d 883f
00000340: 97c4 95bf 5cb2 833f b42b 923f 1b3e 87bf
00000350: d080 b0bf acc7 c23f 1218 9e3f 8eca 8fbf
00000360: 971b b2bf 928b b5bf ea04 aebf 6a90 a23f
00000370: 423b 6c3f 9514 92bf 94d4 8cbf c4fd c43f
00000380: 4f75 90bf 7553 b03f 4a4a 92bf 067c 9a3f
00000390: 4166 473f d447 ea3e 3b9c 7a3f 8637 913f
000003a0: 1164 a8bf 94f9 8bbf 7562 8cbf ec6b 9bbf
000003b0: ad7c 97bf 65ea b0bf d700 85bf f4ce c3bd
000003c0: 0b07 8d3e 7d4d a1bf 3336 033e e350 843d
000003d0: d765 46be 6d00 7c3d a700 66bf 1ed7 32bf
000003e0: f950 8b3f 3aff 313f ea62 6c3f ad4a a23f
000003f0: 43a1 7fbf 0efb 413f f460 b43f 85f1 573f
-0.14774463 -0.018746227 -1.1948798 0.79764324 1.0298806 -1.0486596 0.902032 -0.85195905
1.0563085 -0.9241313 1.2150149 0.9499255 1.2296097 -0.56858146 -0.15935378 0.0047273594
0.022479406 -0.059093714 -1.4319261 -1.3404232 1.3757131 1.4953917 1.4789091 0.73415923
-1.413498 1.4397532 -0.6501002 1.4755385 -0.9750584 1.4983183 -1.3431994 1.6284599
-1.3162954 1.417111 -1.4677112 -1.1106942 1.562537 -1.5250107 1.6589578 -1.540483
1.5077834 1.4837404 1.4654741 -1.4317924 -1.5273143 -1.5174618 1.6716704 -1.3968993
-1.4294325 -1.4294809 0.9928066 -1.1738912 -1.187365 -1.2644793 -1.554016 1.1205528
-1.0717248 1.4018898 1.2301624 -0.8055237 -1.233513 -1.2327237 -1.418514 1.2722237
-1.3686678 -1.1584462 -1.660358 -1.4086407 1.3701146 0.8665492 1.2998613 -1.5777556
-0.6135557 -1.5265657 -1.2409935 1.3042643 -1.2479289 1.5132354 1.3713454 -0.54314
-1.5041472 1.3876716 -0.68249243 -0.68781257 -0.70192707 -0.7181444 -0.86707586 0.46493313
-0.8366623 0.79017997 -0.7667084 0.6447458 0.8819371 -0.6050326 0.7072718 -0.8093968
-0.6629955 1.0607395 0.81676877 -0.78855187 -0.72312874 0.8112528 0.6047742 0.77147627
0.6871167 -0.7981614 -0.54560083 0.93026215 0.64018446 -0.8591112 0.6993185 -0.8551996
0.7947917 -0.97202444 -0.6580107 0.09724139 -0.8797695 0.78674424 0.9853158 -0.7442804
0.92396384 -0.9019881 0.80033106 -1.0928224 1.1278607 0.017060952 0.6892618 -1.1611202
-0.047679346 -0.06898089 -0.19207734 0.046273008 0.5279793 0.6108137 -0.29273817 -0.26664615
-0.40128934 -0.34177053 0.57014966 -0.4763007 0.14503141 -0.39930555 0.25321144 -0.3839357
0.34175426 -0.31722313 0.49142087 -0.41581622 0.5316481 0.19563426 -0.51136994 0.5518701
-0.5668749 0.46144795 -0.63294643 -0.5551024 -0.56288266 0.52046216 0.69070977 0.44731838
-0.5211595 0.33236042 0.37132388 0.3245838 1.2604082 -1.3510659 -1.4249841 -0.5788419
-1.0551327 1.3648413 -0.62914294 1.0178739 0.9646958 -0.55096555 -1.1683244 -1.350141
-1.3280507 1.3208145 -1.0446855 -1.3780321 -0.950798 -0.9910548 1.0754291 0.43188757
1.4284548 -1.0425934 -0.46147865 -1.079311 -1.4179206 0.8373931 -1.3863267 1.0616281
1.2444711 0.7781967 -1.1676978 1.1322117 1.32354 1.2297503 1.2905164 1.273565
1.1067795 -1.2172017 1.3305742 -1.1368712 1.2034098 -1.2471567 -1.250366 1.0673064
-1.170062 1.0288806 1.1419587 -1.0565828 -1.378931 1.5217185 1.2351096 -1.123369
-1.391467 -1.4183218 -1.359525 1.2700322 0.9227792 -1.1412531 -1.1002374 1.5389943
-1.12858 1.3775469 -1.1428921 1.2069099 0.778904 0.45757926 0.9789464 1.134507
-1.3155538 -1.093554 -1.0967547 -1.214231 -1.1834923 -1.3821532 -1.0390881 -0.095609576
0.27544436 -1.2601773 0.12813644 0.064607404 -0.19374786 0.061523844 -0.89844745 -0.6985949
1.0884086 0.6953007 0.9233843 1.2679039 -0.9985544 0.75773704 1.4092088 0.84352905

action_dict.action_selector.1.bias f4 [5]
00000000: f91a d3bc 03a0 10bf 5a49 3abf 5484 1d3f
00000010: 6c02 f23e
-0.025769698 -0.5649416 -0.72768176 0.6153004 0.47267473

action_dict.action_selector.2.weight f4 [5, 114]
00000000: 0b89 74bf 5b9d 1e3f 5341 1dbf 2bbd 3b3f
00000010: 4bde 383f d6b9 5dbf f6fe 243f 0070 88bf
00000020: e145 363f d548 d0be 62a3 7f3f 851b 933f
00000030: 0dd8 213f 4d16 2fbf e9a2 06be b2f0 d9bd
00000040: 9418 183e 1e45 88bd ba4f c1bf 928f acbf
00000050: e772 cc3f 0d85 ad3f 8c66 bf3f 8aaa 783f
00000060: 25c5 c1bf f450 cb3f c6b7 b0bf 78c0 aa3f
00000070: bb85 89bf 89cc bd3f c381 b2bf 98c1 c23f
00000080: 6341 a9bf e9da c03f 7499 b2bf 3168 bdbf
00000090: 0cdd c23f 205b bcbf 2306 b63f ebbb b5bf
000000a0: e0c6 b23f 678a c73f 4888 bc3f c6f5 c4bf
000000b0: ae5a bfbf 6205 c7bf fc94 af3f becf c3bf
000000c0: a14d c6bf 3da2 c9bf 97f1 e6be e88e ab3e
000000d0: 5d72 913e 76da 7f3e 84a5 b43e f01f 6cbe
000000e0: b3ed e43d 93fe 99be 4bc4 66be b605 193e
000000f0: 51fc 753e 6b77 093f b81b 423e d234 03bf
00000100: 96af 6b3d aedb 8d3e 61a5 013f 6c28 8d3e
00000110: c817 5bbe a597 59be 4f10 8fbe 3870 6c3e
00000120: 4aa7 a43e b1d6 943e fba1 123e b2f3 fbbd
00000130: 78da 833e 1f5a 42be 82bd 3abe d780 c6be
00000140: aa64 043e 3c65 cdbe 7729 863f 1456 633f
00000150: e0aa 6f3f 0271 593f efb9 7e3f 8537 90bf
00000160: 00cf 833f 71d6 89bf 32a9 783f 30c4 83bf
00000170: 767e 85bf d88f 703f 8904 79bf f9ff 723f
00000180: 6058 793f e6dd 6abf b9d9 80bf 47ea 613f
00000190: 6dbd 763f 6f64 83bf ed1f 85bf b6b0 93bf
000001a0: ce68 9fbf 8666 8c3f 120e 833f 6544 85bf
000001b0: 965b 6cbf 0578 8c3f 2890 92bf e00a 7a3f
000001c0: bc16 7bbf cc8a 863f a976 77bf 9a1d 02bf
000001d0: 5750 b3bf c298 16bf 16d9 a03f 760d 5e3f
000001e0: c20f d23f 127e 313f 87e4 d33f 2a0f d33e
000001f0: 510c ac3f 645c 90bf 32d4 cf3f 7fb5 d03e
00000200: 8f17 e0bc 6874 243e f2be 9e3b f8ff 55bd
00000210: 250a 563f ea0e 6f3f 7149 67bf db70 26bf
00000220: 6a69 4ebf 25fe 20bf 058b 7e3f cc8a 37bf
00000230: 97f1 2c3e 1bcd 41bf ba9f 213f 5e72 64bf
00000240: 378b 3b3f 1c06 62bf 8e09 803f 789c 68bf
00000250: 6244 6c3f f217 f63e 7f7f 59bf b10f 3c3f
00000260: f5aa 22bf 1200 393f 1265 7abf 3170 65bf
00000270: 4823 59bf 336c 873f ec7c 573f 9a83 283f
00000280: 2642 50bf 9420 653f dbd7 523f c69b 053f
00000290: a599 c23e c7ee 9b3e 1d97 6f3e 21a0 81be
000002a0: 789e 5f3f 613f 5fbd 192d 1ebe ed85 5fbf
000002b0: 09ad 59bf ddb7 24bf 2661 283f f5df 78be
000002c0: ce25 8fbe 9357 4a3e 38ee 583f 801c 203f
000002d0: 7fed 5d3f e5e1 4a3f 0d26 31bf 0126 263f
000002e0: 1eb4 0fbf 1394 713f 50f8 1abf ef94 303f
000002f0: bdfe 1b3f dabe 333e 7a5a 9e3d eb96 42bf
00000300: c7d8 8dbd 903d 62bf 5d04 583f 972a 18bf
00000310: a254 8abf 1652 76bf 03f2 86bf 3ec4 70bf
00000320: dab3 6bbf 15e9 893f 6671 65bf 90f8 693f
00000330: c57d 77bf 38e9 693f c971 7a3f db04 73bf
00000340: d579 693f d8f3 68bf ebdf 7abf fd47 893f
00000350: a5e6 673f 5f6b 82bf ac5e 65bf c0a9 743f
00000360: 5304 833f 9340 613f 8893 6b3f 9cfb 47bf
00000370: b636 71bf 6821 773f 2376 763f 7b5b 5cbf
00000380: 736f 4e3f dee3 69bf 5547 6d3f 8794 85bf
00000390: 64a3 973f 3be3 153f 85be bc3f 0d04 2f3f
000003a0: b1ac a7bf 6872 1cbf d065 c3bf a133 0cbf
000003b0: a38f babf f2b6 60bf 110a c1bf 67be 11bf
000003c0: 75d9 b8bf a922 bcbe 39a3 823d 9179 93bd
000003d0: 4175 b3bd 06d8 183d cd49 49be 2bf2 62bc
000003e0: a9ad e73d bdf1 bb3d 121e 383e 7112 053f
000003f0: bf8d 7cbd f113 743e 8aa3 c43f ddbd f93d
-0.9552161 0.61958855 -0.614278 0.7333552 0.7221419 -0.8661169 0.6445154 -1.065918
0.71200377 -0.40680566 0.9985868 1.1492773 0.6322029 -0.68393403 -0.13148083 -0.10641612
0.14853126 -0.06653808 -1.5102456 -1.3481314 1.5972565 1.3556229 1.495317 0.9713522
-1.5138289 1.588408 -1.3806083 1.3339987 -1.0743936 1.4828044 -1.394585 1.521533
-1.322308 1.5066806 -1.395308 -1.4797422 1.5223708 -1.4715309 1.4220623 -1.4197973
1.3966942 1.5589112 1.472909 -1.5387504 -1.4949548 -1.5548518 1.3717341 -1.5297773
-1.549244 -1.5752636 -0.45106193 0.33507466 0.28407565 0.2498568 0.35282528 -0.23059058
0.1117815 -0.30077037 -0.22535817 0.14943585 0.24022032 0.5369784 0.18955886 -0.5125247
0.0575405 0.27706665 0.50642973 0.27569902 -0.2139579 -0.21249254 -0.2794213 0.23089683
0.3215888 0.29070047 0.14319603 -0.123023406 0.25752616 -0.18979691 -0.18236354 -0.38770172
0.12929025 -0.40116298 1.0481404 0.8880322 0.9362011 0.8493806 0.9950246 -1.1266943
1.0297546 -1.0768567 0.9713317 -1.0294247 -1.0429218 0.9396949 -0.97272545 0.94921833
0.97400475 -0.9174484 -1.0066444 0.88248104 0.9638279 -1.0265025 -1.0400368 -1.1538303
-1.2453859 1.0968788 1.0238669 -1.0411497 -0.9232725 1.0974127 -1.1450243 0.97672844
-0.98081565 1.0511107 -0.96665436 -0.5082642 -1.4008893 -0.5882684 1.2566249 0.8673929
1.6411059 0.69332993 1.6554116 0.41222507 1.3441259 -1.1278195 1.6236632 0.4076347
-0.027354984 0.1606003 0.00484454 -0.052246064 0.8360923 0.9338213 -0.9034644 -0.65015954
-0.806296 -0.62887794 0.99430877 -0.7169616 0.16889034 -0.7570359 0.6313435 -0.8923701
0.732593 -0.8829057 1.0002916 -0.9086375 0.92291844 0.48065144 -0.8496017 0.73461443
-0.6354211 0.7226573 -0.9781047 -0.89624316 -0.8481946 1.0579895 0.8417499 0.6582581
-0.81350935 0.89502835 0.8236062 0.52190816 0.38007846 0.3045561 0.23397489 -0.2531748
0.8735118 -0.054503802 -0.15446891 -0.8731373 -0.85029656 -0.64343053 0.65773237 -0.24304183
-0.2795853 0.1975997 0.8473849 0.6254349 0.86690515 0.7925094 -0.69198686 0.6490174
-0.5613421 0.9436657 -0.60535145 0.68977255 0.60935575 0.17553273 0.07732101 -0.7601153
-0.069261126 -0.88375187 0.8438166 -0.59439987 -1.0807078 -0.96219003 -1.0542606 -0.9404944
-0.92071307 1.0774256 -0.8962616 0.913949 -0.96676284 0.9137149 0.9782987 -0.94929284
0.91201526 -0.90997076 -0.9799792 1.0725094 0.9058631 -1.0189017 -0.8959758 0.9557152
1.0235695 0.8798916 0.9202199 -0.781183 -0.9422411 0.9653535 0.9627401 -0.8607709
0.8063881 -0.9136332 0.9268697 -1.0435952 1.1846738 0.5854985 1.4745642 0.68365556
-1.3099576 -0.6111207 -1.5265446 -0.5476628 -1.4575084 -0.8777915 -1.5081197 -0.56931156
-1.4441363 -0.36745194 0.063787885 -0.07200921 -0.08762599 0.03731539 -0.19657059 -0.013851683
0.1131242 0.09176967 0.17980221 0.51981264 -0.061658617 0.23835732 1.5362408 0.12194417

action_dict.action_selector.2.bias f4 [5]
00000000: 0206 993f ea98 04be 4fe6 7abf 804d 8f3d
00000010: 897d 08be
1.1954958 -0.12948957 -0.98007673 0.06997204 -0.13329138

action_dict.message_encoder.0.weight f4 [32, 18]
00000000: 9ff0 bcbf 034d cfbf 7d0b d6bf f347 cbbf
00000010: 662b af3f a8b5 ce3f 6e46 b83f 236a df3f
00000020: 1e5e a53f f86d d03f 960b 90bf 66cc b33f
00000030: 4f30 89bf 0844 d03f 40dc ef3d 3226 a53d
00000040: 5795 833c a3eb e4bd f887 a4bf a624 f9bf
00000050: 0870 cebf 6883 bebf 7dec a63f 5df0 c83f
00000060: fc31 cb3f 7616 d03f 5d4a c13f ea12 d93f
00000070: 2b6f 61bf d39c be3f ba77 90bf 9761 e13f
00000080: 03b2 12bd 8b0b aabd 2b1a 95bd 1c6a 373d
00000090: ef19 b13f b7b9 0140 c066 ae3f 5b2e da3f
000000a0: 79c4 babf 1c40 b7bf 3f0c b6bf 6e57 c1bf
000000b0: 29a6 b6bf 0f07 c9bf 8f0a a93f 85b3 c9bf
000000c0: 731e 683f adae c1bf 1b1e 2e3d ffe4 3e3d
000000d0: 5086 203d 8d34 85bd 986b ce3f 68b6 c13f
000000e0: 9fac a23f 445c cf3f 5208 acbf 7cb0 cfbf
000000f0: 8085 b2bf f4b9 d7bf 8238 a7bf 8bd7 d9bf
00000100: 8555 843f 5aa5 cbbf 2ce5 883f 13be c7bf
00000110: 6007 eabc a43a 84bd 56db 423c 1a38 4abe
00000120: 766e bc3f 52c0 ca3f 834e af3f 710e dc3f
00000130: 7c7d 9fbf 76c9 cbbf 068a b0bf 5f26 c9bf
00000140: fbba adbf 366f c9bf 1245 823f 364b cfbf
00000150: a72a 8a3f b281 bebf b6f4 073d a82d d23c
00000160: 2bb5 4b3d 05e7 fabd 2e18 9c3f f5e5 413e
00000170: 05a3 8f3f 44fa 343f 5a02 8dbf c329 6dbf
00000180: 4204 a0bf fa3e dabe 96c9 89bf b97b 19bf
00000190: b58d b63f 58ee 9b3e e4fe cb3f 040a 0bbf
000001a0: 4bcb 753d 7f0f 503e 99cf 0cbe 97b1 5cbc
000001b0: 99bc a6bf bc78 d7bf 32e4 acbf 5625 d2bf
000001c0: 97d2 ae3f 1705 c43f 97c2 aa3f bdc3 ce3f
000001d0: cc12 b63f 9211 c63f d129 9fbf c1b2 a63f
000001e0: fc24 75bf 88a1 cb3f 60ce 55be 63ed 84bc
000001f0: 0107 14be dae4 233e a622 b43f dccf db3f
00000200: 783a b13f 8828 cd3f ad4d a2bf 680d cebf
00000210: 9361 b9bf 29a2 e0bf 1e4c a3bf 8c70 debf
00000220: a90f 963f fe50 cbbf e74b 683f e787 ccbf
00000230: 9234 9abd 10de 50be d14a a73d 5751 c2bd
00000240: e515 a13f a5da 6ebf 45f6 8d3f 0549 99be
00000250: 54b8 98bf a4fc b13e 17a3 9fbf ab7e d63e
00000260: 5984 8fbf 27ac 053f b893 cd3f d922 a53f
00000270: dfbc b63f 7a26 1c3f 7344 363e f342 343c
00000280: a2dc 44be 533b ed3d 9e64 a73f 314f cc3f
00000290: bea3 b93f b887 bb3f f71a c7bf 7b37 b7bf
000002a0: a76d bfbf 55a8 c3bf 8f9d bcbf 2002 c6bf
000002b0: 9a6e 803f 0490 ddbf dc03 973f db7c c7bf
000002c0: 3f62 d4bd b31b a23d 25f5 5cbe 4fc8 aabd
000002d0: 6c57 a9bf 93b1 50bf 772b 9dbf b57b 5fbf
000002e0: 2e71 bc3f 08b9 5f3f 76e6 9f3f cd92 633f
000002f0: bc32 9d3f 7e09 6c3f dda3 cbbf 115b c03e
00000300: d5b4 bcbf 8e53 703f a544 ac3d 5a05 a0bd
00000310: d300 b8bd 7dfb 203d 413d b23f c122 d03f
00000320: de3a b53f ba56 da3f bd0c b1bf 3db2 c7bf
00000330: 327c bfbf e1aa d6bf f0cb a8bf e77f bcbf
00000340: 0203 8a3f cb4c ccbf 763b 563f 3c77 bbbf
00000350: e3b7 0f3c 3354 053e 960e 86be dcd2 1b3e
00000360: 8212 b6bf fc2d dbbf 8ac3 a5bf a966 e3bf
00000370: b678 c23f 1d54 d63f 51fd c93f 1861 c43f
00000380: a51d aa3f dfdf cb3f 386b 6bbf e228 c03f
00000390: 69f4 86bf 658b c33f edb9 0abe c52c 083e
000003a0: e4c3 3fbd ede7 94bd 5c75 973f 7bcb bd3f
000003b0: 87ff 9e3f 73e3 ee3f 72e7 b1bf b771 cfbf
000003c0: bb33 c3bf e3bd c5bf 72a9 b2bf ea78 c2bf
000003d0: d138 843f edf5 adbf 9c95 673f a4d6 c2bf
000003e0: 5745 733d 64de 3c3d ca31 2fbd 7f57 26bd
000003f0: c819 b9bf aa13 c9bf 8ff9 b0bf 8cf3 bebf
-1.4760932 -1.6195377 -1.6722256 -1.5881332 1.3685119 1.6149187 1.4396493 1.7454265
1.2919347 1.628356 -1.1253536 1.4046752 -1.0717868 1.6270761 0.11711931 0.08063926
0.016062422 -0.11177757 -1.2853994 -1.9464309 -1.6127939 -1.4883852 1.304092 1.5698353
1.5874629 1.6256855 1.5100819 1.6958897 -0.88060254 1.4891609 -1.1286538 1.7607907
-0.035814296 -0.08302983 -0.07280382 0.04477893 1.3836039 2.0269601 1.3625107 1.7045397
-1.4591209 -1.431644 -1.4222487 -1.5104806 -1.4269458 -1.5705279 1.3206347 -1.575791
0.9067146 -1.5131432 0.04250918 0.046605106 0.03919059 -0.06504164 1.6126585 1.5133791
1.270893 1.6200032 -1.3440039 -1.6225734 -1.3946991 -1.6853623 -1.306412 -1.7018903
1.0338598 -1.5909836 1.0694938 -1.5604881 -0.02856797 -0.06456497 0.011893114 -0.19747964
1.472121 1.5839942 1.3695835 1.7191907 -1.246017 -1.5920856 -1.3792121 -1.5714835
-1.3572687 -1.5737064 1.0177329 -1.6194828 1.0794266 -1.488333 0.03319236 0.025656536
0.049733322 -0.12251095 1.2194879 0.18935378 1.1221625 0.70694375 -1.1016343 -0.9264185
-1.2501299 -0.42626172 -1.0764644 -0.5995441 1.4261996 0.3045528 1.5937161 -0.5431216
0.06000833 0.20318411 -0.13751067 -0.013470075 -1.3026305 -1.683372 -1.350714 -1.6417644
1.3658017 1.5314053 1.3340634 1.6153485 1.4224486 1.5474112 -1.2434636 1.3023301
-0.9575956 1.590867 -0.20879507 -0.016226476 -0.14455797 0.16005269 1.4073074 1.7172809
1.3845968 1.6027994 -1.2679955 -1.6097841 -1.4482902 -1.7549487 -1.2757604 -1.7378097
1.1723529 -1.5884092 0.9074082 -1.5978974 -0.07529558 -0.2039721 0.08168567 -0.094881706
1.2584807 -0.93302375 1.109078 -0.29938522 -1.1931252 0.34763062 -1.2471646 0.41893515
-1.1212264 0.5221581 1.6060705 1.290126 1.4276389 0.6099621 0.17799549 0.01100229
-0.1922479 0.11583581 1.3077581 1.5961667 1.4503095 1.4650793 -1.5555104 -1.4313806
-1.4955338 -1.5285746 -1.4735583 -1.5469398 1.0033753 -1.7309575 1.1798053 -1.5584978
-0.103703015 0.079154395 -0.2157789 -0.08338987 -1.3229804 -0.81520957 -1.227889 -0.87298137
1.472204 0.8739171 1.2492206 0.88895875 1.2281108 0.92201984 -1.5909382 0.37569478
-1.4742686 0.93877494 0.084115304 -0.07813521 -0.08984532 0.039302338 1.3924943 1.6260606
1.415859 1.7057717 -1.3832012 -1.5601269 -1.4959776 -1.6770898 -1.3187237 -1.4726533
1.0782168 -1.5960935 0.8368448 -1.4645762 0.008771869 0.130204 -0.26183003 0.15217155
-1.4224398 -1.7123408 -1.2950299 -1.7765704 1.5193088 1.6744419 1.5780431 1.5342131
1.3290297 1.5927695 -0.9196048 1.5012476 -1.0543338 1.5276915 -0.13547488 0.13298328
-0.046817675 -0.07270799 1.183269 1.4827722 1.2421731 1.8663162 -1.3898757 -1.6206578
-1.5250162 -1.5448574 -1.3957961 -1.519315 1.0329839 -1.3590676 0.9046266 -1.5221753
0.0593923 0.046110526 -0.042772092 -0.040610787 -1.4460993 -1.5709126 -1.3826159 -1.4918075

action_dict.message_encoder.0.bias f4 [32]
00000000: 2779 5e3f 202e 2a3f 3844 32bf 07b9 47bf
00000010: 58cc 3cbf 32c1 a5bf 3fe3 ff3e 4c81 4cbf
00000020: 29d0 e9bf 1ec4 0cbf c4c0 8f3f 78ff 05bf
00000030: 1ef6 3e3f cec5 c9be 0f38 5f3f 8bab 1abf
00000040: dcb0 273f 73fa 00c0 b11c a7be 3394 423f
00000050: 707f 86bf f198 943e d3f8 82bf 2393 15bf
00000060: 96d5 01bf c4b3 9e3e fc0f 143f da0f 493f
00000070: 4531 59bf ed15 583f 60eb 2a3f 2411 023f
0.86903614 0.6647663 -0.69635344 -0.78016704 -0.73749304 -1.2949584 0.49978063 -0.7988479
-1.826665 -0.5498675 1.1230702 -0.5234294 0.74594295 -0.39408726 0.87194914 -0.60418004
0.6550424 -2.0152862 -0.32639077 0.76007384 -1.0507641 0.29022935 -1.0232185 -0.5842764
-0.5071653 0.30996525 0.5783689 0.7853981 -0.84840804 0.84408456 0.66765404 0.50807405

action_dict.message_encoder.1.weight f4 [32, 18]
00000000: ecc5 c7bd 7bb3 fb3f 29b3 47bf ee53 ba3f
00000010: a3d9 de3e a429 d7bf 3b5d 263f 780e acbf
00000020: 3ddc 2f3f c155 d1bf 4698 5e3f 6bef 91bf
00000030: 9031 0e3e e68f dabf a9cf 9d3d c257 903b
00000040: 1f01 dd3c efe7 07be 14c9 b03d c824 e8bf
00000050: 2f27 353f 0f19 cbbf 4265 d0be a1b6 c43f
00000060: a80d 42bf fce7 d33f b1c1 2fbf 8a00 e23f
00000070: 1bf2 77bf 3b3c 133f 252c 8ebf 7f35 d93f
00000080: 47f9 6bbd 9a74 ae3c 972e 743b e5dc 23bd
00000090: ec5b 863e 0785 d9bf da07 213f d35c dbbf
000000a0: 2a80 0bbf 902c c73f f5ff 0bbf e7d9 e23f
000000b0: cbb1 39bf 04e2 cb3f b1dd 61bf ef4a 723f
000000c0: 9a13 95bf 8e43 c93f efee 343a bd64 af3d
000000d0: bbd8 10be c88b bf3b 2655 64bf 27dd e3bf
000000e0: a676 b13e 42ed cebf ac1c b7be 0d9a d13f
000000f0: e402 d0be 669d cd3f 5fc3 f0be 8239 ba3f
00000100: c149 7dbe be90 733d 4d9e c83e 79a2 ba3f
00000110: e8c6 ee3d 04d2 b7bc 2794 51be 0910 0bbd
00000120: b381 763e 3d0e ccbf 1384 723f f74c c5bf
00000130: 4984 68bf 4ffa c23f 6af0 7fbf e7a7 c53f
00000140: 4b29 74bf f4ea cb3f 5bab 9dbf d511 f43d
00000150: 6ee9 bebf 20b9 c63f b86f d33c 2ae3 2b3d
00000160: 63ad b13d 06c6 93bc d935 04be e2d2 0640
00000170: 5ef1 2abf 29a7 d43f cc69 0c3f 5330 dbbf
00000180: 3a0a 103f 772c e2bf c976 383f e87f d8bf
00000190: fa65 713f 4a55 7bbf 07af 593f 309b ddbf
000001a0: 6798 84be edba ff3d 664f cc3c f078 44bc
000001b0: d32b 69bf 49e7 f6bf 19e5 873e 1010 c9bf
000001c0: bd06 70be ee2e e33f c0a4 babe 3d9f c53f
000001d0: 88ff edbe 54b6 c63f f0d6 6cbe c39a 8cbe
000001e0: 07fc 843d 01ca b23f b4bf 893e 2075 24ba
000001f0: b9bb 0dbd 7dd5 e7bd 9422 abbe 47dd d33f
00000200: edf9 8dbf 69c5 c93f 55ba 363f 9745 c2bf
00000210: 4e2f 893f 3129 c4bf 7c9b 843f e26e cbbf
00000220: eac9 993f ed0f 41be 5a3c cd3f 1165 d7bf
00000230: fcc2 16be 28c0 ce3d 3122 b9bd 43b3 f1bc
00000240: bdb8 13bf 7462 c73f 7a08 83bf 4ba5 b13f
00000250: 48e4 833f ae26 d1bf 2e84 603f e328 cabf
00000260: 5cf9 8f3f ba1e cfbf 6681 af3f 8d81 28be
00000270: b6d0 a73f bc3d c8bf 27ee e53d b3bc 5a3c
00000280: 4c6b 04bd 1bfa 16be 7912 49bf 2e27 e8bf
00000290: 3b71 d83e c457 cebf 7371 cbbe 3bfb c13f
000002a0: f14d b1be 4569 c13f 710d 15bf 5114 d03f
000002b0: 9c69 abbe 481f a23e 3b23 f93e 4d9d 9c3f
000002c0: 0327 313d e708 393e 6267 54bd 88af 183c
000002d0: 4771 773e 0379 d9bf d09b 4f3f 5031 cebf
000002e0: 95b3 4fbf 3c54 d73f 8a45 39bf c94b d23f
000002f0: e9b9 77bf 1b72 c83f 09a0 86bf f15a b73e
00000300: af30 98bf 8bec c83f 6b54 e43d 45cf 4c3d
00000310: 0ad5 813d 66b5 463e 7b11 9e3e 5bd4 f1bf
00000320: 5b00 043f a253 c9bf 74fc eebe 3d35 c93f
00000330: b2a5 2bbf cf58 c43f e0ac 32bf 11b5 b53f
00000340: 7976 34bf 7f9b 6b3f 6012 17bf efd9 ae3f
00000350: e5c5 4e3d 7659 81be 43e8 633d 4084 f33c
00000360: d217 a3bd 1f59 debf beb8 393f 5b3d cdbf
00000370: bd8c f4be c928 be3f 45a8 1abf 0b41 d63f
00000380: 1c77 47bf d56e c33f 6366 4bbf ad07 673f
00000390: f71e cabe e106 cd3f 03b1 6fbd 37d4 4cbd
000003a0: a8fb 553e 39e0 2cbe 58d7 7dbe 55b8 e53f
000003b0: e2e6 1bbf 02dd b93f e325 363f f0cb bcbf
000003c0: 9b61 2b3f 260a d1bf b3ff 573f 2361 cdbf
000003d0: d995 7b3f c033 89bf 03cf 003f 5f90 c7bf
000003e0: 32f6 063e 1855 b43c a5af 103e 1b59 853c
000003f0: fdaf 003f 0486 d0bf 6c72 813f ab62 b7bf
-0.097545475 1.9664148 -0.7800775 1.4556863 0.4352542 -1.6809583 0.6498601 -1.3441916
0.6869543 -1.6354295 0.869511 -1.140119 0.13886094 -1.7075164 0.07705624 0.004404993
0.026978074 -0.1327207 0.086321026 -1.8136225 0.70762914 -1.5867022 -0.40702254 1.5368234
-0.7580209 1.6555171 -0.68654925 1.7656415 -0.968538 0.5751378 -1.1107222 1.6969451
-0.057610776 0.021295834 0.0037259215 -0.040005583 0.26242006 -1.6993722 0.62902606 -1.7137703
-0.5449244 1.5560474 -0.54687434 1.7722749 -0.72536916 1.592835 -0.882289 0.9464559
-1.1646607 1.5723741 0.0006902059 0.08564136 -0.14145176 0.0058455206 -0.89192426 -1.7801865
0.34660834 -1.6166155 -0.35764062 1.6375138 -0.40627205 1.6063659 -0.47024056 1.45488
-0.24735166 0.05946421 0.39183274 1.4580833 0.11659032 -0.02243901 -0.20466672 -0.03395084
0.24072914 -1.5941845 0.9473278 -1.5414113 -0.9082685 1.5232638 -0.9997622 1.5441865
-0.9537551 1.5931077 -1.2317919 0.11917464 -1.4914987 1.5525246 0.025810108 0.041964687
0.08675649 -0.01803876 -0.12911166 2.1066213 -0.6677455 1.6613513 0.54848933 -1.7124122
0.56265604 -1.766982 0.7205625 -1.6914034 0.9429623 -0.98177016 0.85032696 -1.7312984
-0.25897524 0.12486825 0.024940204 -0.011991724 -0.91082495 -1.9289333 0.26541975 -1.5708027
-0.2344007 1.7748697 -0.3645382 1.5439221 -0.46484017 1.5524392 -0.23128867 -0.27461824
0.06493383 1.3967897 0.2690407 -0.00062735565 -0.034602854 -0.113200165 -0.3342482 1.6551903
-1.1091896 1.576337 0.7137807 -1.5177487 1.0717561 -1.5325071 1.035995 -1.5893214
1.2014744 -0.18853731 1.6034043 -1.6827718 -0.14722818 0.10095245 -0.090397246 -0.029504424
-0.57703763 1.557692 -1.0236962 1.3878568 1.0304041 -1.6339929 0.8770169 -1.5793728
1.1247973 -1.6181252 1.3711364 -0.1645567 1.3110569 -1.564384 0.112270646 0.013350653
-0.03232889 -0.14743845 -0.7854381 -1.8136957 0.42273888 -1.6120534 -0.39734992 1.5154794
-0.34629777 1.5110251 -0.58223635 1.62562 -0.3347901 0.3166449 0.4865969 1.2235504
0.043250095 0.18069802 -0.051856406 0.009319194 0.24164306 -1.6990055 0.81097126 -1.6108799
-0.81133395 1.6822581 -0.72371733 1.6429378 -0.9676805 1.5659822 -1.0517589 0.3581157
-1.1889857 1.5697187 0.11148914 0.050002355 0.06339462 0.19405136 0.30872712 -1.8892931
0.5156304 -1.5728648 -0.4667698 1.5719372 -0.67049706 1.5339602 -0.69795036 1.4195882
-0.70493275 0.92034143 -0.59012413 1.3660258 0.050481696 -0.25263566 0.055641424 0.029726148
-0.07963528 -1.7370948 0.7254752 -1.6034349 -0.47763625 1.4856197 -0.6041301 1.67386
-0.7791612 1.5268198 -0.79453105 0.9024609 -0.3947675 1.6017724 -0.05851842 -0.05000707
0.2089678 -0.16882409 -0.24789178 1.7946879 -0.60899174 1.4520571 0.7115156 -1.4749737
0.6694581 -1.6331222 0.8437454 -1.6045269 0.98275524 -1.0718918 0.50315875 -1.5590934
0.13179854 0.022013232 0.14129503 0.01627784 0.50268537 -1.6290898 1.0113044 -1.4326986

action_dict.message_encoder.1.bias f4 [32]
00000000: 18ab efbf 1425 b63f dd2a aa3f ae14 ce3f
00000010: 22b5 aa3f 9217 babf 70dd af3f 10bf c5bf
00000020: 15ba a7bf f0c6 a03f 984d e53f d45b e33f
00000030: 24e9 bc3f 930b bbbf 495c b43f 25be c83f
00000040: 5a3e a13f 8613 c13f 4b77 a8bf 2756 e8bf
00000050: d3ea acbf 8d72 903f 5d38 bc3f eed4 cd3f
00000060: 3c40 be3f 1c5e d8bf e4e5 d83f 9b3a d3bf
00000070: 0cdf fabf 0eb8 983f 1c5a c23f 6f3d c2bf
-1.8724089 1.4230065 1.3294331 1.6100061 1.3336527 -1.4538443 1.3739452 -1.5448933
-1.3103663 1.2560711 1.7914305 1.7762399 1.4758649 -1.4612907 1.4090663 1.5683028
1.2597153 1.5084083 -1.3161405 -1.8151292 -1.3509163 1.1284958 1.4704701 1.6080606
1.4863353 -1.690372 1.6945157 -1.650226 -1.9599319 1.1931169 1.5183749 -1.5174998

action_dict.message_encoder.2.weight f4 [32, 18]
00000000: c952 d2bf d9bf b03e 6cc4 cbbf d3a3 a0bf
00000010: 86b1 c03f fd5a c73f 999c c83f bbc4 debd
00000020: bd2c c03f 305d 383f 34d6 b33f 32f1 c33f
00000030: 524d cc3f a345 a1bf 0f10 f0bc 2068 97bd
00000040: 6720 0bbe 2b1c 493e 8fe0 adbf 1611 053f
00000050: 75cc c6bf efb6 bfbf 7218 b93f 456f d13f
00000060: a104 b63f 9f7a 5bbe 9bb5 d03f b691 213f
00000070: dd3c c53f b43b e23f daf5 c93f 2dfd a2bf
00000080: f7a5 d43c 6bf4 e83d 8d4f 50be 301b c6bc
00000090: 115a e5bf 75bf 893e 9ab2 c3bf 16bd cfbf
000000a0: 13d4 af3f bda6 d23f 862b c43f aca2 80be
000000b0: d274 b03f 5ba2 113f a919 bb3f 2a92 e73f
000000c0: a3dc c13f 7e9b b1bf ef79 4bbd d562 7abc
000000d0: ebdf 3b3e fdb3 e63d 74a1 f6bf 151c f53e
000000e0: 8396 d8bf 21fd d0bf d0a6 cd3f 15f3 dd3f
000000f0: 5bb0 db3f c7ca d0be 5c3d ca3f a81e 3e3f
00000100: b5df cb3f 0987 dd3f 35a9 e33f 8e96 9fbf
00000110: f00f 51bd 5f9e d53d 5566 70bd 4a83 b4bd
00000120: b9a5 cbbf 57e9 af3e e3a7 c2bf b556 97bf
00000130: 4d08 c73f 24f9 ca3f f7b5 bd3f 277d e9be
00000140: 48ac cb3f 3bc8 3e3f 8723 c43f e4ae d23f
00000150: c8ab c03f 8354 a4bf 8b73 a43d aa08 65bd
00000160: 165e 943e 48f0 ef3c 421a d63f b830 95bc
00000170: a8e0 af3f 32f3 973f 71c8 c2bf 36e3 bcbf
00000180: b991 c5bf 54b0 7c3e b65a a9bf 72b8 fcbe
00000190: 7a7c ccbf de23 d4bf bdb5 ccbf 168d b53f
000001a0: b396 2fbe fdca 5d3e 80e7 dc3c a89f 81bd
000001b0: 77cf cdbf 76e9 be3e ebad a8bf 553b b0bf
000001c0: 7265 af3f e509 db3f 2f53 aa3f 5395 eebe
000001d0: 86b2 b73f d576 df3e 2778 cd3f a34f cc3f
000001e0: 64c2 d53f a22b 89bf d689 33bb ff22 36be
000001f0: 522b fa3d 8362 813d cb8c cc3f e92b 20bf
00000200: b78e c33f 2809 a33f 5819 b3bf f448 d4bf
00000210: a65a a6bf 3722 2d3e 86f3 c0bf 47e9 3dbf
00000220: b678 acbf 13a2 c2bf 6966 d8bf 5dd2 ad3f
00000230: b389 66bd a4a6 4c3d a7b8 af3d a3ba 37bd
00000240: b30d dfbf bfb6 ba3e fc1f cebf 580d d4bf
00000250: 00ac da3f 06e7 de3f 1fc9 b13f 5a5e 94be
00000260: 7673 c23f ba8c 473f f4b5 c73f 1ddc d13f
00000270: 3808 d93f e2c7 b2bf 01b1 223e da8f d2bc
00000280: 06e3 133d 4f46 b6bd 52f1 d73f 4974 eebe
00000290: 3cb7 bb3f 5bf6 ac3f 0ece c4bf 86ce ccbf
000002a0: e5eb ddbf 4cdd bd3e 4e2a cabf 9228 07bf
000002b0: 4728 b5bf 8ae4 cabf a8d0 d9bf 3f49 b33f
000002c0: 2c57 8cbe af83 6a3d 2fc0 2c3d 565f b5bd
000002d0: e010 e23f 387b b1be b826 b93f 5aaa ba3f
000002e0: 2219 cabf 735b cdbf f4d2 acbf f6f9 f63d
000002f0: 5dd2 b1bf c310 4dbf 0b95 bdbf 98a2 debf
00000300: 8eed c5bf e68e bf3f aa26 37be c7db 4b3e
00000310: 7d99 013d 3bb4 b0bd c36f eebf 8087 623e
00000320: 55ce d9bf af44 b8bf 743c c63f e3a7 dd3f
00000330: c0ce c13f 98d8 cabe 6723 b33f 2a04 063f
00000340: 91a3 c53f b137 c73f 5c5c e43f e6d3 aabf
00000350: d25b 353c 9291 933d ef04 27bd 707c febd
00000360: 12b0 ec3f 6c45 8dbe 1875 da3f 145b bb3f
00000370: bb20 d4bf 159c e5bf c25e c4bf 20e5 0e3e
00000380: 4ae2 d8bf 1e4d 4abf 1b00 c6bf e17c d7bf
00000390: 5fdd cdbf f568 b43f 0034 f23c 2165 21bd
000003a0: d5a8 a43d 0c28 39be 9df5 bbbf af17 443f
000003b0: feee babf f12b c2bf 3f7d c63f 76ac e13f
000003c0: 0911 ab3f c86a 11bf 3a26 cc3f 0db1 283f
000003d0: 7bce c73f 2eef cc3f aac2 e53f f036 9bbf
000003e0: 8bed 6b3d 902a 523e 4251 223e 6196 06bb
000003f0: 094b c4bf 57e8 a63e e128 b7bf 73b9 d0bf
-1.6431514 0.34521368 -1.5919318 -1.2549995 1.5054176 1.5574642 1.567279 -0.10877367
1.5013653 0.7201719 1.4049745 1.5307982 1.5961096 -1.2599376 -0.029304532 -0.07392907
-0.1358658 0.19639651 -1.3584155 0.51979196 -1.5531145 -1.4977702 1.4460585 1.6362082
1.4220163 -0.21433495 1.6305422 0.6311296 1.5409199 1.767447 1.5778153 -1.2733513
0.025958044 0.11374744 -0.20342846 -0.024182886 -1.7918111 0.26903883 -1.528888 -1.622958
1.3736595 1.6457134 1.5325782 -0.2512411 1.3785651 0.5688836 1.4617206 1.8091481
1.5145458 -1.3875577 -0.04967683 -0.015282352 0.18347137 0.11264799 -1.9268022 0.47872987
-1.6920933 -1.6327249 1.6066532 1.7339808 1.7163194 -0.40779707 1.5799975 0.7426553
1.5927645 1.7306834 1.7786013 -1.2467821 -0.05104059 0.104305975 -0.05869134 -0.08814104
-1.590995 0.34357712 -1.5207485 -1.1823336 1.5549408 1.5857282 1.4821156 -0.45603296
1.5911951 0.7452428 1.5323342 1.6459622 1.5052423 -1.2838291 0.080298506 -0.055916466
0.28978032 0.02928938 1.6726763 -0.018211707 1.3740435 1.1871092 -1.521742 -1.4756839
-1.5435096 0.24676639 -1.3230808 -0.4935947 -1.5975487 -1.6573446 -1.5992962 1.4183681
-0.17147331 0.21659465 0.026965857 -0.0632928 -1.6078938 0.37287492 -1.3178076 -1.3768107
1.3702834 1.7112395 1.3306636 -0.465983 1.4351356 0.4364535 1.6052293 1.5961803
1.6699948 -1.0716441 -0.002739539 -0.17786787 0.12215294 0.06317618 1.5980467 -0.62567
1.5277928 1.2737169 -1.3992109 -1.6584764 -1.2996414 0.16907583 -1.5074317 -0.7418408
-1.3474338 -1.5205711 -1.6906253 1.3579823 -0.056283664 0.04996361 0.085801415 -0.044855725
-1.7426056 0.3646755 -1.6103511 -1.6566572 1.708374 1.7414253 1.3889502 -0.28978235
1.5191486 0.77949107 1.5602403 1.6395298 1.6955633 -1.3967249 0.15887834 -0.02570336
0.03610518 -0.08900129 1.687052 -0.46573094 1.4665294 1.3512682 -1.5375383 -1.6000526
-1.7337614 0.370829 -1.579416 -0.5279628 -1.4152917 -1.5850995 -1.7016802 1.4006728
-0.27410257 0.05725449 0.042175468 -0.088560745 1.76614 -0.3466432 1.4464941 1.4583237
-1.578892 -1.6043533 -1.3501878 0.12059395 -1.3892323 -0.801037 -1.4811109 -1.739337
-1.5463121 1.4965484 -0.17885843 0.19908057 0.03164052 -0.08628126 -1.8627857 0.22122002
-1.7016093 -1.439596 1.5487199 1.731686 1.514122 -0.39618373 1.3995179 0.52350104
1.5440542 1.5563871 1.7840686 -1.3345916 0.011069255 0.072055 -0.04077619 -0.12426078
1.8491232 -0.27592027 1.7066984 1.463717 -1.6572489 -1.7938257 -1.5341418 0.13954592
-1.6944058 -0.7902392 -1.5468782 -1.6834985 -1.6083182 1.409453 0.029565811 -0.039403085
0.08040015 -0.18081683 -1.468433 0.7659864 -1.4604185 -1.516966 1.5506972 1.7630756
1.3364574 -0.5680356 1.5949166 0.6589516 1.5609888 1.6010492 1.7950032 -1.212614
0.057599586 0.20524049 0.1585131 -0.002053641 -1.5335399 0.32599136 -1.430935 -1.6306595

action_dict.message_encoder.2.bias f4 [32]
00000000: f56b 63bf 1a38 83bf 4b19 82bf b7f1 c1bf
00000010: a434 8cbf 632b a03f fb27 9bbf 8b77 613f
00000020: 48fb 9cbf 052d 813f aa55 ab3f 8e17 a9bf
00000030: 2b2e bd3f 58b6 38bf 84df 85bf f129 933f
00000040: 63ef af3f 425f 60bf 69fc 33bf c95d 473f
00000050: 938a 963f 944b bf3f 265b 983f b046 b0bf
00000060: 2650 a5bf 5f87 903f b525 9e3f 8f29 9ebf
00000070: a397 a33f 16b2 95bf 2bca a63f e693 82bf
-0.88836604 -1.0251496 -1.0163969 -1.515189 -1.0953565 1.251324 -1.2121576 0.88073033
-1.2264185 1.0091864 1.3385518 -1.3210313 1.4779714 -0.72153234 -1.0458837 1.1497175
1.374493 -0.8764535 -0.7030702 0.7787748 1.176104 1.494494 1.1902816 -1.3771572
-1.2915084 1.1291312 1.2355257 -1.2356433 1.2780651 -1.1694973 1.3030447 -1.0201385

action_dict.weight_generator.0.weight f4 [1, 18]
00000000: 2cb1 27be 5877 9c3e 25d8 663e 3942 8e3e
00000010: d2a4 373d d046 d1be 98f9 55bd 6ba7 04bf
00000020: 3adb 89be d823 9ebe 9490 ffbd c00f a1be
00000030: 9114 39be 7edd d7bd 64eb 19bd 0e88 bfbd
00000040: b74f 053d c400 b5bd
-0.1637618 0.30559802 0.2254339 0.277849 0.04483492 -0.40874338 -0.052239984 -0.5181796
-0.2692507 -0.30886722 -0.12478748 -0.3145733 -0.18074252 -0.10540293 -0.037578 -0.09352122
0.032546725 -0.08838037

action_dict.weight_generator.1.weight f4 [1, 18]
00000000: f989 a23b 2b83 83bc 9806 233e cd31 8fbd
00000010: a6bf d4bd c5ad 833e ffcc e7bd cfc7 4c3d
00000020: bd11 a2bd a2e7 433e cb40 d2bd 410e b73e
00000030: 75b3 f8bd 7f56 703e 3322 3b3e e328 333e
00000040: 820a 8cbd 3027 f9bd
0.0049602953 -0.016053757 0.15920484 -0.069919206 -0.103881165 0.25718513 -0.11318397 0.04999524
-0.079135396 0.1913133 -0.102662645 0.35753062 -0.12143604 0.23470496 0.18274765 0.17496066
-0.06837942 -0.121656775

action_dict.weight_generator.2.weight f4 [1, 18]
00000000: f6fa 283c 3e5f d93d c67d 753e e47f c63b
00000010: e2a5 0bbe c1ff e9bc f039 cfbc 3c05 8ebd
00000020: acd5 b6bd 09e9 29bd 2ea7 9c3d 4caf 713e
00000030: fb6e 9e3d 056c c63c 477f 8ebd 382e f0bd
00000040: 0f99 c63d 6ba7 bc3d
0.01031374 0.10613869 0.2397376 0.006057726 -0.13637498 -0.028564336 -0.025296181 -0.06934592
-0.089274734 -0.041482005 0.076490745 0.23602027 0.077360116 0.02422143 -0.0695787 -0.117275655
0.09697162 0.0921162

target_net.value_dict.action_critic.weight f4 [1, 32]
00000000: 8709 25be ff03 aa3c 8033 4f3d 07c5 b5bc
00000010: 43bc 483b 9101 4cbd 3785 803d bad5 a93d
00000020: 232c 913c 1f4d 69bd d278 0bbb 6f91 483d
00000030: 126a 4b3d 5b3d 28bd f3ac f4bb 37ab 553e
00000040: df88 21bc 6f63 253e f267 523d ef1c a53d
00000050: 7f1a a73d 3f7e 9fbd c4bb b0bd 1a60 f93b
00000060: 3f0b 8abc 9319 6f3b 5c81 07be 5405 a33d
00000070: c0e4 babd e0e8 54be ea9d cbbd 8350 ecbc
-0.16116916 0.020753859 0.050586224 -0.022188677 0.003062979 -0.04980618 0.06275409 0.08292718
0.017721241 -0.056958314 -0.0021281731 0.04896682 0.049661703 -0.041074138 -0.007466906 0.20866095
-0.009859293 0.16151212 0.05136866 0.08062159 0.081593506 -0.077877514 -0.086295635 0.007610333
-0.016851066 0.003648375 -0.1323294 0.07960001 -0.09125662 -0.2079196 -0.09942229 -0.028846985
