model_save/simple_spread_commnet/model.pt (torch_old, 17490 bytes, 19 tensors)

value_dict.value_body.weight f4 [32, 18]
0.2340745 1.4416932 -0.36041698 0.569661 -1.2844114 -1.4169948 -1.3798025 -1.0621929
-0.69858825 -1.2800221 1.4507587 1.6902589 0.8636177 -1.0213891 -0.16649763 0.15911043
0.019881682 0.09074794 2.9753225 -1.1586236 0.4856833 -1.5193946 -1.0330458 -0.73340976
-0.89690703 -0.2938272 -1.2008613 -0.65707785 1.3819982 1.0153799 0.77382356 1.4262573
-0.25442252 0.15922539 -0.11355575 -0.108755864 0.35530937 -0.00070454826 0.41087225 -0.26925957
-1.7499049 -1.5668783 -2.1270096 -1.1171736 -2.1702378 -1.0989795 2.1745481 1.2875493
2.059096 1.0722737 0.11013875 -0.06642217 -0.13615024 0.020942405 -0.75884396 0.66678834
0.86020845 -1.0797658 -0.8288949 -0.47814924 -0.52152866 0.013039748 -1.1934144 -0.21482132
0.7797305 0.9164308 0.561764 0.46610287 0.10499611 -0.0740266 0.019145256 0.06900281
0.43949813 0.15880813 -0.30310234 -0.24220972 0.94038963 -2.261448 -2.401106 -1.5462836
-2.09989 -0.796216 2.072325 0.6181578 -0.273225 2.2443516 -0.13601497 0.18945275
0.1665365 -0.10276768 0.41742834 1.225122 0.9027702 0.6514593 -2.0420678 -1.3381381
0.7427709 -1.9786705 1.4305737 -2.3220606 -0.43719733 2.6413057 0.98720884 1.6187123
-0.14589676 0.08407679 -0.023059402 -0.052461404 -0.16076414 -0.43665835 -0.22317939 0.47956678
-0.38182473 -0.29824314 -0.16408059 -0.57090646 -0.5380258 -0.31248876 -0.12108973 0.22114697
0.6742219 0.969481 0.107633606 -0.17314208 0.058220036 -0.048781123 -0.67758703 0.08032139
-0.001806933 0.057691704 0.2253965 0.0044735703 -0.028291078 0.14511572 0.14620085 -0.3228115
-0.2736851 0.26283818 0.46677798 -0.23119333 0.05369661 -0.033626527 0.04056841 0.03542496
-0.20103952 -0.017465118 -0.19746844 -0.43319273 0.631238 3.0421634 0.90538865 3.3697815
1.2158498 3.258744 -0.8237993 -3.504012 -0.958726 -3.3408725 0.0020030676 -0.0283274
-0.03322241 -0.047122564 -2.5133138 0.6903862 -2.5769105 0.19788417 -0.17934673 -0.69242615
-0.96216685 -0.5542332 -1.2493765 -0.82448107 0.88772476 -0.62213063 1.3370969 1.6682489
0.08010266 0.018879754 -0.042540174 -0.15208425 0.018301303 0.11167674 -0.055726897 0.031047061
0.21870543 0.12039017 0.0734473 0.12896824 0.14825156 -0.17173873 -0.104039825 0.19696416
0.07855554 -0.23721321 0.048710473 -0.06514521 -0.01767159 0.060550857 1.0799417 2.2058702
1.166518 0.286085 -0.46723488 -0.5754895 -0.49548474 -0.14482503 -0.3948453 -0.23148501
-1.2625775 1.007016 0.6700677 0.02149151 0.0018234783 -0.10186165 -0.057719655 -0.059016485
-0.19008523 0.28274003 -0.113293566 -0.1506484 2.2373142 -2.4398375 2.3551056 -2.136968
2.3918755 -2.331727 -2.0825622 2.0966477 -2.6328766 2.349788 -0.058860064 -0.075625025
0.16376626 0.051246133 0.50207514 -0.44509473 -0.10656859 -0.054676197 -0.87226665 -3.6058772
-0.59195596 -3.1013992 -0.11939859 -3.301308 -0.05120074 3.9933398 1.3487242 2.6945217
-0.10013367 -0.14531972 -0.12885098 0.034323957 -0.13819648 -0.51740867 0.31555247 -1.1397291
00000000: 3ab1 6f3e 6789 b83f 9388 b8be 4ed5 113f
00000010: 9867 a4bf 1660 b5bf 5e9d b0bf f0f5 87bf
00000020: aed6 32bf c4d7 a3bf 76b2 b93f 675a d83f
00000030: 0d16 5d3f e1bc 82bf 5b7e 2abe d8ed 223e
00000040: e9de a23c 0eda b93d af6b 3e40 c74d 94bf
00000050: 7bab f83e 867b c2bf d83a 84bf bec0 3bbf
00000060: b39b 65bf 8570 96be d3b5 99bf 4136 28bf
00000070: 51e5 b03f f8f7 813f 4d19 463f 998f b63f
00000080: ab43 82be fb0b 233e eb8f e8bd 65bb debd
00000090: 1ceb b53e 6fb1 38ba d95d d23e 64dc 89be
000000a0: e2fc dfbf 788f c8bf ed20 08c0 8bff 8ebf
000000b0: 2de5 0ac0 5cab 8cbf cc2b 0b40 6ace a43f
000000c0: 3bc8 0340 4440 893f 6d90 e13d 5908 88bd
000000d0: f86a 0bbe 688f ab3c 9943 42bf a4b2 2a3f
000000e0: 9f36 5c3f c435 8abf 7532 54bf facf f4be
000000f0: e782 05bf aba4 553c cec1 98bf 1ffa 5bbe
00000100: 6b9c 473f 359b 6a3f c4cf 0f3f 09a5 ee3e
00000110: 3308 d73d 429b 97bd 83d6 9c3c 5851 8d3d
00000120: e605 e13e 999e 223e 3b30 9bbe d305 78be
00000130: 60bd 703f 90bb 10c0 b9ab 19c0 9fec c5bf
00000140: 9964 06c0 d0d4 4bbf f9a0 0440 973f 1e3f
00000150: 26e4 8bbe 75a3 0f40 8247 0bbe e7ff 413e
00000160: 8b88 2a3e dd77 d2bd 2bb9 d53e ccd0 9c3f
00000170: f31b 673f 09c6 263f 3db1 02c0 1c48 abbf
00000180: 3c26 3e3f 1345 fdbf 0a1d b73f a49c 14c0
00000190: 54d8 dfbe 270b 2940 b8b9 7c3f f731 cf3f
000001a0: f665 15be 7430 ac3d 12e7 bcbc c5e1 56bd
000001b0: 5b9f 24be af91 dfbe 2389 64be c789 f53e
000001c0: 887e c3be 53b3 98be be04 28be ed26 12bf
000001d0: 0fbc 09bf 87fe 9fbe e4fd f7bd 5a74 623e
000001e0: ce99 2c3f e82f 783f 026f dc3d 284c 31be
000001f0: 2278 6e3d b7ce 47bd 5876 2dbf 8a7f a43d
00000200: 9cd6 ecba 234e 6c3d 57ce 663e 0797 923b
00000210: b1c2 e7bc 3799 143e adb5 153e 8d47 a5be
00000220: 7420 8cbe ba92 863e 86fd ee3e f2bd 6cbe
00000230: faf0 5b3d f8bb 09bd 102b 263d c319 113d
00000240: 4edd 4dbe 0213 8fbc 2b35 4abe 70cb ddbe
00000250: d098 213f ceb2 4240 8dc7 673f 80aa 5740
00000260: f7a0 9b3f 438f 5040 83e4 52bf bc41 60c0
00000270: 116f 75bf dbd0 55c0 e645 033b dd0e e8bc
00000280: 3914 08bd 9703 41bd 22da 20c0 26bd 303f
00000290: 1aec 24c0 26a2 4a3e aba6 37be d742 31bf
000002a0: 9150 76bf 3ae2 0dbf 92eb 9fbf 3111 53bf
000002b0: ee41 633f f443 1fbf fe25 ab3f 2e89 d53f
000002c0: dd0c a43d b7a9 9a3c 9b3e 2ebd f9bb 1bbe
000002d0: 9dec 953c c6b6 e43d e341 64bd 6856 fe3c
000002e0: 51f4 5f3e 1f8f f63d 8a6b 963d 4010 043e
000002f0: 42cf 173e 47dc 2fbe d512 d5bd f9b0 493e
00000300: bae1 a03d 05e8 72be a284 473d da6a 85bd
00000310: 03c4 90bc 2d04 783d 883b 8a3f fa2c 0d40
00000320: 7650 953f bc79 923e 6939 efbe 4853 13bf
00000330: 2db0 fdbe 034d 14be 2a29 cabe 680a 6dbe
00000340: 249c a1bf e6e5 803f 8f89 2b3f f70e b03c
00000350: c701 ef3a d79c d0bd 726b 6cbd 45bb 71bd
00000360: b4a5 42be 4dc3 903e 7506 e8bd 9343 1abe
00000370: 2830 0f40 4c26 1cc0 0dba 1640 15c4 08c0
00000380: 7d14 1940 043b 15c0 b348 05c0 7a2f 0640
00000390: 0d81 28c0 ed62 1640 4017 71bd 4be1 9abd
000003a0: 58b2 273e 77e7 513d ff87 003f 75e3 e3be
000003b0: a240 dabd 26f4 5fbd de4c 5fbf b1c6 66c0
000003c0: 6d8a 17bf 537d 46c0 3f87 f4bd a148 53c0
000003d0: deb7 51bd e192 7f40 ffa2 ac3f 0b73 2c40
000003e0: e212 cdbd b1ce 14be 83f1 03be 4797 0c3d
000003f0: 6183 0dbe e574 04bf 1890 a13e a5e2 91bf

value_dict.value_body.bias f4 [32]
4.1345253 4.114041 -0.92121685 4.309651 -0.8420484 -2.271521 -0.86511755 4.373028
-0.31819323 4.4868097 4.462604 4.4927692 -0.55586964 -0.15164946 -0.46103805 -0.9098436
2.9606547 4.5032454 4.7591386 4.260742 4.2455063 4.6786366 3.6034613 4.4977684
3.4585886 4.3526263 -0.2083651 2.5690432 3.4174228 4.3423 4.268428 4.0565686
00000000: 084e 8440 39a6 8340 ded4 6bbf a9e8 8940
00000010: 7c90 57bf 9a60 11c0 5878 5dbf d8ef 8b40
00000020: 39ea a2be f293 8f40 a7cd 8e40 c4c4 8f40
00000030: 794d 0ebf ff49 1bbe 2e0d ecbe 83eb 68bf
00000040: 5e7b 3d40 961a 9040 dd4a 9840 0058 8840
00000050: 30db 8740 64b7 9540 1c9f 6640 b8ed 8f40
00000060: 8459 5d40 b748 8b40 a95d 55be 346b 2440
00000070: 0eb7 5a40 1ff4 8a40 f696 8840 69cf 8140

value_dict.value_head.weight f4 [1, 32]
-1.1865495 -0.68001735 -2.591549 -0.5767627 0.1868455 -0.48666412 0.019964945 -1.6193465
-2.368864 -0.8170818 -1.534375 -1.4174225 -3.8353527 -0.46026126 0.2860283 -1.7956301
0.21233346 -1.0718812 -1.4824783 -1.4868504 -2.0867076 -0.43520334 -0.71152335 -1.7907484
-0.28858718 -0.76268345 -4.5924273 0.028539743 -0.7299276 -0.8547979 -1.507025 -0.99849176
00000000: dbe0 97bf 9e15 2ebf f0db 25c0 b8a6 13bf
00000010: 6d54 3f3e 0a2c f9be 868d a33c bf46 cfbf
00000020: 789b 17c0 462c 51bf 6666 c4bf 1a6e b5bf
00000030: 6b76 75c0 5da7 ebbe 4d72 923e 35d7 e5bf
00000040: f16d 593e 6733 89bf d9c1 bdbf 1d51 bebf
00000050: 9e8c 05c0 f9d2 debe 6526 36bf 3e37 e5bf
00000060: b3c1 93be 393f 43bf 2af5 92c0 2ecc e93c
00000070: 89dc 3abf 09d4 5abf 32e6 c0bf 289d 7fbf

action_dict.action_head.weight f4 [5, 32]
-0.036434803 0.04132842 0.047370672 -0.079590715 -0.1578539 0.041850705 0.0304574 0.05408842
-0.009343094 -0.025655992 0.13568626 -0.0001318769 0.13674764 0.10415797 -0.0060034483 -0.12104829
-0.008116733 0.108370684 -0.06762769 -0.011298053 -0.12745166 -0.019418634 -0.07944864 -0.06929523
0.008752121 0.026286656 -0.044667803 0.042663988 0.013023433 -0.042242475 0.02710434 0.09370404
-0.077088125 -0.0029059437 -0.011068753 -0.054211266 -0.22263636 -0.17822133 0.0889245 0.19750214
-0.06763977 -0.0588247 0.14662652 -0.006577359 0.15022093 0.054813527 0.030789979 -0.14123318
-0.017948618 0.29162163 -0.23951209 0.009860137 -0.13772936 -0.09151414 -0.091340646 0.09860318
0.1536153 0.048499733 -0.059185654 0.04437967 -0.045790568 -0.014742079 0.054403067 0.14335816
0.050916705 -0.088686675 0.108312935 -0.061845396 -0.02720244 0.07432179 -0.15917869 -0.021123357
-0.011890837 -0.047921896 0.03952563 0.006776034 0.01566032 0.12302708 0.0803826 0.11531867
0.076932624 -0.1792525 0.0027902233 -0.080673315 -0.034040432 -0.006439284 -0.19722459 -0.12205378
0.054733183 0.039784763 -0.11043296 0.0003138976 0.017746564 0.08873358 0.11414659 0.06703248
-0.23385501 0.065937385 0.026104227 0.008015543 -0.08025886 -0.06834037 -0.24820179 -0.013819875
0.0040305634 -0.17842938 0.09028493 -0.047450677 0.015579227 0.08706688 0.068630435 0.01794486
0.08551934 0.063041136 -0.02869475 0.087964416 -0.084795125 -0.09245055 -0.048768047 0.12695882
-0.025136922 -0.008950431 0.043984666 -0.0018759338 0.0074375924 0.004161963 0.06277993 -0.014954935
0.1338146 -0.029172542 0.037952904 -0.08406467 -0.14511447 0.14114445 0.2961147 0.14642122
0.049475085 0.007744763 0.15598579 0.056728657 0.06667966 0.084777914 0.111733295 -0.022814563
0.036242906 0.15263729 -0.13248119 -0.071226 -0.058066536 -0.060958423 -0.16668247 -0.10766879
0.06937269 0.12812148 -0.106904924 0.026303913 0.015786609 0.020907762 0.09515867 0.12817091
00000000: a93c 15bd fd47 293d c007 423d 7500 a3bd
00000010: 74a4 21be a56b 2b3d cc81 f93c d28b 5d3d
00000020: c713 19bc 842c d2bc 57f1 0a3e 7048 0ab9
00000030: 9307 0c3e c650 d53d 93b8 c4bb 2ae8 f7bd
00000040: 0cfc 04bc 73f1 dd3d 6380 8abd 781b 39bc
00000050: b082 02be d413 9fbc f8b5 a2bd a8ea 8dbd
00000060: 0e65 0f3c 1d57 d73c 96f5 36bd 6fc0 2e3d
00000070: 3d60 553c 7206 2dbd ec09 de3c e7e7 bf3d
00000080: 61e0 9dbd a571 3ebb b759 35bc a20c 5ebd
00000090: c9fa 63be a77f 36be 0c1e b63d 003e 4a3e
000000a0: b886 8abd 2bf2 70bd 4325 163e e386 d7bb
000000b0: 84d3 193e 2684 603d 443b fc3c 6e9f 10be
000000c0: fb08 93bc 6e4f 953e a842 75be 698c 213c
000000d0: ed08 0dbe c46b bbbd ce10 bbbd 77f0 c93d
000000e0: 544d 1d3e a8a7 463d a86c 72bd 75c7 353d
000000f0: e48e 3bbd c388 71bc c0d5 5e3d 7bcc 123e
00000100: 098e 503d 5ca1 b5bd 2cd3 dd3d 9951 7dbd
00000110: a7d7 debc 0636 983d bdff 22be e40a adbc
00000120: c9d1 42bc c049 44bd a1e5 213d 7e09 de3b
00000130: 124a 803c 9ff5 fb3d a29f a43d 322c ec3d
00000140: da8e 9d3d f88d 37be 2edc 363b 0d38 a5bd
00000150: fb6d 0bbd a100 d3bb 3ef5 49be 55f7 f9bd
00000160: e72f 603d 59f5 223d ad2a e2bd 9f92 a439
00000170: 3e61 913c f4b9 b53d b0c5 e93d 5348 893d
00000180: b077 6fbe 2e0a 873d 88d8 d53c a053 033c
00000190: c25e a4bd 09f6 8bbd 9c28 7ebe c26c 62bc
000001a0: d112 843b 31b6 36be 4ee7 b83d a45b 42bd
000001b0: 0440 7f3c 1f50 b23d 1d8e 8c3d 1901 933c
000001c0: c424 af3d b61b 813d 4111 ebbc b026 b43d
000001d0: 11a9 adbd b756 bdbd 01c1 47bd 7e01 023e
000001e0: f2eb cdbc d4a4 12bc 4429 343d e5e1 f5ba
000001f0: 0cb7 f33b 1361 883b c492 803d 8b05 75bc
00000200: b206 093e 41fb eebc 8174 1b3d 192a acbd
00000210: e398 14be 2c88 103e 599c 973e 72ef 153e
00000220: 63a6 4a3d c8c7 fd3b bdba 1f3e 4f5c 683d
00000230: 588f 883d 0ba0 ad3d 6dd4 e43d 9be5 babc
00000240: 7173 143d f34c 1c3e 26a9 07be f0de 91bd
00000250: 2dd7 6dbd 8aaf 79bd cfae 2abe 7481 dcbd
00000260: 4513 8e3d 4732 033e f8f0 dabd 4e7b d73c
00000270: eb52 813c c146 ab3c 8ce2 c23d 3c3f 033e

action_dict.action_head.bias f4 [5]
0.047380134 -0.17502236 -0.16818102 -0.20185402 -0.26710892
00000000: ac11 423d 1039 33be a537 2cbe d2b2 4ebe
00000010: 80c2 88be

action_dict.c_module.weight f4 [32, 32]
-0.17103237 -0.0730412 -0.21279417 0.42114383 0.08444837 0.8726322 -0.7167545 0.41256103
-0.28771624 -4.2682816e-05 0.01836943 0.65500736 -0.49480903 0.49001276 -0.10843447 0.3644511
-0.34758633 -0.48410857 0.11990409 1.2873821 0.3433894 0.8154737 -0.23146826 -0.42278674
0.6158021 0.070394546 0.3462753 0.02075579 0.23896271 0.01858267 0.046067387 -0.18311924
-0.2848824 0.026255224 0.38266575 0.14596812 -0.6172019 0.7226877 -0.43212786 -0.79494756
-0.47245055 -0.067239985 0.10079375 0.026120508 -0.35615736 0.8493532 0.014389476 -0.074135825
0.014175623 0.25875735 0.6301555 0.4691186 0.45872653 0.25017002 -0.18058874 0.2698897
0.16438192 -0.6171096 -1.3266053 0.13681076 0.5153746 -0.3089673 0.3758428 0.17733024
0.98651534 -0.28835672 -0.7171961 -0.62675756 0.05685416 -0.31786683 0.16720666 -0.48967278
0.48772976 -1.0160682 -0.4085104 -0.41635993 0.6440582 0.906648 -0.13781781 0.5358491
-0.3229739 -0.14792621 -0.2349414 -0.61114305 0.4374601 0.53369635 -0.40265387 -0.3417211
-0.28393415 -0.24023505 -0.77971995 0.23984903 -0.39580446 0.6899329 0.4846348 0.41834813
0.16104804 -0.22174433 1.1110853 -0.15467677 -1.074582 -0.39712483 -0.3816383 -0.28525764
-0.1428107 0.4259354 0.16823223 0.81704795 -0.2924581 -0.4268186 1.1108048 -0.12705396
-0.16373646 0.18270387 -0.17865925 -0.12795565 -0.81107235 -0.44604003 0.94714165 0.12332988
-0.08982996 -0.13010213 0.08406204 0.288045 0.1654046 0.6639165 0.30465606 0.18581611
-0.23661773 0.21686473 -0.4736498 -0.19599764 0.45262668 0.408908 0.9227303 -0.43385777
0.24143448 0.32471532 -0.49681318 -0.2052144 0.03887317 -0.07891513 -0.081797294 -0.52729374
0.37497827 0.004482203 -0.06573512 -0.2631643 0.53349435 0.15605702 -0.25085703 0.24406984
0.07057068 -0.26355082 -0.25922257 0.17974366 -0.119432196 0.9679715 -0.05191216 0.13246182
0.59735864 -0.3635413 -0.00010456247 0.092805505 -0.10164153 -0.22461371 -0.19729021 -0.2994384
0.060109023 -0.2824745 -0.3786731 0.41678554 -0.03599794 -0.042992357 0.42125064 -0.00038912316
0.2749296 0.12621234 0.17514397 -0.49920684 -0.60631865 0.041274857 0.029327072 -0.64462423
-0.41320089 -0.29063982 0.55596757 -0.15754431 0.063327074 0.5603395 -0.46899503 0.42588785
-0.022365062 -0.39737707 0.19138458 0.27454618 -0.046428498 0.4192297 -0.08670961 0.06654787
0.07627537 0.027567059 -0.23222712 0.228427 0.094176434 0.69429857 -0.2528103 -0.03835571
-0.29386994 -0.47607163 0.11583585 0.6398257 0.09884171 0.76153684 -0.05130215 0.02917613
0.5765091 0.39571795 0.07361932 -0.10970772 0.35764292 -0.19590501 -0.020689892 -0.648742
-0.054869596 -0.4701845 -0.37467006 -0.7843107 -0.0018953176 1.7810273 -1.5051395 -0.43185163
0.06299941 0.1228389 -0.121365674 0.42826974 0.35541767 2.7923057 0.1316959 1.5855019
-0.34192258 -1.4449443 -0.5579531 1.368596 0.7960097 1.286941 -0.5285322 0.040004354
-0.024017587 -0.20380865 0.5133232 0.1618187 -1.5049056 -0.5957024 0.7703665 0.10085022
00000000: 1c23 2fbe a096 95bd b7e6 59be 2aa0 d73e
00000010: 44f3 ac3d d364 5f3f 397d 37bf 333b d33e
00000020: 8b4f 93be 5306 33b8 7d7b 963c 90ae 273f
00000030: 9c57 fdbe f4e2 fa3e e412 debd 5699 ba3e
00000040: d6f6 b1be 14dd f7be 4790 f53d f0c8 a43f
00000050: bcd0 af3e e2c2 503f 0406 6dbe 8177 d8be
00000060: 35a5 1d3f 042b 903d ff4a b13e 0c08 aa3c
00000070: a4b2 743e af3a 983c 28b1 3c3d 9c83 3bbe
00000080: 1bdc 91be 3215 d73c c4ec c33e ab78 153e
00000090: f200 1ebf 1002 393f dd3f ddbe af81 4bbf
000000a0: 0ae5 f1be 1eb5 89bd f46c ce3d adfa d53c
000000b0: 425a b6be 366f 593f d6c1 6b3c 86d4 97bd
000000c0: df40 683c d87b 843e df51 213f 5030 f03e
000000d0: 34de ea3e 4916 803e 41ec 38be fc2e 8a3e
000000e0: bc53 283e e5fa 1dbf 34ce a9bf 1f18 0c3e
000000f0: 97ef 033f f630 9ebe 786e c03e 0f96 353e
00000100: 458c 7c3f 7ea3 93be 2a9a 37bf 2f73 20bf
00000110: e8df 683d 71bf a2be 3938 2b3e 64b6 fabe
00000120: b7b7 f93e 860e 82bf 4628 d1be 212d d5be
00000130: 00e1 243f 151a 683f 1d20 0dbe 682d 093f
00000140: d65c a5be f879 17be 7a94 70be df73 1cbf
00000150: c5fa df3e 53a0 083f a628 cebe 11f6 aebe
00000160: d15f 91be 2d00 76be ba9b 47bf fc9a 753e
00000170: e2a6 cabe 719f 303f 0d22 f83e ba31 d63e
00000180: c7e9 243e f210 63be 0b38 8e3f 9663 1ebe
00000190: e78b 89bf f253 cbbe 1866 c3be 4a0d 92be
000001a0: f83c 12be 3414 da3e 1245 2c3e 0e2a 513f
000001b0: 11bd 95be f887 dabe da2e 8e3f 6f1a 02be
000001c0: 88aa 27be b916 3b3e 73f2 36be ce06 03be
000001d0: 70a2 4fbf 5c5f e4be e077 723f 6094 fc3d
000001e0: c5f8 b7bd 7e39 05be b828 ac3d a27a 933e
000001f0: d35f 293e 6ff6 293f e1fb 9b3e 9446 3e3e
00000200: eb4b 72be ca11 5e3e 3a82 f2be 9bb3 48be
00000210: afbe e73e 645c d13e 0e38 6c3f 9b22 debe
00000220: 9a3a 773e 1641 a63e 4c5e febe b923 52be
00000230: 7939 1f3d 419e a1bd 5785 a7bd b9fc 06bf
00000240: 27fd bf3e 72df 923b 22a0 86bd 79bd 86be
00000250: 1693 083f 69cd 1f3e 5570 80be 72ed 793e
00000260: 5c87 903d 22f0 86be d2b8 84be b90e 383e
00000270: de98 f4bd fbcc 773f d8a1 54bd 12a4 073e
00000280: 7fec 183f 1622 babe 8c48 dbb8 d010 be3d
00000290: 6f29 d0bd 2301 66be 7206 4abe fd4f 99be
000002a0: e134 763d 7fa0 90be 71e1 c1be ea64 d53e
000002b0: 9372 13bd c118 30bd 2aae d73e 3a03 ccb9
000002c0: 93c3 8c3e cf3d 013e f158 333e 0a98 ffbe
000002d0: b337 1bbf d30f 293d 543f f03c 1806 25bf
000002e0: 118f d3be bece 94be e453 0e3f 4c53 21be
000002f0: a0b1 813d 6972 0f3f 1e20 f0be f90d da3e
00000300: ef36 b7bc 0275 cbbe 52fa 433e 5191 8c3e
00000310: cf2b 3ebd 46a5 d63e cf94 b1bd 404a 883d
00000320: 4336 9c3d 50d4 e13c f2cc 6dbe c4e8 693e
00000330: 93df c03d 8dbd 313f 5a70 81be e11a 1dbd
00000340: 1f76 96be a9bf f3be 593b ed3d 9ecb 233f
00000350: 866d ca3d 14f4 423f 3422 52bd c802 ef3c
00000360: 1a96 133f 8b9b ca3e bac5 963d 71ae e0bd
00000370: f91c b73e 539b 48be d97d a9bc f513 26bf
00000380: f1be 60bd 06bc f0be c1d4 bfbe 96c8 48bf
00000390: 4e6c f8ba b4f8 e33f 69a8 c0bf a81b ddbe
000003a0: d605 813d f692 fb3d 918e f8bd 2c46 db3e
000003b0: 4ef9 b53e 23b5 3240 4adb 063e baf1 ca3f
000003c0: 7a10 afbe eff3 b8bf 04d6 0ebf 272e af3f
000003d0: 4bc7 4b3f 7cba a43f e34d 07bf 9bdb 233d
000003e0: 88c0 c4bc 37b3 50be 2669 033f cdb3 253e
000003f0: bfa0 c0bf f47f 18bf bd36 453f 8f8a ce3d

action_dict.c_module.bias f4 [32]
0.06104808 -0.12095635 -0.2279553 -0.17666468 -0.349145 -0.10039229 -0.024684248 0.07209939
-0.09096719 0.03582854 0.21865305 0.01604778 0.04479878 0.05908024 -0.12674065 0.011788458
0.24090421 -0.2995557 -0.43228966 -0.241322 0.1739606 -0.1813457 0.047590584 -0.17939736
-0.2848024 0.21716832 0.047169585 0.02327244 -0.02883266 -0.073261365 0.07843824 0.18820651
00000000: 8d0d 7a3d f6b7 f7bd 1d6d 69be 96e7 34be
00000010: 22c3 b2be 799a cdbd 9f36 cabc d8a8 933d
00000020: 024d babd f2c0 123d 96e6 5f3e a276 833c
00000030: ed7e 373d 1ffe 713d 4dc8 01be 6024 413c
00000040: 98af 763e 5d5f 99be 1255 ddbe 1d1d 77be
00000050: ba22 323e b0b2 39be 58ee 423d f1b3 37be
00000060: 9fd1 91be 5f61 5e3e e534 413d d8a5 be3c
00000070: 7832 ecbc 0e0a 96bd 3aa4 a03d 35b9 403e

action_dict.encoder.weight f4 [32, 18]
0.6933862 0.19416739 -0.041047484 0.013015774 -5.2097116 -1.8254249 0.32911164 0.18010928
0.33077535 -0.009279917 -0.20736888 -0.04171794 -0.2899894 -0.1857435 0.042559844 0.14358594
-0.0033146718 0.01639453 0.71777415 -0.13382334 0.25969905 0.045939855 0.6198661 0.042381812
0.6090235 0.3016271 -7.680208 -0.8238864 -0.4424338 -0.05824252 -0.44380823 -0.11432656
-0.082443185 -0.0442963 -0.10332216 -0.04147425 0.97645307 -0.71206427 0.75916195 -0.95250297
0.49929672 0.11732088 -0.45282874 0.6256802 -0.33093584 0.7373672 0.20324194 -0.2468087
0.015161479 -0.47222456 -0.019832604 -0.10423603 -0.1400191 -0.06253781 0.48150286 0.22179388
0.05499412 -0.17855483 -0.79878646 -0.15848267 -0.2259113 -0.47789618 -0.24662049 -0.32466185
0.184008 0.18249243 -5.1915097 -1.668926 -0.091510944 -0.12802894 0.22595237 0.039011408
0.5607969 -1.0619317 0.37735325 0.025785787 -0.4365005 1.0052227 -0.5763729 1.3180048
-0.53271735 0.5410075 0.4973503 -0.28625643 0.096204616 -0.59479517 -0.08147131 0.06976717
-0.23719394 0.07650515 0.37454483 0.30527416 -0.15362 0.5765964 -0.5249813 0.2255583
-0.21677335 -0.0458262 1.1293073 -0.6378298 -0.38936713 -0.2467499 -0.36177298 -0.4436567
0.11694902 -0.033237543 -0.015343085 0.06948844 -0.19650082 -0.7965496 0.025131427 0.14571868
-0.34367415 -0.6137837 -0.26027617 -0.46960622 1.9514366 7.640178 0.121445306 0.569934
0.20135866 0.63706946 0.051910825 0.052030362 0.16469325 -0.04901254 -0.4690419 0.462558
0.07229085 -0.42965415 2.599057 -2.9271493 -0.37318617 0.37816185 -0.5550558 0.43689984
0.46808085 -0.2939756 0.27292883 -0.23067251 0.0021809961 0.029474065 0.15769438 -0.07028816
0.8683704 1.1169442 -0.2911873 -0.06623288 -0.7556612 -0.11773919 0.1681792 -0.4875067
-1.000505 -0.5302144 0.487126 0.33496937 0.43401933 0.3931732 -0.10566062 -0.062699504
0.07528331 -0.11645681 0.32278764 0.71991616 -0.2454721 0.14790455 0.046773188 -0.24775551
0.17633376 -0.48839188 -0.09880679 -0.41195458 -0.17550676 0.6631174 -1.193997 -5.2534337
-0.03373569 -0.04666547 -0.038092792 0.041232634 -0.49842796 0.46510118 0.0062571513 -0.14561653
-0.40486577 0.38524368 -0.33693376 0.618789 4.0713406 -3.6465368 0.34311122 -0.24304725
0.15196384 -0.44025278 -0.1120738 -0.09286076 0.22618042 0.027456751 0.26876852 0.5912002
-0.024117716 -0.19249758 0.22162735 0.6655004 -1.9306597 -7.12856 0.20336476 0.576326
-0.25729528 -0.670669 -0.21915159 -0.56730026 0.122772254 0.021213397 -0.12751941 0.039805394
-0.037715096 -0.24577442 0.39109483 0.45967993 -0.9304391 0.18552612 -0.42341664 -0.12503983
-0.58179194 -0.022738889 0.39798093 -0.29716718 0.63465655 -0.3683179 0.091850534 0.052781384
0.042859334 -0.21171522 0.2534369 0.5789622 0.017651167 -0.16499749 0.03308607 1.184219
1.5084885 -2.232032 -0.45582741 0.07280014 0.47837767 0.43471017 0.8226645 0.4793648
0.027486939 -0.06071433 -0.039032634 -0.042331547 -0.5028787 0.47175875 0.12220332 0.14089958
00000000: c281 313f d1d3 463e 6821 28bd 1d40 553c
00000010: f5b5 a6c0 86a7 e9bf 5281 a83e 916e 383e
00000020: 635b a93e cb0a 18bc 8258 54be 6ee0 2abd
00000030: 7e79 94be 8b33 3ebe 3b53 2e3d 3108 133e
00000040: f73a 59bb d24d 863c 0cc0 373f fc08 09be
00000050: 46f7 843e 6e2b 3c3d 8baf 1e3f 8d98 2d3d
00000060: f7e8 1b3f de6e 9a3e 44c4 f5c0 38ea 52bf
00000070: af86 e2be b58f 6ebd d53a e3be 0b24 eabd
00000080: f9d7 a8bd 0970 35bd 929a d3bd e7e0 29bd
00000090: d4f8 793f d849 36bf 7058 423f 3cd7 73bf
000000a0: d2a3 ff3e ee45 f03d 2bd9 e7be 942c 203f
000000b0: 6c70 a9be 19c4 3c3f a81e 503e 6bbb 7cbe
000000c0: da67 783c 6bc7 f1be fc77 a2bc b379 d5bd
000000d0: 2b61 0fbe d313 80bd 8b87 f63e ef1d 633e
000000e0: 8441 613d 14d7 36be 457d 4cbf 4849 22be
000000f0: 4b55 67be cfae f4be 158a 7cbe 143a a6be
00000100: 986c 3c3e 4cdf 3a3e d920 a6c0 5e9f d5bf
00000110: 176a bbbd 051a 03be 0f60 673e 6dca 1f3d
00000120: 6390 0f3f 61ed 87bf 7234 c13e b73c d33c
00000130: fe7c dfbe 23ab 803f 2d8d 13bf 62b4 a83f
00000140: 2a60 08bf 787f 0a3f b3a4 fe3e 3490 92be
00000150: ed06 c53d 7f44 18bf 6eda a6bd 17e2 8e3d
00000160: f8e2 72be bbae 9c3d 57c4 bf3e e54c 9c3e
00000170: 904e 1dbe d29b 133f 2d65 06bf c1f8 663e
00000180: d5f9 5dbe 41b4 3bbd 248d 903f d048 23bf
00000190: 215b c7be 01ac 7cbe 4f3a b9be f926 e3be
000001a0: f882 ef3d 1724 08bd 9061 7bbc f54f 8e3d
000001b0: 8337 49be adea 4bbf 6ce0 cd3c 4737 153e
000001c0: 0ff6 afbe ee20 1dbf eb42 85be 3a70 f0be
000001d0: adc8 f93f 577c f440 51b8 f83d 32e7 113f
000001e0: f730 4e3e fc16 233f 72a0 543d ca1d 553d
000001f0: 59a5 283e 60c1 48bd 4326 f0be 67d4 ec3e
00000200: 3a0d 943d a1fb dbbe f356 2640 6a56 3bc0
00000210: 4212 bfbe 6e9e c13e 2318 0ebf 56b1 df3e
00000220: 4ba8 ef3e f883 96be 54bd 8b3e 6a35 6cbe
00000230: 0bef 0e3b 9873 f13c a37a 213e 3df3 8fbd
00000240: 864d 5e3f 07f8 8e3f 8016 95be 1ba5 87bd
00000250: 0373 41bf 3f21 f1bd 2b37 2c3e 7a9a f9be
00000260: 8c10 80bf 22bc 07bf 9468 f93e 1b81 ab3e
00000270: c837 de3e ff4d c93e 9864 d8bd 9968 80bd
00000280: 232e 9a3d e880 eebd 6c44 a53e 6d4c 383f
00000290: 0a5d 7bbe 4a74 173e 3e95 3f3d 9fb3 7dbe
000002a0: d690 343e 800e fabe 375b cabd b6eb d2be
000002b0: 0bb8 33be 10c2 293f e5d4 98bf 211c a8c0
000002c0: 6f2e 0abd 4b24 3fbd 3007 1cbd 8de3 283d
000002d0: f331 ffbe be21 ee3e ca08 cd3b 801c 15be
000002e0: 914a cfbe a93e c53e 9582 acbe f568 1e3f
000002f0: 6c48 8240 dc60 69c0 46ac af3e 61e1 78be
00000300: 699c 1b3e d068 e1be f386 e5bd c82d bebd
00000310: d79b 673e fbec e03c 079c 893e e558 173f
00000320: 8492 c5bc 161e 45be 48f2 623e 3c5e 2a3f
00000330: db1f f7bf 2a1d e4c0 da3e 503e 1a8a 133f
00000340: 35bc 83be f7b0 2bbf 4669 60be 973a 11bf
00000350: 0570 fb3d b8c7 ad3c 7394 02be fb0a 233d
00000360: 257b 1abd 4aac 7bbe 953d c83e 2b5b eb3e
00000370: 4231 6ebf 8ffa 3d3e 11ca d8be 710a 00be
00000380: 51f0 14bf e846 babc 28c4 cb3e 4c26 98be
00000390: da78 223f 2a94 bcbe 221c bc3d 4b31 583d
000003a0: 458d 2f3d e0cb 58be 7bc2 813e de36 143f
000003b0: 2e99 903c 1af5 28be 4285 073d 7d94 973f
000003c0: 2716 c13f 9dd9 0ec0 3662 e9be 3d18 953d
000003d0: ebed f43e 5592 de3e 249a 523f 4e6f f53e
000003e0: 4a2c e13c 97af 78bd afe0 1fbd d863 2dbd
000003f0: a9bc 00bf 5d8a f13e bc45 fa3d fb47 103e

action_dict.encoder.bias f4 [32]
-0.09719602 -0.12512131 -0.2014283 0.09109502 -0.13854957 0.0547515 -0.13109665 0.021737572
-0.25399458 0.18651892 0.19011149 -0.02180755 -0.40579075 -0.010381306 -0.025803322 -0.04634271
0.33552605 -0.18411548 -0.019614825 0.01865917 -0.08550962 -0.053004675 -0.17309918 0.26635972
-0.04399335 0.057209674 0.03638627 -0.26431802 -0.04965082 0.047890563 -0.0801915 0.08394272
00000000: b50e c7bd cd1f 00be 3843 4ebe 0790 ba3d
00000010: f0df 0dbe 1c43 603d 333e 06be fe12 b23c
00000020: 940b 82be d1fe 3e3e 96ac 423e bfa5 b2bc
00000030: cec3 cfbe 5a16 2abc 7d61 d3bc dad1 3dbd
00000040: 12ca ab3e c588 3cbe 45af a0bc 1edb 983c
00000050: ab1f afbd 6e1b 59bd e940 31be 4d60 883e
00000060: 5f32 34bd b154 6a3d c509 153d b154 87be
00000070: a95e 4bbd e528 443d 713b a4bd 29ea ab3d

action_dict.f_module.weight f4 [32, 32]
-0.031564336 0.8200099 -0.22288018 -0.6772697 0.320212 -0.33263314 -0.013339614 -0.13342682
0.3125385 0.08069057 0.009723165 -1.4256165 0.38935718 -0.13295856 -0.18038774 0.7475857
0.78599256 0.23235136 0.0018928208 -0.21093746 0.47128657 -0.27371198 0.26567167 0.88804007
-2.3818204 -0.30504888 -1.7109127 -0.03604706 -0.94663644 -1.5090885 0.737826 1.3545506
0.25888875 -0.33136132 -0.4454668 -0.29503977 -0.3449588 0.50874287 -1.0043224 0.30452707
0.1588039 -1.6785675 0.63346356 1.3880987 0.58540076 -0.21334086 0.09389891 -0.07012708
0.6120201 0.031382773 0.13455753 -0.14240946 0.20365877 -0.20133622 0.7695301 -0.9568365
-0.44215062 -1.3941659 0.071372226 -0.31210488 -0.0006494112 0.7858379 -1.2348924 0.00037323992
-0.89058244 -1.1271908 -0.16999225 1.7076259 -0.15301909 0.39068782 -0.369875 -0.21558443
-0.24477941 -0.28369856 0.6686813 0.181581 -0.12154266 0.013853327 0.4779197 -1.4578612
0.11457242 1.0130969 -0.46018323 -0.47547174 1.0376275 0.40564117 0.44233653 -0.016531397
-0.56200737 -0.22080626 -1.5505754 0.81939864 0.100758664 0.41075096 -0.0015906972 1.1660937
0.060085863 -0.42590728 -0.2512829 0.4480358 -0.4665148 0.24888639 0.1477872 0.41346186
0.3800594 0.63160485 0.33724445 0.39975291 0.44412196 -0.14465497 0.789285 -2.175323
0.24494 -0.43577504 -0.21483515 -0.14007582 -0.40054348 -0.13756543 0.67140377 -0.3328569
-1.017741 2.1303482 0.43274432 -0.58439684 -0.5061133 0.82549953 0.23883292 0.49525332
0.4793477 0.011874605 0.02240979 -1.0830268 1.6565615 0.34293684 -0.09920609 -0.06779166
1.2681868 -0.45725283 -0.76885414 -0.054141335 1.1011252 0.38130632 -0.21982646 0.31749675
-0.39094046 -1.1470058 0.0027096777 -0.4393386 0.24676201 -0.015248009 -0.40041804 0.12738436
0.81149775 -0.4126367 0.3736485 0.67654455 0.24768493 -0.5567511 -0.72241116 -0.9557101
-0.41984075 0.5356767 -0.279368 -1.3819144 0.31022096 0.5002292 -0.058342587 0.0377898
-0.3754044 2.1028464 -0.5407106 -0.9089751 0.8669832 -0.051827617 -0.44172096 0.12973127
0.040550403 -0.04838591 0.30464315 -0.11270946 0.8101048 0.059821755 -0.155121 1.2261941
-0.12579922 0.21589923 -1.0069464 0.7784546 -1.5989419 -1.4294122 0.746656 -1.1757113
0.4387268 0.6986674 -0.2574383 -0.20527525 0.02354746 -1.0506394 0.37178054 -0.15891872
-0.30416027 -0.49504906 0.35930413 -0.649603 -0.1365678 -0.6860023 0.036534764 -0.5979096
2.2328904 0.022801183 -0.08489044 -0.34274176 -0.59716016 -0.7290574 0.41404653 0.22436179
-1.8380803 -2.7237217 -0.43208295 -0.48418793 -0.19482341 -0.31606856 -0.0029385362 1.0785851
0.056608003 0.046576068 0.40792337 0.84302235 -0.039157357 -0.5918078 1.0109619 -0.39303118
0.0517568 1.7306346 -0.02101466 -0.26864505 0.058768343 -0.6236378 -0.08898656 0.27892318
0.7005938 -0.95948905 0.119231805 0.19161852 -0.026229903 0.58075905 -1.0267056 -0.30532673
-0.3714877 0.58009326 -0.096286155 0.045755077 0.08282538 0.6186858 0.3173484 -0.4879592
00000000: 9b49 01bd 2bec 513f b43a 64be 8c61 2dbf
00000010: d4f2 a33e e44e aabe 658e 5abc 0aa1 08be
00000020: 0c05 a03e 1941 a53d e94d 1f3c 9a7a b6bf
00000030: d359 c73e 4a26 08be 90b7 38be c761 3f3f
00000040: cf36 493f 84ed 6d3e 8718 f83a fdff 57be
00000050: 794c f13e fa23 8cbe 1e06 883e 9856 633f
00000060: bf6f 18c0 5e2f 9cbe 30ff dabf 15a6 13bd
00000070: c456 72bf d029 c1bf 2ae2 3c3f ea61 ad3f
00000080: 118d 843e 31a8 a9be 3914 e4be 740f 97be
00000090: 719e b0be f93c 023f a38d 80bf f9ea 9b3e
000000a0: 7d9d 223e 4ddb d6bf ab2a 223f 38ad b13f
000000b0: d3dc 153f 0776 5abe 124e c03d c99e 8fbd
000000c0: 59ad 1c3f 398b 003d 73c9 093e c9d3 11be
000000d0: ed8b 503e 152b 4ebe edff 443f 3df3 74bf
000000e0: 9161 e2be 0774 b2bf 9a2b 923d 36cc 9fbe
000000f0: 3f3d 2aba ac2c 493f f410 9ebf 6aaf c339
00000100: 36fd 63bf ca47 90bf 7312 2ebe 7c93 da3f
00000110: 09b1 1cbe 3c08 c83e 4260 bdbe 2ac2 5cbe
00000120: 74a7 7abe f040 91be b32e 2b3f 5ff0 393e
00000130: 5ceb f8bd 11f9 623c e4b1 f43e 329b babf
00000140: f2a4 ea3d 29ad 813f 239d ebbe 0871 f3be
00000150: fad0 843f 33b0 cf3e ef79 e23e da6c 87bc
00000160: b7df 0fbf 091b 62be 4179 c6bf 1cc4 513f
00000170: 8f5a ce3d f34d d23e f17e d0ba 8f42 953f
00000180: 981c 763d 8510 dabe 27a8 80be f364 e53e
00000190: 07db eebe 13dc 7e3e 8755 173e 46b1 d33e
000001a0: 2597 c23e dbb0 213f 4eab ac3e 6aac cc3e
000001b0: f463 e33e 6f20 14be 950e 4a3f 7e38 0bc0
000001c0: 8dd1 7a3e e81d dfbe bffd 5bbe 0970 0fbe
000001d0: 0914 cdbe f4dd 0cbe 1ee1 2b3f 386c aabe
000001e0: 5645 82bf a057 0840 aa90 dd3e 089b 15bf
000001f0: a490 01bf f053 533f 9e90 743e d891 fd3e
00000200: 106d f53e b48d 423c bc94 b73c 9fa0 8abf
00000210: 350a d43f 6b95 af3e 902c cbbd 5bd6 8abd
00000220: f253 a23f 0b1d eabe a0d3 44bf 4ec3 5dbd
00000230: acf1 8c3f 953a c33e 301a 61be ef8e a23e
00000240: 5929 c8be 16d1 92bf d994 313b fdf0 e0be
00000250: 2eaf 7c3e c9d2 79bc 9803 cdbe 0c71 023e
00000260: 51be 4f3f 1e45 d3be db4e bf3e 0632 2d3f
00000270: 1ea1 7d3e 3d87 0ebf f0ef 38bf 6ba9 74bf
00000280: 5ef5 d6be 1c22 093f 5309 8fbe 92e2 b0bf
00000290: 48d5 9e3e 050f 003f a3f8 6ebd 7ac9 1a3d
000002a0: 0135 c0be 0995 0640 036c 0abf 98b2 68bf
000002b0: 9cf2 5d3f 3249 54bd 4029 e2be 46d8 043e
000002c0: 2e18 263d 4e30 46bd 30fa 9b3e 38d4 e6bd
000002d0: 0763 4f3f a807 753d 0ad8 1ebe eef3 9c3f
000002e0: 83d1 00be b014 5d3e 9fe3 80bf cd48 473f
000002f0: 21aa ccbf fbf6 b6bf d924 3f3f b57d 96bf
00000300: cda0 e03e dedb 323f f4ce 83be ad33 52be
00000310: 9ae6 c03c 5a7b 86bf 055a be3e 97bb 22be
00000320: e5ba 9bbe 1277 fdbe b6f6 b73e 624c 26bf
00000330: 6ed8 0bbe d99d 2fbf 7aa5 153d 9b10 19bf
00000340: ade7 0e40 8cc9 ba3c 0adb adbd d97b afbe
00000350: 7ddf 18bf 81a3 3abf e8fd d33e 19bf 653e
00000360: 3746 ebbf 7551 2ec0 fa39 ddbe 7be7 f7be
00000370: ca7f 47be bdd3 a1be 7594 40bb 140f 8a3f
00000380: cbdd 673d 8cc6 3e3d 55db d03e 50d0 573f
00000390: 7763 20bd b780 17bf 3367 813f 623b c9be
000003a0: f0fe 533d 6f85 dd3f f026 acbc d88b 89be
000003b0: 13b7 703d baa6 1fbf 963e b6bd 05cf 8e3e
000003c0: 1e5a 333f 13a1 75bf ce2f f43d a537 443e
000003d0: 18e0 d6bc a0ac 143f 176b 83bf c953 9cbe
000003e0: a333 bebe fe80 143f ad31 c5bd ad69 3b3d
000003f0: 5aa0 a93d 3162 1e3f 7d7b a23e cad5 f9be

action_dict.f_module.bias f4 [32]
0.10342498 -0.042314194 -0.16882977 -0.33087245 -0.32939416 0.03429988 -0.054247085 0.087239936
0.07218393 -0.026091592 0.10366491 0.024958054 -0.04526161 0.2615196 -0.10360276 0.047945883
0.02416856 -0.096422926 -0.32855773 -0.021253612 -0.012836725 -0.38074604 -0.003414359 -0.18811134
-0.04340207 -0.040232144 0.088342704 -0.046943415 0.13227688 0.034507994 0.07374028 -0.0059900107
00000000: 7ad0 d33d a651 2dbd b6e1 2cbe 1d68 a9be
00000010: 5aa6 a8be 087e 0c3d 3132 5ebd daaa b23d
00000020: 2bd5 933d 09be d5bc 454e d43d d574 cc3c
00000030: 3d64 39bd e6e5 853e af2d d4bd e762 443d
00000040: 25fd c53c 6279 c5bd b838 a8be 0e1c aebc
00000050: 2151 52bc 25f1 c2be 70c3 5fbb 42a0 40be
00000060: 5ec6 31bd 76ca 24bd 05ed b43d bd47 40bd
00000070: 9773 073e 4158 0d3d 2505 973d da47 c4bb

action_dict.f_modules.0.weight f4 [32, 32]
-0.031564336 0.8200099 -0.22288018 -0.6772697 0.320212 -0.33263314 -0.013339614 -0.13342682
0.3125385 0.08069057 0.009723165 -1.4256165 0.38935718 -0.13295856 -0.18038774 0.7475857
0.78599256 0.23235136 0.0018928208 -0.21093746 0.47128657 -0.27371198 0.26567167 0.88804007
-2.3818204 -0.30504888 -1.7109127 -0.03604706 -0.94663644 -1.5090885 0.737826 1.3545506
0.25888875 -0.33136132 -0.4454668 -0.29503977 -0.3449588 0.50874287 -1.0043224 0.30452707
0.1588039 -1.6785675 0.63346356 1.3880987 0.58540076 -0.21334086 0.09389891 -0.07012708
0.6120201 0.031382773 0.13455753 -0.14240946 0.20365877 -0.20133622 0.7695301 -0.9568365
-0.44215062 -1.3941659 0.071372226 -0.31210488 -0.0006494112 0.7858379 -1.2348924 0.00037323992
-0.89058244 -1.1271908 -0.16999225 1.7076259 -0.15301909 0.39068782 -0.369875 -0.21558443
-0.24477941 -0.28369856 0.6686813 0.181581 -0.12154266 0.013853327 0.4779197 -1.4578612
0.11457242 1.0130969 -0.46018323 -0.47547174 1.0376275 0.40564117 0.44233653 -0.016531397
-0.56200737 -0.22080626 -1.5505754 0.81939864 0.100758664 0.41075096 -0.0015906972 1.1660937
0.060085863 -0.42590728 -0.2512829 0.4480358 -0.4665148 0.24888639 0.1477872 0.41346186
0.3800594 0.63160485 0.33724445 0.39975291 0.44412196 -0.14465497 0.789285 -2.175323
0.24494 -0.43577504 -0.21483515 -0.14007582 -0.40054348 -0.13756543 0.67140377 -0.3328569
-1.017741 2.1303482 0.43274432 -0.58439684 -0.5061133 0.82549953 0.23883292 0.49525332
0.4793477 0.011874605 0.02240979 -1.0830268 1.6565615 0.34293684 -0.09920609 -0.06779166
1.2681868 -0.45725283 -0.76885414 -0.054141335 1.1011252 0.38130632 -0.21982646 0.31749675
-0.39094046 -1.1470058 0.0027096777 -0.4393386 0.24676201 -0.015248009 -0.40041804 0.12738436
0.81149775 -0.4126367 0.3736485 0.67654455 0.24768493 -0.5567511 -0.72241116 -0.9557101
-0.41984075 0.5356767 -0.279368 -1.3819144 0.31022096 0.5002292 -0.058342587 0.0377898
-0.3754044 2.1028464 -0.5407106 -0.9089751 0.8669832 -0.051827617 -0.44172096 0.12973127
0.040550403 -0.04838591 0.30464315 -0.11270946 0.8101048 0.059821755 -0.155121 1.2261941
-0.12579922 0.21589923 -1.0069464 0.7784546 -1.5989419 -1.4294122 0.746656 -1.1757113
0.4387268 0.6986674 -0.2574383 -0.20527525 0.02354746 -1.0506394 0.37178054 -0.15891872
-0.30416027 -0.49504906 0.35930413 -0.649603 -0.1365678 -0.6860023 0.036534764 -0.5979096
2.2328904 0.022801183 -0.08489044 -0.34274176 -0.59716016 -0.7290574 0.41404653 0.22436179
-1.8380803 -2.7237217 -0.43208295 -0.48418793 -0.19482341 -0.31606856 -0.0029385362 1.0785851
0.056608003 0.046576068 0.40792337 0.84302235 -0.039157357 -0.5918078 1.0109619 -0.39303118
0.0517568 1.7306346 -0.02101466 -0.26864505 0.058768343 -0.6236378 -0.08898656 0.27892318
0.7005938 -0.95948905 0.119231805 0.19161852 -0.026229903 0.58075905 -1.0267056 -0.30532673
-0.3714877 0.58009326 -0.096286155 0.045755077 0.08282538 0.6186858 0.3173484 -0.4879592
00000000: 9b49 01bd 2bec 513f b43a 64be 8c61 2dbf
00000010: d4f2 a33e e44e aabe 658e 5abc 0aa1 08be
00000020: 0c05 a03e 1941 a53d e94d 1f3c 9a7a b6bf
00000030: d359 c73e 4a26 08be 90b7 38be c761 3f3f
00000040: cf36 493f 84ed 6d3e 8718 f83a fdff 57be
00000050: 794c f13e fa23 8cbe 1e06 883e 9856 633f
00000060: bf6f 18c0 5e2f 9cbe 30ff dabf 15a6 13bd
00000070: c456 72bf d029 c1bf 2ae2 3c3f ea61 ad3f
00000080: 118d 843e 31a8 a9be 3914 e4be 740f 97be
00000090: 719e b0be f93c 023f a38d 80bf f9ea 9b3e
000000a0: 7d9d 223e 4ddb d6bf ab2a 223f 38ad b13f
000000b0: d3dc 153f 0776 5abe 124e c03d c99e 8fbd
000000c0: 59ad 1c3f 398b 003d 73c9 093e c9d3 11be
000000d0: ed8b 503e 152b 4ebe edff 443f 3df3 74bf
000000e0: 9161 e2be 0774 b2bf 9a2b 923d 36cc 9fbe
000000f0: 3f3d 2aba ac2c 493f f410 9ebf 6aaf c339
00000100: 36fd 63bf ca47 90bf 7312 2ebe 7c93 da3f
00000110: 09b1 1cbe 3c08 c83e 4260 bdbe 2ac2 5cbe
00000120: 74a7 7abe f040 91be b32e 2b3f 5ff0 393e
00000130: 5ceb f8bd 11f9 623c e4b1 f43e 329b babf
00000140: f2a4 ea3d 29ad 813f 239d ebbe 0871 f3be
00000150: fad0 843f 33b0 cf3e ef79 e23e da6c 87bc
00000160: b7df 0fbf 091b 62be 4179 c6bf 1cc4 513f
00000170: 8f5a ce3d f34d d23e f17e d0ba 8f42 953f
00000180: 981c 763d 8510 dabe 27a8 80be f364 e53e
00000190: 07db eebe 13dc 7e3e 8755 173e 46b1 d33e
000001a0: 2597 c23e dbb0 213f 4eab ac3e 6aac cc3e
000001b0: f463 e33e 6f20 14be 950e 4a3f 7e38 0bc0
000001c0: 8dd1 7a3e e81d dfbe bffd 5bbe 0970 0fbe
000001d0: 0914 cdbe f4dd 0cbe 1ee1 2b3f 386c aabe
000001e0: 5645 82bf a057 0840 aa90 dd3e 089b 15bf
000001f0: a490 01bf f053 533f 9e90 743e d891 fd3e
00000200: 106d f53e b48d 423c bc94 b73c 9fa0 8abf
00000210: 350a d43f 6b95 af3e 902c cbbd 5bd6 8abd
00000220: f253 a23f 0b1d eabe a0d3 44bf 4ec3 5dbd
00000230: acf1 8c3f 953a c33e 301a 61be ef8e a23e
00000240: 5929 c8be 16d1 92bf d994 313b fdf0 e0be
00000250: 2eaf 7c3e c9d2 79bc 9803 cdbe 0c71 023e
00000260: 51be 4f3f 1e45 d3be db4e bf3e 0632 2d3f
00000270: 1ea1 7d3e 3d87 0ebf f0ef 38bf 6ba9 74bf
00000280: 5ef5 d6be 1c22 093f 5309 8fbe 92e2 b0bf
00000290: 48d5 9e3e 050f 003f a3f8 6ebd 7ac9 1a3d
000002a0: 0135 c0be 0995 0640 036c 0abf 98b2 68bf
000002b0: 9cf2 5d3f 3249 54bd 4029 e2be 46d8 043e
000002c0: 2e18 263d 4e30 46bd 30fa 9b3e 38d4 e6bd
000002d0: 0763 4f3f a807 753d 0ad8 1ebe eef3 9c3f
000002e0: 83d1 00be b014 5d3e 9fe3 80bf cd48 473f
000002f0: 21aa ccbf fbf6 b6bf d924 3f3f b57d 96bf
00000300: cda0 e03e dedb 323f f4ce 83be ad33 52be
00000310: 9ae6 c03c 5a7b 86bf 055a be3e 97bb 22be
00000320: e5ba 9bbe 1277 fdbe b6f6 b73e 624c 26bf
00000330: 6ed8 0bbe d99d 2fbf 7aa5 153d 9b10 19bf
00000340: ade7 0e40 8cc9 ba3c 0adb adbd d97b afbe
00000350: 7ddf 18bf 81a3 3abf e8fd d33e 19bf 653e
00000360: 3746 ebbf 7551 2ec0 fa39 ddbe 7be7 f7be
00000370: ca7f 47be bdd3 a1be 7594 40bb 140f 8a3f
00000380: cbdd 673d 8cc6 3e3d 55db d03e 50d0 573f
00000390: 7763 20bd b780 17bf 3367 813f 623b c9be
000003a0: f0fe 533d 6f85 dd3f f026 acbc d88b 89be
000003b0: 13b7 703d baa6 1fbf 963e b6bd 05cf 8e3e
000003c0: 1e5a 333f 13a1 75bf ce2f f43d a537 443e
000003d0: 18e0 d6bc a0ac 143f 176b 83bf c953 9cbe
000003e0: a333 bebe fe80 143f ad31 c5bd ad69 3b3d
000003f0: 5aa0 a93d 3162 1e3f 7d7b a23e cad5 f9be

action_dict.f_modules.0.bias f4 [32]
0.10342498 -0.042314194 -0.16882977 -0.33087245 -0.32939416 0.03429988 -0.054247085 0.087239936
0.07218393 -0.026091592 0.10366491 0.024958054 -0.04526161 0.2615196 -0.10360276 0.047945883
0.02416856 -0.096422926 -0.32855773 -0.021253612 -0.012836725 -0.38074604 -0.003414359 -0.18811134
-0.04340207 -0.040232144 0.088342704 -0.046943415 0.13227688 0.034507994 0.07374028 -0.0059900107
00000000: 7ad0 d33d a651 2dbd b6e1 2cbe 1d68 a9be
00000010: 5aa6 a8be 087e 0c3d 3132 5ebd daaa b23d
00000020: 2bd5 933d 09be d5bc 454e d43d d574 cc3c
00000030: 3d64 39bd e6e5 853e af2d d4bd e762 443d
00000040: 25fd c53c 6279 c5bd b838 a8be 0e1c aebc
00000050: 2151 52bc 25f1 c2be 70c3 5fbb 42a0 40be
00000060: 5ec6 31bd 76ca 24bd 05ed b43d bd47 40bd
00000070: 9773 073e 4158 0d3d 2505 973d da47 c4bb

action_dict.f_modules.1.weight f4 [32, 32]
-0.031564336 0.8200099 -0.22288018 -0.6772697 0.320212 -0.33263314 -0.013339614 -0.13342682
0.3125385 0.08069057 0.009723165 -1.4256165 0.38935718 -0.13295856 -0.18038774 0.7475857
0.78599256 0.23235136 0.0018928208 -0.21093746 0.47128657 -0.27371198 0.26567167 0.88804007
-2.3818204 -0.30504888 -1.7109127 -0.03604706 -0.94663644 -1.5090885 0.737826 1.3545506
0.25888875 -0.33136132 -0.4454668 -0.29503977 -0.3449588 0.50874287 -1.0043224 0.30452707
0.1588039 -1.6785675 0.63346356 1.3880987 0.58540076 -0.21334086 0.09389891 -0.07012708
0.6120201 0.031382773 0.13455753 -0.14240946 0.20365877 -0.20133622 0.7695301 -0.9568365
-0.44215062 -1.3941659 0.071372226 -0.31210488 -0.0006494112 0.7858379 -1.2348924 0.00037323992
-0.89058244 -1.1271908 -0.16999225 1.7076259 -0.15301909 0.39068782 -0.369875 -0.21558443
-0.24477941 -0.28369856 0.6686813 0.181581 -0.12154266 0.013853327 0.4779197 -1.4578612
0.11457242 1.0130969 -0.46018323 -0.47547174 1.0376275 0.40564117 0.44233653 -0.016531397
-0.56200737 -0.22080626 -1.5505754 0.81939864 0.100758664 0.41075096 -0.0015906972 1.1660937
0.060085863 -0.42590728 -0.2512829 0.4480358 -0.4665148 0.24888639 0.1477872 0.41346186
0.3800594 0.63160485 0.33724445 0.39975291 0.44412196 -0.14465497 0.789285 -2.175323
0.24494 -0.43577504 -0.21483515 -0.14007582 -0.40054348 -0.13756543 0.67140377 -0.3328569
-1.017741 2.1303482 0.43274432 -0.58439684 -0.5061133 0.82549953 0.23883292 0.49525332
0.4793477 0.011874605 0.02240979 -1.0830268 1.6565615 0.34293684 -0.09920609 -0.06779166
1.2681868 -0.45725283 -0.76885414 -0.054141335 1.1011252 0.38130632 -0.21982646 0.31749675
-0.39094046 -1.1470058 0.0027096777 -0.4393386 0.24676201 -0.015248009 -0.40041804 0.12738436
0.81149775 -0.4126367 0.3736485 0.67654455 0.24768493 -0.5567511 -0.72241116 -0.9557101
-0.41984075 0.5356767 -0.279368 -1.3819144 0.31022096 0.5002292 -0.058342587 0.0377898
-0.3754044 2.1028464 -0.5407106 -0.9089751 0.8669832 -0.051827617 -0.44172096 0.12973127
0.040550403 -0.04838591 0.30464315 -0.11270946 0.8101048 0.059821755 -0.155121 1.2261941
-0.12579922 0.21589923 -1.0069464 0.7784546 -1.5989419 -1.4294122 0.746656 -1.1757113
0.4387268 0.6986674 -0.2574383 -0.20527525 0.02354746 -1.0506394 0.37178054 -0.15891872
-0.30416027 -0.49504906 0.35930413 -0.649603 -0.1365678 -0.6860023 0.036534764 -0.5979096
2.2328904 0.022801183 -0.08489044 -0.34274176 -0.59716016 -0.7290574 0.41404653 0.22436179
-1.8380803 -2.7237217 -0.43208295 -0.48418793 -0.19482341 -0.31606856 -0.0029385362 1.0785851
0.056608003 0.046576068 0.40792337 0.84302235 -0.039157357 -0.5918078 1.0109619 -0.39303118
0.0517568 1.7306346 -0.02101466 -0.26864505 0.058768343 -0.6236378 -0.08898656 0.27892318
0.7005938 -0.95948905 0.119231805 0.19161852 -0.026229903 0.58075905 -1.0267056 -0.30532673
-0.3714877 0.58009326 -0.096286155 0.045755077 0.08282538 0.6186858 0.3173484 -0.4879592
00000000: 9b49 01bd 2bec 513f b43a 64be 8c61 2dbf
00000010: d4f2 a33e e44e aabe 658e 5abc 0aa1 08be
00000020: 0c05 a03e 1941 a53d e94d 1f3c 9a7a b6bf
00000030: d359 c73e 4a26 08be 90b7 38be c761 3f3f
00000040: cf36 493f 84ed 6d3e 8718 f83a fdff 57be
00000050: 794c f13e fa23 8cbe 1e06 883e 9856 633f
00000060: bf6f 18c0 5e2f 9cbe 30ff dabf 15a6 13bd
00000070: c456 72bf d029 c1bf 2ae2 3c3f ea61 ad3f
00000080: 118d 843e 31a8 a9be 3914 e4be 740f 97be
00000090: 719e b0be f93c 023f a38d 80bf f9ea 9b3e
000000a0: 7d9d 223e 4ddb d6bf ab2a 223f 38ad b13f
000000b0: d3dc 153f 0776 5abe 124e c03d c99e 8fbd
000000c0: 59ad 1c3f 398b 003d 73c9 093e c9d3 11be
000000d0: ed8b 503e 152b 4ebe edff 443f 3df3 74bf
000000e0: 9161 e2be 0774 b2bf 9a2b 923d 36cc 9fbe
000000f0: 3f3d 2aba ac2c 493f f410 9ebf 6aaf c339
00000100: 36fd 63bf ca47 90bf 7312 2ebe 7c93 da3f
00000110: 09b1 1cbe 3c08 c83e 4260 bdbe 2ac2 5cbe
00000120: 74a7 7abe f040 91be b32e 2b3f 5ff0 393e
00000130: 5ceb f8bd 11f9 623c e4b1 f43e 329b babf
00000140: f2a4 ea3d 29ad 813f 239d ebbe 0871 f3be
00000150: fad0 843f 33b0 cf3e ef79 e23e da6c 87bc
00000160: b7df 0fbf 091b 62be 4179 c6bf 1cc4 513f
00000170: 8f5a ce3d f34d d23e f17e d0ba 8f42 953f
00000180: 981c 763d 8510 dabe 27a8 80be f364 e53e
00000190: 07db eebe 13dc 7e3e 8755 173e 46b1 d33e
000001a0: 2597 c23e dbb0 213f 4eab ac3e 6aac cc3e
000001b0: f463 e33e 6f20 14be 950e 4a3f 7e38 0bc0
000001c0: 8dd1 7a3e e81d dfbe bffd 5bbe 0970 0fbe
000001d0: 0914 cdbe f4dd 0cbe 1ee1 2b3f 386c aabe
000001e0: 5645 82bf a057 0840 aa90 dd3e 089b 15bf
000001f0: a490 01bf f053 533f 9e90 743e d891 fd3e
00000200: 106d f53e b48d 423c bc94 b73c 9fa0 8abf
00000210: 350a d43f 6b95 af3e 902c cbbd 5bd6 8abd
00000220: f253 a23f 0b1d eabe a0d3 44bf 4ec3 5dbd
00000230: acf1 8c3f 953a c33e 301a 61be ef8e a23e
00000240: 5929 c8be 16d1 92bf d994 313b fdf0 e0be
00000250: 2eaf 7c3e c9d2 79bc 9803 cdbe 0c71 023e
00000260: 51be 4f3f 1e45 d3be db4e bf3e 0632 2d3f
00000270: 1ea1 7d3e 3d87 0ebf f0ef 38bf 6ba9 74bf
00000280: 5ef5 d6be 1c22 093f 5309 8fbe 92e2 b0bf
00000290: 48d5 9e3e 050f 003f a3f8 6ebd 7ac9 1a3d
000002a0: 0135 c0be 0995 0640 036c 0abf 98b2 68bf
000002b0: 9cf2 5d3f 3249 54bd 4029 e2be 46d8 043e
000002c0: 2e18 263d 4e30 46bd 30fa 9b3e 38d4 e6bd
000002d0: 0763 4f3f a807 753d 0ad8 1ebe eef3 9c3f
000002e0: 83d1 00be b014 5d3e 9fe3 80bf cd48 473f
000002f0: 21aa ccbf fbf6 b6bf d924 3f3f b57d 96bf
00000300: cda0 e03e dedb 323f f4ce 83be ad33 52be
00000310: 9ae6 c03c 5a7b 86bf 055a be3e 97bb 22be
00000320: e5ba 9bbe 1277 fdbe b6f6 b73e 624c 26bf
00000330: 6ed8 0bbe d99d 2fbf 7aa5 153d 9b10 19bf
00000340: ade7 0e40 8cc9 ba3c 0adb adbd d97b afbe
00000350: 7ddf 18bf 81a3 3abf e8fd d33e 19bf 653e
00000360: 3746 ebbf 7551 2ec0 fa39 ddbe 7be7 f7be
00000370: ca7f 47be bdd3 a1be 7594 40bb 140f 8a3f
00000380: cbdd 673d 8cc6 3e3d 55db d03e 50d0 573f
00000390: 7763 20bd b780 17bf 3367 813f 623b c9be
000003a0: f0fe 533d 6f85 dd3f f026 acbc d88b 89be
000003b0: 13b7 703d baa6 1fbf 963e b6bd 05cf 8e3e
000003c0: 1e5a 333f 13a1 75bf ce2f f43d a537 443e
000003d0: 18e0 d6bc a0ac 143f 176b 83bf c953 9cbe
000003e0: a333 bebe fe80 143f ad31 c5bd ad69 3b3d
000003f0: 5aa0 a93d 3162 1e3f 7d7b a23e cad5 f9be

action_dict.f_modules.1.bias f4 [32]
0.10342498 -0.042314194 -0.16882977 -0.33087245 -0.32939416 0.03429988 -0.054247085 0.087239936
0.07218393 -0.026091592 0.10366491 0.024958054 -0.04526161 0.2615196 -0.10360276 0.047945883
0.02416856 -0.096422926 -0.32855773 -0.021253612 -0.012836725 -0.38074604 -0.003414359 -0.18811134
-0.04340207 -0.040232144 0.088342704 -0.046943415 0.13227688 0.034507994 0.07374028 -0.0059900107
00000000: 7ad0 d33d a651 2dbd b6e1 2cbe 1d68 a9be
00000010: 5aa6 a8be 087e 0c3d 3132 5ebd daaa b23d
00000020: 2bd5 933d 09be d5bc 454e d43d d574 cc3c
00000030: 3d64 39bd e6e5 853e af2d d4bd e762 443d
00000040: 25fd c53c 6279 c5bd b838 a8be 0e1c aebc
00000050: 2151 52bc 25f1 c2be 70c3 5fbb 42a0 40be
00000060: 5ec6 31bd 76ca 24bd 05ed b43d bd47 40bd
00000070: 9773 073e 4158 0d3d 2505 973d da47 c4bb
