model_save/simple_spread_ic3net/model.pt (torch_old, 42262 bytes, 13 tensors)

value_dict.value_body.weight f4 [32, 18]
000000 1c c1 46 bf c9 e3 cc bc e8 95 dc 3e b1 f2 f1 bf
       -0.7763841 -0.02501096 0.4308312 -1.8902189
000010 62 c1 28 bf 39 ee 30 3e 92 51 67 bf 28 24 4e be
       -0.6592008 0.17278375 -0.9035884 -0.2013098
000020 ed 7e 6d be 00 71 85 3e a2 de 14 bf bb e9 e0 bf
       -0.2319295 0.26062775 -0.5815221 -1.7571329
000030 41 54 0f 40 25 9d 28 3f 10 38 91 bd 6f 04 9e bd
       2.2395175 0.65864784 -0.07090771 -0.077156894
000040 a5 26 3d 3e 37 01 d9 3b 9a 80 f1 3f 9a 83 64 bf
       0.18471773 0.0066224593 1.8867371 -0.8926331
000050 c3 08 30 3d 5e 14 02 c0 ab 22 26 bf 7d 2c 5c be
       0.042977106 -2.032493 -0.6489665 -0.21501346
000060 bc 15 e5 be 9f e3 f0 bd b5 f8 8c bf b6 54 ce 3e
       -0.44743145 -0.11762165 -1.1013399 0.40299004
000070 59 8f cd 3f da 83 c6 3e 2e 41 cc 3e 64 18 5d 3f
       1.6059371 0.3877247 0.39893478 0.8636534
000080 cd e0 6a 3e 4b 38 ee bd bb 20 d7 3c 00 8d af bd
       0.22937317 -0.11631831 0.026260724 -0.085718155
000090 a6 da d5 3f a2 70 c5 3e 91 db b3 3e 07 3c dd 3f
       1.6707351 0.38562495 0.35128453 1.7283944
0000a0 b2 f6 98 be 69 a8 b3 3e 52 aa fc be 3f 15 de 3e
       -0.29875714 0.35089424 -0.49348694 0.43375584
0000b0 e4 8f 0d be 30 48 b3 3d f3 e3 a7 3f de 39 62 3f
       -0.13824421 0.08754003 1.311644 0.8836955
0000c0 c3 c1 bd bf e5 72 85 bf 3b b9 76 3b 93 0a 84 3c
       -1.4824756 -1.0425688 0.0037647027 0.016118323
0000d0 f5 88 06 3e 65 c1 c6 3d f3 f6 0e 40 96 3a 0b c0
       0.13138182 0.09704856 2.2338226 -2.1754508
0000e0 fa fc 76 3e 45 ec c5 be 59 9c 9a be a3 0b d9 3e
       0.2411994 -0.38656822 -0.3019741 0.4239169
0000f0 5c 1f 18 bf cc fb b7 3e d4 2b f2 be 9e 72 13 3f
       -0.5942285 0.35934293 -0.47299063 0.57596767
000100 8f c2 63 be ec 3a 16 3f bf 6e 3f 3f 23 79 81 bf
       -0.22242187 0.5868366 0.7477836 -1.0115093
000110 6e b7 a9 3c c7 d3 80 bd 2d a2 ab 3d 55 71 e4 bc
       0.020717349 -0.06290393 0.08380542 -0.027886072
000120 c3 01 b9 3d f1 7a af 3d fc 23 14 bf 2b aa fe 3f
       0.09033539 0.08568371 -0.5786741 1.9895681
000130 e9 c6 30 c0 40 ff 4c 3e e6 f8 59 c0 66 42 85 bf
       -2.7621405 0.20019245 -3.4058166 -1.0410888
000140 e2 42 65 bf ea 6e cd 3d 3f 63 33 40 05 3d de be
       -0.8955518 0.10030921 2.8029325 -0.4340593
000150 41 22 07 40 f2 f7 76 3f 42 42 b6 3d 95 71 ce bd
       2.1114657 0.96472085 0.088993564 -0.10080258
000160 0b 2c 10 be c3 f0 98 bd 5c f9 14 be 77 a3 9d 3d
       -0.14079301 -0.07467797 -0.14548248 0.07697194
000170 aa 5c 53 be bf da b3 3d cc 04 23 40 8f 99 d7 bf
       -0.20640817 0.08781957 2.5471678 -1.6843737
000180 a6 b9 2e 40 c4 98 f5 bf f1 61 22 40 8b 1f 01 c0
       2.730081 -1.9187245 2.5372279 -2.0175502
000190 b6 bf 2e c0 5c ba d8 3f 4e ef 26 c0 5b 19 f0 3f
       -2.730451 1.6931872 -2.608356 1.8757738
0001a0 17 28 31 be e4 b0 94 3d ec 43 a6 bd 5a 59 c9 bc
       -0.1730045 0.07260302 -0.08118424 -0.024578739
0001b0 82 4c db 3f d6 fc ec 3f 0a d1 5d bf e7 5c e2 3f
       1.7132723 1.851466 -0.86647093 1.7684602
0001c0 a4 d4 8a bf dd 67 e8 3e cc cd 0f bd e7 3c 9b 3f
       -1.0846143 0.4539174 -0.035108373 1.2127961
0001d0 8a 25 5f be b6 1e 69 3e 7f 28 30 3f d3 c4 a0 bf
       -0.21791664 0.22765622 0.6881179 -1.2560066
0001e0 e6 0c a3 be 13 b5 98 3f dd 01 ad bb 1c 44 85 bd
       -0.31845778 1.193026 -0.005279763 -0.065071315
0001f0 95 8b 50 bd b5 fe 5c be 7c cf a3 bf 02 a8 e3 be
       -0.050914366 -0.21581538 -1.2797694 -0.44464117
000200 6b cd 19 3f cc bc f5 bf aa dc 24 bf 70 ad ac be
       0.6007907 -1.9198241 -0.64399207 -0.33726072
000210 ea ee 15 bf c2 68 ea be 28 2e dc be d2 a0 82 bc
       -0.5856768 -0.4578305 -0.43003964 -0.015945826
000220 99 e6 c4 3f d6 2d 2c 3f 10 7c 77 bd a8 14 8d bf
       1.5382873 0.6725744 -0.06042105 -1.1021929
000230 cd 94 65 bd ff d5 09 3e b5 47 53 3d 4f c2 59 bd
       -0.05605011 0.1346054 0.051582057 -0.053163823
000240 7b b5 e8 3e 6f b5 0e 3f 2b e1 9e 3f 61 2a 8b bf
       0.4545096 0.55745596 1.2412466 -1.0872308
000250 a0 29 88 be f1 d4 30 3f 14 a5 07 bf cc 69 26 3f
       -0.26594257 0.6907492 -0.52986264 0.65005183
000260 cd ab 1e 3f 3b ed cb 3f 58 cc c7 bf 58 47 77 bf
       0.619809 1.5931772 -1.5609236 -0.96593237
000270 39 db fd be b3 d8 5e bf 2a fe 2b 3d d2 b7 44 3d
       -0.49581316 -0.87049407 0.041990437 0.048026867
000280 87 48 2e bd 6d a8 81 bc 6c 32 d0 3e 60 07 4c 3e
       -0.042549636 -0.015827382 0.4066347 0.19924688
000290 64 23 15 c0 2c b3 dd 3e 11 2b 89 bf ba 62 e5 3e
       -2.330285 0.4330076 -1.0716268 0.44801885
0002a0 08 2b ce be 19 c9 42 be 9d 62 42 bf 2b e7 14 be
       -0.40267205 -0.19022025 -0.7593172 -0.14541309
0002b0 2f 95 8a 3f eb 35 70 be fc 79 f0 be 93 33 bb bf
       1.0826777 -0.23458068 -0.46968067 -1.4625114
0002c0 5d d9 e0 bd d3 92 10 bd 67 62 3f 3e fa d0 8a bd
       -0.10978959 -0.035296272 0.18689881 -0.0677814
0002d0 c9 59 03 be 02 84 2d 3f 3b 26 2d 3e e5 fb 4c 40
       -0.12827219 0.6777955 0.16909115 3.2028744
0002e0 e1 3d 63 bf c8 38 d2 3e e2 ea 3e bf 98 4c 5a 3e
       -0.88766295 0.41058946 -0.7457715 0.2131828
0002f0 64 5f 5b bf fd af 3c 3f fd dd 84 3f 4b c2 9a bf
       -0.8569243 0.73706037 1.0380245 -1.2090544
000300 d2 2b 10 3f 7f 9d bc bf 7f d8 92 3d d7 0b ef 3d
       0.56316864 -1.4735564 0.071701996 0.1167218
000310 74 b8 a8 3d 0a 2c c9 3d 58 20 a4 bf cb a5 d2 3e
       0.08238307 0.09822853 -1.282237 0.41142115
000320 63 2a 07 bf 76 e2 84 be 73 30 21 be 00 74 fe 3e
       -0.5279905 -0.25954026 -0.15741138 0.49697876
000330 f1 5e 6e be 97 06 9b 3e 8e 60 49 3e 26 a6 50 3f
       -0.23278405 0.30278465 0.19665739 0.8150352
000340 e5 e8 f7 3f c2 9d aa bf e2 f5 5d 3f 9a bc 8b bf
       1.9367949 -1.3329394 0.8670331 -1.0916932
000350 87 4d d5 bd 32 cf da bc 66 10 3d bd 0f 3e 72 3c
       -0.10415178 -0.026710127 -0.046158217 0.014785304
000360 10 e0 89 be b0 78 51 3f dc fa 82 bf b5 27 69 be
       -0.2692876 0.8182478 -1.0232806 -0.22769053
000370 6c f1 e4 3b e1 73 32 3f b3 9c 64 3e 5e f0 02 3f
       0.0069867875 0.6970807 0.22325401 0.5114802
000380 29 74 57 3f bd 94 9e 3f c6 6f 8f bf cc ba 16 bf
       0.8416162 1.2389141 -1.1205986 -0.5887878
000390 32 b7 8e 3f 6d 4b 05 c0 1b ad 84 bd f0 74 19 3e
       1.1149657 -2.0827286 -0.0647833 0.14986014
0003a0 ae b7 89 bd 67 33 a6 bd d0 b5 44 bd 51 e4 e1 be
       -0.06724487 -0.08115273 -0.048024952 -0.44119504
0003b0 20 0a 39 c0 f0 4e 86 bf c1 e0 89 be 2c 94 fa 3f
       -2.891243 -1.049284 -0.26929286 1.9576468
0003c0 9b da 82 be a1 bf da 3f cc 12 e7 3d 47 79 f6 3f
       -0.25557408 1.708973 0.11282882 1.9255761
0003d0 9d 77 b9 3e 1e c6 0a c0 56 4c fd 3e 28 f9 1a c0
       0.3622407 -2.168342 0.49472302 -2.4214573
0003e0 c4 8b 8a bd 2c 33 2f 3c 64 b6 88 bc 8c 3a 92 3d
       -0.067649394 0.010693353 -0.016688533 0.07140073
0003f0 47 e6 1a 3d 31 28 5d 3f bf b9 c3 3d c4 ab 79 3f
       0.037817266 0.8638945 0.09556913 0.9752772

value_dict.value_body.bias f4 [32]
000000 1c d5 8f 40 5c ec 97 40 bc 6f 81 40 21 a7 89 40
       4.4947643 4.7476025 4.0448895 4.3016515
000010 91 00 5e 40 6d ab 3d 3e 56 61 89 40 6e cc 85 40
       3.4687846 0.18522425 4.293132 4.181205
000020 60 e7 9d 40 a7 1f 05 bc 89 be 8b 40 3b 0e 84 40
       4.934494 -0.008125222 4.3670087 4.126737
000030 49 bd 79 40 01 3d 53 40 1f a2 a5 40 28 15 3c be
       3.902178 3.3005984 5.17604 -0.18367445
000040 2b bf 35 bf e6 86 82 40 5a db 23 40 0d 07 83 40
       -0.70994824 4.078967 2.5602632 4.0946107
000050 9b 31 6d 40 82 fc 8e 40 52 02 12 bf f4 d6 83 40
       3.7061527 4.4683237 -0.5703479 4.1199894
000060 09 4d 92 40 c3 a4 80 40 e5 58 80 40 c9 3c 77 40
       4.5719037 4.0201125 4.0108514 3.863085
000070 4d 8b ad bf d8 5d 6e 40 b1 ba f3 3e 6c 83 2c be
       -1.3558136 3.7244778 0.47603372 -0.16847008

value_dict.value_head.weight f4 [1, 32]
000000 38 89 a7 bf c9 4b b6 bf d9 0f 21 bf c1 e7 e0 bf
       -1.3088751 -1.4241878 -0.62914807 -1.7570726
000010 b3 dd 7d 3e c2 1d bc c0 1d 32 d2 bf 6c dc aa be
       0.24791603 -5.8786325 -1.6421543 -0.33371294
000020 45 ba a8 bf 2c 86 45 be ec 62 7a bf 6f 88 a7 be
       -1.3181845 -0.19289464 -0.9780719 -0.32721278
000030 61 65 93 bf 10 43 c6 be 85 cb a2 bf 5f 42 43 c0
       -1.1515313 -0.3872304 -1.2718359 -3.050926
000040 3e 86 11 c0 25 23 78 bf 5f 99 9d be 6a be ef bf
       -2.2738185 -0.96928626 -0.30781075 -1.8729985
000050 35 a8 6f bf 34 e4 4f bf cb ee d2 3e 36 b8 92 bf
       -0.9361604 -0.81207585 0.4119781 -1.1462467
000060 51 eb 1c bf 2f fa 3c bf 5e 2d f6 bf d2 70 ab be
       -0.61296564 -0.7381925 -1.9232595 -0.33484513
000070 5c 4c 08 3f bf df bb bd 8e 77 32 3e 40 05 0e c0
       0.53241515 -0.091735356 0.17428419 -2.2190704

action_dict.action_head.weight f4 [5, 32]
000000 67 73 8e bd e4 92 9c bb 7a 3b f2 3d e1 44 1c bf
       -0.06955605 -0.004778253 0.118277505 -0.610426
000010 da 68 59 bd 7f 73 30 3f 29 c6 22 be 19 54 75 3d
       -0.05307851 0.68926233 -0.15895905 0.059894655
000020 52 3f 7c bd 78 1e e7 3b 91 52 8d 3d d5 9a 26 3d
       -0.061583824 0.0070531927 0.06900514 0.040675003
000030 3b cc 3f be 2f b7 ea 3d 1a d6 86 3d 12 9a 01 be
       -0.18730251 0.11460721 0.065838054 -0.1265643
000040 56 48 7a 3d 56 ef f1 bd 67 a7 f9 3d ac 19 7c bd
       0.06110414 -0.11813228 0.121901326 -0.06154792
000050 4e d5 90 3d 9e f1 30 3d 2d 34 94 bd f2 d1 b2 bd
       0.07071935 0.043199174 -0.07236514 -0.0873145
000060 10 cf b1 3d 18 47 82 bd 28 06 cf 3d 80 11 d8 bd
       0.08682072 -0.06361216 0.10108596 -0.10550213
000070 17 c3 f1 bd 13 38 c8 bd 1f e0 1b bc b3 10 11 be
       -0.118047886 -0.0977632 -0.009513884 -0.14166526
000080 74 8f 33 be 5b 7c 10 3e c0 dc 47 be 34 a8 ae 3e
       -0.17535192 0.14109938 -0.19517803 0.34112704
000090 dc 25 41 3e 12 5d 0f bd 39 84 e3 be 0a ff d4 3e
       0.18862098 -0.03500087 -0.44436815 0.4160083
0000a0 20 ce 80 3d eb c8 dd be 96 20 95 be 66 5e 4e bd
       0.06289315 -0.4331735 -0.29126424 -0.050382994
0000b0 b4 f4 ce be ff c0 f9 ba 93 87 95 be 1c 7c 71 be
       -0.4042107 -0.001905471 -0.29204997 -0.235825
0000c0 df b4 0a 3e 8f ca 1d bf 4e 03 27 be d0 06 17 3f
       0.1354556 -0.61637205 -0.16309854 0.5899477
0000d0 a6 52 09 3d e4 4d a9 3e 7d 5c b8 3d 67 c5 0f 3e
       0.033526085 0.33067238 0.09002016 0.14040147
0000e0 00 37 84 3e eb 9c fb 3d 36 8e cd 3e 9c be 06 be
       0.25823212 0.12285789 0.4014756 -0.13158649
0000f0 83 ca 93 3e c3 1f d6 3e 92 af 39 3f f3 01 18 3f
       0.28865442 0.41821107 0.72533524 0.59377974
000100 b0 4a 80 3d 73 62 15 bd 34 3c b6 bc 87 9c 38 3c
       0.062642455 -0.03647084 -0.022245504 0.011267788
000110 69 5f 6a be 48 5f 08 3f 2e 61 a6 3e 30 21 97 be
       -0.22887959 0.5327039 0.32496017 -0.29517508
000120 bc 3e 54 3c ac c7 06 3f 34 b5 1c 3e 4b a7 37 bd
       0.01295441 0.52648425 0.15303499 -0.044837277
000130 de db 9e bc 5a d4 ef bd e9 c7 8f 3e ba b7 98 3e
       -0.01939195 -0.11710425 0.28082207 0.29827672
000140 2d fe 80 bd a9 53 0d 3f 6b 33 0e 3e 71 55 2d bf
       -0.0629848 0.5520578 0.13886802 -0.677085
000150 ab cd bc bd ea 89 bf be 09 5e ef 3e 8a 6d cf be
       -0.092189156 -0.37409908 0.4675143 -0.4051326
000160 64 89 e1 bc e6 c1 9d be ee d7 6e be 15 5c 43 3e
       -0.027531333 -0.30811995 -0.23324558 0.19078095
000170 1f 45 aa be a7 73 9d be ff 2f 55 bf 12 68 9a be
       -0.3325586 -0.30752298 -0.8327636 -0.30157524
000180 c3 21 83 3f 0f 92 ab 3e 1c dc c2 3e f1 32 9e 3c
       1.0244678 0.3350987 0.38058555 0.0193114
000190 0a 82 9c bd e1 e3 bf ba 2b fd 32 bb a4 56 24 3e
       -0.076419905 -0.0014640057 -0.0027311544 0.16048676
0001a0 f8 bc b9 be fb fd 15 be 3b c2 fc bc d7 62 eb 3e
       -0.36276984 -0.14647667 -0.030854335 0.45973846
0001b0 4d 04 1f be 01 18 51 b9 dd 31 16 3f 86 0a fc 3e
       -0.15528984 -0.00019940735 0.58669835 0.4922678
0001c0 72 3d 8d 3e de 38 86 be 0a 65 a5 3e 10 0d 91 be
       0.27585942 -0.2621526 0.3230365 -0.28330278
0001d0 43 0d 51 bf a1 e3 18 bf a6 d6 25 3f 64 fa e8 3e
       -0.8166086 -0.59722334 0.6478065 0.45503533
0001e0 50 e5 48 bf b1 2c 51 3e 5f 27 b9 3d 2f 67 b9 be
       -0.78474903 0.20427205 0.090407126 -0.36211535
0001f0 35 f9 1b 3f 54 fe b3 3d ce 6f b4 bd 06 dd f0 3d
       0.60927135 0.087887436 -0.088103876 0.11760907
000200 31 c3 79 bf 59 65 90 be 78 75 c6 be 05 50 39 3e
       -0.97563463 -0.28202322 -0.38761497 0.18096931
000210 9e 01 d2 3d df 53 cc be 9f 6f 51 be cc 22 e0 bd
       0.10254215 -0.3990774 -0.20452736 -0.10944137
000220 c4 bd ab 3e 83 0e 6c 3e 38 80 20 be 51 83 f3 be
       0.33543217 0.23052411 -0.15673912 -0.47561124
000230 72 66 85 3d d2 f5 3f be 56 79 56 bf cf 7c 29 bf
       0.065136805 -0.18746117 -0.83778894 -0.6620607
000240 ee b4 94 bd 46 d4 67 3d ac a3 f1 bd 6c 88 00 3f
       -0.07261072 0.056598924 -0.11798796 0.50208163
000250 0e b1 6f 3f d3 2d 0f 3f 71 7e 25 bf c8 2e f0 be
       0.9362954 0.559293 -0.6464606 -0.4691069
000260 3c c0 34 3f 04 0a 7c be d7 83 87 bd 0e 76 47 3e
       0.70605826 -0.24613196 -0.06616943 0.19478628
000270 17 53 2f be 32 f4 87 be cd db f8 bd da c1 e8 3d
       -0.1712154 -0.26553494 -0.12151299 0.11365099

action_dict.action_head.bias f4 [5]
000000 a8 19 0e 3e 64 c0 b2 bd a1 d7 43 bc 91 b2 91 be
       0.13876975 -0.08728102 -0.011953265 -0.28456548
000010 ae b9 0f 3e
       0.14035675

action_dict.encoder.weight f4 [32, 18]
000000 ff bd d9 be b8 3f c2 be 4e 88 d9 3d 48 82 f7 bd
       -0.42527768 -0.3793924 0.10621701 -0.12085396
000010 67 a5 3d 40 89 b7 83 3f 31 09 b6 3e 8f 00 d8 3e
       2.9632204 1.0290385 0.35553887 0.42187926
000020 a3 01 a3 3e ef c3 84 3e 39 bf db be a2 3d f8 be
       0.31837186 0.25930735 -0.4291933 -0.48484522
000030 76 db d6 be f9 5b 64 be d3 0b ad bd 83 da b9 bd
       -0.4196431 -0.2230071 -0.08449521 -0.09074881
000040 25 e9 06 3e 17 a2 a9 bd bb 91 06 3f 32 a1 7a 3e
       0.13174875 -0.08282869 0.5256612 0.24475554
000050 b5 ec 9b 3e 54 c4 01 bf ad c6 23 bf 46 fd c7 bd
       0.3045403 -0.506902 -0.6397503 -0.09765105
000060 91 86 14 bf 1c b8 16 3f 83 c4 b9 be b8 89 a7 be
       -0.5801783 0.5887468 -0.3628274 -0.3272226
000070 d3 78 63 3e 60 13 bc be d8 62 25 3f 92 42 c1 bd
       0.2221406 -0.36733532 0.6460395 -0.094365254
000080 e2 ba cb bd 6b 6e de bd 34 58 22 bd ce ee 25 be
       -0.099477544 -0.10860904 -0.0396349 -0.16204378
000090 dc 09 ff bf 5e 89 a9 3e bf 91 b4 be 99 a9 20 bd
       -1.9924884 0.33112615 -0.35267445 -0.03922424
0000a0 19 4a 97 3f 2c 4e fa 3d c7 04 63 3f 5b 42 e2 bc
       1.1819488 0.12221941 0.88679165 -0.027619531
0000b0 13 91 a0 3f 2e 3f 50 be c9 bf 19 bf 00 81 b8 3d
       1.2544273 -0.20336601 -0.60058266 0.0900898
0000c0 29 5b c1 bf 2a fd 0b 3f 7f 95 d9 3d b9 c9 b2 3d
       -1.5105945 0.5468317 0.10624217 0.08729882
0000d0 9a 09 66 bd 97 0f 82 3e 98 43 74 3f a6 fa 1b be
       -0.0561615 0.2540252 0.9541564 -0.15232334
0000e0 f4 44 51 3d 8c f0 1a 3e 7e e3 1c bf 91 9c 99 3e
       0.05109115 0.15130824 -0.61284626 0.30002263
0000f0 fa 5d c7 bf 7a 8f 95 3e 7d 59 a1 bf aa 59 b5 3e
       -1.5575554 0.29211026 -1.2605435 0.3541997
000100 0d 87 f9 3f 8a f5 b1 be 6f 8d fe 3f ce 8a 87 be
       1.9494339 -0.34757644 1.9886912 -0.26473087
000110 88 86 ef 3d e4 11 82 bc 43 bb a8 3d 1d b9 a3 3c
       0.11695582 -0.015877672 0.08238842 0.01998573
000120 10 a8 e3 be e4 97 f3 be b8 a0 f1 3c a3 63 44 3d
       -0.4446416 -0.4757682 0.029495582 0.047946583
000130 e2 6a 61 be a2 b5 07 bf cc 78 7d 40 b1 75 8d 40
       -0.22013429 -0.53011525 3.9604979 4.4206166
000140 01 7a 64 be 0f 12 d9 bd 0e 6b 31 3e af 50 c8 3e
       -0.22312166 -0.105991475 0.17325994 0.39124057
000150 92 b6 b6 3e 42 a4 bf 3e bc 15 c3 3d c0 61 e2 3c
       0.35686165 0.37430006 0.0952563 0.027634501
000160 15 a6 00 3b ce f1 3f bd 72 aa eb 3e d4 77 66 bf
       0.0019630243 -0.046861462 0.46028477 -0.90026593
000170 ee 98 73 3d 99 61 46 bd 8d ac 95 bb dd f5 8c be
       0.059472017 -0.04843292 -0.004567689 -0.2753133
000180 08 42 86 3e a3 dc ae 3d db b5 f2 bf 5d 97 3b 40
       0.26222253 0.08538177 -1.8961748 2.9311135
000190 4e 49 06 3f d1 42 a7 be 86 30 2f 3f 27 98 20 bf
       0.52455604 -0.32668164 0.68433416 -0.62732166
0001a0 2b 36 28 3e 48 40 82 bd ee cc b9 bd 31 2f b4 3b
       0.16426913 -0.06359917 -0.0907229 0.0054987897
0001b0 af e8 45 3e 92 c5 f9 be 54 d1 5d 3e 88 4a 94 3d
       0.19327043 -0.48783547 0.21661884 0.07240778
0001c0 69 a7 8c bf 0f f4 54 be fd cf aa 3f 7f af 29 3f
       -1.098859 -0.20796226 1.3344723 0.6628341
0001d0 db 9d dc be 80 2d a7 be c4 f2 e3 3c e1 2b 4b be
       -0.43089184 -0.326519 0.02782572 -0.19840957
0001e0 57 19 b9 3e 36 03 4f bd 7b d5 4b be ff eb 9b bc
       0.36152145 -0.05054017 -0.19905655 -0.01903343
0001f0 dd 2c 1d bd 73 65 84 bd cc 10 06 3f ef 4a 34 3f
       -0.038372863 -0.064646624 0.5236938 0.7042684
000200 cb 7c f0 3d 61 03 3f 3e cd 67 0f 3f dd 18 d4 bd
       0.11742552 0.18653633 0.5601776 -0.10356305
000210 5a 98 e8 bc 1e 51 2e bf 4c 87 d3 bf f5 af e4 bf
       -0.02839296 -0.68092525 -1.6525664 -1.7866198
000220 dc 7d 1f 3f 1c 4a b1 3f 69 2d 0c 3f 1a 18 bb 3f
       0.6230142 1.3850741 0.5475679 1.461673
000230 0a 60 77 3d 97 37 85 3c 33 7f 90 3d ac 40 a2 3d
       0.060394324 0.016261859 0.07055511 0.079224914
000240 76 91 6d bf 60 1c b5 3e 29 31 c3 be 8f 7a 3f 3e
       -0.9280008 0.3537321 -0.38123444 0.18699096
000250 33 be 0b 3f 82 0d 76 be d1 f9 a7 3f 48 09 7a bf
       0.54587096 -0.2402859 1.3123113 -0.9767041
000260 67 5a a2 3f 47 04 92 bf b8 a3 ce bf c4 d1 96 3f
       1.2683839 -1.1407555 -1.6143713 1.1782765
000270 ca ab c9 bf 23 7e 8d 3f 28 41 30 3e 85 d4 cc 3d
       -1.5755551 1.1054119 0.17212355 0.100014724
000280 69 30 89 bd 53 4d 8d bd fa 58 75 3e d8 b5 bf be
       -0.06698687 -0.06899514 0.23959723 -0.37443423
000290 4f 25 03 3d 8e f0 58 be 2f 10 2e 3d 16 e0 1f 3f
       0.032018002 -0.21185514 0.042495903 0.62451303
0002a0 8a 52 15 3e 01 8d b5 bf 99 83 bb be 06 db ce 3f
       0.14582267 -1.4183656 -0.3662384 1.6160591
0002b0 4c e5 32 3e 7e 93 be bf b5 c2 89 3c 42 de 98 bf
       0.17470282 -1.4888761 0.016816476 -1.1942828
0002c0 94 eb 40 bd d8 39 e2 3d 42 2e 50 3c f4 65 b2 3d
       -0.047099665 0.11046189 0.012706341 0.08710852
0002d0 15 41 02 bf 5d 3a 91 be 8b 89 57 3d c0 c2 2f 3e
       -0.5088056 -0.2836484 0.052621406 0.17164135
0002e0 5c 9f 28 bf f0 1f 5a be a8 61 f2 3f 5c df 3e be
       -0.65868163 -0.21301246 1.8936052 -0.18639892
0002f0 6f 5b de be 96 a8 4e 3f 7d 6b 9a bf dd 13 26 be
       -0.43429133 0.8072599 -1.2064053 -0.16218515
000300 91 d7 96 bf 38 6e 79 be e9 00 0c 3d cc a3 bd bc
       -1.1784536 -0.24358451 0.034180555 -0.023149393
000310 52 0b f0 3d c1 75 09 3e 5a 7b fe be 76 1b cd be
       0.11720909 0.13423826 -0.49703485 -0.40060014
000320 06 7e 70 bf 7f c2 2a be 63 32 de be 95 14 aa be
       -0.93942297 -0.16675757 -0.43397817 -0.33218828
000330 93 d7 dc be d8 71 d3 bd 2c 12 a7 3f 18 28 98 bf
       -0.4313322 -0.10324448 1.3052421 -1.1887236
000340 33 23 63 bf ca 8d e4 bc 76 47 a9 be ac f8 4b 3e
       -0.88725585 -0.027899642 -0.33062333 0.1991908
000350 41 70 19 be 41 6b 86 bd 1a 48 cf 3d 9b c2 a5 3b
       -0.14984228 -0.06563426 0.10121174 0.005058599
000360 cc 49 4b be f4 f4 67 bf 14 ba 5c bd 1d ee 20 be
       -0.1985237 -0.90608144 -0.053888395 -0.15715833
000370 8c 5f 1d 3d 80 f9 9c 3f 8a c3 8d 3e ca ea bb 3f
       0.0384212 1.2263641 0.27688247 1.4681027
000380 cd 52 ff 3e b3 54 dd 3f be 0e f5 be 12 1a d3 bf
       0.4986786 1.7291473 -0.4786281 -1.6492331
000390 8d 1a 06 bf 08 d2 cf bf 67 36 4e 3e 43 bc c4 bc
       -0.52384263 -1.6235971 0.2013794 -0.024015551
0003a0 4a 3a bb bd 4a d2 70 bc 94 6e 11 3f 40 68 dd be
       -0.09141977 -0.014698574 0.56809354 -0.432436
0003b0 d8 97 15 3d ba bf 20 3e 9a 5e 2e 3f b1 02 ac be
       0.036521763 0.15698138 0.681131 -0.33595803
0003c0 25 e7 91 c0 2b 55 43 40 d9 fb 0c 3f 84 1f 2e be
       -4.559466 3.0520732 0.5507179 -0.1700421
0003d0 75 8a b2 be a3 d6 42 3d 59 7f 13 bf 51 46 b2 3d
       -0.3487126 0.047567975 -0.5761619 0.08704818
0003e0 ec a5 8a 3c 88 fe 8d 3d 3e a3 18 bd 2b fe f8 bd
       0.01692482 0.069333136 -0.037265055 -0.12157854
0003f0 d4 d4 6c 3f 3f f7 ab be 75 b6 ac 3f ad 14 d7 3e
       0.9251225 -0.3358707 1.3493181 0.42007962

action_dict.encoder.bias f4 [32]
000000 c7 ac a9 3e 10 a4 f4 bf d5 59 6c bf b3 7a 8c 3e
       0.3313963 -1.9112568 -0.9232457 0.27437362
000010 15 90 7e 3f 1b dd 60 be 95 83 c5 bf bc 7e e2 be
       0.994386 -0.21959345 -1.5430781 -0.44237316
000020 9e 34 90 3e 81 1a f5 be f1 0d 02 c0 80 bc ea bf
       0.28165144 -0.47871783 -2.032101 -1.8338776
000030 7d 3f 46 3f 5f 54 30 3f 4d 82 1d c0 db e7 3c bf
       0.77440625 0.6887874 -2.461078 -0.73791283
000040 22 60 5d 3f a8 4c 31 3f 5c b1 0a c0 5b c3 93 bf
       0.8647481 0.69257593 -2.1670752 -1.1543993
000050 7a 51 09 c0 b8 30 15 c0 34 db 29 c0 8e a2 ae bf
       -2.145598 -2.3310986 -2.654004 -1.3643358
000060 31 85 dc 3e 36 65 75 bd 74 a0 c0 bf 5b bf f8 bf
       0.43070367 -0.059910975 -1.5048966 -1.9433397
000070 39 99 cd bf a9 39 27 3f d0 dd 96 be a9 f2 05 c0
       -1.6062385 0.6532236 -0.29466105 -2.0929358

action_dict.f_module.weight_ih f4 [128, 32]
000000 d4 c9 0d 3f 73 37 05 3f 39 ac 15 3f 6c 75 17 3e
       0.5538609 0.52037734 0.58465916 0.14790887
000010 0c a8 87 bd ab 9a 19 c0 ce 5c 1f bf 45 43 fc 3f
       -0.06623849 -2.4000652 -0.62250984 1.9708029
000020 61 2c 7d 3f a8 b9 07 be cd 14 93 be 6c 20 00 3f
       0.9889584 -0.13254416 -0.28726807 0.5004947
000030 c8 30 39 bf 90 45 46 be 32 62 9c 3f f8 51 71 be
       -0.7234006 -0.19362473 1.2217467 -0.23566425
000040 1d 66 09 3f c5 67 17 40 08 21 08 3f 7c 49 af 3e
       0.5367144 2.3657086 0.531754 0.34235752
000050 90 40 03 3e ce b0 4a be 6a 35 7c 3e 9f 3f 6d 3f
       0.12817597 -0.19794008 0.24629751 0.92675203
000060 99 54 81 c0 0f a7 62 3e e5 f5 6c 3c 70 9a 25 3f
       -4.041577 0.2213404 0.014462923 0.6468878
000070 54 5e 11 3f ee 06 8e 3e 20 be b8 be 94 2f a6 3e
       0.5678456 0.27739662 -0.36082554 0.32458174
000080 bf 34 ca 3d f8 79 5a c0 96 08 5c bf 7f 69 da 3e
       0.09873342 -3.4136944 -0.859506 0.42658612
000090 3d de 8d c0 97 0a 31 be 2b 9b e4 bf a4 b5 d1 bf
       -4.4333787 -0.17289196 -1.7859854 -1.6383557
0000a0 60 50 c0 bf 39 9f 18 40 14 df 96 be 8d d0 0b be
       -1.5024529 2.3847182 -0.2946707 -0.13653775
0000b0 39 59 bd 3f ba e9 6b be f6 0c 8d be 3d d4 4d bf
       1.4792854 -0.23038378 -0.2754895 -0.80401975
0000c0 89 31 d4 3e 90 67 22 3e 56 15 8d be e5 5b 65 bf
       0.41444042 0.15859818 -0.2755534 -0.89593345
0000d0 9f 76 69 3e 1b c0 60 3f 45 45 95 3e 53 5c cc bd
       0.22799157 0.8779313 0.2915441 -0.09978547
0000e0 93 b2 eb 3d 3d 01 e9 3e cb e3 e9 3e 62 b2 a8 3f
       0.1150867 0.45508757 0.45681605 1.3179438
0000f0 15 29 f9 be 52 9e f2 3e 64 ef 1e bf 42 a4 b6 3d
       -0.48664156 0.47386414 -0.6208403 0.089180484
000100 6f d7 29 be f1 75 96 3f 0b 5d dd 3d 0c b4 2f 3f
       -0.16586088 1.1754743 0.10808762 0.68634105
000110 ec 33 4e bf 4c 8d bb 3f 5e 2a a7 be b0 90 57 3f
       -0.80547976 1.4652495 -0.3264951 0.8420515
000120 e3 34 57 3f c7 10 48 3f e6 91 46 3e 70 b3 23 bd
       0.84065074 0.781506 0.19391593 -0.039966047
000130 e1 fc 22 3e 63 1f d9 be 14 9e a5 3e d1 ce 9d bf
       0.15916778 -0.4240676 0.32347167 -1.232874
000140 25 97 13 40 1a 2c 25 bc 2b 98 d7 3e 9d 9f 2b 3f
       2.3061001 -0.010081315 0.42108282 0.67040426
000150 60 ec 08 3f e4 f5 d3 3e 67 15 91 3f eb e5 1c 3f
       0.5348568 0.41398537 1.1334656 0.61288327
000160 d2 f5 e4 3f a4 05 3d 3e b4 77 31 3f a9 36 ee 3e
       1.7887518 0.18459183 0.6932328 0.46526077
000170 f4 51 6c 3f d7 48 38 3f eb 55 98 3d 4a 4f 98 3f
       0.9231255 0.71986145 0.074382626 1.1899197
000180 85 37 83 bf 13 fb d4 be ed a1 d0 3e e6 28 13 bf
       -1.0251318 -0.41597804 0.4074854 -0.5748428
000190 03 bb 0e bf 10 97 cb be eb fa 94 bf 82 0c 65 bf
       -0.5575411 -0.3976369 -1.1639074 -0.8947221
0001a0 58 7a 66 be cb 0e ae be e0 83 c7 3e 4a d0 a3 3e
       -0.22507608 -0.3399566 0.389678 0.3199485
0001b0 b4 ec 29 bd 38 d0 ba bf 82 bd 26 bf 6f 17 d5 bd
       -0.041485503 -1.4594793 -0.65132916 -0.1040486
0001c0 34 ae 10 c0 4e a4 81 be 97 98 3c bf 6e 9a 6a be
       -2.2606325 -0.25320667 -0.73670334 -0.22910473
0001d0 09 c0 19 bf a3 ae 4e 3e 69 65 67 3e 17 e3 48 3c
       -0.6005865 0.20183806 0.22597279 0.012261174
0001e0 22 4c aa bd 6c 6d 3c bf 9b 19 4a bf e9 36 4f 3e
       -0.083153024 -0.73604465 -0.7894532 0.2023579
0001f0 47 b2 6a 3e f9 96 a0 bf b0 5b 8a be a0 38 29 3c
       0.2291957 -1.2546073 -0.27023077 0.010328442
000200 c1 32 ab bf e4 d7 12 40 94 96 9d 3e 79 15 88 3d
       -1.3374864 2.294427 0.30778944 0.066447206
000210 2a bd 6d 3f b2 11 10 bf fd 92 e1 be a0 9b fd 3e
       0.92866766 -0.56277 -0.44057456 0.49532795
000220 ad 55 a4 bc db 44 3d 3d 8d 16 f0 3e 0b 8b d4 3c
       -0.020060385 0.046208244 0.46892205 0.025945207
000230 36 bb 2f 3e ba 45 42 bf b5 51 58 3f 69 39 40 be
       0.17161259 -0.75887644 0.84499675 -0.187719
000240 13 fa b5 bf 3d 4f 0b 3f 21 29 86 3f 8b ce bf bf
       -1.4216942 0.54417783 1.0481302 -1.4984907
000250 9c 91 c5 3f 09 f8 9d 3e c7 4a 84 3f 7f 8a ee 3e
       1.5435061 0.30853298 1.033532 0.4659004
000260 71 09 6d bf 5d d5 4d be 5c 48 81 bf e1 b1 dd 3d
       -0.9259253 -0.20100923 -1.0100207 0.10824943
000270 26 dd 06 3f 18 9b a0 3f b9 2d 89 3f 43 e4 07 3e
       0.52681196 1.2547331 1.0717078 0.13270669
000280 09 0f 08 be f0 34 29 bf 67 0e 47 3f 0e d8 02 bf
       -0.13286985 -0.660964 0.7775635 -0.51110923
000290 6d 6a d1 be 1e a3 35 3e 21 81 8f 3e 9d 39 c0 3d
       -0.4090151 0.17738006 0.28028205 0.09385989
0002a0 fa 90 f4 3e e2 49 76 bf 9e 7c a6 bd 04 25 88 3f
       0.47766858 -0.96206486 -0.081292376 1.0636296
0002b0 de e0 9d bf ad dd 37 3e 9f fb d8 3e c9 57 88 3f
       -1.2334249 0.17955656 0.42379472 1.065179
0002c0 1a 0e 44 bf aa 42 9c 3f 64 15 23 be f5 78 77 3e
       -0.7658402 1.2207844 -0.15926129 0.24167235
0002d0 d1 cc c0 be d3 78 ef 3e 4b e7 27 be 10 a3 eb 3f
       -0.37656263 0.4677187 -0.16396825 1.8409138
0002e0 bf 81 e9 3e a3 4e de 3d 36 18 99 bf bb 56 73 3f
       0.456068 0.108548425 -1.1960514 0.95054215
0002f0 c7 1a 76 3e 30 26 66 bf b7 a2 b0 3f c2 44 fc be
       0.24033652 -0.8990202 1.3799657 -0.49271208
000300 56 fa 75 3f 1d 41 15 40 c4 1a ed be a2 6e 95 3f
       0.9608511 2.3320992 -0.46309483 1.1674387
000310 e0 0f 35 bf 35 5c e1 3e 26 53 ef 3c d8 f6 b2 3f
       -0.7072735 0.4401566 0.029214453 1.3981581
000320 3b b1 34 3f 2b 95 5d bf 1b 47 59 3f e4 32 93 bf
       0.7058293 -0.8655574 0.84874123 -1.1499906
000330 1c dd 2b 3e 87 f1 8d bf b4 f6 aa be c0 af 38 3f
       0.16783565 -1.1089333 -0.33391345 0.72143173
000340 54 c9 18 3f 4a 2e c1 3f 2f f1 9f 3f ad ac 1f 40
       0.596822 1.5092251 1.2495478 2.4949143
000350 65 fb 1d 3e 63 20 d7 3e dc 13 72 3f 18 12 87 bf
       0.1542793 0.42016897 0.94561553 -1.0552397
000360 90 22 e1 3b 09 82 46 3f 87 be cc 3e 37 f6 fc 3e
       0.0068705752 0.7754217 0.3998911 0.49406597
000370 7c 38 d4 3d 36 dd a4 3e 80 aa da 3f a5 0b 91 3e
       0.10362336 0.3220002 1.7083282 0.28329197
000380 94 3f c4 be 43 41 12 be fd 20 80 3e 77 e3 b4 3f
       -0.38329756 -0.14282708 0.25025168 1.4131917
000390 20 f7 96 3e 2b 64 04 be 34 ed 95 3e 54 4a e8 3b
       0.29485416 -0.12928836 0.29282534 0.0070889387
0003a0 70 19 81 bf c2 3b a0 be 16 ba 7e bf c3 8a 4f bf
       -1.0085888 -0.31295592 -0.99502695 -0.8107111
0003b0 c8 ab 03 c0 9d 75 ca 3d 93 ca 07 bf 98 e4 91 bf
       -2.0573597 0.09885714 -0.5304348 -1.1397886
0003c0 1e b0 e9 be 07 58 d5 bf e6 8f d7 bc ef 4c 43 3f
       -0.4564218 -1.6667489 -0.026313733 0.76289266
0003d0 c2 ca 1b c0 1d ad 85 bf 46 f7 3b 3e 22 86 c5 bd
       -2.4342504 -1.0443455 0.18356046 -0.096447244
0003e0 f4 34 20 40 82 9b cc 3e 4e f9 c9 3f 74 47 d2 3e
       2.503232 0.39962393 1.5779207 0.4107014
0003f0 44 a3 89 bf 01 be 26 bf 80 f7 b4 3f b9 ec b0 be
       -1.075295 -0.6513367 1.4138031 -0.34555605

action_dict.f_module.weight_hh f4 [128, 32]
000000 4c 88 51 3f 85 cd 5b bf 44 db af 3f b1 3b 1e bf
       0.818486 -0.8586047 1.373879 -0.6180983
000010 ad c4 89 be f2 10 a2 bd 73 e2 6a bf 3e ab da bf
       -0.26907864 -0.07913388 -0.91751784 -1.7083509
000020 52 ad 3f 3f a2 99 da bf 5c 1a 9e bf 34 fb 89 be
       0.7487384 -1.7078135 -1.2351794 -0.26949465
000030 40 58 00 3e 84 af da 3e 2a 77 b1 be e8 63 5f 3e
       0.12533665 0.42712033 -0.34661227 0.21815455
000040 6d fa 9b 3e 98 41 cd be d5 17 b6 be a1 57 03 3f
       0.30464497 -0.40089107 -0.35565057 0.51305586
000050 75 60 9b 3e ef ea bd 3f 1c 45 1a bf 6c 05 ff bf
       0.30347028 1.4837321 -0.602617 -1.992353
000060 b0 10 4e bf 24 d2 8e bd 7c aa 18 bf 4d b4 43 3f
       -0.80494213 -0.06973675 -0.5963514 0.7644699
000070 70 d0 c2 bf 62 b6 3d bf c1 fd b1 3f bd d7 b4 3e
       -1.521986 -0.7410642 1.3905565 0.35320845
000080 18 d9 28 3f e1 4d 80 be 1a 26 65 be a7 0e 83 3f
       0.6595626 -0.25059417 -0.22377816 1.0238847
000090 33 33 98 bd 92 8b 1d 3f c8 18 b1 3e 75 1d 60 3c
       -0.074316405 0.6154109 0.3458922 0.013678898
0000a0 0d 55 2c 3f 3e 0e d5 bf aa 7e fc be d3 19 25 3f
       0.6731728 -1.6644971 -0.49315387 0.6449253
0000b0 11 be 7c be 13 12 36 3f 86 56 30 be 34 51 0e bf
       -0.2468188 0.7112133 -0.17220506 -0.55592656
0000c0 1a 21 6b 3f 8b e8 04 3d ab 42 66 be 27 a7 29 be
       0.91847384 0.032448333 -0.2248637 -0.1656767
0000d0 7e 36 e7 bf f2 e5 54 3f 7a 70 a9 3e c9 60 76 3d
       -1.8063505 0.8316337 0.33093625 0.060150895
0000e0 0a 91 7b 3e fa c5 1a 3f 2c 38 8d 3f 51 53 3d be
       0.24567047 0.6045834 1.1032767 -0.18488814
0000f0 b0 ed f8 3f c6 b5 e3 3e aa 85 d7 3c 1a 8f 1c 3f
       1.9447536 0.4447462 0.026308853 0.61155856
000100 2d 67 ef 3e b8 91 a0 bf b0 fd 44 3f d3 0a d8 3e
       0.46758404 -1.254447 0.76949596 0.42195758
000110 92 37 e4 3e 0e 08 07 bf b0 98 8b bf bc ef 85 be
       0.44573647 -0.52746665 -1.0905972 -0.26159465
000120 7b 4f 65 3f 17 ae 4f bf 09 97 d3 be f7 2c f7 3e
       0.895744 -0.81125015 -0.41326168 0.48276493
000130 e8 c4 26 3f f2 09 44 3f f9 80 26 3f 8c 8f cf 3e
       0.65144205 0.76577675 0.65040547 0.40539205
000140 ef cf a6 3e f0 45 b2 3d aa c4 24 bf 08 e3 6d bd
       0.32580516 0.08704746 -0.64362586 -0.058077842
000150 88 43 0f be 9b 44 0c 40 55 bc 5f 3f be 2b 69 bf
       -0.13990605 2.1916873 0.87396747 -0.9108237
000160 c5 2c 27 be 68 51 c3 bf a9 af 69 be 89 7e 5e bc
       -0.16325672 -1.5259218 -0.22820915 -0.013579973
000170 68 51 44 bf 82 ad 64 be c2 2a 8c 3f ba ee 9c 3e
       -0.76686716 -0.22331813 1.0950549 0.30650884
000180 56 f2 12 3f 78 32 a3 3f 84 e1 59 3d 00 e0 0e 3f
       0.57401025 1.2749777 0.053193584 0.55810547
000190 8d 1a 2a 3f 12 22 3a 3f f9 12 4c bf 7b 95 81 bc
       0.66446763 0.7270824 -0.7971645 -0.015818348
0001a0 e3 24 8b bf bc 69 6b bf 1a 3e c0 bd 7a fe d1 be
       -1.0870632 -0.9195821 -0.09386845 -0.41014463
0001b0 b3 6d 7a bf a5 95 e8 3d c1 ff 9b be 3a 60 a6 be
       -0.9782364 0.113566674 -0.30468562 -0.3249529
0001c0 c4 0f 3a bf 34 7b 54 3e bc fe aa 3d 21 07 24 3e
       -0.72680306 0.20750123 0.08349368 0.16018344
0001d0 94 5e 38 bf d9 32 15 40 3b 06 45 3f ac 31 8a 3e
       -0.72019315 2.3312285 0.7696263 0.26991022
0001e0 da ca cc 3e ae 4a d2 bc 5b b6 f6 3f 31 fd ac bf
       0.39998513 -0.025670376 1.92744 -1.3514768
0001f0 01 a8 0b be 6e 4f 30 3f fd 37 91 be 93 10 49 3e
       -0.13638307 0.688712 -0.28363028 0.19635229
000200 0f 1f 40 be 0e 66 5b 3f c4 b2 48 bf 91 be 4f 3e
       -0.18761848 0.857026 -0.78397775 0.20287539
000210 ad ad b0 3d 2a 88 98 be 2a ea fb 3f cb 9d 05 c0
       0.08626876 -0.29791385 1.9680836 -2.087756
000220 06 cc 26 3e f0 95 cc 3f 8f ef 77 3f b8 51 1a bf
       0.16288766 1.5983257 0.9684991 -0.6028094
000230 ef 18 59 3f f9 c4 49 bf 53 5b 9d bd d9 17 45 be
       0.8480367 -0.7881618 -0.07683434 -0.19247378
000240 8f 36 f1 3e 6c ba 27 3f fd 44 76 3f bd c7 fa be
       0.47111937 0.6551883 0.9619902 -0.48980513
000250 2b 72 ae bf aa c1 1c bf 1a 8d 65 3f 1d df dd 3f
       -1.3628591 -0.6123301 0.8966843 1.7333714
000260 8d 55 20 3d 05 d4 dd 3d 00 75 80 bf 11 34 6d be
       0.039144088 0.10831455 -1.0035706 -0.23164393
000270 9e 6d a9 bf 9f d1 6c bf ec c2 00 bf 4a 0a 6f 3e
       -1.3236578 -0.92507356 -0.5029743 0.23343769
000280 b1 86 34 be 99 52 51 be 69 2a eb be 70 2e 20 3e
       -0.17629506 -0.20441665 -0.45930794 0.15642715
000290 20 a4 26 3f 6b 59 82 3f f2 81 51 bf a1 7a c8 be
       0.65094185 1.0183538 -0.81838906 -0.39156058
0002a0 cc 7d 08 bf eb 09 2b 3f ec fb ef 3e 71 26 91 bf
       -0.5331695 0.6681201 0.4687189 -1.1339856
0002b0 c8 60 83 bf 51 30 5e 3e 96 73 31 be c3 13 ae bd
       -1.026391 0.21698119 -0.17329249 -0.08499863
0002c0 c2 69 23 bd 16 89 85 3f e2 11 e0 3e b8 96 ab 3f
       -0.03989578 1.043246 0.43763644 1.3405371
0002d0 52 05 69 bf fa f3 e1 bd 96 a0 de bf aa 08 83 3f
       -0.91023743 -0.11032863 -1.7392757 1.0237019
0002e0 03 d9 1c 3e 4d 3b 89 3e 31 b5 0a bf 70 76 4b bf
       0.15317158 0.26803055 -0.54182726 -0.79477596
0002f0 2e 25 b8 3e 91 64 f0 3f 31 20 7b 3e 5d db a9 3f
       0.35965866 1.878069 0.24523999 1.3270069
000300 f5 bf 03 40 d1 f7 de bc ba 4e 30 3e 6e 68 55 3f
       2.0585911 -0.027217777 0.17217532 0.8336247
000310 91 69 0d bf ff cd ba bf da 33 96 3d 25 ef 77 bf
       -0.55239207 -1.4594115 0.07334109 -0.9684928
000320 13 49 9d 3e be 4d e2 be 1a f9 95 3f 68 42 99 be
       0.30719814 -0.44199938 1.1716645 -0.29933476
000330 21 a6 1d bf 57 b0 30 3f 9d 98 b0 bf 20 4f 39 bf
       -0.6158162 0.69019073 -1.3796574 -0.7238636
000340 73 8b 9c 3e 0d 76 49 40 5f 9e fd 3e 50 79 01 c0
       0.3057514 3.1478302 0.4953489 -2.0230293
000350 58 db ab be 21 c4 a6 3e d3 8a 4e 3c b7 72 25 bf
       -0.33565784 0.3257151 0.01260634 -0.64628166
000360 79 17 b0 3f ec 34 b4 bf 81 f7 7f 3e 34 1f a0 3f
       1.3757163 -1.407865 0.24996759 1.2509522
000370 c0 1d a1 3e de b6 14 3f 43 c0 8a 3f 5e 03 bd bf
       0.3146801 0.58091533 1.0839924 -1.4766653
000380 a3 4d 5b 3e 89 a9 8e 3e 7c b0 a8 3e 42 25 93 3d
       0.21416335 0.2786372 0.32947147 0.07184841
000390 e0 c1 09 3d 0a 25 8a 3e 7d 3e da be c4 ad a1 bf
       0.03363216 0.26981384 -0.426258 -1.2631154
0003a0 9f 56 13 40 86 25 30 40 f7 7d 97 3e 08 5e c1 be
       2.302162 2.7522902 0.2958829 -0.37767053
0003b0 0e 8c 27 40 e7 e4 91 3f 89 a0 c4 bf f2 fe 6d 3f
       2.6179233 1.139798 -1.5361491 0.9296714
0003c0 8e f3 42 3f 0d 5b 73 bf bb b9 0b 3e 2f 87 aa be
       0.76152885 -0.9506081 0.1364507 -0.33306262
0003d0 71 2c 53 40 9d 43 65 3f f5 03 f3 3e a4 78 53 bf
       3.2995875 0.89556295 0.47463956 -0.8260596
0003e0 5d 98 45 3e 14 90 5a bf 6e a4 29 bf c7 7f ad 3e
       0.19296403 -0.85376096 -0.66266525 0.3388655
0003f0 ab c0 1d bf 9a 7b d3 bf 34 44 0e c0 cb f6 a7 bf
       -0.61622113 -1.6522095 -2.2229128 -1.312219

action_dict.f_module.bias_ih f4 [128]
000000 6b c4 19 bd 8a fd 0c be 22 5e 98 be 05 cf 3d bf
       -0.037540834 -0.13768592 -0.29759318 -0.7414401
000010 fb c7 37 bf bc 20 0f be e4 61 e4 bd 8d c1 7c bf
       -0.7178952 -0.13977331 -0.11151484 -0.98732835
000020 79 65 04 bf 53 6b da be ce 3d fa bb 58 0b 91 bf
       -0.51717335 -0.42660007 -0.007636762 -1.1331587
000030 67 47 ce be d8 bc 2c bf 4b a9 95 bf 9b 52 df bd
       -0.4028885 -0.6747565 -1.1692289 -0.109044276
000040 19 7b 40 bf 83 25 a5 bf e2 f7 2d bf 43 a3 91 bf
       -0.7518783 -1.2902073 -0.67956364 -1.1377949
000050 7e 33 44 bf f0 38 04 be 92 b8 90 bf 28 38 69 bf
       -0.7664107 -0.12912345 -1.1306326 -0.9110131
000060 22 cc 6c 3f 00 12 be be 15 7c d2 be 71 be 09 bf
       0.9249898 -0.37123108 -0.41110292 -0.53806216
000070 e8 c2 f6 3e 57 f8 dd 3d 24 a0 5e bf d7 4c 29 bf
       0.48195577 0.10838383 -0.86963105 -0.66132873
000080 1a c1 dc 3e 1e bf 8c bf 50 18 85 bf 93 97 bc bf
       0.43116075 -1.0995824 -1.0398045 -1.4733757
000090 d7 c0 d9 be 3c fa 04 bf 85 bb cb bf ad da a9 bf
       -0.42529938 -0.5194433 -1.5916601 -1.326986
0000a0 34 4e 2e bf ed 41 da bf 06 b9 85 bf e1 42 b0 bf
       -0.6808808 -1.7051369 -1.044709 -1.377041
0000b0 44 e8 56 bd a7 88 38 bf cf 7c 5d bf 00 9e 80 bf
       -0.0524676 -0.72083515 -0.8651857 -1.0048218
0000c0 c7 9f 3a bf 59 92 a2 bf 82 37 16 bf 22 35 94 bf
       -0.7290005 -1.2700912 -0.5867845 -1.1578715
0000d0 f1 3a 88 bd e9 d2 10 be 33 3e b8 3e a1 4b 5e bf
       -0.06651867 -0.14142956 0.35984954 -0.8683415
0000e0 4d d3 5b bf cf 60 1e bf b2 cc 17 bf 8a 4b 4d bf
       -0.85869294 -0.6186647 -0.59296715 -0.8019339
0000f0 c7 47 86 bf 25 71 a0 bf a1 65 a3 bf 92 f8 1c bf
       -1.0490655 -1.2534529 -1.276539 -0.6131679
000100 e3 29 2c bf 49 8e a2 3f b0 4e 53 3e e3 03 ba 3d
       -0.67251414 1.2699672 0.20635486 0.090827726
000110 1b 47 76 bd 24 3b 57 3e 7e 66 64 ba 2c d5 86 3c
       -0.060126405 0.21018654 -0.00087127823 0.01645907
000120 f1 7a 53 3f 11 dc 26 bf 57 ab 81 bd d3 55 f3 3e
       0.8260947 -0.65179545 -0.063315086 0.47526416
000130 88 d9 da bd 6d 3e bc be 42 99 02 3f 98 98 1b 3f
       -0.10686022 -0.36766377 0.510151 0.60779715
000140 88 23 b3 3e 9e a1 78 bf ca 2e 82 be 84 2c 92 3e
       0.34988046 -0.9712161 -0.25426322 0.28549588
000150 4b 66 d9 3e fe 73 12 bf 29 89 b1 3e cc f1 8e bf
       0.42460856 -0.5720824 0.34674957 -1.116754
000160 2c 02 c9 3e 0f 93 87 3e bc ca 03 3d d5 9a c2 3e
       0.3925947 0.26479384 0.032175764 0.38008752
000170 78 4d 3c be f6 20 50 3f 67 17 77 bf ae 57 6c bd
       -0.18388927 0.81300294 -0.96520084 -0.057700805
000180 dd f3 33 bf 5d 14 8e bf 41 51 d3 bf 86 9b 87 bf
       -0.7029398 -1.1099964 -1.6509172 -1.0594337
000190 74 71 83 bf 74 66 63 bf e7 3e 84 bf a1 ae 81 bf
       -1.0268998 -0.88828206 -1.0331696 -1.0131418
0001a0 d6 76 a5 3e 84 80 a0 bf 67 b8 a1 bf 3c 7f b3 bf
       0.32317227 -1.253922 -1.26344 -1.4023204
0001b0 e7 d7 38 bf 4a fe 93 bf 94 3a 92 bf 3c 63 95 bf
       -0.7220444 -1.1561978 -1.1424127 -1.1670909
0001c0 22 60 8e bf 92 11 3d bf 6d 06 b5 bf bd 00 07 c0
       -1.1123087 -0.73854935 -1.4142586 -2.10942
0001d0 0a c9 fa bf ec 26 93 bf b7 ef 67 bf e5 c5 1e bf
       -1.9592602 -1.1496253 -0.9060015 -0.62020713
0001e0 b0 2e 0c bf c4 6e da bf c9 10 6d bf 48 e2 10 bf
       -0.5475874 -1.7065053 -0.9260374 -0.5659528
0001f0 5b 44 26 bf 0f f0 80 bf 26 8d 44 bf d5 e3 e9 be
       -0.6494805 -1.007326 -0.76777875 -0.45681635

action_dict.f_module.bias_hh f4 [128]
000000 71 54 2e 3e 46 be 7d be ab 7f 69 be af f0 4b bf
       0.170244 -0.24779615 -0.22802608 -0.7966413
000010 01 79 0d bf 47 75 ad bd ff 4d 2a be 41 0b 63 bf
       -0.5526276 -0.084696345 -0.16631316 -0.8868905
000020 ab f4 27 bf a3 19 16 bf ab 1a df 3d a3 e3 8f bf
       -0.6560771 -0.5863287 0.108937584 -1.1241344
000030 a6 2f 42 be 62 3f 29 bf 5c 13 66 bf 21 4c 4d be
       -0.18963489 -0.6611234 -0.8987329 -0.20048572
000040 6d 97 54 bf 93 c7 8d bf 03 3a 19 bf 7f a9 80 bf
       -0.8304356 -1.107653 -0.59854144 -1.0051726
000050 ab 68 62 bf c4 1d 7d be d1 63 97 bf 86 3c 9c bf
       -0.8844096 -0.24718386 -1.1827337 -1.220597
000060 32 41 68 3f 0b 8d a6 be 13 59 29 bf 9f 49 4c bf
       0.9072448 -0.32529482 -0.6615154 -0.79799837
000070 81 29 e8 3e d9 9c 4c bd e4 e8 60 bf 30 de 3b bf
       0.45344165 -0.04995427 -0.8785536 -0.73385906
000080 ca 6b dc 3e 57 a1 9f bf b9 d6 90 bf ae 23 a2 bf
       0.43050987 -1.2471112 -1.1315528 -1.2667139
000090 77 3d 3f bf 95 59 ff be 18 b6 c8 bf 50 f4 ba bf
       -0.7470316 -0.49873033 -1.5680571 -1.4605808
0000a0 ff 6c 55 bf 3b 80 e0 bf 24 81 76 bf 7a 0a a2 bf
       -0.8336944 -1.7539133 -0.962908 -1.2659447
0000b0 b0 52 4d be 83 61 02 bf 52 10 6f bf fa db 9c bf
       -0.20051074 -0.5093004 -0.9338428 -1.2254632
0000c0 54 27 80 bf 16 24 a8 bf b9 bf 32 bf b8 ef 93 bf
       -1.0012002 -1.3136013 -0.69823796 -1.1557531
0000d0 0d c2 46 bd bf 46 44 bd a5 6a 06 3e 1e d0 5c bf
       -0.048524905 -0.04791903 0.13126619 -0.8625506
0000e0 35 ea 4e bf 4b 92 07 bf 53 a8 f4 be e4 22 53 bf
       -0.8082612 -0.529576 -0.4778467 -0.82475114
0000f0 91 87 98 bf 23 1a 81 bf 5f 69 9e bf 0c 8c 33 bf
       -1.1916372 -1.0086101 -1.2375907 -0.7013557
000100 dd cb 25 bf 36 c1 a6 3f 87 af 93 3d b9 66 9f 3d
       -0.64764196 1.3027713 0.072112136 0.07783265
000110 56 6e 90 be 98 4b c0 3d b9 53 87 3d 81 bb 9c 3d
       -0.2820918 0.09389418 0.06607766 0.07652951
000120 ea e6 50 3f 09 b2 3b bf 81 09 31 be 24 d8 c0 3e
       0.81602347 -0.73318535 -0.17288782 0.37664902
000130 bf 92 28 bc 4f 4b 86 be 6c e3 c7 3e 8e 86 e4 3e
       -0.010288893 -0.2622933 0.39040697 0.44633907
000140 cf b5 26 3e 07 01 61 bf 40 7d 8d be 20 25 97 3e
       0.16280292 -0.8789219 -0.2763462 0.29520512
000150 9e ed 02 3f 2c aa 41 bf 79 c5 d9 3e da 7b 9d bf
       0.51143825 -0.75650287 0.42533472 -1.2303421
000160 02 2e b0 3e 13 63 8c 3d 2b 6d b9 3d d2 79 7f 3e
       0.344101 0.068548344 0.09054025 0.24948815
000170 9c b9 87 be 6c 1f 2e 3f c6 92 95 bf 1f e3 81 be
       -0.26508796 0.68016696 -1.1685417 -0.25368592
000180 8b 66 57 bf 1d 50 a8 bf c8 a2 c1 bf 33 87 86 bf
       -0.84140843 -1.3149449 -1.5127802 -1.051001
000190 5c 67 80 bf 87 51 27 bf 30 26 98 bf 32 0f 42 bf
       -1.0031543 -0.65358776 -1.1886654 -0.75804436
0001a0 dd ee 37 3e 2e 9c 9a bf b5 aa 9a bf bd 85 af bf
       0.17962213 -1.2078912 -1.2083346 -1.3712689
0001b0 68 d0 4f bf 2e cb 89 bf 26 ec 89 bf 1a 93 84 bf
       -0.8117738 -1.076513 -1.0775192 -1.0357392
0001c0 66 a8 88 bf f2 8e f0 be 64 4e a2 bf 4c ea 06 c0
       -1.0676391 -0.4698406 -1.2680173 -2.1080503
0001d0 cc e1 03 c0 13 e3 8f bf 88 de 6c bf 8a 59 f3 be
       -2.0606565 -1.1241173 -0.92527056 -0.4752925
0001e0 e6 c1 32 bf 18 1b e1 bf 77 04 5f bf c3 c8 e4 be
       -0.69827116 -1.7586393 -0.8711619 -0.4468442
0001f0 70 36 05 bf 7b 23 3c bf 62 50 56 bf 08 26 cb be
       -0.5203619 -0.7349164 -0.83716404 -0.39677453

action_dict.g_module.weight f4 [2, 32]
000000 e3 1f b1 c0 b1 f5 b1 40 e1 82 71 40 5b c0 40 3f
       -5.5351424 5.5612416 3.7736132 0.7529351
000010 77 dd 4b 3f 0e 69 22 3f e5 ee 2a bf 4d 89 e2 40
       0.79634804 0.6344155 -0.66770774 7.0792603
000020 e7 1f 4f 40 93 04 0e 40 4a 5c 6c c0 9f fa 9f bf
       3.2363222 2.2190292 -3.6931329 -1.2498358
000030 0e 9b 5f be a1 86 e0 3f 49 41 14 bf 04 0c 40 be
       -0.21836492 1.7541085 -0.5791212 -0.18754584
000040 5f ee fb 3f a2 58 27 40 b1 17 16 c0 ff ea 91 40
       1.968212 2.6147847 -2.345196 4.559936
000050 a9 86 a7 c0 e2 02 1f c0 34 3b 59 c0 c1 d9 3a 3f
       -5.235188 -2.484551 -3.3942385 0.72988516
000060 ea e2 b3 3f 75 c1 ea 3f a3 63 5c 3f bb eb 0d c1
       1.4053624 1.8340288 0.86089534 -8.870051
000070 8d e0 44 bf 3e 76 fd c0 68 ab 10 c0 64 a6 36 bf
       -0.7690514 -7.920684 -2.2604618 -0.7134764
000080 4b 42 e4 c0 c4 39 52 bf 3d d3 12 c0 bd 1e 6d 40
       -7.1330924 -0.82119393 -2.294143 3.705001
000090 72 53 1b c0 c5 02 e2 bf 2f 3d 00 bf 4c d2 d4 40
       -2.426968 -1.7657095 -0.5009336 6.650671
0000a0 93 84 c4 3f e8 2f 5e c0 bf d0 db bf e0 7f 42 40
       1.5352958 -3.471674 -1.7173079 3.0390549
0000b0 4c 44 9d 3f 47 19 1a 40 12 7f 87 40 1b ba 30 3f
       1.2286468 2.4077928 4.2342615 0.69033974
0000c0 fb b9 46 40 c2 cf 46 40 48 b1 00 c0 cd 4c 82 bf
       3.1051013 3.1064305 -2.0108204 -1.0179688
0000d0 88 5b f7 3f 41 65 2f c0 35 5a 4d bf 2c c4 a1 3f
       1.9324808 -2.740555 -0.8021577 1.2637992
0000e0 18 ba 54 40 cc 65 04 3f 86 67 5d c0 d1 31 02 c1
       3.3238583 0.5171783 -3.4594436 -8.137162
0000f0 a5 88 c6 3d b6 14 44 c0 d8 7f 2f c0 1d 5d 0c c0
       0.096940316 -3.063764 -2.742178 -2.1931832

action_dict.g_module.bias f4 [2]
000000 1f 1f 10 3e db 18 ef bf
       0.14074372 -1.867946
