model_save/simple_spread_ic3net/model.pt (torch_old, 46810 bytes, 15 tensors)

value_dict.value_body.weight f4 [32, 18]
0.87476426 -1.8804002 -0.3646436 -0.48679945 -2.5823083 0.003575781 -0.6078785 0.40561667
-0.5156014 0.8772028 1.3431752 1.0906626 1.9099133 -1.5139757 0.17750518 0.08558305
0.09176713 -0.019689899 1.3467302 -1.113533 -0.39814547 -3.6827798 -5.0106697 1.7529489
-2.5735254 3.7667656 2.6190798 5.685189 2.3090763 -7.2579823 1.660459 -4.94105
-0.0713863 0.1830471 0.018377172 -0.11361618 0.33457956 0.33283633 0.844331 -0.47802216
-0.45875964 0.6098707 1.3226887 -0.41141465 -0.5931732 -0.83388376 0.96821535 0.43949312
-0.9029077 -0.036396917 0.020951975 -0.039315186 -0.1193155 -0.025885252 0.77955294 0.8762555
-2.3956127 -6.1827846 0.53737885 8.509442 2.6275625 8.770835 2.473996 -6.5848255
-2.050465 -5.746405 -2.6283817 -4.6595073 -0.032663852 -0.07233451 0.047727488 -0.06546981
-0.24301344 0.8134733 4.3308735 1.2593482 2.0351164 1.1257609 3.4914904 1.5064939
-1.5109394 -1.3066273 0.3320464 1.9511616 -1.9966515 -0.17130569 0.007712939 -0.034537952
-0.106027365 -0.045020733 -1.8998566 2.1365569 -4.977011 4.608778 -5.364237 1.7620195
-3.7422643 -4.4835668 7.8352327 -8.571986 -0.87477756 5.040288 -0.85441935 5.480484
0.0895797 -0.14573424 0.058917727 -0.1529693 -0.53879035 1.1657108 -1.0333315 1.2671877
2.8919733 -0.52262944 2.6408672 1.9186072 -1.3141379 0.96723694 -4.5002584 0.50522554
-0.7047497 -1.914237 0.08682802 -0.07254586 -0.011879176 -0.18598412 -0.038210724 -0.022647806
-0.9796164 2.3489501 2.1660252 -0.17872487 -2.4277368 1.5796257 -0.47969782 -1.3082862
-0.36926493 0.82661885 -0.058618117 1.0312066 -0.05622359 -0.02076253 0.11392807 0.1707602
0.558324 -1.1703674 -1.6856239 1.341484 1.9422907 1.5112386 -0.20387837 2.2185438
1.1354097 1.8068491 -1.3394241 -1.4127332 0.08438399 -2.9541829 0.1093805 -0.22587977
0.118778065 0.08976537 -3.5677094 -0.18694964 -2.7007234 -4.7824903 0.68978506 0.78513145
1.9506724 0.33742306 1.8122858 0.96266806 -2.1966789 3.277699 -2.0946932 0.3304789
0.021255063 0.020291738 0.11148437 0.04209784 1.2418004 1.8594639 2.331709 3.298264
-1.078072 -6.640747 -2.8049223 -4.001409 -1.7481968 0.42898694 1.8386036 4.9209123
1.7475027 5.3656077 -0.014496984 -0.060839128 0.08129622 -0.0010754046 -1.9774321 -2.6553037
-4.4673676 -0.91133887 0.00085487106 -6.383353 4.7644987 -2.1204202 7.2279916 7.1404
-7.113997 -0.47303194 -5.3897867 -1.9122128 0.014185603 -0.005725404 0.10874661 0.08659963
-2.14494 -0.05602687 -3.6957839 -0.11640072 3.8137596 1.0355803 1.7583259 -0.61456466
4.46372 -1.0409468 -4.4087677 -0.097882606 -5.542866 1.4513075 -0.11459917 0.20818458
0.013881974 -0.06610572 -2.857439 -2.8639026 0.049459267 -3.0639777 -0.09163438 3.5359948
0.41505954 1.6979879 0.64560825 2.7505643 1.5576869 -4.6217556 -3.2928684 -2.9399273
0.05016126 -0.13626952 0.05162104 0.19207959 -1.3291191 0.99993044 -0.9785243 -4.112814
00000000: 8df0 5f3f f4b0 f0bf 91b2 babe c73d f9be
00000010: 8a44 25c0 a657 6a3b ed9d 1bbf fdac cf3e
00000020: 74fe 03bf 5d90 603f 2aed ab3f d59a 8b3f
00000030: 0a78 f43f f5c9 c1bf ebc3 353e 2b46 af3d
00000040: 68f0 bb3d b64c a1bc a861 ac3f 4088 8ebf
00000050: b9d9 cbbe aab2 6bc0 6857 a0c0 a160 e03f
00000060: a4b4 24c0 b012 7140 019f 2740 11ed b540
00000070: e8c7 1340 6441 e8c0 ec89 d43f 151d 9ec0
00000080: fb32 92bd b370 3b3e b98b 963c 9aaf e8bd
00000090: 034e ab3e 8669 aa3e 1426 583f 52bf f4be
000000a0: 8be2 eabe 7c20 1c3f dd4d a93f f1a4 d2be
000000b0: 33da 17bf 6879 55bf f6dc 773f 3e05 e13e
000000c0: f624 67bf ef14 15bd 7aa3 ab3c f608 21bd
000000d0: af5b f4bd 4f0d d4bc c890 473f 4852 603f
000000e0: b851 19c0 5fd9 c5c0 a991 093f ad26 0841
000000f0: fc29 2840 5755 0c41 f355 1e40 e4b6 d2c0
00000100: d23a 03c0 8de2 b7c0 6837 28c0 af1a 95c0
00000110: 88ca 05bd 1e24 94bd e67d 433d 0915 86bd
00000120: 84d8 78be c93f 503f 8496 8a40 5232 a13f
00000130: 593f 0240 ef18 903f 9474 5f40 cbd4 c03f
00000140: 7666 c1bf 903f a7bf fc01 aa3e aabf f93f
00000150: 4792 ffbf c26a 2fbe d2bc fc3b ab77 0dbd
00000160: e024 d9bd a967 38bd 802e f3bf 59bd 0840
00000170: ad43 9fc0 1c7b 9340 d4a7 abc0 db89 e13f
00000180: 4281 6fc0 6179 8fc0 3aba fa40 db26 09c1
00000190: 6cf1 5fbf 0a4a a140 3abb 5abf 2060 af40
000001a0: 9075 b73d 5b3b 15be b753 713d fca3 1cbe
000001b0: 2aee 09bf 0336 953f 3544 84bf 3533 a23f
000001c0: 1716 3940 0bcb 05bf f803 2940 ec94 f53f
000001d0: ac35 a8bf d79c 773f 1e02 90c0 7656 013f
000001e0: 7a6a 34bf b805 f5bf e4d2 b13d ed92 94bd
000001f0: e0a0 42bc 9f72 3ebe d982 1cbd e487 b9bc
00000200: 24c8 7abf 3355 1640 28a0 0a40 a703 37be
00000210: 0a60 1bc0 2d31 ca3f f49a f5be ec75 a7bf
00000220: 4b10 bdbe 4b9d 533f 8d19 70bd 94fe 833f
00000230: b54a 66bd 2e16 aabc 1f53 e93d c3db 2e3e
00000240: 52ee 0e3f 99ce 95bf 86c2 d7bf bfb5 ab3f
00000250: fb9c f83f 4470 c13f 7ec5 50be 9ffc 0d40
00000260: 1b55 913f d546 e73f 4072 abbf 71d4 b4bf
00000270: 83d1 ac3d 5511 3dc0 e202 e03d 074d 67be
00000280: ea41 f33d e8d6 b73d 5a55 64c0 ba6f 3fbe
00000290: a7d8 2cc0 290a 99c0 c195 303f 60fe 483f
000002a0: a2af f93f b7c2 ac3e fbf8 e73f 6a71 763f
000002b0: 6396 0cc0 d2c5 5140 740f 06c0 8834 a93e
000002c0: 191f ae3c dc3a a63c eb51 e43d c96e 2c3d
000002d0: 51f3 9e3f ea02 ee3f b83a 1540 c216 5340
000002e0: 43fe 89bf 0081 d4c0 d983 33c0 8b0b 80c0
000002f0: eac4 dfbf 2da4 db3e 5d57 eb3f 1d78 9d40
00000300: 2bae df3f 0fb3 ab40 c284 6dbc 7332 79bd
00000310: a27e a63d 97f4 8cba 7f1c fdbf 7ff0 29c0
00000320: adf4 8ec0 814d 69bf 6d19 603a 6e44 ccc0
00000330: c676 9840 f7b4 07c0 b54b e740 287e e440
00000340: dda5 e3c0 3e31 f2be 2279 acc0 64c3 f4bf
00000350: bb6a 683c 2b9c bbbb 8bb6 de3d 265b b13d
00000360: b246 09c0 6e7c 65bd b987 6cc0 8063 eebd
00000370: a314 7440 e58d 843f d310 e13f 1c54 1dbf
00000380: cbd6 8e40 bf3d 85bf a014 8dc0 ad76 c8bd
00000390: 295f b1c0 72c4 b93f f8b2 eabd 572e 553e
000003a0: 3871 633c 7062 87bd 48e0 36c0 2e4a 37c0
000003b0: cd95 4a3d 3618 44c0 ceaa bbbd bd4d 6240
000003c0: af82 d43e ab57 d93f 9546 253f 3f09 3040
000003d0: 4962 c73f 6ce5 93c0 5bbe 52c0 c527 3cc0
000003e0: e575 4d3d 3d8a 0bbe 9570 533d 83b0 443e
000003f0: 9320 aabf 71fb 7f3f 9280 7abf 2c9c 83c0

value_dict.value_body.bias f4 [32]
-14.391257 -14.012395 -8.086672 -18.596775 -14.575727 -18.043154 -13.879829 -9.268093
16.865335 15.979547 -13.015508 -19.206547 -9.809632 -15.019248 -13.407885 -20.268017
-20.145838 -0.4728908 -0.44787857 -10.947633 -1.2978047 -0.3243752 -10.132029 -21.516115
-15.25687 16.867893 -19.280874 -13.586935 -3.1193721 -7.791169 -16.532246 -6.6561294
00000000: 9742 66c1 c532 60c1 0263 01c1 32c6 94c1
00000010: 2e36 69c1 6158 90c1 c813 5ec1 1c4a 14c1
00000020: 35ec 8641 39ac 7f41 853f 50c1 02a7 99c1
00000030: 41f4 1cc1 d74e 70c1 b286 56c1 e624 a2c1
00000040: ad2a a1c1 be1e f2be 5750 e5be 8129 2fc1
00000050: 771e a6bf 8214 a6be ca1c 22c1 0121 acc1
00000060: 241c 74c1 72f1 8641 3b3f 9ac1 1664 59c1
00000070: cba3 47c0 4251 f9c0 0a42 84c1 03ff d4c0

value_dict.value_head.weight f4 [1, 32]
-0.38290805 -0.18940952 1.2630432 -1.7020882 0.6714573 -1.1050367 0.1916321 -0.0126943635
-1.3249568 -1.2873987 -0.53429645 -0.87851447 -0.46430773 -0.96045995 -0.18834668 -0.590569
-1.1012504 -1.5281421 -0.015010978 0.25745314 -0.58204037 -1.436846 0.06576383 0.5505734
0.055472553 -2.077418 -0.61475486 -0.45234025 -0.86639994 0.13355565 -2.0472205 -0.22531174
00000000: 860c c4be 92f4 41be 66ab a13f 07de d9bf
00000010: a0e4 2b3f d871 8dbf 353b 443e 05fc 4fbc
00000020: 2f98 a9bf 7bc9 a4bf a7c7 08bf 53e6 60bf
00000030: beb9 edbe b4e0 75bf f4dd 40be 882f 17bf
00000040: c6f5 8cbf 299a c3bf 9bf0 75bc e6d0 833e
00000050: 9900 15bf 92ea b7bf 30af 863d 61f2 0c3f
00000060: 3037 633d 6bf4 04c0 9360 1dbf 2499 e7be
00000070: 63cc 5dbf d0c2 083e a905 03c0 1fb8 66be

action_dict.action_head.weight f4 [5, 32]
-0.30709773 -0.034279708 0.106654085 -0.27951226 0.0118508125 -0.11234302 0.054481924 0.051528998
-0.000493622 0.2872779 -0.06306983 -0.093592 -0.027068742 -0.045421988 0.03320996 0.14033602
0.08643543 0.05923121 0.04951583 -0.19317119 0.094626024 -0.041183654 0.04983218 0.004788646
-0.020637468 -0.11672267 0.31131038 0.0589045 0.005395663 0.29550597 -0.01951732 0.20143628
0.47034067 -0.30671632 0.1963593 -0.33609095 0.43948752 -0.47419295 -0.31793237 -0.3207732
-0.4527709 -0.1352836 -0.36870182 -0.043839354 0.45802408 0.30438447 0.48192814 -0.27827588
0.35220385 0.2282726 0.53298926 -0.16989173 0.93107307 -0.0064178444 0.09264407 0.16391647
-0.054675866 -0.042026114 -0.30193833 -0.23362829 -0.21550645 -0.21356818 0.4713689 -0.09542755
-0.5156321 0.29591185 -0.23848048 0.5290416 -0.39049986 0.49977356 0.30279806 0.37250176
0.37265453 0.33726227 0.08278747 0.0023185639 -0.33399734 0.15397306 -0.28683785 0.19831227
-0.50927144 -0.14030838 -0.34578815 0.21437033 -0.8995702 -0.13245659 -0.18414207 -0.24872273
0.026868472 0.054088123 -0.10847064 0.22347397 0.09509091 0.0781696 -0.3928877 0.30079564
-0.25659233 -0.5011427 -0.37243158 0.6572482 0.26721266 -0.17457527 0.14303581 -0.2932401
0.30465165 0.3805033 0.2943689 -0.18810734 -0.52695495 0.2388704 -0.25617677 0.3253778
0.27749804 0.3462273 0.3501464 0.26802322 0.20169507 -0.22307292 0.1664544 -0.69150597
-0.69652146 0.3053916 -0.015323947 0.4257689 0.33677408 -0.36056286 0.21769218 -0.21417028
0.25603577 0.56943244 0.3598929 -0.4888014 -0.25071785 0.47979558 -0.34259024 0.2525775
-0.16296247 -0.505655 -0.2477242 0.25926718 0.1273176 -0.044044975 -0.044163615 -0.3095668
-0.26457995 -0.40744412 -0.43534458 -0.019217744 -0.07598502 0.25672093 -0.30583265 0.64800286
0.58547944 -0.18179974 -0.15967883 -0.34318653 -0.15315951 0.2969079 -0.13176161 0.3617747
00000000: ea3b 9dbe e168 0cbd 756d da3d 3b1c 8fbe
00000010: e929 423c 1914 e6bd 7028 5f3d 1210 533d
00000020: 6966 01ba 1716 933e c12a 81bd 2aad bfbd
00000030: 44bf ddbc 680c 3abd 2b07 083d 3fb4 0f3e
00000040: 0f05 b13d 6d9c 723d 1cd1 4a3d abce 45be
00000050: 4acb c13d 31b0 28bd d41c 4c3d 13ea 9c3b
00000060: e80f a9bc 4c0c efbd 1364 9f3e d845 713d
00000070: 1ace b03b 8f4c 973e c9e2 9fbc 5045 4e3e
00000080: 7ed0 f03e ec09 9dbe 6a12 493e 1d14 acbe
00000090: 8204 e13e 6bc9 f2be 08c8 a2be 633c a4be
000000a0: 96d1 e7be c987 0abe 7cc6 bcbe e590 33bd
000000b0: 2282 ea3e 48d8 9b3e 49bf f63e 2d7a 8ebe
000000c0: 1054 b43e 4bc0 693e fc71 083f 19f8 2dbe
000000d0: ce5a 6e3f c84c d2bb 2dbc bd3d b8d9 273e
000000e0: cdf3 5fbd 9323 2cbd a997 9abe 413c 6fbe
000000f0: b9ad 5cbe 9eb1 5abe 4457 f13e 856f c3bd
00000100: 7700 04bf c281 973e 3a34 74be 456f 073f
00000110: 99ef c7be 52e2 ff3e 5908 9b3e 8db8 be3e
00000120: 93cc be3e a4ad ac3e 7a8c a93d 0cf3 173b
00000130: b301 abbe 1dab 1d3e 69dc 92be 5f12 4b3e
00000140: 9d5f 02bf 00ad 0fbe 250b b1be e583 5b3e
00000150: 3c4a 66bf b3a2 07be bd8f 3cbe 2cb1 7ebe
00000160: 451b dc3c 828b 5d3d db25 debd 5cd6 643e
00000170: 06bf c23d 6217 a03d 9428 c9be e301 9a3e
00000180: 1260 83be e34a 00bf 5aaf bebe 6b41 283f
00000190: 19d0 883e dcc3 32be fb77 123e 9123 96be
000001a0: 4dfb 9b3e 54d1 c23e 85b7 963e 369f 40be
000001b0: 85e6 06bf 719a 743e 9a29 83be eb97 a63e
000001c0: 3914 8e3e b444 b13e 6446 b33e 573a 893e
000001d0: 2789 4e3e 3a6d 64be 0673 2a3e 8906 31bf
000001e0: 3b4f 32bf 4a5c 9c3e 4b11 7bbc 62fe d93e
000001f0: a76d ac3e b29b b8be b3ea 5e3e 744f 5bbe
00000200: 1f17 833e 53c6 113f e243 b83e 2d44 fabe
00000210: 175e 80be c4a7 f53e fd67 afbe d751 813e
00000220: a2df 26be 9b72 01bf 6aab 7dbe abbe 843e
00000230: 8c5f 023e 8168 34bd e8e4 34bd 8a7f 9ebe
00000240: 0677 87be 849c d0be 7ce5 debe 886e 9dbc
00000250: 099e 9bbd ed70 833e 1996 9cbe 84e3 253f
00000260: fbe1 153f b629 3abe d982 23be 25b6 afbe
00000270: d9d5 1cbe 5004 983e 84ec 06be 893a b93e

action_dict.action_head.bias f4 [5]
0.30535862 0.19074474 -0.21320966 0.25572228 -0.27057272
00000000: f757 9c3e 9752 433e a253 5abe 08ee 823e
00000010: 8288 8abe

action_dict.encoder.weight f4 [32, 18]
-0.13992906 -1.1709535 -0.14247474 -0.4408018 -0.52681774 0.85769504 -0.5184399 0.3894298
0.68281966 0.55845565 0.76713026 -0.400961 0.85589635 -0.22885972 -0.051254816 -0.12619953
0.13300295 -0.01787757 -0.23642473 -0.028455297 0.45988762 -0.055904143 -0.32503292 0.30904695
-0.7588085 0.16320345 -0.93970805 -0.023361657 0.9135859 -0.18430594 1.0234185 0.28676307
0.007178555 0.0043701734 -0.036284298 -0.10999924 -0.062889 -0.87829524 -0.22275473 0.25683558
0.62157226 -1.1015762 -0.37791157 -0.058686227 0.6460137 -0.28975812 0.5383475 -0.160703
-0.49960375 0.6555202 0.051902007 0.042750966 -0.09870826 0.049518503 -0.2099273 -0.07755999
0.23529221 -0.021933315 -1.2754374 0.20036061 0.95360905 0.79476416 -1.1696107 0.005728048
1.4104736 0.07365356 1.2893592 0.1484037 0.13963939 0.07537451 -0.021379936 -0.0024058435
-0.20124078 0.024094269 -0.46946973 -0.038724914 0.7021567 0.41475326 1.1396028 0.33266997
-0.2936436 -0.25513822 -0.8926086 -0.33510607 -0.929536 -0.38414028 0.1041662 -0.058968116
0.035289165 0.13973574 -0.42864197 0.18185388 0.31461817 0.1519153 0.38618597 0.14500748
0.31535566 -0.27269462 0.041145165 -0.16397437 -0.088450536 0.09931501 -0.22928634 0.20058903
0.039202526 -0.033745136 -0.09122085 0.0053142267 0.27918386 0.23018251 0.06310536 0.06586911
0.3919632 0.04873146 0.50042206 0.0030901993 -4.4087806 -1.7953258 -0.2900624 -0.016327938
-0.279611 0.039121475 -0.029455075 -0.20493923 -0.09789046 0.036564276 -0.30447716 0.05115788
-0.29710555 0.072915934 -0.6408184 -0.019640762 1.5572603 -0.20067665 1.5091008 -0.049963363
-1.7839507 0.2359023 -1.6543866 0.22463335 -0.08648124 -0.039605148 -0.058852788 0.123273514
-0.06195747 0.40011844 0.28371838 -0.1972043 1.173749 -1.338895 -0.12814236 0.683711
-0.036847305 1.0410155 0.117190525 -0.9829339 -0.025224436 -0.94305843 -0.0629717 -0.088011585
-0.05355219 0.14566766 -0.89218056 0.25278515 -1.1823206 0.17079964 0.48337963 -0.10652816
0.40372 0.567648 0.27670333 0.15379201 0.21405989 -0.5888989 0.26525822 -0.29041582
-0.001763754 -0.014112721 0.081064075 0.085308455 -0.015083659 0.08133249 -0.09841162 0.03223483
0.9173215 0.37820807 -1.9162912 -1.0131209 0.925478 0.18794136 -1.157342 -0.259526
-1.2736602 -0.3244953 -0.02037764 -0.042670377 0.12753242 0.21031784 0.34764937 0.10947459
1.1773313 0.31520435 -0.71742827 -0.48246276 -0.78546274 0.35292977 -0.3428609 -0.567581
-0.08993459 0.12382023 -0.4558271 -0.01690954 0.0900953 -0.0023161352 -0.07991225 0.014728652
-0.16330302 0.3247633 0.59782034 0.14300078 -0.23009342 -0.5711557 -1.5688064 -0.4525748
-0.4021889 -0.6379082 1.1505642 0.26297915 1.2244939 0.36811942 0.03202073 -0.13970436
-0.007396031 0.05070008 0.35324597 -0.42598438 0.045397475 0.0622272 -1.7184094 5.178953
0.103621304 -0.56066483 0.08006338 -0.57868457 -0.12741269 0.40160978 -0.10861294 0.3680102
-0.19358052 0.111826316 0.0077493796 -0.06264844 0.59228444 0.8744177 0.1263076 0.22742261
00000000: 9049 0fbe cee1 95bf e6e4 11be c6b0 e1be
00000010: 87dd 06bf e791 5b3f 7ab8 04bf 5863 c73e
00000020: 45cd 2e3f f3f6 0e3f a662 443f c34a cdbe
00000030: 061c 5b3f 345a 6abe 92f0 51bd 733a 01be
00000040: ed31 083e fb73 92bc 5319 72be 151b e9bc
00000050: 6476 eb3e befb 64bd b76a a6be 673b 9e3e
00000060: 4641 42bf ce1e 273e b590 70bf f260 bfbc
00000070: c4e0 693f b2ba 3cbe 61ff 823f 9cd2 923e
00000080: 153a eb3b ac33 8f3b d89e 14bd 4847 e1bd
00000090: f3cb 80bd f5d7 60bf d119 64be f47f 833e
000000a0: 5c1f 1f3f 7300 8dbf a07d c1be f860 70bd
000000b0: 2761 253f 2d5b 94be 24d1 093f 548f 24be
000000c0: 10cc ffbe 2cd0 273f 3397 543d a31b 2f3d
000000d0: 8e27 cabd ead3 4a3d 2ff7 56be c6d7 9ebd
000000e0: 71f0 703e 7fad b3bc 8841 a3bf 552b 4d3e
000000f0: b91f 743f aa75 4b3f ceb5 95bf 59b2 bb3b
00000100: 668a b43f add7 963d b909 a53f 24f7 173e
00000110: a1fd 0e3e f35d 9a3d fa24 afbc 5bab 1dbb
00000120: 1012 4ebe 5861 c53c 565e f0be 049e 1ebd
00000130: 8bc0 333f 8a5a d43e 81de 913f b853 aa3e
00000140: 7458 96be 7aa1 82be ff81 64bf 0693 abbe
00000150: 12f6 6dbf 09ae c4be 1755 d53d 8d88 71bd
00000160: 5f8b 103d e316 0f3e f676 dbbe e737 3a3e
00000170: a215 a13e af8f 1b3e 2bba c53e d77c 143e
00000180: 4c76 a13e a19e 8bbe d587 283d e6e8 27be
00000190: 8e25 b5bd ab65 cb3d 0aca 6abe 3667 4d3e
000001a0: d492 203d 5738 0abd ffd1 babd f722 ae3b
000001b0: 30f1 8e3e f7b4 6b3e 623d 813d 62e6 863d
000001c0: 67af c83e a49a 473d a91b 003f f184 4a3b
000001d0: bb14 8dc0 3ccd e5bf 0f83 94be 2bc2 85bc
000001e0: 2c29 8fbe d73d 203d c54b f1bc 97db 51be
000001f0: cb7a c8bd 6cc4 153d 6ee4 9bbe ed8a 513d
00000200: 381e 98be f354 953d ad0c 24bf aae5 a0bc
00000210: 4e54 c73f 2e7e 4dbe 372a c13f 62a6 4cbd
00000220: 7f58 e4bf 5f90 713e f1c2 d3bf 4906 663e
00000230: 141d b1bd 0239 22bd 9f0f 71bd d376 fc3d
00000240: 1ec7 7dbd 53dc cc3e 8943 913e edef 49be
00000250: 683d 963f e960 abbf c037 03be af07 2f3f
00000260: 33ed 16bd ff3f 853f 9601 f03d 8ea1 7bbf
00000270: 7aa3 cebc 476c 71bf 4ff7 80bd 6b3f b4bd
00000280: 8b59 5bbd e729 153e f265 64bf 0e6d 813e
00000290: 4856 97bf 1ae6 2e3e 897d f73e 702b dabd
000002a0: 63b4 ce3e 6151 113f 0fac 8d3e a77b 1d3e
000002b0: 8432 5b3e 14c2 16bf edcf 873e 62b1 94be
000002c0: c32d e7ba 0b39 67bc ec04 a63d 33b6 ae3d
000002d0: 7421 77bc a691 a63d 088c c9bd ab08 043d
000002e0: 95d5 6a3f 7da4 c13e 0849 f5bf f2ad 81bf
000002f0: 20ec 6c3f b373 403e c823 94bf 98e0 84be
00000300: 4c07 a3bf 3f24 a6be 02ef a6bc 22c7 2ebd
00000310: dc97 023e 8f5d 573e 19ff b13e 3734 e03d
00000320: cbb2 963f 7762 a13e 61a9 37bf 5c05 f7be
00000330: 1614 49bf 36b3 b43e 778b afbe fd4c 11bf
00000340: a02f b8bd 7695 fd3d 2b62 e9be e085 8abc
00000350: e283 b83d 4dca 17bb 09a9 a3bd 7250 713c
00000360: e838 27be 6047 a63e c10a 193f cc6e 123e
00000370: 9c9d 6bbe 4337 12bf a6ce c8bf e2b7 e7be
00000380: b4eb cdbe f44d 23bf b045 933f 34a5 863e
00000390: 37bc 9c3f 267a bc3e 2b28 033d a90e 0fbe
000003a0: 685a f2bb e3aa 4f3d a8dc b43e a01a dabe
000003b0: b4f2 393d f3e1 7e3d d7f4 dbbf fcb9 a540
000003c0: 6837 d43d bb87 0fbf 45f8 a33d ac24 14bf
000003d0: 7978 02be cc9f cd3e 7670 debd d56b bc3e
000003e0: f939 46be 3205 e53d 82ee fd3b d34d 80bd
000003f0: f49f 173f d7d9 5f3f c856 013e 79e1 683e

action_dict.encoder.bias f4 [32]
-1.1013585 -2.1099274 -2.1992164 -0.29774037 -0.5292937 -2.4015048 1.0188271 -0.20684412
-0.22110999 -2.4925985 -0.1813349 -2.2809231 -1.3991323 0.83092445 0.059450235 -1.0204736
-1.827402 -1.7550334 -1.5357324 0.93658817 0.83772343 -1.316664 0.741597 0.59868956
-1.637042 0.7855092 -0.051698275 -2.3598363 1.1038368 -1.4247078 -0.19559675 -1.2717328
00000000: 51f9 8cbf 0d09 07c0 f6bf 0cc0 6d71 98be
00000010: cb7f 07bf 41b2 19c0 ed68 823f f2ce 53be
00000020: a86a 62be bc86 1fc0 dbaf 39be a5fa 11c0
00000030: c416 b3bf 77b7 543f 1782 733d e19e 82bf
00000040: 4fe8 e9bf efa4 e0bf e192 c4bf 3ec4 6f3f
00000050: 0b75 563f 7288 a8bf 4dd9 3d3f b843 193f
00000060: 988a d1bf 2217 493f 92c1 53bd 8f07 17c0
00000070: 864a 8d3f d35c b6bf 844a 48be 24c8 a2bf

action_dict.f_module.weight_ih f4 [128, 32]
1.0493363 1.6878366 1.3372086 0.90776736 -0.39331537 -0.59401256 0.16212177 -2.63823
-1.1913185 -0.74197567 -1.2880843 -0.48058382 0.546345 0.530617 -0.8027525 0.9756681
0.29556414 0.11982802 -1.0632579 0.4002698 0.70179474 0.18650222 0.60439116 -2.3105915
0.5357573 0.06516305 0.25483862 0.55006605 -4.4023542 -0.9368786 -0.76439995 -1.3460791
-0.8842821 4.3749714 1.1355383 1.2068118 -0.15520723 1.6484162 0.38431984 0.12134557
-0.15762833 0.69103634 2.2325845 -0.09534145 -0.4257072 0.13366453 -1.5374637 -0.012693823
1.4273858 -0.7133698 2.225949 1.0787494 0.33720437 1.4733132 0.6826484 -0.5084143
2.4720092 -0.00077646313 -2.4211092 0.8711544 -0.6283263 0.9277793 0.52123636 0.39929894
-1.0312865 -0.5153277 -3.8264475 -1.4028533 0.34273344 -0.81195086 -0.34115058 0.8898531
0.90488327 0.06743531 -0.27343065 0.18785588 0.12679125 1.6906369 0.9729046 -0.6081212
0.91906804 0.25016412 -0.31155384 -0.28710333 -0.010131605 0.74128515 -0.80315924 0.039396577
1.0276185 0.63832206 0.14721702 -3.5028737 0.77292734 -0.5636253 0.20628244 -0.07969751
0.39650923 0.854977 0.40288308 1.3352294 0.12323731 0.43341458 0.38944316 -0.467358
0.6808036 0.2741861 -0.06268398 0.3823853 0.72058815 1.1281083 0.15898882 0.62200916
-0.08732589 -0.31091613 0.03061346 0.050980322 0.05101075 0.89346886 0.80109435 -0.30753553
0.42056134 1.0417248 -0.26846936 -0.15523814 -0.34609652 0.5603007 0.6853264 -0.0020486417
0.7232965 -0.6608038 -1.6368315 -0.6599703 2.3525987 0.10986791 0.22637214 0.17228578
0.40718836 -0.51823825 -1.8696117 -0.11844888 1.176067 0.2703532 0.41826198 0.28846383
1.3288914 -0.25498456 -0.5736309 2.500234 -0.65340346 -0.73419785 0.7085922 0.79961973
-0.810383 0.106559455 1.3756741 -0.9854504 -0.44753677 -0.6713254 -0.54588974 0.18781768
-0.8924677 -0.56082374 0.61415946 0.7174827 -0.36667463 0.65992254 -1.5018362 -0.13453202
-0.59815586 -0.36518905 0.5549404 -0.5762737 -0.48174104 0.97359127 0.7063692 -0.32527
-0.0019483241 0.60209364 0.16413023 0.66122776 -0.100411825 -0.57270485 0.07759321 -0.11736749
-0.41546687 -4.1663895 -0.884349 1.500904 -0.66268045 -0.41356897 -0.5150662 0.91475886
-1.419209 2.6455512 -0.2248367 0.81114215 -1.125316 2.9099467 1.9168437 2.2701795
1.5357219 0.46548855 1.3363317 0.4282871 -0.16019307 0.18073153 0.112405606 0.9755736
-0.029709723 0.0054735057 0.86839676 0.3484909 -0.21436702 0.15221979 -0.122934595 -2.004703
0.29096556 0.21979146 -0.8013747 2.6036317 1.3779256 2.06886 -0.18133873 -1.5132135
1.4794555 -0.16686182 0.39263228 0.32975903 0.13526051 -0.47568402 -0.8752618 0.33941367
-0.76726097 0.60300344 1.3749288 -0.56042796 0.20786978 -0.32854885 -0.2216112 0.77476937
-0.3534737 -0.44287622 1.2793012 -0.41938934 1.4700496 1.5867575 0.3042746 1.7543836
-0.12664838 0.14920552 -0.11043844 -0.15838422 0.7494092 -0.5774181 1.395647 1.6469369
00000000: a750 863f 080b d83f a729 ab3f 7163 683f
00000010: a260 c9be 3511 18bf 4003 263e c3d8 28c0
00000020: 207d 98bf 1ef2 3dbf f2df a4bf 150f f6be
00000030: 44dd 0b3f 84d6 073f 3081 4dbf 62c5 793f
00000040: 2f54 973e 6568 f53d d618 88bf 2af0 cc3e
00000050: d2a8 333f 70fa 3e3e 61b9 1a3f bbe0 13c0
00000060: 6427 093f 3574 853d 357a 823e 21d1 0c3f
00000070: 16e0 8cc0 47d7 6fbf b7af 43bf 524c acbf
00000080: 5060 62bf c4ff 8b40 5259 913f cf78 9a3f
00000090: a5ee 1ebe 4dff d23f 92c5 c43e 0784 f83d
000000a0: 5269 21be c2e7 303f aae2 0e40 6142 c3bd
000000b0: 4bf6 d9be 5bdf 083e 9ccb c4bf c1f9 4fbc
000000c0: 94b4 b63f 679f 36bf f375 0e40 7614 8a3f
000000d0: 0da6 ac3e 8795 bc3f 0cc2 2e3f 7127 02bf
000000e0: 6635 1e40 8f8b 4bba 74f3 1ac0 fa03 5f3f
000000f0: fed9 20bf f282 6d3f bf6f 053f e970 cc3e
00000100: 3201 84bf 84ec 03bf 84e4 74c0 b290 b3bf
00000110: c27a af3e 03dc 4fbf 4aab aebe 6acd 633f
00000120: 6ea6 673f 861b 8a3d 1aff 8bbe 4b5d 403e
00000130: 91d5 013e ca66 d83f 4710 793f d5ad 1bbf
00000140: 0b48 6b3f 8315 803e fc83 9fbe 35ff 92be
00000150: 08ff 25bc ddc4 3d3f d89b 4dbf 4e5e 213d
00000160: 0189 833f 1369 233f 0fc0 163e 152f 60c0
00000170: 91de 453f bf49 10bf b43b 533e 7338 a3bd
00000180: 4203 cb3e c6df 5a3f b146 ce3e cce8 aa3f
00000190: d863 fc3d 84e8 dd3e 1865 c73e 8c49 efbe
000001a0: 2549 2e3f 1f62 8c3e 7560 80bd 02c8 c33e
000001b0: 7778 383f da65 903f f7cd 223e fe3b 1f3f
000001c0: ebd7 b2bd 6630 9fbe 14c9 fa3c bed0 503d
000001d0: a6f0 503d 60ba 643f 8514 4d3f 4c75 9dbe
000001e0: d153 d73e 3d57 853f d174 89be bff6 1ebe
000001f0: 9033 b1be de6f 0f3f 8d71 2f3f 8142 06bb
00000200: f629 393f 702a 29bf b283 d1bf d0f3 28bf
00000210: fa90 1640 6d02 e13d 19ce 673e af6b 303e
00000220: fe7a d03e 43ab 04bf 704f efbf 5495 f2bd
00000230: 5d89 963f bc6b 8a3e 6f26 d63e 88b1 933e
00000240: 1d19 aa3f 568d 82be 7ad9 12bf d503 2040
00000250: 7345 27bf 64f4 3bbf 4c66 353f e1b3 4c3f
00000260: 4375 4fbf d83b da3d 1716 b03f 7a46 7cbf
00000270: 8a23 e5be fbdb 2bbf 6ebf 0bbf 4753 403e
00000280: c378 64bf 2592 0fbf 8e39 1d3f f2ac 373f
00000290: c7bc bbbe aff0 283f 2b3c c0bf c3c2 09be
000002a0: be20 19bf 0ffa babe 9310 0e3f ac86 13bf
000002b0: c3a6 f6be 473d 793f 9dd4 343f ca89 a6be
000002c0: e95e ffba cf22 1a3f c111 283e 3946 293f
000002d0: b7a4 cdbd c99c 12bf 30e9 9e3d 5e5e f0bd
000002e0: 13b8 d4be 1053 85c0 b264 62bf 9f1d c03f
000002f0: 6da5 29bf 50bf d3be 61db 03bf a32d 6a3f
00000300: a4a8 b5bf b650 2940 983b 66be 03a7 4f3f
00000310: 5b0a 90bf 913c 3a40 225b f53f 9f4a 1140
00000320: 8992 c43f 8454 ee3e eb0c ab3f 7248 db3e
00000330: a709 24be b011 393e e934 e63d 31bf 793f
00000340: ce61 f3bc 185b b33b 404f 5e3f 666d b23e
00000350: 0783 5bbe 81df 1b3e 22c5 fbbd 0e4d 00c0
00000360: 70f9 943e 0311 613e e426 4dbf e7a1 2640
00000370: de5f b03f 3468 0440 dcb0 39be fbb0 c1bf
00000380: cc5e bd3f d3dd 2abe 1907 c93e 2dd6 a83e
00000390: bb81 0a3e db8c f3be 2811 60bf a1c7 ad3e
000003a0: 376b 44bf 6f5e 1a3f abfd af3f 3578 0fbf
000003b0: d1db 543e 8e37 a8be 0cee 62be 4957 463f
000003c0: 81fa b4be acc0 e2be 24c0 a33f 33ba d6be
000003d0: 962a bc3f df1a cb3f e1c9 9b3e a48f e03f
000003e0: 1db0 01be 55c9 183e 8d2d e2bd 792f 22be
000003f0: 48d9 3f3f acd1 13bf 90a4 b23f d4ce d23f

action_dict.f_module.weight_hh f4 [128, 32]
2.0096617 0.050925627 -0.804514 0.44566363 0.47166213 0.12831523 1.2170573 -0.99257237
-2.0334523 1.2917604 1.7654091 -0.7801597 1.5024208 -0.14181979 -1.3705978 -0.124284185
-1.2729794 1.7848406 -1.3808024 -0.9899871 0.86495996 -1.1567115 -1.4641489 -2.4690354
-1.3545535 -0.2322807 -0.37351188 0.42073357 -0.19453146 -0.102562726 -0.3512375 -0.44676843
-0.8881327 -0.82326704 -0.8704835 0.5490757 1.122191 -1.1554757 0.56022555 0.6957411
1.1224641 -0.5010086 1.1716986 -0.14849232 0.7209964 0.3112212 -0.017189207 1.0220608
0.03569575 1.2398931 -3.499464 -0.62199277 0.61734015 -0.47229254 -1.7918378 1.826036
-2.6022782 0.06912371 1.0628483 -1.047283 -0.12537695 0.38063806 0.24283002 -1.4749064
1.1156293 0.34327313 1.6921698 -0.25776356 -1.0561658 0.40729386 1.1016319 -0.10859171
0.810197 -0.3595252 2.3760695 -0.9878127 0.13521944 0.54406774 0.14165269 0.035171375
-0.25464842 -0.8113122 2.2805054 -0.44893715 0.9701413 0.08680319 0.34462494 -1.8236634
0.47183275 -0.09825061 -0.3270382 -1.9101609 0.26846197 -0.9665012 0.02039499 1.70419
-0.14864454 0.6233451 -0.34280708 0.2734705 -0.40034214 -0.13392435 0.4480409 -0.66642386
-0.8572367 -0.29749614 -0.29728803 0.16850832 0.06031818 -0.37765837 -0.08240525 0.6295487
0.0065005836 0.7135479 -0.57977664 0.50609785 0.22448198 0.18689072 -0.7854651 0.42645708
0.8036111 -0.13143283 0.5250019 -0.080104746 0.69611716 0.09559358 -0.37450984 0.44391474
-1.397932 3.3408644 0.66950244 -1.331124 0.37513524 0.44444996 -0.17149538 0.4657811
-0.0628911 -0.75145566 1.616894 -0.052649993 -0.6802142 -0.18986018 -1.0227206 -0.077992335
1.124381 -0.31659463 0.658343 0.22167705 0.59883577 0.8305049 1.037082 -2.8328109
-0.10657651 0.10992419 -0.24684793 0.27107134 -0.100307524 -0.67856556 0.11931858 0.005710022
1.1940393 0.5265533 -1.2394559 -0.6549257 2.2446394 0.34037462 -2.1347232 0.060082607
0.110228114 0.9711323 0.6724391 0.5144358 -0.47892442 0.79095 0.62645334 -0.3228765
0.076740205 -0.5900227 -1.8548286 -0.8504303 0.3974287 -0.80520445 0.43711722 -0.4979285
0.42457175 0.36600357 0.046543676 -0.347145 -0.26869315 0.2739728 0.27205136 -0.33913612
0.53426117 -1.7855021 -0.19649525 -0.16229276 2.4873812 -2.19011 0.60966563 -0.009770085
-0.3986151 0.49688405 -0.22894128 -0.44960663 0.34104255 0.19916274 1.7371559 -0.083732374
0.6475178 0.28331771 -0.51419497 -1.4877157 1.8613869 0.18417677 -0.740879 1.6366938
0.77440387 -0.5503022 -1.1093265 -2.040376 0.29453442 -1.4399989 -0.0031264997 0.32745048
2.4148245 -0.51224035 -1.039863 -2.3023868 -0.5099817 1.6588191 -0.44846663 -2.008912
0.35998127 1.0729334 -2.224563 0.6412023 1.5667607 0.073931925 -0.07608066 0.925715
1.3234243 1.6342573 -2.3908076 -0.60323757 0.39484704 -0.05682626 -0.68619764 -0.3479064
-0.5740281 -0.58518755 -1.3278998 -0.9939438 0.17334636 -0.4153833 -0.5948538 -0.5182442
00000000: 4c9e 0040 6497 503d a1f4 4dbf 062e e43e
00000010: b37d f13e 1165 033e 89c8 9b3f 3919 7ebf
00000020: 1524 02c0 6858 a53f edf8 e13f 8cb8 47bf
00000030: 534f c03f 3539 11be c06f afbf b588 febd
00000040: fdf0 a2bf a875 e43f 22be b0bf cb6f 7dbf
00000050: 046e 5d3f 1f0f 94bf 3b69 bbbf ad04 1ec0
00000060: 0262 adbf feda 6dbe f33c bfbe 646a d73e
00000070: 4133 47be 680c d2bd 67d5 b3be d5be e4be
00000080: aa5c 63bf a1c1 52bf 02d8 5ebf 3a90 0c3f
00000090: f4a3 8f3f a1e6 93bf f16a 0f3f 171c 323f
000000a0: e7ac 8f3f 1a42 00bf 38fa 953f 5f0e 18be
000000b0: 3893 383f 6358 9f3e 61d0 8cbc e3d2 823f
000000c0: b535 123d d1b4 9e3f 38f7 5fc0 eb3a 1fbf
000000d0: 010a 1e3f 54d0 f1be f15a e5bf 8cbb e93f
000000e0: ba8b 26c0 bb90 8d3d 6a0b 883f 5f0d 86bf
000000f0: d162 00be fee2 c23e 6fa8 783e bcc9 bcbf
00000100: f1cc 8e3f 7fc1 af3e 0599 d83f 96f9 83be
00000110: 7130 87bf d288 d03e 4602 8d3f 5565 debd
00000120: 1269 4f3f b013 b8be 8611 1840 4be1 7cbf
00000130: f776 0a3e 0648 0b3f 670d 113e dc0f 103d
00000140: 4761 82be 28b2 4fbf cdf3 1140 17db e5be
00000150: 2e5b 783f dfc5 b13d ae72 b03e cd6d e9bf
00000160: 1094 f13e 9e37 c9bd 8d71 a7be 2780 f4bf
00000170: d973 893e 9f6c 77bf 6513 a73c e622 da3f
00000180: 4636 18be 8b93 1f3f 6984 afbe 5304 8c3e
00000190: a5f9 ccbe 7723 09be 9e65 e53e c19a 2abf
000001a0: dd73 5bbf 6a51 98be 2336 98be 728d 2c3e
000001b0: 3210 773d 705c c1be 15c4 a8bd 1b2a 213f
000001c0: d902 d53b 13ab 363f 3e6c 14bf a18f 013f
000001d0: 9bde 653e 4860 3f3e 3e14 49bf 9558 da3e
000001e0: 75b9 4d3f 5496 06be 8666 063f f50d a4bd
000001f0: bc34 323f 91c6 c33d c1bf bfbe cb48 e33e
00000200: 70ef b2bf b9d0 5540 8364 2b3f 4562 aabf
00000210: ba11 c03e f28e e33e 7c9c 2fbe dc7a ee3e
00000220: 0dcd 80bd 665f 40bf 62f6 ce3f 85a7 57bd
00000230: 8522 2ebf b56a 42be 82e8 82bf 72ba 9fbd
00000240: b7eb 8f3f b118 a2be 2b89 283f 4fff 623e
00000250: 4d4d 193f f89b 543f 1abf 843f c64c 35c0
00000260: c944 dabd ef1f e13d b4c5 7cbe ddc9 8a3e
00000270: 086e cdbd 79b6 2dbf 4d5d f43d 231b bb3b
00000280: 48d6 983f 32cc 063f 7ea6 9ebf 36a9 27bf
00000290: 2ca8 0f40 9545 ae3e 4e9f 08c0 2e19 763d
000002a0: 47bf e13d 209c 783f f824 2c3f 11b2 033f
000002b0: 9535 f5be b37b 4a3f 3f5f 203f 1250 a5be
000002c0: f829 9d3d ba0b 17bf 066b edbf cdb5 59bf
000002d0: c67b cb3e e121 4ebf d4cd df3e 7cf0 febe
000002e0: 7861 d93e d264 bb3e 95a4 3e3d fdbc b1be
000002f0: 2692 89be 2a46 8c3e 514a 8b3e 40a3 adbe
00000300: 57c5 083f 558b e4bf 0d36 49be 1330 26be
00000310: 4131 1f40 c32a 0cc0 0c13 1c3f b512 20bc
00000320: 4717 ccbe 9667 fe3e 956f 6abe d732 e6be
00000330: 219d ae3e 51f1 4b3e 205b de3f e17b abbd
00000340: bac3 253f 050f 913e 48a2 03bf 786d bebf
00000350: ed41 ee3f d698 3c3e 3faa 3dbf 2f7f d13f
00000360: 553f 463f 9be0 0cbf 69fe 8dbf 8595 02c0
00000370: 37cd 963e e251 b8bf f6e5 4cbb 97a7 a73e
00000380: 7c8c 1a40 2f22 03bf 3b1a 85bf 4e5a 13c0
00000390: 298e 02bf 2f54 d43f 6b9d e5be 0492 00c0
000003a0: 774f b83e e255 893f 3d5f 0ec0 d525 243f
000003b0: 9d8b c83f 9f69 973d 2dd0 9bbd a9fb 6c3f
000003c0: f865 a93f 582f d13f fe02 19c0 c76d 1abf
000003d0: 6429 ca3e a7c2 68bd a6aa 2fbf ca20 b2be
000003e0: 81f3 12bf dace 15bf 9ff8 a9bf 1a73 7ebf
000003f0: b581 313e 1fad d4be 5748 18bf a7ab 04bf

action_dict.f_module.bias_ih f4 [128]
-1.3757485 -0.8495181 -1.8189332 0.8039402 -1.4935542 0.46094403 -1.2547411 -0.6300245
0.042109825 -0.9882142 -0.3702493 -0.74529546 0.13841757 -0.59073216 -0.65658444 -0.89957464
-0.7904049 -0.31481665 0.13342933 -0.57347554 0.73312056 0.6039789 -0.22386354 -1.3283197
-0.22450335 -0.31281272 -0.94900113 -0.5380355 -0.11996023 -0.052759055 -0.6196261 -0.45395046
-0.9505468 -0.66811216 -1.1773578 0.74998486 -1.0227498 -0.12597805 -1.2188901 -1.2413391
-1.0561168 -1.6207964 -0.8600821 -0.9277368 0.24839942 -0.23438753 -1.0656018 -1.9189886
-1.1702217 -1.3584425 -1.2482206 -0.57037574 -0.7400004 -0.9408377 -0.771685 -0.64428854
-1.1834729 -0.6953262 -1.0948781 -1.1194195 -0.7079092 0.31473494 -0.8789317 -0.6519619
-0.30836245 -0.43833643 -1.0042313 0.4724179 -0.176776 -0.19745511 0.3947325 -0.37921295
0.07363168 0.46597585 -0.121447526 0.20501454 -0.66799486 0.34581396 0.18711355 0.17904043
0.36374745 -1.5136613 -0.34412277 0.6632319 -1.0116332 -0.17057087 1.6218563 0.93806136
0.6813227 0.0042374353 0.15419002 1.4087561 0.22445576 0.07572919 0.28902897 -0.3135015
-0.57816845 -0.17188416 -1.6939317 -0.61333466 -1.2252648 0.04144087 0.10983735 -1.97225
-1.1261756 -1.5500131 -0.8703081 -1.1958044 -0.5157085 -0.8955752 -1.3484286 -1.0067295
0.2116318 -0.5591188 -0.16230813 -1.0044905 0.19728617 -0.22770737 -0.70033914 -0.41346508
-1.060958 -0.9577244 -1.5010657 -1.1459504 -0.7214221 -0.64719546 -1.4825268 -1.8761412
00000000: 8718 b0bf 057a 59bf ced2 e8bf 06cf 4d3f
00000010: c92c bfbf db00 ec3e 5b9b a0bf 4949 21bf
00000020: 5a7b 2c3d 9bfb 7cbf 5191 bdbe afcb 3ebf
00000030: 56bd 0d3e 393a 17bf eb15 28bf 864a 66bf
00000040: fa57 4abf a62f a1be b3a1 083e 4bcf 12bf
00000050: caad 3b3f 5c9e 1a3f 7c3c 65be 6106 aabf
00000060: 35e4 65be fd28 a0be bdf1 72bf b2bc 09bf
00000070: b6ad f5bd e119 58bd d19f 1ebf 326c e8be
00000080: 0957 73bf 6609 2bbf a9b3 96bf 02ff 3f3f
00000090: 77e9 82bf 6400 01be 9704 9cbf 33e4 9ebf
000000a0: d62e 87bf 4276 cfbf 572e 5cbf 2980 6dbf
000000b0: 6b5c 7e3e 4903 70be a465 88bf 6ba1 f5bf
000000c0: d3c9 95bf 72e1 adbf b1c5 9fbf 2504 12bf
000000d0: ab70 3dbf bdda 70bf 268d 45bf 18f0 24bf
000000e0: 0a7c 97bf e600 32bf f724 8cbf 2349 8fbf
000000f0: 8a39 35bf f024 a13e ab01 61bf fae6 26bf
00000100: afe1 9dbe a26d e0be a78a 80bf c2e0 f13e
00000110: c504 35be ac31 4abe 611a ca3e 3328 c2be
00000120: 35cc 963d 6394 ee3e 7bb9 f8bd 55ef 513e
00000130: b601 2bbf 870e b13e b29a 3f3e 6056 373e
00000140: 1b3d ba3e a7bf c1bf dc30 b0be 91c9 293f
00000150: 327d 81bf 21aa 2ebe fd98 cf3f ca24 703f
00000160: 2a6b 2e3f 2fda 8a3b fde3 1d3e 1f52 b43f
00000170: bbd7 653e e817 9b3d 9bfb 933e 4583 a0be
00000180: d902 14bf 6702 30be c1d2 d8bf 8003 1dbf
00000190: 7ad5 9cbf e7bd 293d 68f2 e03d b072 fcbf
000001a0: 8626 90bf d466 c6bf 83cc 5ebf 1e10 99bf
000001b0: 7905 04bf 6b44 65bf 4f99 acbf 83dc 80bf
000001c0: 02b6 583e 6922 0fbf 1a34 26be 2593 80bf
000001d0: 6305 4a3e 1f2c 69be 6d49 33bf b2b1 d3be
000001e0: 79cd 87bf 6d2d 75bf ec22 c0bf 81ae 92bf
000001f0: 1eaf 38bf 9aae 25bf 70c3 bdbf 6525 f0bf

action_dict.f_module.bias_hh f4 [128]
-1.333683 -0.840136 -1.8120422 0.7316459 -1.3154098 0.30267608 -1.086345 -0.42521924
-0.045825467 -1.1114974 -0.42821923 -0.6490725 0.09018768 -0.5552213 -0.46879944 -0.68228537
-0.8566487 -0.33423144 0.33038634 -0.7297537 0.80183387 0.3399676 -0.11102578 -1.1654915
-0.27728185 -0.2307648 -1.0716183 -0.69244605 -0.06376909 0.007664839 -0.4575481 -0.54128426
-0.9905906 -0.47532505 -1.1463915 0.40610346 -0.88657343 -0.20045294 -1.227001 -1.448988
-0.9975767 -1.6290388 -0.85487986 -0.8712838 0.53924733 -0.12088733 -0.81182474 -2.0140693
-1.1961923 -1.33727 -1.2474337 -0.5350161 -0.6972245 -0.6184057 -0.74840677 -0.9142978
-1.0532733 -0.65093833 -0.8385695 -1.3184658 -0.46025315 0.41776702 -0.92543745 -0.70624024
-0.2623323 -0.37488025 -0.7845621 0.7390659 -0.072057396 -0.3141606 0.16795343 -0.05067862
-0.023740103 0.2056597 -0.0066289124 0.051952034 -0.88349485 0.4756566 0.16860168 0.084262684
0.52060205 -1.4700568 -0.2123262 0.5478208 -0.8883256 -0.2164458 1.3634971 0.71889263
0.730037 0.0060300375 0.22598732 1.4556642 0.0814315 0.29481095 0.47590932 -0.111511126
-0.57051647 0.118175134 -1.408384 -0.7723274 -1.0978076 0.12011414 -0.06959797 -1.9708742
-1.1726279 -1.4500486 -0.85990804 -1.204678 -0.5731336 -0.76264495 -1.3560119 -0.98013115
-0.08274493 -0.39458072 -0.17695321 -0.8441693 0.37973398 -0.47437304 -0.87664306 -0.7243876
-1.1499377 -1.1028572 -1.5944643 -1.0489397 -0.71627384 -0.5523072 -1.709993 -1.6542054
00000000: 20b6 aabf 2713 57bf 00f1 e7bf 254d 3b3f
00000010: 595f a8bf 5cf8 9a3e 5a0d 8bbf 56b6 d9be
00000020: 7cb3 3bbd 8c45 8ebf 8d3f dbbe 9e29 26bf
00000030: 52b4 b83d fc22 0ebf 7b06 f0be 41aa 2ebf
00000040: 544d 5bbf 6220 abbe 6628 a93e 23d1 3abf
00000050: fc44 4d3f 3c10 ae3e 7c61 e3bd d32e 95bf
00000060: e3f7 8dbe 9c4d 6cbe ca2a 89bf 2544 31bf
00000070: 5e99 82bd 5429 fb3b bf43 eabe 9b91 0abf
00000080: 5897 7dbf ce5d f3be f5bc 92bf cbec cf3e
00000090: 7af6 62bf 8943 4dbe 5e0e 9dbf 7078 b9bf
000000a0: 3061 7fbf 5884 d0bf 68d9 5abf 750c 5fbf
000000b0: 1d0c 0a3f c793 f7bd bfd3 4fbf 83e6 00c0
000000c0: d41c 99bf aa2b abbf e8ab 9fbf d1f6 08bf
000000d0: 4e7d 32bf d64f 1ebf 9697 3fbf 6c0f 6abf
000000e0: a9d1 86bf e5a3 26bf 7eac 56bf 7dc3 a8bf
000000f0: 4da6 ebbe 8fe5 d53e 78e9 6cbf 29cc 34bf
00000100: 6b50 86be 4ef0 bfbe 10d9 48bf 6c33 3d3f
00000110: d492 93bd a8d9 a0be fcfb 2b3e 6294 4fbd
00000120: 9b7a c2bc 7598 523e 5937 d9bb a8cb 543d
00000130: b82c 62bf 4389 f33e eba5 2c3e ea91 ac3d
00000140: 2d46 053f d22a bcbf 0a6c 59be fc3d 0c3f
00000150: 4e69 63bf f8a3 5dbe 1387 ae3f 5909 383f
00000160: b4e3 3a3f 9f97 c53b 3869 673e 3453 ba3f
00000170: 8fc5 a63d 76f1 963e 63aa f33e f25f e4bd
00000180: 5e0d 12bf ce05 f23d ed45 b4bf 40b7 45bf
00000190: f684 8cbf 67fe f53d 6189 8ebd 9b45 fcbf
000001a0: ac18 96bf 319b b9bf ef22 5cbf e432 9abf
000001b0: e2b8 12bf b33c 43bf cc91 adbf e0e9 7abf
000001c0: 2d76 a9bd 7c06 cabe 3933 35be 7b1b 58bf
000001d0: 7e6c c23e 06e1 f2be ae6b 60bf 7771 39bf
000001e0: 2931 93bf 6d2a 8dbf 6817 ccbf a843 86bf
000001f0: b95d 37bf 0164 0dbf 0de1 dabf 01bd d3bf

action_dict.g_module_0.weight f4 [32, 32]
1.9487174 7.669743 -10.633326 -1.8686793 4.33248 4.6602893 0.22694257 1.1974388
-0.79816264 -0.0083881905 3.945344 1.2501448 -2.7430148 3.4173944 1.2547158 -4.178875
0.7778173 0.7403725 -3.2838707 0.30764312 -3.5065417 -2.2364585 0.0068392265 -5.2802134
0.58280516 3.010278 -2.0756743 -2.898559 1.4582994 -1.9732406 -1.5088841 1.5887797
0.05060005 0.45043373 0.27094045 -0.0627006 -0.34472397 -0.22441497 0.10467167 -0.018403184
0.13540179 -0.38500944 0.09572045 0.04372591 -0.25988203 0.16426595 -0.13241942 0.08417527
0.093771145 -0.04387042 -0.38932768 -0.046614002 0.5139248 -0.103924446 0.08618478 -0.36434078
-0.32597396 -0.05353873 -0.26307365 -0.03576152 0.08756366 -0.059260175 0.27488616 -0.10727252
0.1405563 0.28790143 0.09253446 -0.18653984 0.08429593 -0.1914201 0.18683673 0.05915279
0.09080199 -0.3549851 0.044661302 0.11693836 -0.0014768553 0.012161673 0.10511887 -0.05745455
-0.0699234 0.20859672 0.015939465 -0.31963643 0.27160624 -0.049913738 -0.05862872 -0.10762159
-0.065556474 -0.097441606 -0.25849167 -0.012955059 -0.060110755 -0.26020998 -0.06900364 0.017300207
1.9434034 7.739526 -10.602974 -1.9788082 4.3451166 4.7225804 0.2037604 1.1749228
-0.9001807 -0.1547326 4.039264 1.3295854 -2.7670455 3.305191 1.1491925 -4.0805855
0.77352273 0.72403467 -3.2889977 0.4607696 -3.4874187 -2.2538984 0.031368714 -5.3306136
0.5604472 3.1308038 -1.940527 -2.923417 1.7585695 -1.9017332 -1.3592904 1.6532433
1.806109 7.564796 -10.795211 -1.91993 4.362016 5.038722 0.1904059 1.1392057
-0.6022442 -0.136696 3.3398085 1.4585721 -2.9978402 3.3882964 1.6451848 -4.3563914
0.80958205 0.7524227 -3.2770443 0.407999 -3.381393 -2.3946788 0.15085302 -5.2392416
0.52103454 3.2454746 -2.1083372 -2.9622042 1.2948145 -1.9292665 -1.4881662 1.7287245
0.8568824 5.903591 -12.031174 0.7004178 4.512629 1.8607736 0.7925872 0.49522993
-0.53645825 2.2386978 4.952622 0.73465604 -1.7967452 5.9820895 0.52484596 -3.8285549
0.3571203 1.5837171 -2.8877625 0.08656117 -1.7883201 -0.9875869 -0.98974484 -3.650269
4.0350075 2.628942 -0.77920145 -0.38530916 2.562194 -2.2905328 -3.5361679 2.7883813
-3.449318 -11.586399 17.64987 3.6113892 -9.611471 -14.301604 -3.3663814 -0.08654718
0.14854738 -0.22463144 -6.791728 -4.400656 -3.3950887 -3.5829973 0.41631442 1.1754612
-6.27673 5.8517065 13.497429 -0.07633608 0.6474408 -3.0038965 3.1389005 9.607188
1.9808635 -1.9039248 2.795201 11.850954 -0.48153555 2.1576583 5.6216383 2.949869
1.9525588 7.95544 -10.756998 -1.9802164 4.4926887 4.712369 0.24569567 1.4914798
-0.8944679 -0.15609905 3.9343936 1.1807936 -2.6591005 3.653884 1.2188416 -4.2140927
0.85265064 0.6174811 -3.6437478 0.17944315 -3.5028036 -2.3267722 0.14490648 -5.3338647
0.7966576 3.0337415 -1.9153671 -2.9386692 1.6288581 -2.1054592 -1.6853969 1.5826529
00000000: 926f f93f 896e f540 1a22 2ac1 e230 efbf
00000010: ada3 8a40 1721 9540 a263 683e ad45 993f
00000020: 6354 4cbf 9f6e 09bc 8480 7c40 bf04 a03f
00000030: 8e8d 2fc0 97b6 5a40 879a a03f 58b9 85c0
00000040: 091f 473f 0d89 3d3f f02a 52c0 6683 9d3e
00000050: 2e6b 60c0 2322 0fc0 971b e03b 82f7 a8c0
00000060: b832 153f 65a8 4040 d9d7 04c0 fe81 39c0
00000070: 8ea9 ba3f 2693 fcbf 1d23 c1bf 225d cb3f
00000080: ff41 4f3d 409f e63e b5b8 8a3e 2c69 80bd
00000090: a97f b0be 0acd 65be 1a5e d63d 46c2 96bc
000000a0: c4a6 0a3e f51f c5be 1509 c43d f119 333d
000000b0: 420f 85be 5535 283e f598 07be 1564 ac3d
000000c0: 160b c03d 78b1 33bd f555 c7be 53ee 3ebd
000000d0: 9390 033f 57d6 d4bd a581 b03d e08a babe
000000e0: 0fe6 a6be 6d4b 5bbd 97b1 86be ac7a 12bd
000000f0: 9454 b33d ccba 72bd e1bd 8c3e b2b1 dbbd
00000100: feed 0f3e d167 933e b582 bd3d 4d04 3fbe
00000110: 58a3 ac3d a103 44be 2152 3f3e 324a 723d
00000120: 65f6 b93d 9bc0 b5be c5ee 363d 617d ef3d
00000130: 0a93 c1ba c141 473c 9048 d73d 7655 6bbd
00000140: 0034 8fbd 619a 553e 7b93 823c 63a7 a3be
00000150: f90f 8b3e 5972 4cbd ab24 70bd b568 dcbd
00000160: 7942 86bd 778f c7bd 0559 84be 7541 54bc
00000170: b236 76bd 3e3a 85be c851 8dbd 2ab9 8d3c
00000180: 71c1 f83f 32aa f740 c8a5 29c1 9649 fdbf
00000190: 320b 8b40 611f 9740 91a6 503e df63 963f
000001a0: 3e72 66bf 3972 1ebe a741 8140 db2f aa3f
000001b0: 4617 31c0 4088 5340 bd18 933f 2894 82c0
000001c0: 9605 463f 565a 393f f07e 52c0 fee9 eb3e
000001d0: de31 5fc0 df3f 10c0 7b7c 003d 6394 aac0
000001e0: 7879 0f3f 175f 4840 3063 f8bf 4419 3bc0
000001f0: ce18 e13f fe6b f3bf 3afd adbf 7a9d d33f
00000200: 942e e73f cf12 f240 2fb9 2cc1 44c0 f5bf
00000210: a395 8b40 363d a140 c4f9 423e 7ed1 913f
00000220: ad2c 1abf 09fa 0bbe 6cbf 5540 7eb2 ba3f
00000230: 9ddc 3fc0 d9d9 5840 6a95 d23f 8f67 8bc0
00000240: c540 4f3f c69e 403f 18bb 51c0 3fe5 d03e
00000250: be68 58c0 6b42 19c0 3779 1a3e dea7 a7c0
00000260: 8562 053f dbb5 4f40 ffee 06c0 c194 3dc0
00000270: 7bbc a53f 34f2 f6bf 3b7c bebf d846 dd3f
00000280: a55c 5b3f 38ea bc40 b07f 40c1 954e 333f
00000290: 7567 9040 d42d ee3f ffe6 4a3f c78e fd3e
000002a0: 5455 09bf d346 0f40 e17b 9e40 6b12 3c3f
000002b0: bffb e5bf 476d bf40 4e5c 063f 0b07 75c0
000002c0: 79d8 b63e 3eb7 ca3f 1ad1 38c0 fc46 b13d
000002d0: ace7 e4bf 7fd2 7cbf eb5f 7dbf 029e 69c0
000002e0: c81e 8140 9640 2840 bf79 47bf 3e47 c5be
000002f0: fdfa 2340 1798 12c0 9350 62c0 d774 3240
00000300: a0c1 5cc0 e461 39c1 ef32 8d41 0021 6740
00000310: 96c8 19c1 5fd3 64c1 cb72 57c0 a63f b1bd
00000320: ce1c 183e c905 66be d655 d9c0 2dd2 8cc0
00000330: 2249 59c0 d44f 65c0 2a27 d53e 8375 963f
00000340: f9da c8c0 2e41 bb40 78f5 5741 1756 9cbd
00000350: aebe 253f d73f 40c0 bfe3 4840 0bb7 1941
00000360: ef8c fd3f cfb3 f3bf 93e4 3240 829d 3d41
00000370: d48b f6be 1317 0a40 76e4 b340 a7ca 3c40
00000380: 72ed f93f f792 fe40 aa1c 2cc1 bb77 fdbf
00000390: 1bc4 8f40 bacb 9640 a597 7b3e cfe8 be3f
000003a0: d9fb 64bf 6ed8 1fbe 1bcd 7b40 3f24 973f
000003b0: b42e 2ac0 3cd9 6940 0003 9c3f d9d9 86c0
000003c0: 5047 5a3f 3e13 1e3f 2a33 69c0 f2bf 373e
000003d0: ef2d 60c0 d6e9 14c0 5d62 143e 05af aac0
000003e0: c1f1 4b3f d228 4240 c02a f5bf 2813 3cc0
000003f0: 6c7e d03f d8bf 06c0 16bb d7bf 5f94 ca3f

action_dict.g_module_0.bias f4 [32]
3.2782621 -0.97807175 -0.56421447 3.339445 3.2340105 1.8814894 0.3487069 3.3994446
3.352589 3.2975698 3.4234142 0.023083478 3.3092725 3.4731748 3.3123016 3.2994046
3.096669 3.4395716 3.1162283 -0.5493097 -0.5586544 2.7719119 2.8163166 2.6609647
2.922562 3.4438012 3.081346 3.253103 2.2477357 2.929146 0.06692395 2.873925
00000000: 0ccf 5140 e962 7abf 5c70 10bf 78b9 5540
00000010: 07fa 4e40 a5d4 f03f b689 b23e 8090 5940
00000020: d190 5640 620b 5340 3819 5b40 9019 bd3c
00000030: 1fcb 5340 7f48 5e40 c0fc 5340 7229 5340
00000040: d32f 4640 f121 5c40 4970 4740 8f9f 0cbf
00000050: fa03 0fbf 0167 3140 883e 3440 3f4d 2a40
00000060: 410b 3b40 3d67 5c40 c634 4540 d732 5040
00000070: e7da 0f40 2177 3b40 6d0f 893d 63ee 3740

action_dict.g_module_1.weight f4 [2, 32]
0.674363 0.30142507 0.2004032 -0.40100434 0.5448048 2.1130242 8.817105 0.96436405
1.0612564 2.342763 1.5597202 9.860418 0.27193174 1.5972539 0.49242395 1.1718149
1.5193021 0.29005834 1.4498713 -0.0072031096 0.079577796 -0.33754453 1.1699 4.525312
1.5338559 0.9141154 2.1439629 1.2147775 0.2320027 0.06863775 8.505936 0.62857336
-5.215534 0.1468465 -0.03849097 -5.1746607 -4.897656 -4.669507 8.3093405 -5.4630156
-5.398938 -5.0643554 -5.0056844 9.427724 -5.1869316 -5.187271 -4.8201504 -4.9665146
-5.0140505 -4.9524217 -5.074724 -0.08474492 -0.06334305 -5.4222803 -5.29798 -5.0230827
-5.0691032 -4.9307446 -4.758121 -4.765132 -5.709205 -5.3771133 9.477589 -5.454227
00000000: 0ea3 2c3f 6354 9a3e 7f36 4d3e 7150 cdbe
00000010: 5478 0b3f ca3b 0740 dd12 0d41 90e0 763f
00000020: 40d7 873f d4ef 1540 e9a4 c73f 46c4 1d41
00000030: a33a 8b3e d172 cc3f fe1e fc3e 08fe 953f
00000040: 7e78 c23f 8782 943e 6295 b93f 1008 ecbb
00000050: aff9 a23d a3d2 acbe 48bf 953f 5bcf 9040
00000060: 6455 c43f 7803 6a3f b036 0940 d47d 9b3f
00000070: 1e92 6d3e f391 8c3d 5018 0841 2fea 203f
00000080: a8e5 a6c0 ee5e 163e b5a8 1dbd d296 a5c0
00000090: 99b9 9cc0 9a6c 95c0 0ff3 0441 06d1 aec0
000000a0: 1ac4 acc0 330f a2c0 912e a0c0 f5d7 1641
000000b0: 58fb a5c0 20fe a5c0 ac3e 9ac0 b0ed 9ec0
000000c0: 1a73 a0c0 3d7a 9ec0 2464 a2c0 bf8e adbd
000000d0: 00ba 81bd 5283 adc0 0d89 a9c0 18bd a0c0
000000e0: 1836 a2c0 a9c8 9dc0 8742 98c0 f67b 98c0
000000f0: cfb1 b6c0 5011 acc0 34a4 1741 0789 aec0

action_dict.g_module_1.bias f4 [2]
6.8263335 -1.4049462
00000000: 5371 da40 47d5 b3bf
