exp1/adversary.pt (torch_old, 112702 bytes, 10 tensors)

weight f4 [100, 16]
000000 42 25 3e be 1c db d9 3d 4b 59 26 3d 7d fa e8 3d
       -0.185689 0.10637495 0.0406125 0.11375902
000010 ac 3c 08 3e 66 d7 8a 3c a6 68 8d bd 52 cc 0d 3e
       0.13304394 0.016948413 -0.06904726 0.13847473
000020 39 a4 8c bd e8 05 a7 3e e4 b2 73 3d 0c 51 45 3b
       -0.068672605 0.32621694 0.059496775 0.0030108122
000030 fa 8a 7b bc f1 93 46 3e 5c 66 50 be f0 f1 e0 3d
       -0.015352959 0.19392373 -0.20351547 0.10983646
000040 18 dc 1c 3d c0 38 d9 3d 77 18 b4 bd 4d 8a 91 3d
       0.038295835 0.10606527 -0.08793729 0.07106457
000050 41 24 43 3e 97 c5 64 3e 51 c8 43 3e b1 1e c4 bd
       0.19056799 0.22341 0.19119383 -0.095761664
000060 20 e6 0f 3e 54 c8 8d 3c 2b db 90 3e f0 76 85 be
       0.1405263 0.017307438 0.28292212 -0.26067305
000070 26 17 5b be 29 d6 1f 3e 68 e1 aa 3d ea 47 42 3e
       -0.21395549 0.1560904 0.08343774 0.18972746
000080 48 f9 34 3e fa c0 6b be cf 09 91 3e 18 17 0e be
       0.17673218 -0.23022833 0.28327796 -0.13875997
000090 f1 cb fd bd ea af d4 3b 54 19 cf bc 1a d5 b7 3d
       -0.12392414 0.006490697 -0.025280632 0.08976193
0000a0 6f e0 ec 3b c0 0e 0f 3d 09 2a 7d 3e d7 ac 28 be
       0.007228903 0.034926176 0.24723066 -0.16472183
0000b0 8a b2 33 bd 14 24 3e bd 20 df ab 3d a0 b9 e0 bc
       -0.04387144 -0.046421126 0.08392167 -0.027432263
0000c0 14 0c cd bd 80 85 65 bb 52 2c 1b 3d 90 98 34 3e
       -0.10012069 -0.00350222 0.037884064 0.17636323
0000d0 6a e3 64 be e5 64 e1 bd f5 c5 33 3d c0 4e 0d be
       -0.22352377 -0.11005572 0.04388996 -0.13799572
0000e0 c1 83 dc 3d ee 5c f9 bd f9 6a 00 3e 47 d0 5a bd
       0.107673176 -0.12175928 0.12540807 -0.053421285
0000f0 15 ed 31 be e2 ff ba 3c d6 57 35 be 76 a1 09 3e
       -0.17375596 0.022827093 -0.17709288 0.13440499
000100 00 a5 ac ba 9c 40 3c 3e ba 59 47 be aa a1 23 3e
       -0.0013171732 0.18384022 -0.19467822 0.15979639
000110 56 c7 ef bc 03 b7 6a 3e d5 17 a7 bd 06 e5 7c 3e
       -0.029269855 0.22921376 -0.081588425 0.2469674
000120 11 73 13 be 6c 33 94 3c 0a 91 4f be 11 e4 93 3d
       -0.14399363 0.018090926 -0.20270172 0.072212346
000130 8e 06 ca bc 49 11 77 be 7e 8b 44 be d0 07 ff bd
       -0.024661329 -0.24127688 -0.19193837 -0.12452662
000140 b2 ed 3e be 9c ca 77 3e 6d 4a 1f 3e 1c e7 14 3c
       -0.18645361 0.24198383 0.15555735 0.009088304
000150 6d 9a f8 3d 40 f7 23 3e 1e 71 43 3e 70 7a 71 bd
       0.121388294 0.16012287 0.1908612 -0.058954656
000160 15 6b 8f 3d ae 46 28 3e d2 f9 55 3e 25 f0 d7 bd
       0.07002846 0.16433212 0.2089608 -0.10543851
000170 8c 29 c6 3d 51 41 df 3c a8 63 57 be a0 99 7b bc
       0.09675893 0.027252825 -0.2103411 -0.015356451
000180 92 13 54 be a8 46 5b 3e 5b 0b 62 be af 87 44 bd
       -0.2071059 0.21413672 -0.22074644 -0.04798096
000190 d6 6f 32 be a1 cf 81 3d 03 b5 9a bd 1a 84 80 3e
       -0.17425475 0.0633843 -0.075540565 0.25100785
0001a0 b6 37 8b be 8f 1f a7 bd 46 6b 36 bb df 46 33 3e
       -0.27190942 -0.08160316 -0.0027834936 0.17507504
0001b0 ca 0e e1 3c 77 e5 7f bd 80 eb af 3c e0 bd 73 3d
       0.027472872 -0.062474694 0.0214746 0.05950725
0001c0 6a 6e 35 be 8a 32 1e be 4e 71 0e 3e 3f 91 2e 3e
       -0.17717901 -0.15448967 0.1391041 0.17047594
0001d0 5f b0 01 be ae 08 86 3e 9e 36 ae 3d 27 f4 22 be
       -0.12664936 0.26178497 0.08506511 -0.15913449
0001e0 65 f2 9d 3d 23 d9 9f 3e 7c e8 7e bd 22 0f 43 be
       0.07712249 0.3122035 -0.062233433 -0.19048741
0001f0 bd 21 47 be da a8 e8 bd 9a ac 65 be c0 6b cf bb
       -0.19446464 -0.11360331 -0.22429124 -0.0063299835
000200 a2 27 37 3e 78 c2 75 3e 2c 95 ec ba 0a bd d6 3d
       0.17886212 0.23999965 -0.0018049828 0.10485275
000210 e9 c1 35 bd 40 1f 81 3d d0 7d ae bd 25 f5 4a be
       -0.04437438 0.063047886 -0.085200906 -0.19820078
000220 2c c4 30 bd c4 6a 7e bd 74 88 0c 3e be 6a 10 bd
       -0.043155834 -0.06211354 0.13723928 -0.035258047
000230 48 42 ae 3e a1 d4 84 3d e4 0f a3 3d 98 74 69 be
       0.34034944 0.06485868 0.07962015 -0.22798383
000240 4a 0f 3e 3e 80 e4 6f 3e 3f 04 36 3e 02 14 f2 bc
       0.1856052 0.2342701 0.17775057 -0.029550556
000250 f0 aa 0a 3e 1b 49 49 be 0d 12 f9 3d 42 ee 06 be
       0.1354177 -0.19656794 0.12161646 -0.13176826
000260 54 db bf bc 91 13 3a bd 9b 54 ee bd 19 2a 12 be
       -0.023420013 -0.045428816 -0.11637231 -0.14273871
000270 bd 4c 8a bd 9c 15 1a 3e 48 63 62 3e 6c c6 b8 3d
       -0.06752918 0.15047306 0.22108185 0.09022221
000280 28 89 a6 bd 02 2d 42 3e db dc bf 3c 0e 8e 24 bc
       -0.08131629 0.18962482 0.023420742 -0.010043634
000290 09 87 f1 bd 72 e4 45 3e 86 b4 87 3e 71 ea 90 be
       -0.11793334 0.19325426 0.26504916 -0.28303865
0002a0 0a d0 8f 3e c2 c9 61 3e 3e b8 53 bd 92 86 4a be
       0.2808841 0.22049621 -0.05168938 -0.19777897
0002b0 9f c5 4e be 50 2a ab ba 0c f7 85 bd 80 71 ec 3b
       -0.20192574 -0.0013058875 -0.06541261 0.0072156787
0002c0 ce 96 26 be 20 26 ed bc 20 3c 04 be 80 67 81 3e
       -0.16268465 -0.028948843 -0.12913561 0.25274277
0002d0 a0 93 cc bd 52 e8 34 be e7 ba 71 be ca c1 bf 3d
       -0.09989095 -0.17666748 -0.23606454 0.09363134
0002e0 ce c1 3b bd 38 25 98 be f9 33 68 3e 0f 1d 1e 3e
       -0.045839123 -0.29715896 0.22676076 0.15440772
0002f0 5f 93 ee bd fd 2c b1 bd b0 fc 41 be bc c9 80 3d
       -0.116492026 -0.08651159 -0.18944049 0.06288478
000300 e2 0b 16 be 20 d8 72 3c 3f ee 88 be 32 c7 8a be
       -0.1465297 0.014822036 -0.26744267 -0.271051
000310 09 7a b7 bd 9b f5 36 be a0 b5 87 be 94 30 c2 ba
       -0.08958823 -0.17867129 -0.26505756 -0.0014815503
000320 ce d6 be bd f0 9c d9 bd d0 7d 8a bd df 42 38 be
       -0.093183145 -0.106256366 -0.06762278 -0.1799426
000330 ac 2a 80 3e 93 67 1d 3d 5c 2b ba 3d 60 4d 24 bc
       0.25032556 0.038428854 0.090903014 -0.010028213
000340 64 3b 3e 3e a0 18 28 be b4 d0 1c be 88 25 1e 3e
       0.18577343 -0.16415644 -0.15313989 0.15444005
000350 fe 26 c4 3d a5 a3 f5 3d 12 09 58 be a8 a3 8f ba
       0.0957775 0.11994103 -0.2109721 -0.0010958808
000360 20 52 16 be 9c 31 8a be 5a e1 be bd 45 57 01 bd
       -0.14679766 -0.26990974 -0.09320326 -0.031577367
000370 4c c0 50 3d 76 11 c0 3d d0 11 e0 bc 88 de 0d bd
       0.05096464 0.093783304 -0.027352244 -0.03463605
000380 10 dd 31 be 40 87 2a bd 8e cd ba bd 91 03 00 be
       -0.17369485 -0.04163289 -0.09121238 -0.1250136
000390 44 41 7b 3e cb dc a3 3d 3e a6 19 bc c6 97 30 be
       0.24536616 0.08001097 -0.009378014 -0.17245397
0003a0 a6 cf 66 3d dd 1e 6a bd 25 54 5d 3e a9 c9 8b 3d
       0.056350373 -0.05715834 0.2161413 0.06825573
0003b0 8c dd 6f 3e 48 64 3c 3c 70 fb 67 3d 74 c7 a4 bd
       0.23424357 0.011498518 0.056636274 -0.08045855
0003c0 64 f6 b0 3d 04 da d3 bd ec 1d c4 3d 4c 05 8e bd
       0.08640745 -0.103443176 0.0957602 -0.06934604
0003d0 d6 9b 82 be ee 6b 5c 3e 6a 28 0f bd 99 75 3b be
       -0.25509518 0.21525547 -0.03495065 -0.18306579
0003e0 23 46 62 3e 5e 05 ed 3d ee 8f 39 3d f7 76 44 3d
       0.22097068 0.11573289 0.045303278 0.047965016
0003f0 cf 15 99 3d d8 ad 1d bd 70 60 6e 3d 0a 99 4e 3e
       0.07474863 -0.03849587 0.05819744 0.20175567

bias f4 [100]
000000 20 d0 cb 3c b1 21 32 be 2d f6 38 3e c1 6a be be
       0.024879515 -0.17395665 0.18062659 -0.37190822
000010 0e c1 a2 be ce 34 db bd 36 a9 8b be 30 ea 2a 3d
       -0.31787914 -0.10703431 -0.27277535 0.041727245
000020 f1 dc 5e 3d e2 36 2e be 41 fd 55 3e 2a f3 e6 bc
       0.054409925 -0.17013124 0.2089739 -0.028192122
000030 df 2a 3a 3d e5 89 e3 3d 1c e3 2b 3d a0 3a 4c 3d
       0.04545104 0.11110286 0.041964635 0.049860597
000040 34 d1 25 3e 33 75 56 3d 71 82 01 3e aa da d7 3d
       0.16193086 0.052357864 0.12647416 0.10539754
000050 8e cc 3c be 70 7d 1f be 05 05 4b be 84 f4 98 bd
       -0.18437406 -0.15575194 -0.19826134 -0.07468513
000060 bc 24 4d be 10 1b 07 3e a6 d1 03 3e d8 c3 eb 3d
       -0.20033544 0.13193917 0.12872943 0.115119636
000070 63 69 fa bd 51 0f 02 3e fd ca 8e 3d c8 b9 06 be
       -0.12227132 0.12701155 0.06972311 -0.13156807
000080 8f 29 ea bd b5 2f a0 be b4 ee a2 be 74 d6 83 bc
       -0.11433708 -0.31286398 -0.3182274 -0.01609347
000090 3a 80 8f be 0b d0 ea 3d 03 da d1 3d da b0 58 bc
       -0.28027517 0.11465462 0.102466606 -0.013225758
0000a0 2b f0 1b 3d b6 11 31 3e 79 4c 4c bd cc c5 27 be
       0.03807084 0.17291912 -0.049877618 -0.16384047
0000b0 3c 2b cd 3b 3e e0 52 3e 17 b3 2d 3e 4c f4 9b bd
       0.0062612575 0.20593354 0.16962849 -0.07614955
0000c0 9e 2f ce 3c 86 b1 7f 3d 4d f5 66 bd 1e 4f 1e be
       0.02516919 0.06242516 -0.05638628 -0.15459868
0000d0 0e 40 cb bc c3 d9 0f be 97 bc 86 3e 8a 2e 12 3e
       -0.024810817 -0.14047913 0.26315758 0.14275566
0000e0 b9 7f a4 3d 5e eb 01 3e 58 54 66 bd cc 48 2d 3e
       0.08032174 0.12687442 -0.05623278 0.16922301
0000f0 8a 75 72 be 6e 38 f9 bc bd 08 4b 3d 0a 77 f1 bd
       -0.2367765 -0.030422416 0.04956888 -0.11790283
000100 32 54 9b bc 0d 1a eb bd 2e 26 ec 3d 30 11 d0 bd
       -0.018961046 -0.11479578 0.1153072 -0.10159528
000110 68 89 3c 3d 26 a0 5e bd 83 c9 f6 3c 08 4c 16 3d
       0.04602948 -0.05435195 0.030125385 0.036693603
000120 c5 b3 03 be a6 65 eb bc 2a 0f cd 3d ef 59 6e be
       -0.12861545 -0.028734993 0.10012658 -0.23276494
000130 96 4b 52 3e fd 0a a2 3e d9 14 3c be f0 c9 0c 3d
       0.20536646 0.31649008 -0.18367328 0.03437227
000140 6a 33 cc 3d 93 57 8f be 3d 1b 2d 3d 31 a1 03 3e
       0.09970744 -0.279965 0.042262305 0.12854458
000150 52 38 b7 bd 9a f9 6d 3d 8d a5 7f bd b8 d8 f4 3d
       -0.08946289 0.058099367 -0.06241374 0.11955398
000160 c4 05 23 3e 40 57 62 39 07 1a ec 3d 2b e9 24 3e
       0.15920168 0.00021585543 0.11528402 0.16104572
000170 92 e0 63 3d be b3 34 be 83 76 0e bd a6 b6 2e bd
       0.05563409 -0.17646691 -0.03478099 -0.042654656
000180 38 e0 cd bd d9 a9 86 be 38 f9 17 3e 98 93 a1 3e
       -0.10052532 -0.26301458 0.14841163 0.31557918

weight f4 [5, 100]
000000 46 9a a9 c0 e3 2c be bf 0c e3 8e bf cb ad cb bf
       -5.300082 -1.4857448 -1.1163039 -1.5912412
000010 ba 5f 9e bf 57 59 8e 3f f2 fc a7 40 35 da 82 bf
       -1.2372963 1.1121014 5.249627 -1.0222842
000020 db 62 ca bf 70 e2 84 bf 40 31 a1 3f 79 1c ac 40
       -1.5811418 -1.0381603 1.2593155 5.3784757
000030 c1 d5 85 3f e5 be c5 3f 94 f8 9e bf 17 a3 ae 3f
       1.0455858 1.5448881 -1.241961 1.3643521
000040 0c 80 a9 c0 9a d2 8d bf 3c 05 a3 c0 86 f6 a8 c0
       -5.2968807 -1.1079895 -5.094389 -5.280093
000050 91 8e c4 bf b4 51 a8 c0 13 e1 a9 40 a2 f3 aa c0
       -1.5356008 -5.2599735 5.308725 -5.3422403
000060 ce 6e a8 c0 28 4f ab 40 d7 69 a8 40 f0 2b a9 40
       -5.263526 5.3534126 5.26292 5.2866135
000070 fb 4b a8 c0 37 7e c6 3f f6 d7 a2 3f b6 8e aa 40
       -5.259275 1.5507268 1.2722156 5.329921
000080 18 39 a7 40 dc 53 a8 40 9c 55 aa 40 46 7e a9 c0
       5.2257195 5.2602367 5.3229504 -5.296664
000090 83 5a a7 40 e4 f9 a6 c0 32 a4 a6 40 e9 ac ad 40
       5.229799 -5.218004 5.2075434 5.427357
0000a0 c9 43 c4 3f 9e 00 ad 40 48 8e aa 40 a1 35 c3 bf
       1.5333186 5.4063253 5.3298683 -1.5250741
0000b0 4d 46 8b 3f bf c0 a3 40 2f 2d 93 bf 81 1c b7 bf
       1.0880829 5.1172786 -1.1498164 -1.4305574
0000c0 57 ce c3 3f 7a cc 8c 3f ef 7b a8 bf f5 b9 be 3f
       1.5297345 1.0999901 -1.3162822 1.49005
0000d0 55 2c cd 3f 09 ba b7 bf 5a 14 ac 40 e1 e7 b8 3f
       1.6029154 -1.4353648 5.3774843 1.4445764
0000e0 b6 d0 a9 c0 22 80 a8 c0 5f fb a6 40 56 db 99 3f
       -5.3067274 -5.265641 5.218185 1.2020061
0000f0 24 6d a7 40 12 03 aa c0 b2 cf 95 3f 58 38 a3 3f
       5.232073 -5.312875 1.1704009 1.275157
000100 50 41 a9 c0 12 fc a8 3f 35 5c c3 3f 9b 49 c6 bf
       -5.2892227 1.3201926 1.5262514 -1.5491213
000110 68 58 ab 40 a3 91 c9 3f 34 fb a2 40 bf 75 bb bf
       5.354542 1.574757 5.0931644 -1.4645308
000120 d3 5b a6 c0 38 b0 a9 c0 b0 36 9a bf b3 6e b9 bf
       -5.198709 -5.302761 -1.2047939 -1.4486908
000130 ce 2d 60 40 63 4b 90 bf 8c 57 aa c0 fe 69 a2 40
       3.5027957 -1.1273006 -5.323187 5.0754385
000140 34 0d a3 40 b6 16 a6 40 d1 d4 8f bf 17 7d b2 3f
       5.0953617 5.1902723 -1.1236821 1.3944424
000150 78 5e 5c bf ce 74 aa 40 96 9d a5 40 d7 9f bd bf
       -0.8608165 5.3267584 5.1754866 -1.4814404
000160 be d8 aa 40 d9 63 c8 3f aa fb a8 c0 cc 8e ab 40
       5.338958 1.5655471 -5.2807207 5.3611813
000170 3e b6 92 bf 78 a6 aa 40 ae 60 93 bf 2c 4d aa c0
       -1.1461866 5.332821 -1.1513879 -5.3219204
000180 f1 a1 cc bf 1e 8b ad 40 d6 ea 98 bf fd 09 bd bf
       -1.598692 5.423232 -1.1946666 -1.4768673
000190 d5 8e 17 c0 59 d6 ea 3f 4e 4a df 3f 41 4c f1 3f
       -2.3680928 1.8346664 1.7444551 1.8851396
0001a0 5d aa e7 3f 37 af ed bf 3b 53 15 40 1b 5e 00 40
       1.8098866 -1.8569096 2.333205 2.0057437
0001b0 03 5b f0 3f c3 97 f9 3f 91 56 ea bf 53 42 21 40
       1.8777775 1.9499439 -1.8307668 2.519673
0001c0 59 18 ec bf 6f 76 f2 bf 67 6e dd 3f 38 c2 f7 bf
       -1.844493 -1.8942393 1.7299317 -1.9356146
0001d0 11 b0 18 c0 6b a6 fa 3f cf 73 19 c0 09 34 14 c0
       -2.3857462 1.9582037 -2.3976934 -2.315676
0001e0 b1 bd eb 3f 73 95 10 c0 73 f4 19 40 33 a1 17 c0
       1.8417264 -2.2591217 2.405545 -2.3692138
0001f0 55 be 19 c0 85 8d 1b 40 27 48 14 40 a3 fc 1a 40
       -2.402242 2.4305127 2.3169038 2.4216697
000200 a3 e9 14 c0 17 e7 f2 bf b7 88 e7 bf 65 0b 20 40
       -2.32676 -1.8976773 -1.8088597 2.5006955
000210 3f d4 16 40 4f a2 18 40 8f 28 1c 40 45 99 1f c0
       2.3567045 2.3849065 2.4399755 -2.4937298
000220 4b 3d 1a 40 73 3b 16 c0 fd b2 10 40 71 ed 16 40
       2.409991 -2.3473785 2.2609246 2.3582423
000230 89 4d eb bf 6f 29 18 40 15 4c 19 40 8f 29 e2 3f
       -1.8383037 2.377529 2.3952687 1.7668933
000240 cd af ed bf a7 60 1b 40 bf f2 e6 3f 1d da f2 3f
       -1.8569275 2.4277742 1.804283 1.8972813
000250 d7 6e ed bf c5 73 f8 bf b6 df f5 3f 4b 72 f6 bf
       -1.8549451 -1.941033 1.9208896 -1.925363
000260 1b 29 eb bf 3b 33 ed 3f 7f 4f 1d 40 73 b6 f7 bf
       -1.8371919 1.8531259 2.457977 -1.9352554
000270 6f 52 1b c0 d9 ac 1e c0 39 7f 1d 40 f7 f3 f1 bf
       -2.4269063 -2.4792998 2.46089 -1.8902577
000280 4d ea 13 40 11 a1 1a c0 1d f1 f5 bf e9 4d f3 bf
       2.3111756 -2.4160807 -1.9214207 -1.9008151
000290 55 33 1b c0 5d be db bf c5 70 e0 bf 6d 95 ea 3f
       -2.425008 -1.7167469 -1.7534415 1.8326851
0002a0 e3 21 1f 40 d5 03 ea bf 7b 92 16 40 65 f3 f7 3f
       2.4864433 -1.828242 2.3526905 1.9371153
0002b0 5f 42 19 c0 53 b4 16 c0 e1 45 e4 3f 0a da bd 3f
       -2.394676 -2.354756 1.7833825 1.4832165
0002c0 fd 14 20 40 e9 81 ed 3f 71 1b 16 c0 4f 17 17 40
       2.501281 1.855527 -2.345425 2.3607976
0002d0 cd c2 15 40 ad c1 1d 40 83 08 ff 3f 78 b0 ed bf
       2.3400147 2.464946 1.9924473 -1.8569479
0002e0 e4 2d f9 bf 23 ac 19 40 95 e2 10 40 1f 66 ee 3f
       -1.946713 2.4011314 2.2638295 1.8624915
0002f0 91 e2 18 40 d9 dc f3 bf 45 94 22 c0 97 7d 19 40
       2.3888285 -1.9051772 -2.5402997 2.3982904
000300 7f f1 e5 3f 7d 32 1c 40 7d 51 dd 3f 59 26 1c c0
       1.7964324 2.4405816 1.7290493 -2.4398406
000310 a5 45 f8 3f fb ed 1e 40 f1 e8 e4 3f 3b 7a f5 3f
       1.9396254 2.4832752 1.7883588 1.9177927
000320 98 c6 e6 bf e4 48 6b 3f de fc 69 3f 86 dc 66 3f
       -1.8029356 0.919081 0.9140147 0.9018024
000330 51 eb 91 3f b6 c0 4a bf fa 55 f6 3f cc 9e 8b 3f
       1.1399938 -0.79200304 1.9244988 1.0907836
000340 8c 25 63 3f c0 83 76 3f 48 87 5c bf f3 24 dc 3f
       0.88729167 0.96294785 -0.8614392 1.7198776
000350 37 77 7a bf 6a 61 8c bf bd d5 6e 3f c3 78 7b bf
       -0.9783816 -1.0967228 0.9329489 -0.9823114
000360 2b 52 f7 bf 42 b2 86 3f 55 cc f1 bf f2 87 e4 bf
       -1.9321951 1.052315 -1.8890482 -1.7853987
000370 f1 80 75 3f 70 48 fc bf 2e e9 e6 3f c5 84 f1 bf
       0.95899874 -1.9709606 1.8039911 -1.8868643
000380 02 5b e5 bf 52 7f e1 3f 1a 53 e2 3f f5 02 f3 3f
       -1.7918398 1.761698 1.768161 1.8985277
000390 8d 09 ee bf 40 95 73 bf 69 a1 82 bf 6e 71 e7 3f
       -1.8596665 -0.9514961 -1.0205508 1.8081491
0003a0 36 84 f4 3f b4 fa f2 3f e1 36 ef 3f b3 fe e8 bf
       1.9102848 1.8982759 1.8688623 -1.8202728
0003b0 1c 1d e5 3f 25 d0 ea bf 6c ad f0 3f 33 89 fc 3f
       1.7899508 -1.8344771 1.8802924 1.972937
0003c0 13 8c 88 bf e9 9f e5 3f cf 40 f3 3f ac 27 5f 3f
       -1.0667747 1.7939426 1.9004153 0.8716991
0003d0 46 bd 7e bf ad a2 ef 3f 02 b9 5d 3f 43 b7 86 3f
       -0.9950756 1.872152 0.86610425 1.0524677
0003e0 87 48 85 bf 48 b4 8a bf bd 7d 81 3f 64 f4 81 bf
       -1.0412759 -1.0836267 1.0116497 -1.0152707
0003f0 a3 eb 8b bf 1a 52 73 3f 83 aa fc 3f 01 5c 5e bf
       -1.0931286 0.9504715 1.9739536 -0.86859137

bias f4 [5]
000000 29 db a7 40 1f dc 0d 40 43 6e 6a 3f 88 d2 61 40
       5.245503 2.2165601 0.91574496 3.5284748
000010 3f 25 ad 40
       5.4107966

weight f4 [100, 100]
000000 dd 94 c1 3d 09 56 ec 3d 6d b2 29 bd ae 45 63 3e
       0.094522215 0.115398474 -0.041429926 0.2219455
000010 a1 e6 e6 3d 71 ea 16 3d b0 a9 8f 3c 9d 68 be bd
       0.11274458 0.036844674 0.017536968 -0.09297297
000020 3d ad 30 3e 31 52 5b bd 46 1c 02 be 29 1d 3a be
       0.17253585 -0.05354518 -0.12706098 -0.18175186
000030 0d 98 9c 3d 12 bd 6e be af 36 14 3d 57 a2 63 bd
       0.07646189 -0.23314312 0.036184963 -0.05557474
000040 78 5f a8 3d b9 13 24 bd 5f 9a 38 3d cf dd 37 3a
       0.08221334 -0.04005787 0.045069095 0.0007013948
000050 14 90 22 3e 85 8b eb 3d 9a 61 1a be 0e 15 5c 3d
       0.15875274 0.115012206 -0.15076295 0.053731017
000060 d6 c0 94 3d 64 cf 2e 3d fc c5 07 be 75 ee a0 bd
       0.07263343 0.04267825 -0.13259119 -0.07857982
000070 d2 24 a8 3c ce 23 92 be d0 31 0c be c8 6c 09 be
       0.02052537 -0.28542942 -0.13690877 -0.13420403
000080 f3 53 42 be 9c 7f 1e be 00 bd 73 bb b0 dc 29 3e
       -0.18977337 -0.15478367 -0.003719151 0.16588092
000090 21 b4 21 be 25 26 dc 3d d9 bc 44 be 1b a2 f4 bd
       -0.1579137 0.10749463 -0.19212665 -0.11944982
0000a0 7a 7a 3c be 9c 24 35 be c4 48 1b 3c 9e 65 07 3e
       -0.18406096 -0.17689747 0.009477798 0.13222358
0000b0 ea 5e 08 bd 19 20 5c be 09 72 8e 3c 5b f5 97 3d
       -0.033293642 -0.2149662 0.01738836 0.07419845
0000c0 83 10 42 be d0 e1 72 3d a2 a6 36 3c f1 e7 39 bc
       -0.18951611 0.059297383 0.011148127 -0.011346803
0000d0 13 9a 3a be 5e 79 18 3e 0d af 55 be ba 3d 1d be
       -0.18222837 0.14890048 -0.20867558 -0.15355578
0000e0 c8 ff 8c 3e 3f a4 76 3d 0d 11 9b bd 26 21 23 be
       0.27538896 0.06021523 -0.075716116 -0.15930614
0000f0 aa 13 d0 bc 72 ef 81 3d 1c c6 3e be 2f 6f 7c bd
       -0.025400002 0.06344499 -0.1863026 -0.06162947
000100 d3 a9 df 3d 45 3e cc bd df b4 92 be 11 c2 fc 3d
       0.10921063 -0.099728145 -0.2865362 0.12341703
000110 33 5f 04 be 25 ad e6 bd 45 11 1d be c3 6d 38 3d
       -0.1292694 -0.112634934 -0.15338619 0.045026552
000120 85 8d 0c 3e ef 13 60 3e a4 bc 20 3e e1 79 0c 3e
       0.1372586 0.21882604 0.1569696 0.13718368
000130 68 ad 47 be f1 00 8d bd 9d 18 da 3d 7c 4c 6e bc
       -0.19499743 -0.06884945 0.10649226 -0.0145446025
000140 5d f8 bd 3d 26 d9 3f bc 6e ba aa 3c c3 b3 6e bd
       0.09275887 -0.011709487 0.02084085 -0.058276903
000150 1c f8 fe 3d 8a 49 cc bd 47 12 e0 bd 87 b4 84 3e
       0.12449667 -0.09974964 -0.10940986 0.2591898
000160 7e bd 6f bd 59 3d a7 be 1d 65 2c 3e 07 de 78 bd
       -0.058530323 -0.32663992 0.16835447 -0.060758617
000170 99 e5 ec 3d 6d b4 d2 bd d1 d9 50 3d ea a1 44 bc
       0.1156723 -0.1028832 0.050988976 -0.012001494
000180 57 42 84 3e 8a c0 3e be a0 14 07 3e a1 aa 2e 3e
       0.25831863 -0.18628135 0.13191462 0.17057277
000190 62 ae f5 bd 01 5d 3b bd 04 47 9c 3d 81 d4 e1 3d
       -0.119961515 -0.045742992 0.07630733 0.1102686
0001a0 e7 51 3c 3d cb 7e 9f bd 13 63 61 3e 45 b1 ff 3d
       0.045976546 -0.07787856 0.2201045 0.12484983
0001b0 de 4c d7 3d b0 ae f5 3d 38 60 6f be ff 32 de 3d
       0.10512708 0.119962096 -0.23376548 0.108495705
0001c0 4c d5 17 be d9 15 c5 bd 80 de 48 3e af a5 e6 bd
       -0.1482746 -0.09623308 0.19616127 -0.112620704
0001d0 f3 39 5a bd a0 01 fa 3b 8a ca 5e bd 8b dd 18 bd
       -0.05327792 0.0076295882 -0.054392375 -0.037320655
0001e0 86 8a 20 3e e6 df 53 bd 65 09 71 3c 0f 52 bc bc
       0.15677842 -0.051727198 0.0147117125 -0.022988347
0001f0 3c d0 6a bd 62 73 47 3d 7d 06 7c 3e 70 b2 0c 3e
       -0.057327494 0.048694022 0.2461185 0.13739944
000200 68 6f f1 bc bd d0 16 be 3b 65 bb be 73 4a a0 3d
       -0.029472068 -0.14728065 -0.3660067 0.078267
000210 5d aa 1b 3e d0 03 2c 3e aa 73 2c 3d 25 3e ac bd
       0.15201707 0.1679833 0.042102493 -0.08410291
000220 3f 9b 29 3e bf a3 5a be 22 33 6a 3d 25 25 2e 3d
       0.16563128 -0.21351527 0.05717767 0.042515893
000230 ad d9 44 bd 39 ed c3 3d e1 3d a4 3d db d8 26 3e
       -0.048059154 0.09566731 0.08019615 0.16293661
000240 cf b3 84 be e4 e2 d0 bc 81 0c df 3d be 0d 6f 3d
       -0.25918433 -0.025498815 0.10891057 0.058362715
000250 dd 05 64 be fd 02 00 be a9 87 65 bd 7d bd 41 3d
       -0.22267862 -0.1250114 -0.05603758 0.04729985
000260 48 61 21 be a7 3b ed 3c f3 21 c4 bb c9 f5 d8 bd
       -0.15759766 0.028959109 -0.0059854924 -0.10593755
000270 63 20 72 bd 3e 1d 4b be 09 99 0f 3e 02 7f 45 be
       -0.059112918 -0.19835374 0.14023222 -0.19286731
000280 48 99 83 3d 95 30 99 bd b1 b7 8f be 44 70 71 be
       0.064257205 -0.074799694 -0.28069833 -0.23577982
000290 60 b5 0e be bf 72 7b be a2 46 02 be b3 fa 93 3e
       -0.13936377 -0.24555491 -0.12722257 0.28902206
0002a0 e7 e0 c9 3d cb 1c aa bd 91 3a 20 3d 00 b5 00 3e
       0.0985735 -0.08306273 0.039118353 0.12569046
0002b0 21 99 87 bd 82 9e 0a be 99 64 39 3e c1 3a 2e 3e
       -0.06621004 -0.13537028 0.18104781 0.170146
0002c0 3c 41 64 3e c0 36 c3 3d 24 0e 08 be 23 e1 9f 3d
       0.2229051 0.09531927 -0.13286644 0.07806613
0002d0 f5 6f 53 3e ec 0a af 3d 3e 49 26 bd 54 c7 04 be
       0.20648177 0.08547005 -0.040597193 -0.12966663
0002e0 6d 29 c5 3d ea ae 3e 3c 14 7a 50 3d bb eb d3 bc
       0.09627042 0.011638382 0.050897673 -0.025869241
0002f0 16 91 0b 3e 64 a9 f1 bd 9f 82 1a be a9 7c c4 3d
       0.13629565 -0.11799887 -0.1508889 0.095940895
000300 ea 90 e3 3d d8 58 d5 3c f1 b8 57 3e c2 1f 53 be
       0.111116245 0.02604334 0.21066643 -0.20617583
000310 e1 68 e6 3b 99 31 13 3b ae b3 2c 3e 0a e4 f2 3c
       0.0070315455 0.0022459982 0.16865417 0.029649753
000320 88 f2 85 be 2b d6 9f 3d d3 45 a9 bd 76 67 78 bb
       -0.261616 0.07804521 -0.08265271 -0.0037903464
000330 07 b5 17 3e e0 53 a6 3d 3f b5 16 3e 60 3a 82 bd
       0.1481515 0.08121467 0.14717577 -0.063587904
000340 0a 07 72 3c 51 40 27 be b2 37 93 3d c1 7d 02 3c
       0.014772186 -0.16333129 0.071883574 0.007964552
000350 14 c4 81 3d 09 4e bd 3d 10 28 d6 3d 0c 00 9c 3d
       0.06336227 0.092434 0.1045686 0.076171964
000360 3a dd 60 be f9 3e 76 bb 45 f8 5a be df a3 23 be
       -0.21959391 -0.0037574156 -0.2138377 -0.1598048
000370 4d 1c 33 bd 25 fa 08 be 8b e9 b9 bc 6f 99 3e be
       -0.04372816 -0.13376673 -0.02269437 -0.18613218
000380 32 d2 43 be a7 cf 2f 3e 1c b9 00 3e e2 7c f8 3d
       -0.19123152 0.17169057 0.12570614 0.121331945
000390 d1 08 fe bd 14 d7 52 3d d8 b0 7b 3d 4c be f0 3d
       -0.12404025 0.051474646 0.06144795 0.11755046
0003a0 9e bc 56 3e ac 4c 49 3d f3 e7 89 3e ea d1 64 bd
       0.20970389 0.049145386 0.26934776 -0.055864252
0003b0 61 38 2c 3e 72 f7 cd bd 52 1c 9d 3d df e2 f8 3d
       0.16818382 -0.10056962 0.07671417 0.12152647
0003c0 86 57 47 3b 80 ca 29 3e 2d 51 5d 3e ff f2 3c 3e
       0.0030417158 0.16581154 0.21612997 0.1845207
0003d0 b8 49 03 be 0e 84 c2 3c c9 f2 ec bd 27 dd 3f 3d
       -0.1282109 0.02374461 -0.11569745 0.046841767
0003e0 5c eb 85 bd ec ca 16 3d 5b c8 3e bd 31 64 cb bd
       -0.06539032 0.036814615 -0.046577793 -0.09931219
0003f0 40 2a c1 3b 07 d4 43 3d 1f 4c 89 bc 07 51 b8 3b
       0.005894929 0.047809627 -0.01675993 0.0056248936

bias f4 [100]
000000 b0 67 8b 3c d4 1e d5 bc 89 b9 5f 3e 66 9c 19 be
       0.017017215 -0.026015677 0.2184812 -0.15001068
000010 5e 42 8c bd 09 ab 09 3e a1 e7 8f bd fc 8b 35 bc
       -0.06848596 0.13444151 -0.070266016 -0.011080738
000020 17 f0 d7 3d 28 52 73 3d 89 b7 4a 3e 1a 07 94 bc
       0.105438404 0.059404522 0.19796576 -0.018069793
000030 e4 b6 4d bd e9 61 3e 3d f3 f9 17 bd b0 45 00 3e
       -0.050223246 0.046480093 -0.037103605 0.12526584
000040 6b d3 06 3e 07 98 ca bc 76 33 10 bd 14 10 1e 3c
       0.13166587 -0.024730695 -0.035205327 0.009647388
000050 76 c4 bd bc ca f4 ce 3c 40 89 f3 3b 17 2b 9d 3c
       -0.023164969 0.025263209 0.007432133 0.019185586
000060 2e 4c a8 bd f3 73 02 be e1 bb 71 bd a5 af 0c 3d
       -0.08217655 -0.12739544 -0.059017066 0.034347195
000070 9f 7d e4 3d 06 ba 40 3d cd 80 b2 3c e5 eb bf bc
       0.11156773 0.047052406 0.021789933 -0.023427913
000080 95 a4 60 3d 2d fd a2 3d 76 de 91 bd 6d 62 cd 3d
       0.054844458 0.07958446 -0.07122509 0.10028539
000090 62 bc 40 be 2c f0 b5 3c de e2 56 3d 27 5b 63 bd
       -0.18821862 0.02220925 0.05246245 -0.05550685
0000a0 78 4e 84 bc e0 18 5c bd 4e f6 b7 3c d6 75 93 bd
       -0.016150698 -0.05373466 0.022456314 -0.0720021
0000b0 7b 50 d6 3d 3f 06 01 be 77 5f 9e 3d 11 59 17 bd
       0.10464569 -0.12600039 0.07733052 -0.036950175
0000c0 f4 43 aa bd ce d2 3f 3d d0 40 2f bc f0 4d 15 3d
       -0.08313742 0.0468319 -0.010696605 0.03645128
0000d0 62 ed 2b be ee 93 d4 bd a3 11 02 be be 89 ad 3c
       -0.16789773 -0.10379778 -0.1270204 0.021183845
0000e0 9c fe f5 bc 2e 1f 67 3e 56 d3 94 bd b4 2f b2 3d
       -0.030028634 0.22570488 -0.07266872 0.08700505
0000f0 29 18 c7 bd b3 fc 77 3d e7 d5 3f 3e f1 d5 87 3d
       -0.09721405 0.060543727 0.18733941 0.06632603
000100 43 c1 93 3d c8 53 02 3e b7 5f aa bd da a3 e6 bd
       0.07214596 0.12727273 -0.083190374 -0.11261721
000110 91 1f 73 bc 7d a2 06 bd 3f 8c b2 3c f8 7f aa bd
       -0.014839069 -0.032869805 0.02179539 -0.08325189
000120 eb 41 36 3e e9 84 14 be a1 47 84 bd 2f 7f d7 bd
       0.17798583 -0.14503826 -0.06458975 -0.10522305
000130 d9 d7 20 3c 1c d8 d6 3d ad d7 82 3c 1d ed 8b 3c
       0.009817087 0.10490438 0.015971983 0.017080838
000140 5f 91 aa bd b7 fe 0d be b0 d4 17 3d b4 25 b8 3d
       -0.083285086 -0.13866697 0.03706807 0.08991566
000150 ed 4d be 3c ba 72 87 bd ed e3 0b 3e 5e 61 92 bd
       0.023230517 -0.06613679 0.13661166 -0.071474776
000160 15 d6 ba bb 57 11 97 3d 66 ad bb 3c 84 af 02 be
       -0.00570179 0.07376354 0.022909831 -0.12762266
000170 eb 44 ed bc bb c3 ae 3d 2b 54 d5 bd bb 85 b2 3d
       -0.028963527 0.085334264 -0.104164444 0.08716913
000180 9d 43 39 3c 4a 9d 43 3d e0 a0 1e bd da 72 f2 3c
       0.011307624 0.047757424 -0.03872764 0.029595781

weight f4 [100, 100]
000000 19 16 f2 3b bb d4 8d 3d 9d 9c 9f bd db a6 cd 3d
       0.007387888 0.06925341 -0.077935435 0.10041591
000010 b8 6e 17 3e ff f9 0a 3d 9f c5 ed 3c d4 24 0a 3d
       0.1478833 0.03392982 0.029024897 0.03372653
000020 7f 29 4b 3e 45 e6 97 bd 46 db de bc b6 d6 8b bd
       0.19840048 -0.07416967 -0.027204167 -0.06828062
000030 1a be 02 3e 83 5f a7 bd 1b 16 0c 3c 6b 23 30 bd
       0.1276783 -0.08172514 0.008550192 -0.043002527
000040 e6 b7 20 3e 50 84 b1 bc d1 ae b3 3d f0 6f 31 bc
       0.15695152 -0.021669537 0.08773578 -0.010829911
000050 51 12 8e bd 1d 87 c2 3c 57 f0 2c bd 76 c4 25 3e
       -0.06937087 0.023746068 -0.042221393 0.16188225
000060 ea ce dd 3c fd 32 d4 bc f6 48 37 be 10 d4 df bc
       0.027076203 -0.02590322 -0.17898926 -0.027322799
000070 c2 8d 98 3d 43 be 7a bd 0b 7b 16 bd ca b1 06 be
       0.07448913 -0.061216604 -0.036738437 -0.13153759
000080 72 f3 9e bd 86 40 66 be c4 53 8f bd b8 61 cc 3d
       -0.07761277 -0.22485551 -0.06998399 0.09979576
000090 27 89 c2 bc dd d5 d5 3d 62 57 a3 bc 96 85 87 bd
       -0.02374704 0.10441182 -0.019939128 -0.06617276
0000a0 f6 98 5a be 92 0f 48 be 98 a8 18 be b7 84 b0 3d
       -0.21347412 -0.1953719 -0.14908063 0.08619063
0000b0 2d 8c 0f 3d 22 1a 82 be 09 01 f0 bc e1 20 28 bd
       0.03504579 -0.25410563 -0.029297369 -0.04104698
0000c0 75 d7 98 bd df ad 06 bc 40 35 81 3c 5c 7d 27 be
       -0.0746297 -0.008220165 0.015772462 -0.16356415
0000d0 0c 54 67 bd 35 bb 44 3d c7 db 5a be b5 02 d4 bd
       -0.056476638 0.048030097 -0.21372901 -0.10352079
0000e0 18 7f b1 3d 5f 5e 73 3d 93 7b 0f be df a6 a9 3d
       0.08666819 0.05941617 -0.14011984 0.08283781
0000f0 d0 32 30 bd 14 99 4c 3e 93 10 de bd 75 ea 79 bd
       -0.04301721 0.1998027 -0.10843005 -0.06101461
000100 ef c4 16 3c 36 3d de bc f3 d8 8d be 7e e7 02 3c
       0.009202226 -0.027128797 -0.27704582 0.007989762
000110 2e 8c de bd 31 74 9f bd 20 e7 c5 bd ba ee 8b bc
       -0.10866581 -0.077858336 -0.09663224 -0.017081607
000120 63 4b 07 3e 44 18 4b 3e 80 f7 bb 3c 76 e9 49 3d
       0.13212352 0.19833475 0.022945166 0.04929491
000130 4b 9f cf bd 6b df 91 bd 79 2b 21 3d f7 65 55 bd
       -0.101378046 -0.07122692 0.0393481 -0.052099194
000140 03 92 08 3c 88 01 71 3c 20 67 11 be ff c7 0b 3d
       0.008335593 0.014709838 -0.14199495 0.034126278
000150 98 75 c8 3d 77 ef 69 be 2e ae ff bd 55 e7 dd 3d
       0.09788054 -0.22845255 -0.12484394 0.10835139
000160 03 71 1c 3b c9 81 96 bd b0 45 c2 3d 01 9e ec bd
       0.0023871071 -0.07348973 0.09485948 -0.11553574
000170 ab bc 28 3d 60 c4 1b 3d 62 1f 06 3a 96 2a 40 3d
       0.041195553 0.038029075 0.0005116371 0.046915613
000180 98 a8 44 3e 2c e8 ed bd 30 d0 dd bc 1d d5 fd 3d
       0.19204938 -0.11616549 -0.02707681 0.12394164
000190 bf 04 77 3d a0 0e 9c 3b cf a4 34 3d 95 dc d7 3d
       0.06030726 0.0047624856 0.044102486 0.105401196
0001a0 e5 3c 80 3c 57 92 87 bd b7 99 fd 3d 14 50 b7 bc
       0.015654037 -0.06619709 0.123828344 -0.022377051
0001b0 20 e0 7b 3e b8 98 1d 3e 4e a7 5e be d5 63 38 bd
       0.24597216 0.15390289 -0.21743509 -0.045017082
0001c0 45 a8 a1 bc c5 7d 45 bd ed 4e 55 3e 26 ce 2d be
       -0.019733557 -0.048215646 0.20830889 -0.1697317
0001d0 c4 cd 6e bd c4 88 88 bc 28 51 57 be 13 5d ce bd
       -0.058301702 -0.016666777 -0.21027052 -0.10076346
0001e0 d0 a7 e7 3d 88 82 b5 bc 55 a2 8d bc 63 d1 d5 bd
       0.113113046 -0.022156969 -0.01728932 -0.10440328
0001f0 d5 a1 89 3d ae c3 c3 3a 33 e5 bd 3d af 02 b9 3d
       0.0672032 0.0014935636 0.09272232 0.09033715
000200 c0 3c 64 bd f9 de 15 be 3f 6b a2 be 1b 6b 9a 3b
       -0.055722 -0.14635839 -0.31722447 0.004712475
000210 28 cf 75 3d 0e 60 2b 3d 34 57 86 bc 0b 5a 41 bd
       0.060012013 0.04183965 -0.016399004 -0.047205012
000220 2b 30 39 bc 51 09 0b be 66 a1 7d 3d 43 52 93 bd
       -0.011302988 -0.13577773 0.0619215 -0.071934246
000230 6a 9e 4b be b2 f7 c1 bc 08 1f 72 bd 1f bf 2b 3e
       -0.19884649 -0.02367768 -0.059111625 0.16772126
000240 31 f4 68 be 0e 6b 40 bd 39 4e 88 bb 1d 1f 84 bd
       -0.22749402 -0.046977095 -0.0041597155 -0.06451247
000250 99 3f 12 be ac 2c f9 bd 38 b1 84 3c 70 32 b4 3c
       -0.14282073 -0.121667236 0.016197786 0.021996707
000260 f1 df 05 bd 16 a4 51 bd 15 45 79 3d 5c d8 cc 3c
       -0.03268427 -0.051181875 0.060856897 0.025005512
000270 ed 63 99 bd cc 3c 48 bd 63 5d 04 3e 19 12 0e be
       -0.074897625 -0.048886105 0.12926249 -0.13874091
000280 35 3d aa 3d 89 74 8e 3d d6 88 60 be c8 cb 52 be
       0.083124556 0.06955821 -0.21927199 -0.20585549
000290 4d 72 f4 bd 10 e9 c5 be 00 d2 29 3d 19 6b de 3d
       -0.11935864 -0.38654375 0.041460037 0.10860271
0002a0 12 a6 4d 3d 56 dc 50 bd 7d 46 8f 3c 08 02 ae 3d
       0.050207205 -0.05099138 0.017489666 0.08496481
0002b0 c2 02 2d 3d 4a bc 15 3c 59 b4 83 3e 99 4f bc 3d
       0.04223896 0.00913913 0.25723532 0.091948695
0002c0 eb 1a 3e 3d 58 a0 d7 3d 03 25 77 3c ef 92 2b 3e
       0.04641239 0.1052863 0.015084508 0.1675527
0002d0 ec 67 ee 3c 11 45 6d 3c 4b b6 cb 3d 83 18 b5 3c
       0.029102288 0.014481799 0.09946879 0.022106415
0002e0 c7 91 c1 3d 0a 34 13 3d 52 5d 3c 3d 24 55 00 3e
       0.09451633 0.0359383 0.045987435 0.12532479
0002f0 37 d8 cd 3b 43 98 ac bc f1 65 08 3d a6 d8 27 3d
       0.0062818783 -0.021068698 0.033300344 0.040978096
000300 8d 75 84 3c 98 31 09 3d 71 f9 4b 3e 17 cd a9 bd
       0.016169334 0.033494562 0.19919373 -0.08291071
000310 85 4c ba 3d 8b f7 1a 3b 6b c0 da 3d 93 37 fa 3c
       0.09096626 0.0023646082 0.10681232 0.030544078
000320 81 82 8b bd e8 26 36 3e 98 ad 81 bd 8c 07 2b ba
       -0.06812001 0.17788279 -0.063319385 -0.0006524257
000330 cd 15 b4 3d 16 35 10 bd bf c8 14 3e a8 4e f6 bd
       0.08793221 -0.035206877 0.14529704 -0.12026721
000340 0f 32 30 bd 62 fa ff bd e4 1d d6 bd 9d 76 8f bc
       -0.04301649 -0.124989286 -0.1045492 -0.017512614
000350 9e 7f ce 3d 42 b0 7a bd 14 19 1f 3e 0c 5e 5d bd
       0.10082935 -0.06120325 0.1553691 -0.05404477
000360 4a 8b d8 bd 3d 3a f3 3d 34 7b fe bd d1 37 ec bd
       -0.10573442 0.118763424 -0.12425843 -0.11534084
000370 c7 32 9a 3d 44 ee a6 bd 91 74 ef 3c cd be 7d bc
       0.07529216 -0.08150914 0.029230388 -0.015487385
000380 75 86 3b bd d1 1c 19 3e f7 14 6e 3b 44 74 97 3d
       -0.045782525 0.14952399 0.0036328414 0.07395223
000390 30 02 12 bd 94 6f f0 bd b3 cc 8d bd e2 63 a9 bd
       -0.035646617 -0.11740032 -0.06923809 -0.08271004
0003a0 68 22 1f 3e 99 f2 fb bc 76 4f bb 3d 36 64 71 b9
       0.15540469 -0.030755328 0.09146015 -0.00023020883
0003b0 84 37 20 3e ae d3 9b bc 57 6f 1c 3e a4 a7 ae 3d
       0.15646178 -0.019021835 0.15276848 0.08528069
0003c0 4d c4 54 be 66 66 75 bc 6d ec fe 3d df e7 86 3c
       -0.20778008 -0.014978027 0.124474384 0.016467987
0003d0 54 2e fc bd 29 f0 b9 bc 05 2c 02 3d a3 82 69 3d
       -0.12313524 -0.022697525 0.03178026 0.05700935
0003e0 e2 84 20 be ae 31 04 3c b9 3c 2a 3d ad 61 9d bc
       -0.15675691 0.008068485 0.041561816 -0.019211615
0003f0 29 5e a2 3d 62 be 16 3e ce eb ee bc a3 2d 6c 3b
       0.07928116 0.14721063 -0.029165175 0.0036037944

bias f4 [100]
000000 13 27 37 3d 7b 58 34 bd ef 3c 01 3e 40 9e 19 3c
       0.044715 -0.044029694 0.126209 0.009376109
000010 eb a4 43 bd 88 62 b3 3d d9 17 d2 bd 31 e9 d8 3d
       -0.0477647 0.08759028 -0.10258455 0.10591353
000020 9a 88 12 3e 9d b5 c8 bc 51 76 35 3e ba 03 cb bc
       0.14309922 -0.024500662 0.17720915 -0.02478205
000030 46 5d 39 3d d2 a8 9c ba 2c a3 e4 bd 1e 9d 0f 3e
       0.045254968 -0.0011952168 -0.11163935 0.14024779
000040 cc 13 73 3c fe fb e0 bd f8 c4 49 bd 1c a4 f5 3d
       0.014836263 -0.10985564 -0.04926011 0.11994192
000050 b1 64 40 be 28 74 8c 3d 8f 08 83 3d e5 94 8f 3d
       -0.1878841 0.068580925 0.06398117 0.07010821
000060 38 9d 17 bd c1 01 a7 bc 03 45 9b 3d 2c 6c db 3a
       -0.03701517 -0.020386579 0.07581522 0.0016740612
000070 06 80 a8 3c 97 5d c0 3d 6a c7 85 3d 33 ba 25 3c
       0.020568859 0.09392851 0.06532176 0.010115194
000080 f2 40 af 3c d1 ae 56 bd 04 07 ed 3c 96 c8 07 3e
       0.021393273 -0.05241281 0.02893401 0.13260111
000090 4a 47 ed bd 7f 40 31 3d 05 cf 84 3d bd 0d ac 3c
       -0.11585863 0.0432744 0.06484798 0.021002645
0000a0 35 e2 fe 3d 13 ba a8 3d 84 77 70 bd b8 d1 0b 3c
       0.12445489 0.08238616 -0.05870773 0.008533888
0000b0 11 29 4d 3e eb 1c 71 bd bb 5f 39 3e 6f b1 c3 bd
       0.20035197 -0.05886547 0.18102925 -0.09555327
0000c0 36 55 91 3d 85 56 e0 bd c2 54 14 3e 6a eb 13 bd
       0.07096331 -0.10954002 0.14485458 -0.03611318
0000d0 b5 2c a5 bc b2 5d 59 3c eb 45 31 3d 62 ba b1 3d
       -0.02016292 0.013266968 0.04327957 0.08678128
0000e0 c9 6e 33 bd 8c da 7d 3e e5 25 4c 3d 54 0a 26 3e
       -0.043806825 0.247904 0.049840827 0.16214877
0000f0 64 73 a5 3a 99 44 56 3d c8 4f 07 3e 8f 95 7b 3d
       0.001262289 0.052311514 0.13214028 0.061421927
000100 7b 97 e0 bc 19 3c 80 bd 61 83 67 3c b3 07 08 3c
       -0.027415982 -0.06261463 0.014130444 0.008302617
000110 bb f0 e1 3b f9 ea e7 bd ac 12 4b 3d 62 b9 8e bd
       0.0068951524 -0.11324114 0.049578354 -0.06968953
000120 03 d1 37 3e 46 f7 ac bc c9 5e 17 be 39 48 fc bd
       0.17950825 -0.021114003 -0.14782251 -0.12318463
000130 98 ea 7c 3c 82 f3 37 3e 9b be 69 3d 9f 52 00 3d
       0.015436791 0.17963985 0.05706654 0.031328794
000140 76 f8 64 bd 41 f4 09 be ec 75 0a bc 1a b1 1b 3d
       -0.055901013 -0.13472082 -0.008450966 0.038010694
000150 36 3a 92 bd b8 69 ac bd 6e 8b d0 bb 08 9b 44 bc
       -0.07140009 -0.08418602 -0.0063642776 -0.011999853
000160 ef bb ca 3c 54 65 24 3e 1d 50 15 be 64 2c e4 bc
       0.024747817 0.16054279 -0.14581342 -0.027853198
000170 95 f3 a6 bd 6f 16 a7 bc 2b fb 45 be fd cf 25 3c
       -0.08151928 -0.02039644 -0.19334094 0.010120389
000180 55 61 d2 bd 07 8c 2e 3c 78 79 2f bd ab b8 97 3d
       -0.10272471 0.010653502 -0.04284045 0.074082695

weight f4 [1, 100]
000000 72 8e 47 3d 10 3e 0b bd db 05 a1 bd e8 b8 88 3c
       0.04871983 -0.033994734 -0.07862445 0.016689733
000010 d8 20 ef bc a8 af 19 bc 62 23 36 3d 66 5d 14 3d
       -0.029190466 -0.009380259 0.044467337 0.036221884
000020 1d 53 a9 3d 61 84 c1 3d 43 a7 ac 3d 58 7a 59 3c
       0.08267806 0.094490774 0.0843034 0.013273798
000030 d0 f2 5a bc f0 1d 4c bd 4d 95 cc bd 80 93 b1 3b
       -0.013363555 -0.049833238 -0.09989414 0.0054191947
000040 f7 fb 1c bd a7 c4 bd 3d 6f 4e 82 3d 7d f7 44 bd
       -0.03832623 0.09266024 0.06362616 -0.048087586
000050 21 b3 87 3d d5 0f ad 3d 70 76 48 3c 30 f1 b7 3b
       0.06625963 0.08450285 0.012235269 0.0056134686
000060 68 b8 90 bc a2 a4 2c 3d 30 a2 95 bb 30 24 3f bd
       -0.017666057 0.042149194 -0.0045664534 -0.04666537
000070 02 20 5d 3d 60 2d 0d bd b3 6b 87 3d c4 37 e7 3c
       0.053985603 -0.0344671 0.06612339 0.028224833
000080 0b 23 c9 3d e0 07 33 bd 92 2c 02 3d d4 8c e3 bc
       0.09821137 -0.043708682 0.031780787 -0.027777113
000090 7a c3 45 3d 12 32 04 3d a6 84 9c bd f5 25 a1 3d
       0.048282124 0.032274313 -0.07642488 0.07868568
0000a0 94 69 a4 3c 9d 28 89 3d e6 55 6c 3d 86 1b 94 bd
       0.020069875 0.066971995 0.057699107 -0.07231812
0000b0 48 03 93 bd aa 5d 44 bd c2 3d 23 3d 2c c9 a2 bc
       -0.0717836 -0.047940888 0.03985382 -0.019871317
0000c0 ea de 45 bd 00 a5 f3 bb f9 fb ad 3d c7 58 a6 3d
       -0.04830829 -0.007435441 0.084953256 0.08122402
0000d0 8d 9a 19 bd 80 fa 92 bb 12 b1 69 3d e8 3d c3 3c
       -0.037500907 -0.0044854283 0.057053633 0.02383323
0000e0 9d 80 ae bd ac c5 13 bd ec df 9a bc 42 1e 3c 3d
       -0.08520625 -0.036077186 -0.018905602 0.045927294
0000f0 60 b0 d2 bc 88 31 df bc 0e 74 4f 3d 71 06 b6 3d
       -0.025718868 -0.027245298 0.050647788 0.08887947
000100 75 e4 a3 bd c2 5c 0e 3d 7d 1c 47 bd 75 43 ab bd
       -0.08002559 0.03475643 -0.048611153 -0.08362476
000110 3d 3f 43 bd 57 85 9d 3d 32 97 73 3d fc 97 d7 3c
       -0.04766773 0.07691448 0.059470363 0.026317589
000120 ee ea 88 bd 42 f6 bb bd 30 fb 0a 3c 99 ac b6 3d
       -0.06685434 -0.09177829 0.008482739 0.08919639
000130 0b ba bf bd 63 71 af 3d 0a de ca bd 65 02 bd bd
       -0.09361657 0.08566549 -0.09905632 -0.09228972
000140 76 e7 3b 3d 50 c4 3e bc 0f 00 b8 3d 2e bb 9e bd
       0.045875035 -0.011643484 0.08984386 -0.077505454
000150 0e 89 0d 3d fb 9f c7 bd cd 3a 87 bd 02 c1 82 bd
       0.034554534 -0.09747311 -0.06603012 -0.063844696
000160 14 33 d8 bc 78 1c 84 bc 16 77 a6 bd 7b 79 b2 3d
       -0.026391543 -0.016126856 -0.081281826 0.08714577
000170 a6 3e 3e 3d a8 83 1d 3c 12 f2 36 3d 50 8f 24 bd
       0.046446465 0.009613909 0.04466445 -0.040175736
000180 8a fb 17 bd 30 29 12 3c 12 65 06 3d b0 f8 a6 3b
       -0.03710512 0.008920953 0.032811232 0.005095564

comm_mask f4 [4, 4]
000000 00 00 00 00 00 00 80 3f 00 00 80 3f 00 00 80 3f
       0.0 1.0 1.0 1.0
000010 00 00 80 3f 00 00 00 00 00 00 80 3f 00 00 80 3f
       1.0 0.0 1.0 1.0
000020 00 00 80 3f 00 00 80 3f 00 00 00 00 00 00 80 3f
       1.0 1.0 0.0 1.0
000030 00 00 80 3f 00 00 80 3f 00 00 80 3f 00 00 00 00
       1.0 1.0 1.0 0.0
