exp1/adversary.pt (torch_old, 107142 bytes, 10 tensors)

weight f4 [100, 18]
0	0x3db229a2	0.08699347
1	0x3e3a4b7f	0.18192862
2	0x3f20f6e9	0.62876755
3	0x3f33b80e	0.7020272
4	0x3dc0218c	0.093813986
5	0xbe22d690	-0.15902162
6	0x3e4d4b47	0.20048247
7	0xbe8e8356	-0.27834576
8	0xbec3e977	-0.38264057
9	0xbec9d60b	-0.39421114
10	0x3f1e47c9	0.61828285
11	0xbfbf52af	-1.4947108
12	0x3ec0a6da	0.37627298
13	0xbf28af95	-0.65892917
14	0x3cdd2d68	0.02699919
15	0x3e008b61	0.12553169
16	0x3e696eb5	0.22796138
17	0x3d94f5fa	0.07273479
18	0x3e342c37	0.17594992
19	0xbe212850	-0.15738034
20	0xbf5008ee	-0.81263626
21	0xbd595d8f	-0.05306774
22	0x3f2699f9	0.65078694
23	0xbf1bc292	-0.60843766
24	0xbdc438e0	-0.095811605
25	0xbf878f85	-1.0590674
26	0x3d826062	0.0636604
27	0xbf1e7a7b	-0.6190564
28	0xbf847775	-1.0348955
29	0xbd8515c5	-0.06498293
30	0xbc1514d6	-0.009099206
31	0xbeb1fc92	-0.34763008
32	0x3e6be92f	0.23038171
33	0x3d745c3c	0.059658274
34	0x3dc8aef2	0.09798993
35	0x3e6b0bab	0.2295367
36	0x3e19d993	0.15024404
37	0xbe12a46e	-0.14320537
38	0x3e8589ad	0.260816
39	0xbf55b65b	-0.8348138
40	0x3e22d586	0.15901765
41	0x3f806cb9	1.003318
42	0xbed39bfa	-0.41329938
43	0x3f80dee5	1.0068022
44	0xbf05ec6f	-0.52313894
45	0x3f324dde	0.69650066
46	0x3e1b933a	0.15192881
47	0x3f820d34	1.0160279
48	0x3f50cdbb	0.8156392
49	0x3f88337b	1.064071
50	0xbd2ce4cc	-0.042210385
51	0xbe06ee72	-0.13176897
52	0x3e2414f3	0.16023616
53	0x3e5c3f5f	0.21508549
54	0xbe630777	-0.22170816
55	0x3cedd2c8	0.029031172
56	0x3e8bbfc0	0.2729473
57	0x3f240f80	0.6408615
58	0xbfa58c3a	-1.2933419
59	0x3e2d43a5	0.16920336
60	0xbde4e9fd	-0.11177442
61	0x3f50cb4f	0.81560224
62	0xbf4501ac	-0.76955676
63	0xbecb4b42	-0.39705855
64	0xbed7b188	-0.42127633
65	0x3e314f99	0.1731552
66	0xbe3c4057	-0.18383919
67	0x3ebc6bc4	0.3680097
68	0x3e127c3f	0.14305209
69	0xbe310fda	-0.17291203
70	0x3d200914	0.039071158
71	0x3d4a86bc	0.0494449
72	0xbce06568	-0.027392104
73	0xbd79abac	-0.060954735
74	0xbf4cb0d8	-0.7995734
75	0x3e3a1bcb	0.18174665
76	0x3cef5f47	0.029220236
77	0xbed727d9	-0.4202259
78	0x3dd6f8a7	0.104966454
79	0xbf96f6bb	-1.1794046
80	0x3ed95b32	0.4245239
81	0x3ea94f90	0.33068514
82	0x3d2145ac	0.039373085
83	0xbedc2a91	-0.43001226
84	0xbd0c795d	-0.03429543
85	0x3e86edd7	0.26353332
86	0xbe4e027e	-0.20118138
87	0xbe33bcc6	-0.1755248
88	0x3e165027	0.14679013
89	0x3e0f3cab	0.13987987
90	0x3cba0708	0.02270843
91	0x3df604fe	0.12012671
92	0x3f815b32	1.0105956
93	0x3e20792f	0.15671228
94	0xbf5a2b58	-0.8522239
95	0xbe7fedca	-0.24993053
96	0xbe8638f8	-0.2621534
97	0x3fb7a75e	1.4347951
98	0xbf95ff92	-1.1718619
99	0xbe4c4de2	-0.19951585
100	0x3cece60d	0.02891829
101	0x3f27b9b7	0.65517753
102	0xbf868520	-1.0509377
103	0x3e5bf97a	0.21481887
104	0x3e39b65b	0.1813597
105	0xbe010d2e	-0.12602684
106	0xbd03b600	-0.03215599
107	0x3e281803	0.1641541
108	0x3de45db6	0.111506864
109	0x3e3d97fd	0.1851501
110	0x3ee366b0	0.44414282
111	0x3dbe4026	0.09289579
112	0xbec0c24d	-0.3764824
113	0xbdc268fa	-0.09492679
114	0xbe306c09	-0.17228712
115	0x3d34fc9b	0.044186216
116	0xbf318ed2	-0.6935855
117	0xbe63590e	-0.2220194
118	0xbee17b9d	-0.44039622
119	0xbed2c50b	-0.41165957
120	0xbe2d3836	-0.16915974
121	0x3da64ff1	0.08120716
122	0x3e1085e1	0.14113571
123	0x3d5435c4	0.051809087
124	0x3e428641	0.18996526
125	0x3dad5066	0.084626004
126	0xbcf29288	-0.029610887
127	0x3e312b11	0.17301585
128	0xbe29b89e	-0.16574332
129	0xbf3476d7	-0.70493835
130	0x3e0c366d	0.13692637
131	0x3ea61a1d	0.32441798
132	0x3e28b21a	0.1647419
133	0xbe37d02b	-0.17950504
134	0x3e2a11e9	0.16608395
135	0x3f0dfeed	0.5546711
136	0x3d3ba05f	0.04580724
137	0xbf02b810	-0.5106211
138	0xbca15603	-0.019694334
139	0xbdf2ab35	-0.118490614
140	0x3ddf9c6a	0.109185055
141	0x3cb1ed18	0.0217195
142	0x3e4c0291	0.19922854
143	0x3e5bf705	0.21480949
144	0x3e0a20bb	0.13489048
145	0x3ce50a08	0.027958885
146	0xbf311016	-0.6916517
147	0xbf7b1a5f	-0.98087114
148	0x3ec7e756	0.39043683
149	0x3f5bf622	0.85922444
150	0xbef9f7f3	-0.48821983
151	0xbed8ada1	-0.42319968
152	0x3f2993ed	0.6624134
153	0x3ecada6d	0.3961977
154	0x3f691c06	0.91058385
155	0x3f125c33	0.57171935
156	0x3e8c689f	0.2742357
157	0xbeb799ed	-0.35859624
158	0x3e39f40d	0.18159504
159	0xbd4af9ec	-0.04955475
160	0x3e5255e3	0.20540576
161	0x3ce75c88	0.028242365
162	0xbdd3a2ba	-0.10333772
163	0x3e683ea1	0.22680141
164	0xbe3478c1	-0.17624189
165	0xbf180303	-0.59379596
166	0x3f6babdd	0.9205912
167	0x3f17b8fe	0.5926665
168	0x3e55f933	0.20895843
169	0xbcf3dfaf	-0.029769747
170	0x3f513ad9	0.8173042
171	0x3e8153c8	0.25259233
172	0x3f61b4d5	0.8816655
173	0x3e20367a	0.15645781
174	0xbe62f9f2	-0.22165659
175	0x3dd55d07	0.10418134
176	0x3e443bc5	0.19163425
177	0x3d7b4e14	0.061353758
178	0x3b0913c0	0.0020916313
179	0xbdcb9104	-0.09939769
180	0xbe2cbe34	-0.16869432
181	0xbe212a4c	-0.15738791
182	0x3f2f3dc8	0.68453646
183	0xbe86e3cb	-0.26345667
184	0x3bee9039	0.0072803763
185	0x3f1bd3fd	0.60870343
186	0x3e208942	0.1567736
187	0x3f31c1c2	0.69436276
188	0xbea94f18	-0.33068156
189	0x3ef42d0b	0.47690615
190	0x3f9a0d9c	1.2035403
191	0x3ee5180e	0.44744915
192	0x3f0aab29	0.5416742
193	0x3e6e492a	0.23270097
194	0x3e3a8c0b	0.18217485
195	0xbe0c02d4	-0.13672954
196	0xbe44e006	-0.19226083
197	0xbd2fd2dc	-0.0429257
198	0x3dcc08c2	0.09962608
199	0xbe3c15a0	-0.18367624
200	0xbe302344	-0.17200953
201	0x3f942803	1.1574711
202	0x3e0280ec	0.12744492
203	0x3d8b4af3	0.06801405
204	0x3dfe44dd	0.124154784
205	0x3edeeec0	0.43541527
206	0xbd59a193	-0.053132605
207	0xbf5c6b1b	-0.8610093
208	0xbe2bec99	-0.16789474
209	0x3d15cda7	0.03657308
210	0x3d92d2d6	0.0716912
211	0xbf3e8086	-0.7441486
212	0x3d0d5a7c	0.03451012
213	0xbe35ca14	-0.17752868
214	0xbe28d55e	-0.16487643
215	0x3e53b505	0.20674522
216	0xbe1d355a	-0.15352383
217	0xbc84c8b0	-0.016208977
218	0xbe27d70a	-0.16390625
219	0x3f7656b5	0.96226054
220	0xbe983a81	-0.29732135
221	0xbe47c2db	-0.19507925
222	0xbf0df79e	-0.5545596
223	0xbf5095da	-0.81478655
224	0x3e072df2	0.1320112
225	0xbeefac00	-0.46810913
226	0xbe5f8ead	-0.2183177
227	0xbfa9a5a0	-1.325367
228	0xbf64dd22	-0.8939992
229	0x3e05c9e8	0.13065302
230	0x3dea1cbe	0.114312634
231	0x3e6e22ad	0.23255415
232	0x3ceed528	0.029154375
233	0xbe0d11de	-0.13776347
234	0x3e16843b	0.1469888
235	0x3d9b8ece	0.07595597
236	0xbe3b0c7c	-0.18266481
237	0xbf517149	-0.81813484
238	0x3f2960cd	0.6616333
239	0x3f29141d	0.66046315
240	0xbe57dabf	-0.21079539
241	0x3f23a21d	0.6391924
242	0xbed6076d	-0.4180254
243	0x3f872c0f	1.0560321
244	0x3eafc2b4	0.34328234
245	0x3cbfdd41	0.023420932
246	0x3d81bfb6	0.06335394
247	0x3effe3e8	0.49978566
248	0xbe5ed5bb	-0.21761219
249	0xbe666a64	-0.22501522
250	0xbca8d0a8	-0.020607308
251	0xbd03094c	-0.031991288
252	0xbe0db5bd	-0.13838859
253	0x3e5e4d21	0.2170911
254	0x3e31d838	0.17367637
255	0xbf684153	-0.90724677

bias f4 [100]
0	0x3c0eaae2	0.008707734
1	0x3f680d11	0.9064494
2	0xbefb22d5	-0.49050012
3	0xbf9c8651	-1.222849
4	0x3ed0814a	0.4072364
5	0xbd8b6720	-0.06806779
6	0xbf8d6e58	-1.1049299
7	0x3fa74702	1.3068545
8	0x3ed7e96c	0.42170274
9	0x3e667ab5	0.22507747
10	0xbeba82ed	-0.36428013
11	0x3d1dd9f3	0.03853793
12	0x3f4d89f1	0.80288607
13	0x3f4e9fdf	0.80712694
14	0xbd98e20f	-0.07464992
15	0x3e6cdc31	0.23130871
16	0x3ec19ad0	0.37813425
17	0x3f01a508	0.5064244
18	0xbd926306	-0.071477935
19	0x3f41237a	0.7544476
20	0x3eee49d9	0.46540716
21	0xbede01c8	-0.43360734
22	0x3f3aaefc	0.72923255
23	0x3fcd8a3a	1.6057808
24	0x3f1eb1c8	0.6199002
25	0x3e84d110	0.25940752
26	0xbe2c25c2	-0.16811278
27	0xbf85b1a1	-1.0444833
28	0x3ef2c562	0.47416216
29	0x3e7dc13b	0.24780743
30	0xbe0d339b	-0.13789217
31	0x3e6843f2	0.22682169
32	0x3eae3ae8	0.34029317
33	0xbf932725	-1.1496321
34	0xbede367d	-0.43400946
35	0x3f63934f	0.8889665
36	0xbefa806f	-0.48926112
37	0x3f00ff85	0.5038989
38	0xbefbd896	-0.4918868
39	0x3f3995f6	0.7249445
40	0xbf171c0b	-0.59027165
41	0x3f9fb660	1.2477531
42	0xbf2c7df3	-0.67379683
43	0x3f2bde21	0.67135817
44	0xbf5038ff	-0.8133697
45	0x3f75c71f	0.9600696
46	0xbf460e9d	-0.7736605
47	0x3f2fe1d8	0.68703985
48	0xbee58fce	-0.44836277
49	0xbf644416	-0.8916639
50	0xbe623228	-0.22089446
51	0xbed2ce8b	-0.41173205
52	0x3f115eec	0.56785464
53	0xbf0ea062	-0.55713475
54	0xbe4fb294	-0.20282966
55	0xbe3870e1	-0.1801181
56	0xbd950fea	-0.07278426
57	0x3f310ba4	0.6915839
58	0x3ed4d6a0	0.41569996
59	0xbec4133e	-0.3829593
60	0x3eccab26	0.39974326
61	0xbe78467b	-0.24245636
62	0x3ed1e66a	0.40996104
63	0x3d88ff87	0.06689363
64	0xbe9f08ca	-0.31061393
65	0xbf39d1c9	-0.7258573
66	0xbee7993f	-0.45234105
67	0xbf5d00c0	-0.8632927
68	0xbf8bea7e	-1.0930936
69	0xbecb31b4	-0.39686358
70	0x3eb079b3	0.3446785
71	0x3f394bbd	0.7238119
72	0x3f9a296f	1.2043895
73	0x3eddafc8	0.43298173
74	0x3e7d4e3c	0.24736875
75	0xbf797380	-0.97441864
76	0xbf5c273b	-0.8599736
77	0x3f940cff	1.1566466
78	0xbf588c9c	-0.8458955
79	0xbedddd0d	-0.4333271
80	0xbf4c3fee	-0.7978505
81	0xbf62468a	-0.88388884
82	0xbe70e4a9	-0.23524727
83	0x3c4b94aa	0.012425581
84	0xbf6334f0	-0.8875265
85	0xbe396136	-0.1810349
86	0xbf27f01b	-0.65600747
87	0x3f246989	0.64223534
88	0x3f4b6b2d	0.7946041
89	0x3ed8a071	0.42309907
90	0xbdfbeca4	-0.12300995
91	0x3f17eda9	0.59347016
92	0x3eba6801	0.36407474
93	0xbf0d3d2c	-0.55171466
94	0xbf9aa1d0	-1.2080631
95	0xbeb4d171	-0.3531604
96	0xbfadf8ad	-1.3591515
97	0x3efaff18	0.49022746
98	0xbdfaeb9d	-0.12251971
99	0xbf9df4e6	-1.2340362

weight f4 [5, 100]
0	0xbf8a24c7	-1.0792474
1	0xbe00293c	-0.1251573
2	0xbf5cba5f	-0.8622188
3	0x3f4c74f8	0.7986598
4	0xbcff786a	-0.031185348
5	0x3f2672db	0.65019006
6	0x3e8d8b45	0.27645317
7	0xbf2d6eef	-0.67747396
8	0x3d32f6a5	0.04369225
9	0xbebb6c4e	-0.36606067
10	0x3fbe1bea	1.4852269
11	0xbf8c308e	-1.0952318
12	0x3f93c191	1.1543447
13	0xbf88f680	-1.0700226
14	0xbf3e1403	-0.74249285
15	0x3f0fe01b	0.5620133
16	0x3ea99e44	0.3312856
17	0xbe4696d0	-0.19393468
18	0xbf7d6a81	-0.9899064
19	0xbee69fd0	-0.45043802
20	0x3e10da84	0.14145857
21	0xbe0f31a5	-0.13983782
22	0x3f40a404	0.7525027
23	0xbe40338b	-0.18769662
24	0x3f0d853d	0.5528143
25	0xbec265a8	-0.37968183
26	0x3d49f4e2	0.049305804
27	0xbf27796d	-0.65419656
28	0x3ef22b8e	0.47298855
29	0x3f3ffed7	0.7499823
30	0x3f075317	0.5286116
31	0xbd1b523d	-0.037920225
32	0x3fa8b3e1	1.3179895
33	0xbf87f994	-1.062304
34	0xbe818fdd	-0.2530507
35	0x3ee1c27a	0.44093686
36	0xbfa63817	-1.2985867
37	0x3ef5886d	0.47955647
38	0x3ebf965d	0.37419406
39	0x3f1bf021	0.6091328
40	0x3f5107ee	0.81652725
41	0xbeb9c5bc	-0.36283672
42	0xbed27d56	-0.4111125
43	0xbefcb4de	-0.4935674
44	0x3f56e959	0.8394981
45	0xbf893ecb	-1.0722288
46	0xbf11ba0c	-0.5692451
47	0xbf08c60c	-0.53427196
48	0xbf524bc0	-0.82146835
49	0x3f69ece9	0.9137712
50	0xbf9900d8	-1.1953382
51	0x3ed9b88e	0.42523617
52	0xbf8e4ee0	-1.1117821
53	0x3c4426dc	0.011972155
54	0x3ec6506b	0.3873323
55	0xbeb00004	-0.34375012
56	0x3ef42cfc	0.4769057
57	0x3f363cd8	0.7118659
58	0x3f813f1a	1.0097382
59	0xbe288766	-0.164579
60	0x3eeb60ec	0.45972383
61	0x3ee857b5	0.45379415
62	0xbfcf0762	-1.6174128
63	0x3f379bec	0.7172229
64	0x3f4615ef	0.7737722
65	0xbefda956	-0.49543256
66	0x3f28b8bb	0.65906876
67	0xbeacece7	-0.33774492
68	0x3e2f973a	0.17147532
69	0xbf227daf	-0.6347303
70	0xbd146138	-0.036225528
71	0x3dd47450	0.10373747
72	0x3f195aa5	0.5990394
73	0x3eb16774	0.3464924
74	0xbf202316	-0.62553537
75	0xbb221370	-0.0024730824
76	0xbeef0f13	-0.46691188
77	0x3ea3adaa	0.31968433
78	0x3fa2d569	1.2721378
79	0xbe8df5d7	-0.27726623
80	0x3de6802a	0.11254914
81	0xbf47e8f4	-0.78089833
82	0x3e7125e4	0.2354961
83	0x3eb26972	0.34846073
84	0x3f608429	0.8770166
85	0x3d8dd005	0.06924442
86	0x3dd4659a	0.103709415
87	0x3ea63345	0.3246099
88	0x3f25111f	0.6447925
89	0x3e974b24	0.29549515
90	0x3e739990	0.23789048
91	0x3f14c288	0.5810933
92	0xbf1a3935	-0.6024354
93	0x3ed8d5fb	0.42350754
94	0x3ea66b43	0.3250371
95	0x3f90d2a5	1.1314284
96	0x3f1aabd7	0.60418457
97	0x3f8c4886	1.0959632
98	0xbf013c45	-0.5048259
99	0xbf800dd2	-1.0004218
100	0xbecf58cc	-0.40497434
101	0xbf2ad8c6	-0.6673702
102	0x3f5d94a8	0.86554956
103	0xbe9f5e8e	-0.31126827
104	0x3eccac93	0.39975414
105	0x3f476f14	0.77903867
106	0xbf9593a9	-1.1685687
107	0xbd809b7f	-0.062796585
108	0x3f13a1d0	0.5766878
109	0x3f922655	1.1417948
110	0xbf8d49cc	-1.1038146
111	0xbeae14ee	-0.34000343
112	0xbfdf9217	-1.7466458
113	0xbf39a697	-0.7251982
114	0x3f010032	0.50390923
115	0xbfb2df5a	-1.3974411
116	0xbe7df3d6	-0.24800047
117	0x3e998dea	0.29991084
118	0xbf7e73f4	-0.9939568
119	0x3e237535	0.1596268
120	0x3b828e74	0.003984267
121	0x3f00f491	0.5037318
122	0xbdc2c700	-0.095106125
123	0xbf0f496c	-0.5597141
124	0x3e9898f5	0.29804197
125	0x3f0946d2	0.5362369
126	0x3ebbbfdd	0.36669818
127	0xbf102fb6	-0.563228
128	0xbf862ff7	-1.0483388
129	0xbfa55d81	-1.291916
130	0x3eb26c63	0.34848318
131	0xbf494da7	-0.78634113
132	0x3d8c0707	0.06837278
133	0x3edd4d1b	0.4322289
134	0xbd68e640	-0.05686021
135	0xbedb151f	-0.42789552
136	0x3e318582	0.17336085
137	0x3f40571e	0.7513293
138	0xbe9a028a	-0.30080062
139	0xbf506c2b	-0.8141505
140	0xbe158eec	-0.14605302
141	0x3fbd1c29	1.4774219
142	0x3e9897dc	0.2980336
143	0x3f6cc8f2	0.9249412
144	0xbec05894	-0.3756758
145	0x3ff5662d	1.9171807
146	0x3eed823c	0.46388423
147	0x3dbe7698	0.09299964
148	0x3f002196	0.5005125
149	0x3e8b4f72	0.2720905
150	0xbf3423d4	-0.7036717
151	0xbfbac423	-1.4591106
152	0x3ec39c83	0.38205346
153	0x3e389acf	0.18027805
154	0x3fc1995c	1.5124927
155	0x3f07d469	0.5305849
156	0xbfeb1f4d	-1.8368927
157	0x3e752e9d	0.23943563
158	0xbea59d7c	-0.32346714
159	0x3f5fa24c	0.8735702
160	0xbd8dba8b	-0.06920346
161	0xbfa2e379	-1.2725669
162	0x3d202a04	0.03910257
163	0xbf534c6e	-0.825385
164	0xbdec0bf5	-0.11525718
165	0xbc96fa12	-0.01842979
166	0xbf94aa7e	-1.161453
167	0xbea587c4	-0.32330143
168	0xbceb4f17	-0.028724236
169	0xbcb835ba	-0.022486556
170	0xbe237dba	-0.1596593
171	0xbf439465	-0.7639831
172	0xbe4dacda	-0.20085469
173	0xbf8a82e0	-1.082119
174	0x3e542e4e	0.20720789
175	0x3e821983	0.2541009
176	0xbf8b230a	-1.0870068
177	0xbeb8bb4b	-0.36080393
178	0xbf544b49	-0.82927376
179	0xbea67c69	-0.32516792
180	0xbee0e4c0	-0.43924522
181	0x3ed36f85	0.4129602
182	0x3efdc407	0.4956362
183	0x3f62f657	0.88657135
184	0xbfcc1329	-1.5943347
185	0xbec7854e	-0.3896889
186	0xbfad5184	-1.3540502
187	0xbed929b6	-0.42414635
188	0xbef30b02	-0.47469336
189	0x3e393cdc	0.18089622
190	0xbf00b85f	-0.5028133
191	0x3f04d6c5	0.5189021
192	0x3ec5f4bc	0.3866328
193	0xbea541e6	-0.3227684
194	0xbe7aa132	-0.24475554
195	0xbfa59463	-1.2935909
196	0x3f2662a5	0.6499427
197	0xbf0c43eb	-0.54791135
198	0x3f1c7b75	0.6112588
199	0x3f15c48a	0.5850302
200	0x3f82c80d	1.0217301
201	0x3f5d3a61	0.86417204
202	0xbfdb94c7	-1.7154778
203	0x400475a4	2.0696802
204	0x3ece5f33	0.40307006
205	0xc0022721	-2.0336382
206	0xbb8561c4	-0.0040704925
207	0xbfd733cf	-1.6812686
208	0xbef01a47	-0.46895048
209	0xbfe10e74	-1.7582536
210	0x4002c71d	2.043403
211	0xbf7bf715	-0.9842389
212	0x40032ba3	2.0495384
213	0xbf38dcd8	-0.7221198
214	0xc01d6eb5	-2.459882
215	0x3f416c10	0.75555515
216	0xbf92b9e1	-1.1462976
217	0xbf2e6871	-0.68128115
218	0x3e720a4a	0.23636737
219	0x3f275523	0.65364283
220	0x3fc24114	1.517611
221	0xbf81294e	-1.009073
222	0x3ee3de30	0.44505453
223	0xbe880d7a	-0.26572782
224	0xbfbbf8c6	-1.4685295
225	0xbd8dfd5f	-0.06933092
226	0xc012f71d	-2.2963326
227	0x3ef52a20	0.478837
228	0x3fd2efaf	1.6479396
229	0x3fbcdd31	1.4755002
230	0xbf5aab8e	-0.8541802
231	0x3feb4f4a	1.8383572
232	0x3ed22b4d	0.4104866
233	0xc02557da	-2.583487
234	0xbef3a8c0	-0.47589684
235	0xbf4c3cb2	-0.79780114
236	0xbc9c19b7	-0.01905523
237	0xbe62e9d4	-0.22159511
238	0xbfad5fd8	-1.3544874
239	0x3fec2457	1.844859
240	0xbf3ebea7	-0.7450966
241	0xbf84926c	-1.0357184
242	0xc0001087	-2.0010087
243	0xbf82113c	-1.016151
244	0x400c9115	2.196355
245	0xbfe20adb	-1.7659563
246	0xbf269025	-0.650637
247	0x3f87f151	1.0620519
248	0xbfe50750	-1.7892857
249	0x3f98d5e4	1.1940274
250	0xbf817ede	-1.0116842
251	0x3fb867c7	1.440667
252	0xc00ab7b4	-2.1674623
253	0x3e20a7bf	0.1568899
254	0xbfda5c7c	-1.7059474
255	0x3f967fcb	1.1757749

bias f4 [5]
0	0x3f36c810	0.7139902
1	0x3ff9c6f2	1.9513838
2	0x400211f3	2.0323455
3	0x3fe9964f	1.8248996
4	0x3fccd904	1.6003728

weight f4 [100, 100]
0	0xbfaad3f8	-1.3345938
1	0x3e30c432	0.17262343
2	0x3f6008e2	0.87513554
3	0x3da47a45	0.080311336
4	0xbd65300c	-0.055954024
5	0x3e6d69b6	0.23184857
6	0xbf63fe46	-0.89059865
7	0x3f797f9f	0.9746036
8	0xbe2dce1d	-0.16973157
9	0x3dde7102	0.10861398
10	0xbf422ec9	-0.7585264
11	0xbf8906db	-1.0705217
12	0xbf894765	-1.0724913
13	0x3dcbc7ad	0.099501945
14	0x3f2634db	0.649244
15	0xbf809a39	-1.0047065
16	0xbe5de599	-0.21669616
17	0xbed1609c	-0.4089402
18	0x3f8137c0	1.0095139
19	0xbe55f6e9	-0.2089497
20	0xbdb35130	-0.0875572
21	0xbf0afb91	-0.5429011
22	0x3e73ba81	0.23801614
23	0x3f3baa75	0.7330697
24	0xbe26eeca	-0.16302028
25	0xbdb532cb	-0.088475786
26	0xbeb30d87	-0.34971258
27	0xbe845ec0	-0.2585354
28	0xbf2749db	-0.6534707
29	0xbe8b64a7	-0.2722523
30	0xbf70a6dd	-0.94004613
31	0x3c948848	0.01813139
32	0xbe9f6b80	-0.31136703
33	0xbe0f4bb3	-0.1399372
34	0x3c7ea712	0.015542762
35	0xbee27a80	-0.44234085
36	0xbe4497cb	-0.1919853
37	0xbd1193ab	-0.035541218
38	0x3f72bbed	0.94818
39	0x3f828beb	1.019895
40	0x3bff19dc	0.007785065
41	0x3f6bb244	0.92068887
42	0x3f4baf2b	0.7956416
43	0xbea8c80f	-0.32965133
44	0xbe9c1691	-0.30485967
45	0xbeb44ce2	-0.35214907
46	0xbd9e1dca	-0.077205256
47	0x3eb76ff6	0.35827607
48	0x3f20931e	0.62724483
49	0x3fbbfd90	1.4686756
50	0x3da60cd9	0.08107919
51	0x3fa87953	1.3162025
52	0xbcd9dc56	-0.026594322
53	0xbe4b78fc	-0.1987037
54	0x3eb3ca41	0.35115245
55	0xbefbb089	-0.49158123
56	0xbe4992d2	-0.19684914
57	0xbf495bc8	-0.7865567
58	0xbe712b1a	-0.23551598
59	0x3feb34fa	1.8375542
60	0xbf5086b2	-0.8145553
61	0x3ed5127c	0.41615665
62	0x3d705f01	0.058684353
63	0xbd91a091	-0.07110704
64	0xbe93edc9	-0.28892353
65	0xbec58fe1	-0.38586333
66	0x3f3964ef	0.7241964
67	0xbedfd47e	-0.43716806
68	0xbed7629b	-0.42067418
69	0x3eddff7d	0.43358985
70	0x3e8ebc86	0.27878207
71	0xbcf6ea0b	-0.030140897
72	0x3cf47a92	0.029843602
73	0xbe92ccf7	-0.28672
74	0x3d4c3804	0.04985811
75	0xbea57947	-0.3231909
76	0xbdf39338	-0.11893314
77	0xbf3c1dde	-0.73483074
78	0x3eabc8e8	0.33551717
79	0x3f9a35a9	1.2047626
80	0xbc873dd6	-0.016508978
81	0xbe586229	-0.21131195
82	0x3f5a3090	0.8523035
83	0x3f0cbf79	0.54979664
84	0x3f1129d7	0.5670447
85	0xbd04a4eb	-0.03238384
86	0xbea1f698	-0.3163345
87	0xbeb02c88	-0.34408975
88	0xbf3b932b	-0.73271435
89	0x3e79f84a	0.24411121
90	0x3f11edd3	0.57003516
91	0xbdd4d32a	-0.10391839
92	0x3e76b2b4	0.24091607
93	0x3e213987	0.15744601
94	0x3eda3857	0.4262111
95	0x3e979771	0.29607728
96	0xbec4064f	-0.38286063
97	0xbde58ba1	-0.11208273
98	0xbec66874	-0.38751566
99	0x3e3f3ad5	0.18674786
100	0x3d812a35	0.063068785
101	0x3ea994aa	0.33121234
102	0x3d06dcf1	0.03292555
103	0x3e00936d	0.12556238
104	0xbf2782fb	-0.65434235
105	0x3e378766	0.17922744
106	0x3f178276	0.5918344
107	0x3e1cb0fd	0.1530189
108	0xbfca7807	-1.581788
109	0xbf06a803	-0.52600116
110	0xbe11120c	-0.1416704
111	0x3de6fdca	0.11278875
112	0x3ed4f53b	0.41593346
113	0x3e596474	0.21229726
114	0xbfb1b2f0	-1.3882732
115	0x3ed8eeca	0.42369682
116	0xbe7abd3d	-0.24486251
117	0x3f22e893	0.6363613
118	0x3f0144bb	0.504955
119	0x3f44bb26	0.76848066
120	0xbf3597ae	-0.7093457
121	0xbc87dbb7	-0.01658426
122	0xbeb1f573	-0.34757575
123	0x3e87dcd4	0.26535666
124	0x3e2e95aa	0.1704928
125	0xbe19beff	-0.15014265
126	0xbc9d32b9	-0.019189226
127	0x3e88a647	0.2668936
128	0x3e9745d1	0.29545453
129	0x3f5757c7	0.8411831
130	0x3d081504	0.033223167
131	0xbf060087	-0.52344555
132	0xbe1d9dc6	-0.15392217
133	0xbe81f917	-0.25385353
134	0xbf0af59a	-0.5428101
135	0xbf232a26	-0.6373619
136	0x3de2e010	0.11077893
137	0x3ea468aa	0.32111102
138	0xbe0deaf6	-0.13859162
139	0xbf56e024	-0.8393576
140	0x3e61d0d5	0.2205232
141	0xbf58327d	-0.8445204
142	0xbf88a0ee	-1.0674112
143	0x3df00c2d	0.11721072
144	0xbf0196fc	-0.5062101
145	0xbf367d55	-0.7128499
146	0x3efb3dee	0.49070686
147	0xbe72e3f7	-0.23719774
148	0xbf85aa75	-1.0442644
149	0xbf260b40	-0.64860916
150	0xbf170577	-0.58992714
151	0xbe7182dd	-0.23585077
152	0xbf14aff3	-0.5808098
153	0x3f2f3167	0.68434757
154	0xbe6c12c8	-0.2305404
155	0x3f51a77b	0.8189618
156	0x3d2cb7fc	0.04216765
157	0xbece7b75	-0.40328565
158	0x3f7c39df	0.98525804
159	0x3eb950a4	0.36194336
160	0x3fa5ea39	1.2962104
161	0xbf4b6e91	-0.79465586
162	0x3f37aed6	0.71751153
163	0xbed2828d	-0.41115227
164	0x3edca542	0.43094832
165	0x3b84bb02	0.0040506134
166	0xbec8b433	-0.3919998
167	0xbec4da96	-0.38448018
168	0xbe85390a	-0.2602008
169	0xbf3ea5a7	-0.74471515
170	0xbf27474d	-0.6534317
171	0x3f083d01	0.53218085
172	0xbfabb542	-1.341469
173	0xbe84d425	-0.25943103
174	0xbec30733	-0.3809143
175	0x3f03d970	0.5150366
176	0xbf1153ac	-0.567683
177	0xbea5c77b	-0.32378754
178	0xbf07fed2	-0.531232
179	0x3f221774	0.63317037
180	0xbec2c5a3	-0.3804141
181	0xbf53578c	-0.8255546
182	0xbe7ed845	-0.24887188
183	0xbec7d72e	-0.39031357
184	0xbf1dcda7	-0.61641926
185	0x3e29cdac	0.16582364
186	0x3e0b8e02	0.1362839
187	0xbe446e20	-0.19182634
188	0x3f7ac700	0.979599
189	0xbed4ce27	-0.41563532
190	0xbf849490	-1.0357838
191	0xbe9fafb8	-0.3118875
192	0xbc1642d1	-0.009171204
193	0x3f481a2c	0.78164935
194	0xbf2b96b9	-0.6702686
195	0xbd0319a2	-0.032006867
196	0x3f80043d	1.0001293
197	0xbe2c90c0	-0.16852093
198	0xbe76b33c	-0.2409181
199	0xbf3417bc	-0.70348716
200	0xbe2351a7	-0.15949117
201	0xbf14fc20	-0.5819721
202	0x3f9a1acd	1.2039429
203	0xbf1bd9da	-0.6087929
204	0xbd9cf0d7	-0.07663124
205	0xbe449435	-0.19197161
206	0x3f0f6bca	0.5602385
207	0x3e07325d	0.13202806
208	0xbd95aba6	-0.0730813
209	0x3dbbe395	0.09174267
210	0x3e33ae56	0.17546973
211	0xbf029e5d	-0.51022893
212	0xbe82bcc0	-0.2553463
213	0x3e7d96eb	0.24764602
214	0x3f490ad6	0.7853216
215	0x3e9d5b0b	0.30733523
216	0xbf2513a6	-0.64483106
217	0x3ebd1f76	0.36938065
218	0x3e6a40ac	0.22876233
219	0x3ea2d297	0.31801292
220	0xbe30f58c	-0.17281169
221	0x3fa8c82a	1.3186085
222	0x3f3bca02	0.73355114
223	0x3d8ac1e5	0.06775264
224	0x3e735a8f	0.23765014
225	0x3e4937d8	0.19650209
226	0x3ef97347	0.48720762
227	0x3dbbfb15	0.091787495
228	0xbf074718	-0.52842855
229	0xbf6fe034	-0.9370148
230	0x3eb9526b	0.36195692
231	0x3e38bdcc	0.18041152
232	0xbe3e68de	-0.18594691
233	0x3c5e3620	0.013562709
234	0x3f35b66f	0.70981497
235	0x3e36fe6a	0.17870489
236	0x3f60700e	0.8767098
237	0xbdc31bf8	-0.09526819
238	0xbe1beca2	-0.15226987
239	0xbe1aa324	-0.15101296
240	0x3f71c974	0.9444802
241	0xbebc3ec4	-0.36766636
242	0x3cb415e9	0.021983104
243	0xbe9e2017	-0.30883858
244	0xbe151d0f	-0.14561866
245	0x3e0f7d2c	0.14012593
246	0xbd4e347e	-0.05034303
247	0xbe1f18fb	-0.15536873
248	0x3e89fbeb	0.2695001
249	0x3ead165e	0.33806127
250	0xbdd0685b	-0.10176154
251	0xbe9b6e26	-0.30357474
252	0x3ee6f507	0.45108816
253	0x3e3425db	0.17592566
254	0x3f9ced42	1.2259905
255	0xbf66e6b8	-0.901958

bias f4 [100]
0	0xbe94f716	-0.29094762
1	0x3dcff868	0.101548016
2	0xbdb39089	-0.08767802
3	0x3e9d42be	0.30714983
4	0x3f1fad4b	0.623738
5	0x3dada368	0.08478433
6	0xbfb6bf78	-1.4277182
7	0xbe795ff1	-0.24353005
8	0x3e262934	0.16226655
9	0xbd920108	-0.07129103
10	0xbf275d14	-0.653764
11	0xbf8e9e4d	-1.114206
12	0x3ebc97fe	0.3683471
13	0xbdc766da	-0.09736414
14	0x3ea16581	0.31522754
15	0xbefaa4d9	-0.48953894
16	0xbf8c806d	-1.0976692
17	0xbc8eee15	-0.01744751
18	0x3ca33b47	0.019925727
19	0x3e3953ba	0.18098345
20	0xbe838ed7	-0.25694916
21	0xbf4822f4	-0.78178334
22	0xbf45da1d	-0.7728594
23	0xbe671396	-0.22566065
24	0xbe5736ea	-0.21017042
25	0x3e8fe088	0.2810099
26	0xbe4b3fba	-0.19848529
27	0xbe8e9c6a	-0.2785371
28	0xbf04d809	-0.51892143
29	0xbd969707	-0.07353025
30	0xbf3b61d1	-0.7319613
31	0x3f12e609	0.57382256
32	0xbec082f3	-0.37599906
33	0x3eb3f0f0	0.35144758
34	0xbe881c4e	-0.26584095
35	0x3f1f7b75	0.62297755
36	0x3f068177	0.525413
37	0x3e20f980	0.15720177
38	0xbeee6249	-0.4655936
39	0xbf0f14e0	-0.5589123
40	0xbf4ddafb	-0.8041226
41	0xbe2b8bcb	-0.16752546
42	0xbf553788	-0.8328786
43	0xbcbe1b19	-0.02320628
44	0xbd3c6310	-0.04599291
45	0x3f15e404	0.5855105
46	0xbf939efd	-1.1532894
47	0x3bc5e1bb	0.006038872
48	0x3ef0e0d5	0.47046533
49	0x3f55b70b	0.83482426
50	0xbf520c89	-0.8205038
51	0xbe2d4d82	-0.16924098
52	0xbf2df4e3	-0.6795179
53	0x3f3ce7d5	0.7379125
54	0x3f06f2b6	0.527141
55	0x3db7c97b	0.08973976
56	0x3e0888e1	0.13333465
57	0xbf29b65a	-0.6629387
58	0xbd865f92	-0.06561197
59	0xbd13d4cb	-0.036091607
60	0xbeb30aaf	-0.34969088
61	0x3cc12e11	0.023581536
62	0x3fa66aca	1.300134
63	0xbd9eedac	-0.07760176
64	0x3e93c35c	0.28859985
65	0xbe1f7ce7	-0.1557499
66	0xbd226f06	-0.03965666
67	0x3e87b90b	0.26508364
68	0xbb30c0b6	-0.0026970333
69	0xbe819a2f	-0.25312945
70	0x3f1934e1	0.5984631
71	0x3e372647	0.17885695
72	0xbddc9ba5	-0.10771874
73	0xbf385e35	-0.7201875
74	0x3eed31f6	0.4632718
75	0xbea2e903	-0.318184
76	0x3d33feb7	0.043944087
77	0x3ecd5178	0.40101218
78	0x3c7ff4c3	0.015622321
79	0xbf190762	-0.5977689
80	0x3e826afb	0.25472245
81	0xbf1cf0a6	-0.613047
82	0xbf3806e6	-0.71885526
83	0x3f4e38a5	0.8055518
84	0xbebf4e9d	-0.37364665
85	0x3c62f36a	0.01385198
86	0xbe87264b	-0.26396403
87	0xbf995259	-1.1978256
88	0xbd887c71	-0.0666436
89	0xbe846598	-0.2585876
90	0xbc17126a	-0.009220699
91	0x3eff572e	0.498712
92	0xbd3fabc2	-0.04679466
93	0x3f4012ab	0.75028485
94	0x3defbb4f	0.11705648
95	0x3ef3cc4b	0.476168
96	0xbf0a1ab8	-0.5394702
97	0xbfacb42a	-1.3492482
98	0xbf7b917a	-0.98268855
99	0xbe2e0444	-0.16993815

weight f4 [100, 100]
0	0xbef66393	-0.48122844
1	0x3f31e1c1	0.694851
2	0x3da7f3c3	0.08200791
3	0xbe7c68f0	-0.24649405
4	0x3f254df5	0.6457208
5	0xbe9204da	-0.28519326
6	0xbf220fcd	-0.6330536
7	0x3e4da640	0.2008295
8	0x3e1faab3	0.1559246
9	0x3ebd3575	0.36954847
10	0xbe94a901	-0.2903519
11	0x3efab2c7	0.4896452
12	0x3b86f423	0.004118459
13	0x3dafc91a	0.08583279
14	0x3d7f3d25	0.06231417
15	0xbeff21d0	-0.49830484
16	0xbdd41c70	-0.103569865
17	0xbf1d3f6b	-0.61424893
18	0xbe1bf331	-0.15229489
19	0x3e9c0dff	0.30479428
20	0xbed216f5	-0.4103314
21	0xbf036282	-0.51322186
22	0xbeceec8f	-0.40414855
23	0xbe9c4d1a	-0.30527574
24	0x3ea9b48f	0.33145568
25	0x3babdcce	0.005244828
26	0xbf049f91	-0.5180598
27	0xbf4168dc	-0.7555063
28	0xbeb69915	-0.35663667
29	0xbf012385	-0.50444824
30	0xbe124d19	-0.14287223
31	0xbf025c0d	-0.5092171
32	0xbe69153b	-0.22762005
33	0xbe539c41	-0.20665075
34	0xbe4d3c83	-0.20042615
35	0xbe89cf5f	-0.26916024
36	0xbe83e524	-0.25760758
37	0x3e8957ec	0.26824892
38	0x3e79ec95	0.24406655
39	0xbd553892	-0.052055903
40	0xbef9b735	-0.48772588
41	0x3db7661c	0.08955023
42	0xbf0c75e9	-0.54867417
43	0x3df1b4b2	0.11802043
44	0x3f1653a2	0.58721364
45	0xbe38e077	-0.18054377
46	0xbf2c96b1	-0.67417437
47	0xbe8c3ce0	-0.27390194
48	0xbf6739d6	-0.90322626
49	0xbf40e962	-0.75356114
50	0xbcd6b7f5	-0.026210764
51	0xbe104c2a	-0.14091554
52	0x3f01f16b	0.50759
53	0xbd791e59	-0.060819957
54	0x3eb698fb	0.3566359
55	0xbf0a547e	-0.54035175
56	0x3ef1663c	0.4714831
57	0xbc907361	-0.017633142
58	0xbe4daae0	-0.20084715
59	0x3f133e8d	0.5751732
60	0xbe2ac528	-0.16676772
61	0xbd2c4388	-0.04205659
62	0x3f34dc5c	0.7064874
63	0x3de4bb76	0.11168568
64	0x3e0af495	0.13569863
65	0xbf24384b	-0.64148396
66	0x3ca54a46	0.020177018
67	0xbef7af72	-0.48376042
68	0xbf242f99	-0.6413513
69	0xbe8b24fa	-0.27176648
70	0xbf28f091	-0.65992075
71	0x3f6b0ee3	0.9181959
72	0xbf2faa56	-0.68619287
73	0xbf672cb4	-0.90302587
74	0x3ec9ecfa	0.3943861
75	0x3ea08ddd	0.31358233
76	0x3e8694fb	0.26285538
77	0x3e1074d4	0.14107066
78	0x3ee7081b	0.4512337
79	0x3f4a5237	0.790317
80	0xbf1c3195	-0.61013156
81	0x3ee21009	0.4415286
82	0x3e524834	0.20535356
83	0xbda6dd34	-0.0814766
84	0x3eeed6ab	0.46648154
85	0x3e8695bf	0.26286122
86	0x3d83f3fd	0.064430214
87	0x3e333571	0.17500855
88	0xbeb718b8	-0.35761046
89	0x3ebb596c	0.3659166
90	0x3dafe618	0.08588809
91	0xbe45fea2	-0.19335416
92	0xbee43f13	-0.44579372
93	0xbc5e42b9	-0.013565713
94	0x3e3ed2a2	0.18635038
95	0xbee62595	-0.44950548
96	0x3e8a46a0	0.27007008
97	0x3ed91c56	0.4240443
98	0x3eb637a6	0.3558933
99	0x3e7c2968	0.2462517
100	0x3e247eb0	0.16063952
101	0x3ed54bfa	0.41659528
102	0x3e0ec805	0.13943489
103	0xbd653542	-0.055958994
104	0x3e6d7f82	0.23193172
105	0xbf73dee2	-0.9526197
106	0xbe59526c	-0.21222848
107	0xbe7a9670	-0.2447145
108	0x3cf6bfc2	0.030120734
109	0x3e0b0060	0.13574362
110	0x3f276d34	0.65401006
111	0x3e2071ab	0.15668361
112	0x3cce5d38	0.025190935
113	0xbeee8e4f	-0.46592948
114	0xbe1c38b8	-0.15256011
115	0xbeaefcdb	-0.34177288
116	0x3e976b42	0.2957402
117	0xbebd8780	-0.3701744
118	0x3eeea4cc	0.46610105
119	0xbe8331b1	-0.2562385
120	0x3e18d8a3	0.1492639
121	0x3e83a8ae	0.2571463
122	0xbed2cb2d	-0.41170636
123	0xbe10644d	-0.14100762
124	0xbd782658	-0.060583442
125	0xbc47649e	-0.012169985
126	0xbe63e540	-0.2225542
127	0xbeba4c0b	-0.3638614
128	0xbdb87fab	-0.09008726
129	0xbe469955	-0.19394429
130	0x3ee0f445	0.43936363
131	0x3e0fbb20	0.14036226
132	0xbd3de37e	-0.04635953
133	0xbd5126bd	-0.051062334
134	0xbe0ae849	-0.13565172
135	0xbef5ce22	-0.4800883
136	0x3ec1865b	0.37797818
137	0x3e3521be	0.17688653
138	0xbed0f01c	-0.4080819
139	0x3e6f0b62	0.23344186
140	0x3e434a0b	0.19071214
141	0xbde08434	-0.10962716
142	0x3dd6318e	0.104586706
143	0x3e58fc63	0.21190028
144	0xbce1da6d	-0.027569974
145	0x3edc6fc1	0.4305401
146	0x3e85bdb6	0.261213
147	0xbf01bdcf	-0.5068025
148	0xbe769744	-0.24081141
149	0xbeb8f76a	-0.36126262
150	0x3f39dd55	0.7260335
151	0xbec7514a	-0.38929206
152	0x3e6ff3bf	0.23432826
153	0xbe3b7539	-0.18306436
154	0x3eb66c62	0.35629565
155	0xbea06e27	-0.3133404
156	0x3dfc8593	0.12330165
157	0xbe83b22c	-0.25721872
158	0xbd1e54a9	-0.038654957
159	0x3dd1f8f8	0.10252565
160	0xbe0e0ed9	-0.13872851
161	0xbdde1184	-0.108431846
162	0x3dd8ef47	0.105925135
163	0x3e2598ec	0.16171616
164	0xbdfb4aaf	-0.12270104
165	0x3ddc5caf	0.107598655
166	0xbeeb59b9	-0.4596689
167	0xbee7c621	-0.45268348
168	0x3db629bc	0.08894679
169	0x3d971b6e	0.07378279
170	0xbf8a742f	-1.0816706
171	0x3ed13a6e	0.4086489
172	0xbdf6ebfa	-0.12056728
173	0xbeb40362	-0.3515883
174	0xbedfbacb	-0.436972
175	0x3d2d6ea0	0.04234183
176	0xbe720ad7	-0.23636948
177	0x3d82bbd4	0.063834816
178	0xbe8fae2b	-0.28062567
179	0x3f5c375c	0.8602197
180	0x3da2593a	0.07927175
181	0xbd5003f1	-0.05078501
182	0x3cfed0ab	0.03110536
183	0xbea994b5	-0.33121267
184	0x3dacc92b	0.08436807
185	0xbde41e4e	-0.11138593
186	0xbe4fddc5	-0.20299442
187	0xbe2a1f0d	-0.16613407
188	0xbe9d9ce2	-0.30783755
189	0x3f380f3f	0.71898264
190	0x3db5acee	0.08870874
191	0x3e42d8c6	0.19028005
192	0xbe1b6c58	-0.15178049
193	0xbf67e038	-0.90576506
194	0xbef7ea1c	-0.484208
195	0xbe3c705a	-0.18402234
196	0x3f064267	0.5244507
197	0x3ef86348	0.48513246
198	0x3ef10dc5	0.47080818
199	0x3f24abbc	0.64324546
200	0x3ee12d80	0.43980026
201	0xbf1fdbac	-0.6244457
202	0x3ebc76a0	0.36809254
203	0x3dcc2002	0.099670425
204	0xbe87cd50	-0.26523829
205	0x3be157ec	0.006876936
206	0x3e0d09f2	0.13773325
207	0x3f080c3d	0.53143674
208	0xbc8fd179	-0.017555939
209	0xbfbed633	-1.4909118
210	0xbdd2a2f4	-0.10284987
211	0x3d2e7fee	0.042602472
212	0xbdb764ab	-0.08954748
213	0xbeaa0b92	-0.33211952
214	0x3e4ee3f6	0.20204148
215	0x3e501c73	0.20323353
216	0xbe5e297e	-0.21695516
217	0x3eec813b	0.46192345
218	0xbeceb5af	-0.4037299
219	0xbd2a48c8	-0.041573316
220	0x3f09b8f6	0.53797853
221	0xbe91b327	-0.28456995
222	0xbf1b79d0	-0.60732746
223	0x3ebcb9bf	0.36860463
224	0xbfc3d0a6	-1.529805
225	0x3ebffd98	0.37498164
226	0x3f63fc3a	0.8905674
227	0x3ed308d0	0.4121766
228	0x3eafae40	0.3431263
229	0x3c2f4b55	0.010699113
230	0x3edf078a	0.4356044
231	0x3e9badfa	0.3040617
232	0xbe7ec9e8	-0.24881709
233	0xbeb43efd	-0.35204306
234	0x3ec26606	0.37968463
235	0x3e1f6e8c	0.15569514
236	0x3eb6aab2	0.35677105
237	0xbf2f69a5	-0.68520576
238	0xbe3521f0	-0.17688727
239	0x3c03bc8b	0.008040558
240	0x3ea49d6f	0.32151362
241	0xbeac8f30	-0.33702993
242	0x3ea0e3f5	0.31423917
243	0xbd8b2365	-0.0679386
244	0xbda58733	-0.08082428
245	0x3ebd2714	0.36943877
246	0x3eeb36e5	0.4594032
247	0xbe319533	-0.17342071
248	0x3e4f526f	0.2024629
249	0xbec7b33f	-0.3900394
250	0x3ed277e5	0.41107097
251	0xbed47ac0	-0.414999
252	0xbe07fc77	-0.13279901
253	0x3e35c711	0.17751719
254	0xbf54512b	-0.8293635
255	0x3e77f544	0.24214655

bias f4 [100]
0	0xbebaf3c4	-0.36514103
1	0x3e407705	0.18795402
2	0x3d53f5ef	0.051748212
3	0x3e66df45	0.22546108
4	0x3f2ab4d7	0.6668219
5	0x3d3453c4	0.044025198
6	0xbfbc7e8c	-1.4726119
7	0xbe671268	-0.22565615
8	0x3eaec7f2	0.3413692
9	0x3d5ffaae	0.054682426
10	0xbf1d0622	-0.6133748
11	0xbf8db62d	-1.1071221
12	0x3eb4bc22	0.35299784
13	0xbe582b22	-0.21110204
14	0x3e1a1873	0.15048389
15	0xbee3b16c	-0.444713
16	0xbf7c1eec	-0.98484683
17	0xbdde2a74	-0.10847941
18	0x3c51b520	0.012799531
19	0x3e3b25e4	0.18276173
20	0xbeb48823	-0.35260114
21	0xbf517582	-0.8181993
22	0xbf35ed6b	-0.71065396
23	0xbe821f44	-0.2541448
24	0xbe2425f8	-0.16030109
25	0x3e909788	0.2824061
26	0xbda30a3b	-0.07960936
27	0xbedd990c	-0.43280828
28	0xbef994e5	-0.4874641
29	0x3cc12836	0.023578744
30	0xbf6430c3	-0.89136904
31	0x3f21ab13	0.63151664
32	0xbeb7f971	-0.35932496
33	0x3e94f6a6	0.29094428
34	0xbe71fa57	-0.23630653
35	0x3f2189dd	0.6310099
36	0x3ec53223	0.38514814
37	0x3e025d14	0.12730819
38	0xbf13105c	-0.5744684
39	0xbebe738d	-0.37197533
40	0xbf34bb33	-0.70598143
41	0xbca7a82c	-0.020465933
42	0xbf346100	-0.7046051
43	0xbe05d6ab	-0.1307017
44	0xbc87c720	-0.016574442
45	0x3f2bdf7e	0.67137897
46	0xbf8f8f3b	-1.1215585
47	0x389a7bc0	7.3663425e-05
48	0x3ee9f147	0.45691893
49	0x3f5938b5	0.84852153
50	0xbf33755f	-0.7010097
51	0xbe1bb1a6	-0.15204486
52	0xbf4048db	-0.7511117
53	0x3f31d147	0.69459957
54	0x3ef0ec43	0.47055253
55	0x3e1bfa04	0.15232092
56	0x3e9a76cd	0.30168763
57	0xbf19d890	-0.60096073
58	0xbe220dd6	-0.1582559
59	0x3df846f2	0.12122907
60	0xbebecae5	-0.3726417
61	0xbdbd5144	-0.09244016
62	0x3fb0f14a	1.3823636
63	0xbd819fd6	-0.063293144
64	0x3edda686	0.4329111
65	0xbe23daa3	-0.16001372
66	0x39d38a20	0.00040347967
67	0x3e399757	0.18124138
68	0x3c08de82	0.008353831
69	0xbe77a3a9	-0.24183525
70	0x3f36fbfb	0.7147824
71	0x3e6919d3	0.22763757
72	0x3c855ba0	0.016279042
73	0xbf29fdb1	-0.6640273
74	0x3f07369d	0.5281771
75	0xbe80c979	-0.2515371
76	0x3d62187d	0.055199135
77	0x3f009310	0.502244
78	0xbde710a3	-0.1128247
79	0xbf448e70	-0.7677984
80	0x3e18c0e4	0.14917332
81	0xbf078c86	-0.52948797
82	0xbf30316a	-0.688254
83	0x3f3712e5	0.71513206
84	0xbe810c4c	-0.25204694
85	0xbd8f1cd0	-0.069879174
86	0xbe49d3e5	-0.19709738
87	0xbfaa9f73	-1.332991
88	0xbd054525	-0.032536644
89	0xbe61a235	-0.22034533
90	0xbc56f0da	-0.013118947
91	0x3f065921	0.5247975
92	0xbdf44fcf	-0.11929285
93	0x3f25a141	0.6469918
94	0x3e43efad	0.19134398
95	0x3ee82a4b	0.45344767
96	0xbf11b272	-0.5691291
97	0xbfaf7f38	-1.3710699
98	0xbf7f8ddf	-0.99825853
99	0xbe4d5ebc	-0.2005567

weight f4 [1, 100]
0	0xbd19afe7	-0.03752127
1	0xbc6ba910	-0.014383569
2	0xbdb56603	-0.08857348
3	0xbc4f2e18	-0.012645267
4	0xbd4b3ab7	-0.04961654
5	0x3c5579d0	0.013029531
6	0xbd24cc10	-0.04023367
7	0xbb2bb7c0	-0.0026202053
8	0x3c3550d0	0.0110666305
9	0x3c3a3730	0.011365697
10	0x3da29b69	0.079397984
11	0x3d4b1efa	0.04959009
12	0xbd63fc0d	-0.055660296
13	0x3c83b628	0.01607807
14	0xbce35bc0	-0.02775371
15	0xbcc7aa68	-0.024373248
16	0x3d6149ae	0.055001907
17	0xbc39d4f0	-0.011342272
18	0xbd52f787	-0.05150559
19	0xbcf84748	-0.030307427
20	0xbbb68b30	-0.0055707917
21	0xbce23578	-0.027613387
22	0x3d11408a	0.03546194
23	0x3aac1600	0.0013129115
24	0x3c5b3410	0.013379112
25	0xbdca9998	-0.09892577
26	0x3cb2028c	0.02172973
27	0xbda80e3b	-0.08205839
28	0x3d34009e	0.0439459
29	0x3ca20f20	0.019782603
30	0xbc4e6d00	-0.01259923
31	0xbd956bae	-0.07295929
32	0x3dbf8491	0.09351457
33	0xbdc15e0a	-0.09441765
34	0xbcc8ba28	-0.024502829
35	0xb9300c00	-0.00016789138
36	0xbdb8c37f	-0.09021663
37	0x3d3b11d2	0.04567129
38	0xbd0c40b0	-0.03424138
39	0x3cb86d58	0.022513077
40	0xbda807a0	-0.08204579
41	0xbd908705	-0.07057003
42	0xbdc50ac8	-0.09621197
43	0xbdae6d9b	-0.08516999
44	0x3bc1b4a0	0.0059114248
45	0xbcbfecf8	-0.023428425
46	0xbda5d080	-0.08096409
47	0xbdbe157f	-0.09281444
48	0xbd9aec85	-0.07564644
49	0x3d8fd459	0.07022924
50	0x3dcbcac3	0.09950783
51	0x3d470e5e	0.048597686
52	0x3c1b4ae8	0.009478308
53	0xbd53c6e0	-0.051703334
54	0x3d8959ff	0.067066185
55	0x3d5dc566	0.054143332
56	0xbcf612b8	-0.030038223
57	0xbd899c7d	-0.06719301
58	0x3db6455b	0.08899947
59	0x3d19fdc6	0.037595533
60	0x3dc09411	0.094032414
61	0x3d4fcee6	0.050734423
62	0xbd30febd	-0.043211687
63	0x3d8a654f	0.06757604
64	0xbd1069da	-0.035257198
65	0x3cd88f84	0.026435621
66	0xbd6e82ad	-0.05823009
67	0x3cc7e078	0.024399027
68	0x3d7dac62	0.061931975
69	0x3cc2ff08	0.023803249
70	0x3cf52af4	0.029927708
71	0x3d3ccc36	0.04609319
72	0xbd5b132a	-0.053485073
73	0x3cddceb4	0.027076103
74	0x3c96ebf8	0.018423066
75	0x3db07aa7	0.08617144
76	0xbd0d9d80	-0.03457403
77	0x3c32fd58	0.01092466
78	0x3d3f576a	0.046714224
79	0x3c83af94	0.016074933
80	0xbc0c4d18	-0.008563302
81	0xbd0547c6	-0.03253915
82	0xbcfbe018	-0.030746505
83	0xbdcb7dfb	-0.09936138
84	0xbd427f63	-0.047484767
85	0xbc9e6600	-0.019335747
86	0xbdc9c885	-0.09852699
87	0x3d970e51	0.073757775
88	0x3d4384fa	0.04773424
89	0xbca45528	-0.020060137
90	0x3dacc3a1	0.08435751
91	0x3daff4e9	0.08591635
92	0xbd5d20e0	-0.05398643
93	0xbd9be3a8	-0.07611781
94	0xbcb08c38	-0.021551237
95	0x3db36a3f	0.08760499
96	0x3c35d518	0.011098169
97	0xbd7f7543	-0.06236769
98	0xbd26d7d7	-0.040733185
99	0xbcdb53f4	-0.02677343

comm_mask f4 [3, 3]
0	0x00000000	0.0
1	0x3f800000	1.0
2	0x3f800000	1.0
3	0x3f800000	1.0
4	0x00000000	0.0
5	0x3f800000	1.0
6	0x3f800000	1.0
7	0x3f800000	1.0
8	0x00000000	0.0
