exp1/coop.pt (torch_old, 28208 bytes, 10 tensors)

weight f4 [32, 18]
000000 7f 71 4c 3e 06 0b c2 3d 59 61 e2 3d b1 ab a2 bc
       0.1996517 0.09474759 0.11053724 -0.01985726
000010 bc bf 31 be 5a 1f 86 be 12 01 71 bd 17 7b 15 be
       -0.17358297 -0.26195794 -0.05883891 -0.14597736
000020 0d 7c 62 3e 92 8c 2d be 56 44 5b 3d 57 c0 c6 bc
       0.22117634 -0.16948155 0.053531967 -0.024261637
000030 7a c6 67 be f7 13 02 3e 40 4c 31 be f4 ee d5 bd
       -0.22634307 0.12702928 -0.17314243 -0.10445967
000040 ca 4b c0 bd 98 d1 e2 3c f3 d0 42 3e c1 57 55 3e
       -0.093894556 0.027687833 0.1902502 0.20834257
000050 fc 75 d2 bd 0e f6 36 3e a5 50 70 be 83 f9 1f 3e
       -0.1027641 0.178673 -0.23468263 0.15622525
000060 3a 20 37 bc 5c 88 22 3e 7e 1b 33 3d 00 03 cd bd
       -0.011177117 0.1587233 0.04372739 -0.10010338
000070 f9 0c 0d be af a7 b7 bb 7d fb e0 bd ba f9 22 be
       -0.1377448 -0.0056047062 -0.109854676 -0.15915576
000080 2e 80 59 be 72 6f 91 3d ad 1e 50 be 03 3e 6d be
       -0.21240303 0.07101335 -0.20324202 -0.23168187
000090 54 97 e9 bd 5f 66 62 bd df 3c e1 bc dc 6b a7 bd
       -0.11405817 -0.05527341 -0.027494846 -0.081748694
0000a0 8e 16 3e be 9b d9 0d bd 2c 97 2a 3d 3e a5 19 3b
       -0.18563291 -0.034631353 0.041648075 0.002344444
0000b0 52 85 c7 bd 0f 09 57 be 45 85 58 be 9f 68 5e bd
       -0.09742226 -0.2099955 -0.21144588 -0.054298993
0000c0 74 0b b1 bd 19 21 2a be d4 5c 04 bd cc b3 45 3d
       -0.08644763 -0.16614188 -0.03231509 0.04826717
0000d0 1c aa 00 3d ce b7 bb 3d 4d 6f 57 3e aa 56 91 bd
       0.03141223 0.09165917 0.21038552 -0.07096608
0000e0 b2 a4 20 3e 97 c3 4d be 20 a2 1c bd fc 84 5c 3e
       0.15687826 -0.20094143 -0.038240552 0.21535105
0000f0 a0 16 84 3d 06 fc e1 bd 30 e2 e7 bd 29 6a 82 3e
       0.06449628 -0.11034398 -0.11322439 0.2547162
000100 50 de 73 3e 9b 33 41 3e f3 9e fd bd f1 65 a7 3d
       0.23815274 0.18867342 -0.12383833 0.08173741
000110 5b 3f 62 3e 0b 05 1f 3e 12 6b 92 bd 00 7e 52 3c
       0.2209448 0.15529267 -0.07149328 0.012847424
000120 c8 19 1b be 46 1d ca 3d 6c d0 4e bd da 2f 01 bc
       -0.15146554 0.09868865 -0.050491735 -0.007884944
000130 d4 2b 07 3e 78 44 9b 3d e0 7d 5f 3e 3e 12 56 be
       0.13200313 0.07581419 0.21825361 -0.20905396
000140 43 fa 4e be 59 e9 45 3e 4f 62 23 3e 7e 70 f0 bd
       -0.20212655 0.19327296 0.1595547 -0.11740206
000150 af 48 44 3e c8 58 6b 3e 00 75 1a bb e2 cb ef 3d
       0.19168352 0.22983086 -0.0023568273 0.117088094
000160 78 b0 3d bd 53 d8 1b 3e e4 22 ea 3d 35 b5 d1 3d
       -0.04631087 0.1521924 0.11432436 0.102396406
000170 47 43 2f 3e ac 34 b9 3d fb aa 2f 3e 57 39 5f 3e
       0.17115508 0.090432495 0.17155068 0.21799217
000180 a8 77 4d 3e 6e 92 45 3e 5f 44 a0 3d 55 d3 e9 3d
       0.20065176 0.1929414 0.07825541 0.114172615
000190 50 ba c0 3d bf 34 61 be bc 21 dd 3d 91 19 98 3a
       0.09410536 -0.21992777 0.1079745 0.0011604299
0001a0 9c d4 12 3d 4a d3 b2 3d a0 3f 5c bc c3 30 51 3e
       0.03584729 0.087317064 -0.013442904 0.20428757
0001b0 7f 5f 5c be fb c2 1e bd 7c be b9 bd 0a 30 8e 3d
       -0.21520804 -0.038760167 -0.09069535 0.069427565
0001c0 b0 2b 55 3d dd 5e 5a 3e ac 51 52 be e1 7f 73 3c
       0.052043617 0.2132525 -0.20538968 0.014862032
0001d0 a6 68 85 bd 5d 3a d9 bd 6c 40 5c 3e be 33 84 bd
       -0.06514101 -0.10606835 0.2150895 -0.064551815
0001e0 e3 59 2c 3c 7b 34 1b 3e bc e8 49 3d 11 59 2c 3e
       0.010519478 0.15156738 0.04929422 0.16830851
0001f0 30 c8 07 3c 60 f4 44 3c bd 32 28 3e 65 fe 9f 3c
       0.0082874745 0.012021154 0.16425605 0.019530484
000200 d4 bc ad 3b 4d 30 52 bd 8c a3 cf bd e4 50 30 3e
       0.005302051 -0.051315594 -0.10138616 0.17218357
000210 33 76 2d be a5 92 33 3e 9c 81 2c 3d 83 10 3f be
       -0.1693962 0.17536409 0.042115793 -0.18658642
000220 4c 9e 6d be 30 86 49 3e 82 da fc bd b2 34 60 3c
       -0.23204917 0.19680095 -0.123463646 0.013684439
000230 ab fe 20 3e fe 70 a3 3d 55 ee 2b 3e 40 93 5a bc
       0.15722148 0.07980536 0.16790135 -0.013340771
000240 14 5e 92 3d 34 89 73 bd a9 8e 46 3c 20 a2 e6 bb
       0.0714685 -0.05945702 0.012118974 -0.00703837
000250 c3 b3 0a 3e cd 38 5c 3e d4 47 53 3d 7c 08 6f bd
       0.13545136 0.21506043 0.051582173 -0.0583577
000260 c1 41 78 be 47 64 12 be ec 7c 40 3e f1 b8 f5 bd
       -0.24243833 -0.14296065 0.18797654 -0.119981654
000270 b8 36 66 bd 40 e1 f9 bd 4c 4d 58 3d 78 40 39 bd
       -0.056204528 -0.12201166 0.05280809 -0.045227498
000280 0b 17 4b be f0 a3 12 bc 86 2a db bd c0 b1 64 3e
       -0.19833009 -0.008950219 -0.1070147 0.22333431
000290 97 18 7c bc 5f 47 46 3e c4 29 85 be 18 a0 dc bd
       -0.015386722 0.19363163 -0.26008427 -0.10772723
0002a0 2e 0c 88 3b c4 15 53 3e ab b9 05 3c f3 4c 6f 3c
       0.0041518426 0.20613772 0.0081619425 0.0146057485
0002b0 ea a3 61 be 39 51 57 be 3c 5b 4e be be c0 64 be
       -0.22035185 -0.21027078 -0.2015199 -0.2233915
0002c0 bb a8 6c 3e 00 af 8f bb 54 f3 09 3d e7 ad 6a 3e
       0.2311124 -0.0043848753 0.03367932 0.22917901
0002d0 c8 9d 61 be 4b 17 3d be 03 ab 12 bb 5a 27 6a 3e
       -0.22032845 -0.18465917 -0.0022379763 0.22866574
0002e0 90 d8 4d 3d 9e 25 27 3e b2 fd df bd 88 dd b1 bd
       0.05025536 0.16322944 -0.109370604 -0.08684832
0002f0 94 cf 1b bd 1e 2b 8d 3d ae 62 52 be 51 62 f4 bd
       -0.03803976 0.068929896 -0.20545456 -0.11932815
000300 02 17 f7 bd db db cd bd 18 e2 22 be be 4a 0f be
       -0.12064935 -0.100517 -0.1590656 -0.13993356
000310 e0 d9 52 bd 85 1d 61 3e 86 d7 0c be 62 ea e6 bd
       -0.051477313 0.21983917 -0.1375409 -0.11275174
000320 34 56 ab 3c a0 84 48 3e dd 4b 2d be 20 c3 b5 bd
       0.020915128 0.19581842 -0.16923471 -0.08875108
000330 da b7 e7 bd 76 8f 8b 3d 47 4b 5d 3e 89 97 33 3e
       -0.11314364 0.068144724 0.21610747 0.17538275
000340 97 d4 37 3d 05 3d 03 be 26 68 d0 bc a9 22 0e 3e
       0.044880476 -0.12816246 -0.025440287 0.1388041
000350 b4 d8 26 bd a5 22 25 be 5f 2d 69 be ed b8 31 3e
       -0.040734008 -0.16126497 -0.22771214 0.173557
000360 61 ee 10 be d0 0f 1a 3e 3a c8 17 3d a5 f9 34 bd
       -0.14153434 0.15045094 0.037056185 -0.044183392
000370 ea 10 e0 bd d4 f9 cc 3d 64 d8 68 3d 65 81 39 3e
       -0.10940726 0.100085884 0.05684699 0.18115766
000380 f4 8d 42 3d d7 44 5d 3d fa 32 24 be aa 32 6d be
       0.04749866 0.05402073 -0.16035071 -0.23163858
000390 0d f5 24 3e 2f 41 1c 3e 8d b5 66 3e 86 c5 4c be
       0.16109104 0.1525924 0.22530194 -0.19997224
0003a0 1c ae 0b 3d f5 77 19 3e 14 eb 37 3e d3 85 19 be
       0.03410159 0.14987166 0.17960769 -0.14992456
0003b0 d4 46 40 3e 90 41 a9 3d 7b 8a 25 3d 08 4d 71 3d
       0.18777019 0.08264458 0.04041527 0.058911353
0003c0 de 3e ab 3b 2c 71 47 3d 8e 17 1f bd 7e c2 67 be
       0.005226 0.048691913 -0.038840823 -0.22632787
0003d0 f2 54 5a be 46 cc bb bd 58 ee 1e bc 7c 0f 98 3c
       -0.21321467 -0.091698214 -0.00970038 0.018562071
0003e0 21 26 16 3e 50 7f c7 bc 12 67 2c be d4 72 4f 3d
       0.14662983 -0.0243527 -0.16836193 0.050646618
0003f0 f5 27 a0 bd 50 06 89 3c 86 fc b8 bc 63 40 43 3c
       -0.07820121 0.016726643 -0.02258135 0.011917206

bias f4 [32]
000000 8b 05 02 be f3 04 70 bc cb 43 38 3e 1b 87 15 3e
       -0.12697427 -0.0146496175 0.17994611 0.1460232
000010 fd 04 2d bd 31 b5 02 be 3f 8a b2 bd ac 5d 68 bd
       -0.042241085 -0.12764432 -0.087177746 -0.056729957
000020 c0 41 86 bd da d9 01 3e 47 2e 5c be bb 6b 47 3e
       -0.065555096 0.1268076 -0.21502028 0.1947469
000030 b9 b9 60 3e e3 c5 30 be 60 34 9e ba 82 92 25 3e
       0.21945848 -0.17262988 -0.0012070052 0.1616917
000040 49 74 e9 bd 00 0a 58 3e a8 24 49 3e d2 49 86 3d
       -0.11399133 0.21097565 0.1964289 0.06557049
000050 4a 76 48 3c f8 c2 54 be ef c8 df 3d 5a f1 30 3e
       0.012235234 -0.207775 0.10926997 0.17279568
000060 eb 7a cf bd 3e 76 4b 3e e6 8b 13 be 71 1f 31 3d
       -0.101308666 0.19869325 -0.14408836 0.043242875
000070 fe 10 97 3c 7d a0 3a be d5 e8 51 3d 9e 50 cc bd
       0.01844072 -0.18225284 0.051247437 -0.09976314

weight f4 [5, 32]
000000 66 80 d8 bd c0 c7 03 3e 94 e5 1a 3d 70 ab e9 bc
       -0.10571365 0.12869167 0.0378166 -0.02852413
000010 2f 0a 29 be 48 c9 b0 bc 87 93 a7 bc 6c 2e 09 3e
       -0.16507791 -0.021580353 -0.020456089 0.13396615
000020 13 d0 2e 3e 20 c5 2c 3e 8c 51 12 3e 3e 3f df 3c
       0.17071562 0.16872072 0.1428892 0.027251836
000030 c0 9c 97 3d 48 07 20 bd 50 d8 21 3c 60 6a 1a 3e
       0.074029446 -0.039069444 0.009878233 0.15079641
000040 3a 2e 38 be d3 74 dd bd 58 e9 ad 3d b6 e9 03 be
       -0.17986384 -0.10813298 0.084917724 -0.12882122
000050 28 79 f2 3d 1a d7 de bd ac 8e a5 bd 32 6d f5 bd
       0.11839515 -0.10880871 -0.08083853 -0.11983718
000060 32 8a 2b be 69 8f 2f 3e 00 c3 bc bc 48 3c ae 3c
       -0.16751936 0.1714455 -0.023042202 0.021268979
000070 56 55 04 be c8 75 92 3d 01 c9 03 3e 78 d6 c4 3c
       -0.12923178 0.07151371 0.12869646 0.024028048
000080 76 09 62 bc 8c 47 1a be 13 16 5e 3e 64 df 88 3d
       -0.013796201 -0.15066355 0.21688108 0.066832334
000090 65 06 81 bd be ea 0a bd 86 5c ab bd 99 87 14 3e
       -0.06300048 -0.033915274 -0.08367257 0.14504851
0000a0 fd 46 40 3d ca 64 f0 3d ec 36 91 3d 0f 42 45 be
       0.0469427 0.11737974 0.07090554 -0.1926348
0000b0 3f 46 16 3e 49 9b 21 3e 14 a9 01 bd 02 17 6c 3c
       0.14675234 0.15781893 -0.031655386 0.014409782
0000c0 0a 16 fb bd 99 9b 40 be 41 53 15 3e 67 9a 85 bc
       -0.12260063 -0.18809356 0.1458254 -0.016308976
0000d0 a8 fe 18 3e 14 6b ef 3d 8b 52 da bd 9c f7 ea 3d
       0.14940894 0.116903454 -0.10660275 0.11473009
0000e0 19 79 1c be fb 5b c8 bd ef 07 d2 bd da 4b fe 3d
       -0.1528057 -0.09783169 -0.102554195 0.12416811
0000f0 b8 9f 2b be 1e 6f 00 3e 20 bc af bd 5e e7 c3 3c
       -0.16760147 0.12542388 -0.08580804 0.023914035
000100 98 58 ee 3d ad 3c 03 3e 20 c3 52 3d 3f 69 3a bd
       0.11637992 0.12816115 0.051455617 -0.045510527
000110 1a 7f a1 3d 36 64 da 3d 06 a9 a5 bd 26 f4 aa 3d
       0.07885571 0.10663645 -0.08088879 0.08347349
000120 f8 e9 f1 bd 2c 42 02 be 97 9e 02 bd 5b 71 92 bd
       -0.11812204 -0.12720555 -0.031889524 -0.07150527
000130 7e ad dd bd 65 de 3e be e0 a9 ad bc 0e e0 36 bc
       -0.10824107 -0.18639524 -0.021199167 -0.011161817
000140 d5 65 c0 bd d9 f0 79 bc 40 27 e8 3d ef 71 4e 3d
       -0.09394423 -0.015255176 0.11335611 0.050401624
000150 6a 6f f9 bd 56 b7 2a be 19 b0 69 bc ff 6a 4c 3e
       -0.12179454 -0.166715 -0.014263176 0.19962691
000160 3d 16 37 3e 63 77 dc 3c 49 06 25 be 98 d5 ba 3c
       0.17879577 0.026912397 -0.16115679 0.022806928
000170 64 db 4d be 9f 2a 26 3e c4 f6 c1 3d 88 9c 3f 3d
       -0.20103222 0.16227196 0.09470895 0.04678014
000180 87 99 91 bd 29 bd 3a bd 5a 9a 77 bd 8d 32 37 be
       -0.07109361 -0.045590553 -0.060449935 -0.17890377
000190 39 69 8d bc 5c 41 5d 3d 06 5a d1 3d f6 c9 f7 3c
       -0.017262088 0.05401741 0.10222249 0.03024767
0001a0 c2 02 e0 bd 08 e9 ad bc 9b d4 94 bd 4c 87 8d 3d
       -0.10938026 -0.021229282 -0.07267114 0.069105715
0001b0 26 75 9e bd a8 e9 76 3c 28 19 4d 3d 88 b1 02 3d
       -0.07737188 0.015070356 0.05007282 0.03190759
0001c0 32 c3 8c bd f2 41 d0 3b 81 9a 14 3e 5c d3 a1 bd
       -0.06873168 0.0063555175 0.14512064 -0.07901642
0001d0 52 b8 b0 3d 3d d4 17 be 66 6b b4 3d d6 3c e4 bd
       0.08628906 -0.14827056 0.08809547 -0.11144416
0001e0 1f c5 c1 3c d7 de e5 3d 64 2e ac 3d d8 52 5e 3d
       0.023653565 0.11224144 0.08407286 0.054278225
0001f0 ae f9 fd 3d f4 c7 2f 3e 52 6c ec bd 92 23 fa bd
       0.12401138 0.1716612 -0.11544098 -0.12213816
000200 e5 7f f1 bd d8 48 f7 3d 66 b4 f7 3d ec 49 45 3d
       -0.11791972 0.12074441 0.12094955 0.0481662
000210 a6 21 2e be 7a 85 44 bc c8 e0 8a 3d a4 81 74 3d
       -0.17005023 -0.011994714 0.06781155 0.059693947
000220 e3 cb 28 be 02 df ab 3d 75 9d eb 3b e5 c1 38 be
       -0.16484027 0.08392145 0.007190401 -0.18042715
000230 8b 58 97 3b ba 54 6a 3c ef f2 9c bd 59 de 05 be
       0.0046187094 0.014302427 -0.076635234 -0.130731
000240 34 0f 06 39 a8 95 10 bc 1b 0b 00 3e 2a 0b 19 bd
       0.000127849 -0.008824743 0.12504236 -0.037364163
000250 40 54 f3 bc d7 9f 0b 3e 0f fd 36 3e 90 e1 a9 bd
       -0.02970326 0.13635193 0.17869972 -0.08294976
000260 76 ee 31 be 02 75 53 bd 43 6d a6 bd f8 da 7c bd
       -0.17376122 -0.05162526 -0.08126309 -0.061732262
000270 3c ec c0 3d 00 32 0a 3d d0 d9 79 3d 44 5e 0b be
       0.09420058 0.03373909 0.060998738 -0.13610178

bias f4 [5]
000000 01 c0 62 3c da 56 8d bd 48 3a 43 3d 18 e1 02 3d
       0.013839723 -0.06901331 0.047663003 0.031952947
000010 16 19 e8 bd
       -0.1133291

weight f4 [32, 32]
000000 ae 27 1b 3d ac 03 e9 3d 93 79 0c 3e 48 22 b4 bc
       0.03787964 0.113776535 0.13718252 -0.021989003
000010 3d f9 e4 bd 1f 36 29 be 85 cc a2 3d 9c 4b 7e bd
       -0.11180351 -0.16524552 0.07949165 -0.062083825
000020 03 5c 31 be 3d f0 3e bc 6a d0 29 be 27 b7 28 3e
       -0.17320256 -0.011653957 -0.1658341 0.16476117
000030 08 6c 2e be 10 8c 2a b9 20 5e 48 3d 30 e1 29 bd
       -0.17033398 -0.0001626464 0.04891789 -0.04147452
000040 d7 49 f7 3d 54 cc 19 bd d4 26 c8 3d ed 3d 9a bd
       0.12074631 -0.037548378 0.09773031 -0.07531343
000050 78 ba 34 be 20 dc b5 3c 9e 2f b9 3d ea 01 bf bc
       -0.17649257 0.02219969 0.090422854 -0.023316342
000060 52 56 1e 3e 1e a7 3b bd 10 1f 39 bc 56 88 e6 3d
       0.15462616 -0.045813672 -0.01129891 0.11256473
000070 52 59 b6 bd 56 17 db bd 7e 6f b3 bd 8b c5 3a be
       -0.08903755 -0.1069781 -0.087615 -0.18239419
000080 78 7d 53 bd 63 b5 f6 bd 63 d0 2a 3e 8f a8 84 3b
       -0.05163333 -0.120463155 0.16681056 0.004048414
000090 e2 2d 0a 3e 2c 31 16 bd 5e 53 b2 3d d9 50 f2 bd
       0.13494065 -0.036667988 0.08707307 -0.11831827
0000a0 4e 76 7d bd b0 d7 2b 3d 60 f0 0b be 80 95 cb bc
       -0.061880402 0.041953743 -0.13665915 -0.02485156
0000b0 5b 79 21 3e 0b 09 12 3e 96 39 05 3c 6e ed ac bd
       0.1576895 0.14261262 0.008131405 -0.084437236
0000c0 7e 16 02 3e 81 5e 17 bc d7 da 92 bd 88 19 a6 3d
       0.12703893 -0.00923884 -0.07170647 0.081103384
0000d0 70 30 11 bd 88 99 26 be d3 f6 14 3e 20 4c c4 bd
       -0.035446584 -0.16269505 0.14547281 -0.09584832
0000e0 2b 12 b8 bb f6 6d fd bd 65 11 fa bd 0f f8 96 bd
       -0.0056174 -0.12374489 -0.12210349 -0.07371532
0000f0 5a db 83 3d ee 2d 18 be 0d 22 bd 3d 23 73 67 3d
       0.06438322 -0.14861271 0.0923501 0.056506287
000100 91 de 18 3e 06 6d 4b 3c e2 4f bc bb 5d c6 25 3e
       0.14928652 0.01241613 -0.0057468275 0.16188951
000110 3e 05 ee 3d fa 2b a8 bd 7f 86 14 be b8 b2 d4 3d
       0.116220936 -0.08211513 -0.14504431 0.103856504
000120 60 0a 2e bc b2 81 79 3d 2c 4f dc bd b3 72 a2 bd
       -0.010622591 0.060914703 -0.10757288 -0.079320334
000130 23 a9 01 be 40 2c 02 3d 7a 8a 96 3d 24 c9 4a bd
       -0.12662177 0.03178048 0.07350631 -0.04950823
000140 b4 04 90 bd 9b c5 0c 3e 2f 1a 01 3e 75 6f 3a be
       -0.07032147 0.13747256 0.12607644 -0.1820658
000150 48 c4 d4 3d fb e3 2a be 60 ca 95 bc b2 8f fc bd
       0.10389 -0.1668853 -0.018284976 -0.12332095
000160 f4 a1 31 bc a3 ae 1e 3e e5 58 02 3e 2f 63 94 bc
       -0.010841835 0.15496306 0.12729223 -0.0181137
000170 47 53 9b bd a9 d8 df bd 75 bc 30 be 25 36 81 bd
       -0.07584243 -0.109299965 -0.1725939 -0.063091554
000180 c2 24 1c be 11 a0 00 be b4 54 e2 bb aa 4b af 3d
       -0.15248397 -0.1256106 -0.00690707 0.08559354
000190 90 6c f0 3d ca e1 7b bd 6a 11 d7 3d 2f 65 e0 3d
       0.11739457 -0.061494626 0.10501368 0.10956799
0001a0 4c ec 7a 3d 3e 6f 15 be fa 4d 81 3d 32 0e c9 bc
       0.061260507 -0.14593217 0.06313701 -0.024542902
0001b0 3b a7 81 3c 58 0d ce 3d fd 15 eb bd 37 91 cd bd
       0.015826812 0.10061139 -0.11478803 -0.10037463
0001c0 27 28 13 3e 54 85 08 be 90 36 cf 3d 98 68 39 3e
       0.14370786 -0.1333211 0.10117829 0.18106306
0001d0 96 1f b1 bd c8 74 04 3d 4b 87 07 3e a1 ac c1 3d
       -0.08648603 0.032337934 0.13235204 0.094567545
0001e0 cb f9 f4 bc 48 b6 30 bd 17 e4 0c 3e 14 e4 9f bd
       -0.029904267 -0.043142587 0.13758884 -0.07807174
0001f0 ee 8b de bd 08 77 94 3d 8a ff b3 bd e9 92 2c bc
       -0.10866533 0.07249266 -0.087889746 -0.010533073
000200 65 f5 11 3e ca 77 d9 bd 60 a9 5a 3b 75 86 d9 bd
       0.14253767 -0.10618551 0.0033365116 -0.10621349
000210 4c b9 da 3d ec 71 38 bd 82 69 34 3e 4b 60 22 be
       0.10679874 -0.04503052 0.17618373 -0.15857045
000220 ea b1 1b 3e d0 a8 32 be a5 3d 2b 3e d6 0b 08 3e
       0.15204588 -0.1744721 0.16722734 0.13285765
000230 68 5d 27 bd 04 6e 16 be 0b 99 ec bd 44 25 10 3d
       -0.040860564 -0.14690405 -0.11552628 0.03519179
000240 79 20 96 3c e9 59 12 be d2 51 9a 3d cf 4b 33 3e
       0.018326031 -0.1429211 0.07535137 0.17509387
000250 78 1f f6 3c 1e 47 3f be 45 e3 26 be 8c 06 85 bd
       0.030044302 -0.18679473 -0.16297634 -0.06495389
000260 a8 52 7d bd 68 64 d2 3c d0 41 26 3e f8 34 00 be
       -0.061846405 0.025682643 0.16236043 -0.12520206
000270 f8 90 c1 bc 4d 5f 06 be b7 c4 f6 bd 55 7f 3f be
       -0.023628697 -0.13122292 -0.12049239 -0.18700917
000280 08 7d 0a 3d 01 f3 16 3e 14 5b 6f 3a 3e de 30 3e
       0.033810645 0.14741136 0.0009130698 0.17272279
000290 c1 db 08 3e dd d7 a3 3d 32 62 a9 3d a2 a0 22 3e
       0.1336508 0.08000157 0.082706824 0.15881589
0002a0 3c 02 ab 3d 3c b1 34 3d 11 f7 04 3e f6 df d6 3d
       0.083500355 0.044114336 0.12984873 0.10491936
0002b0 98 10 1b bd 22 fe f7 3d e4 cf 19 be c0 20 72 3d
       -0.037857622 0.12109019 -0.1502071 0.059113264
0002c0 98 fe 72 3d 7f ca e1 3d d1 2d 3e be 20 25 b7 bc
       0.05932483 0.11024951 -0.18572165 -0.02235657
0002d0 06 7b c6 3d 0f e0 2d be 6a d8 17 be e8 4f 20 3d
       0.096914336 -0.16980003 -0.14828649 0.039138705
0002e0 8c fa 0f 3e 8a 61 03 3e f6 44 8e 3c c5 03 cd bd
       0.1406042 0.12830177 0.017366868 -0.100104846
0002f0 31 b0 8c 3c 08 2d 5a bd a5 a8 40 bd a1 5e 04 3d
       0.017173858 -0.0532656 -0.047035832 0.032316808
000300 b0 7d 0e be 2e 7e 36 3e 58 13 22 3d 77 01 53 bd
       -0.13915133 0.17821571 0.03956923 -0.05151507
000310 0a a5 87 3d 00 9c d3 3d 35 42 70 3c 31 15 00 be
       0.066232756 0.10332489 0.0146642225 -0.12508084
000320 f9 41 fa 3d 9a 61 c8 3d b0 b0 00 3d 0b cd e2 bd
       0.122196145 0.09784241 0.031418502 -0.11074265
000330 34 35 09 3e 57 26 df bc c7 29 ff bb f1 4d b0 bc
       0.13399202 -0.027239962 -0.0077869627 -0.02152154
000340 8d 38 23 be 05 18 95 bd 78 12 c3 3c 18 86 1d bd
       -0.15939541 -0.07279972 0.023812518 -0.03845796
000350 0c 5a 1e 3d 17 e4 c5 bd 9c 2c fe bd 47 f0 37 be
       0.038660094 -0.09662645 -0.12410852 -0.17962752
000360 28 33 c9 3d d3 eb 29 3e ce d5 1c 3e 28 aa be bc
       0.098242104 0.16593866 0.15315935 -0.023274496
000370 ec 0d 1f be 24 4f 32 bd e3 65 16 be 20 97 e2 3c
       -0.15532655 -0.043532506 -0.14687304 0.027659953
000380 08 47 2b 3e 37 8d fe 3d db be 96 bd 00 62 82 bd
       0.16726315 0.12429278 -0.073606215 -0.06366348
000390 62 c8 1a 3e 8c 2a 15 bd ec 0c 85 bd b6 e4 1e be
       0.15115502 -0.03641753 -0.06496605 -0.15516934
0003a0 4c b2 25 be f6 49 42 3d 7b 74 bd bd b1 84 e6 bd
       -0.16181296 0.047433816 -0.092507325 -0.112557776
0003b0 34 31 88 3d e0 e5 1c 3e db 59 2c 3e 14 aa 5d 3d
       0.0665001 0.15322065 0.16831152 0.054117277
0003c0 b2 e4 2e 3e dd 9f 27 bd 77 f9 e3 3b 28 18 2b 3e
       0.17079428 -0.040923942 0.0069572288 0.16708434
0003d0 7c 80 13 3e 72 4d 75 bd 6b 5d 0c be 88 6e d6 3c
       0.14404482 -0.05988831 -0.13707511 0.026175752
0003e0 57 0c 58 3d 57 3e 92 3d 5c 03 54 bd 18 9a 86 3d
       0.052746143 0.07140797 -0.051761016 0.0657236
0003f0 bf 40 72 bc c7 ab 25 3e 52 60 bd 3d f0 ed c5 3c
       -0.0147859445 0.16178809 0.09246887 0.024161309

bias f4 [32]
000000 58 1e b2 bc 38 65 29 bd 64 4f 70 3d e0 d5 ee 3c
       -0.021742985 -0.041356295 0.058669463 0.029154718
000010 b9 18 d4 bd 32 c0 85 3c b9 41 5b bc 68 68 ae bd
       -0.10356278 0.016326997 -0.013382369 -0.08516008
000020 64 ab 47 bd 6f b0 42 3c 3e 4c 87 3d 8d 2d 09 3e
       -0.048747435 0.011882885 0.06606339 0.13396282
000030 e4 27 bb 3d dc 4c 2f bd 06 89 d2 3d 78 2f 49 ba
       0.09138468 -0.04279791 0.102800414 -0.0007674615
000040 04 f0 df bd 5a 16 78 bd 7b 41 25 3e 19 39 1f be
       -0.10934451 -0.06056819 0.1613826 -0.15549125
000050 8d b7 a8 bd b4 50 f6 3d f0 e8 9e bd ca 84 e1 bd
       -0.082381345 0.12027112 -0.07759273 -0.11011656
000060 2e b7 9d 3d 98 59 f6 bc e6 dc 8c bd 7e d3 16 bb
       0.077009544 -0.030072019 -0.068780705 -0.0023014243
000070 4c 35 75 bd 07 df 2c 3e 00 90 a5 bc 54 38 11 3d
       -0.05986528 0.16881953 -0.020210266 0.03545411

weight f4 [32, 32]
000000 be 0c ac bd 38 dd 22 be f4 68 80 bd 30 6f 31 3d
       -0.08400868 -0.15904701 -0.06270018 0.043318927
000010 e6 9d a4 bd fb 6f 01 be 80 e7 0f bd 11 08 23 be
       -0.08037929 -0.12640373 -0.035132885 -0.15921046
000020 d8 5b b5 bd 5d 15 ef bd 1e 27 d9 3d a0 89 5d bd
       -0.088554084 -0.116739966 0.10603164 -0.054086328
000030 40 cb 34 be bc 49 7c 3d e9 71 16 be f9 c2 af 3b
       -0.17655659 0.061593756 -0.14691891 0.0053638187
000040 1b cd 7d 3c c9 55 ae bd d4 e8 bd bc 40 ee d3 3d
       0.0154907955 -0.08512456 -0.02318231 0.10348177
000050 5d 25 83 bd fc 95 1c 3d e6 6a 82 3d 36 29 16 be
       -0.06403611 0.038228974 0.063680455 -0.14664158
000060 25 58 23 be 8e ce e4 3d 0c fd c9 3d b6 aa da bb
       -0.15951593 0.1117221 0.09862718 -0.0066731824
000070 03 50 23 3e b0 ac 9a 3d b4 5b 1b bd 72 55 e5 bd
       0.15948491 0.07552469 -0.03792925 -0.11197938
000080 86 a3 b9 bb bf ba 1c 3e c6 50 f4 3d 4e 95 8f 3d
       -0.0056652455 0.15305613 0.11929469 0.070108995
000090 63 e5 02 be dc 9c d1 3d f3 25 fd bd 89 3e d7 bd
       -0.12782817 0.10234997 -0.12360754 -0.105099745
0000a0 10 75 b0 3d ff 17 a2 bd 48 33 95 bc e3 8f 0d 3e
       0.08616078 -0.07914733 -0.01821293 0.1382442
0000b0 10 9e c7 bd e0 b9 e7 3c ec fc 78 bd 6b 2a 20 3e
       -0.09746945 0.028286874 -0.06078808 0.15641181
0000c0 a3 5a 41 be 57 be 1b 3e 89 ec d6 bc 3e 20 6c bd
       -0.18882231 0.15209328 -0.026235836 -0.057647936
0000d0 82 09 a3 3d ec f4 4b bd bf 86 24 be cf c1 05 be
       0.07960798 -0.049794123 -0.16067027 -0.13062213
0000e0 a4 4d cb 3d df 44 a2 3d c4 9e 34 bd 81 3c 24 3e
       0.09926918 0.07923292 -0.044096723 0.16038705
0000f0 75 d3 1c be 0b e3 f0 bd 1e 3b 4d bd 5b 17 32 bd
       -0.1531504 -0.11762055 -0.050105207 -0.043479305
000100 4a d4 ef bd b6 01 27 be e0 bc ed 3d ed 43 b3 3d
       -0.11710413 -0.16309246 0.11608291 0.0875319
000110 1a c8 0e be fe 36 c5 3d b3 68 03 be c9 ce 94 bc
       -0.1394352 0.096296296 -0.12832908 -0.01816501
000120 a1 3c c3 3c 9c 87 28 bd 90 32 fd bd 5a 4d 8c 3c
       0.023832621 -0.041144952 -0.1236316 0.017126728
000130 cb 1a 20 3e e3 d7 2f 3e 7c e3 13 be 5c bd de 3c
       0.1563522 0.17172198 -0.14442247 0.027189903
000140 f0 1a 99 bc 10 b2 40 bd 10 66 35 3d 69 81 ef bd
       -0.018689603 -0.047044814 0.044286788 -0.11694605
000150 d4 a6 d7 bd 84 72 29 3e 01 36 a1 bd 99 91 48 bc
       -0.10529867 0.1654759 -0.078716286 -0.012241744
000160 9f 8a 99 bd 0e 19 c0 bb e8 7d ee 3d 5a 3f 37 bd
       -0.07497143 -0.0058623618 0.116451085 -0.04473815
000170 27 e2 35 3d 72 00 26 be 45 30 92 bd 90 f1 a2 3c
       0.04440513 -0.16211107 -0.07138113 0.019890577
000180 06 fa cb 3d 01 e8 cb bd 15 e2 b5 bd 98 20 05 3c
       0.099597976 -0.099563606 -0.08881012 0.008125447
000190 9e da b2 3d 4c 55 11 3d 52 e4 de 3d f4 a8 09 3b
       0.08733104 0.035481736 0.108833924 0.0021005245
0001a0 56 ff 2d bd bc b0 89 3d ff c0 17 be 0a 79 7e ba
       -0.042479835 0.067231625 -0.14819716 -0.0009707367
0001b0 d6 48 a3 3d c2 1c f5 bd eb b8 27 be 15 22 2e 3e
       0.07972877 -0.11968376 -0.16379134 0.17005189
0001c0 8c c7 17 3d 00 e8 b5 3c 14 f4 3c 3d 16 56 8c 3d
       0.037055537 0.022205353 0.04613121 0.06852357
0001d0 25 cf 27 3e 41 60 cd bd a8 14 c7 3c 5e 23 11 be
       0.16387613 -0.100281246 0.024301842 -0.14173648
0001e0 ed fe c0 bd af 90 90 bd 83 70 02 bc 10 df 1b 3d
       -0.09423623 -0.07058846 -0.007961395 0.038054526
0001f0 eb 88 85 3b 60 79 2b bd f0 44 35 3d bb ca 07 be
       0.00407516 -0.0418638 0.044255197 -0.1326093
000200 40 67 e9 3d 82 b2 9c bd b8 d5 f2 bd 07 1c b7 bd
       0.113966465 -0.07651235 -0.1185717 -0.08940893
000210 90 68 da bd 68 12 60 bd 9e ed 21 bb 44 49 17 be
       -0.10664475 -0.054705054 -0.0024708281 -0.14774042
000220 c8 cc 8b bd c0 62 b9 3d 79 c0 0a 3e dc e9 c6 3d
       -0.06826168 0.09052038 0.13549985 0.09712574
000230 b6 61 34 3e c8 41 72 3d 18 07 ae 3c e9 be 86 3d
       0.17615399 0.059144765 0.021243617 0.06579382
000240 71 f9 15 be e4 a3 7b bd 94 95 88 3d 88 a4 0b 3d
       -0.14645936 -0.061435595 0.06669155 0.034092456
000250 8c 2e 32 3d 03 21 28 bc c4 cf 7a bd fb b2 53 3d
       0.04350142 -0.010261777 -0.061233297 0.05168436
000260 a9 97 07 be 60 8e ff 3d e4 c0 1e 3d c9 4d 17 be
       -0.13241448 0.12478328 0.038758174 -0.14775766
000270 66 0b ea 3d a8 ca c6 3c f8 86 ee bc 81 bd 37 3e
       0.11427955 0.024266556 -0.029117092 0.17943384
000280 11 72 a0 3c cf 49 45 bc e1 ae b1 bd 44 5c 04 3e
       0.019585641 -0.012041523 -0.08675934 0.12925822
000290 c2 00 18 3e d9 b9 1f be 57 2f b0 bd aa 65 3b bd
       0.14844039 -0.15598239 -0.08602779 -0.04575125
0002a0 11 06 2c 3e ea f3 20 be 46 a7 ab bd 48 ea 55 3d
       0.16799189 -0.15718046 -0.08381514 0.05222538
0002b0 a7 91 70 bc e4 39 7e 3c 26 f1 a0 3d de c5 e4 3c
       -0.014683164 0.015516732 0.078584954 0.027926382
0002c0 1b 84 11 3e c8 98 bc bc 32 a9 8f 3d 9c d5 9f 3c
       0.1421055 -0.02302207 0.07014693 0.019511037
0002d0 8c ca ff 3d a6 c9 16 3e 9d f1 e8 bb 31 f6 b2 3d
       0.124898046 0.1472536 -0.0071088807 0.087383635
0002e0 7e 9f 8d 3d 56 42 81 3d 0c 3b e0 bc 08 4c a7 bc
       0.06915186 0.06311481 -0.027371906 -0.020421997
0002f0 2c 69 3a bc d8 2c ee bd 24 84 e5 bd 90 d9 2d 3e
       -0.011377614 -0.11629647 -0.112068444 0.16977525
000300 c0 9c 39 bd fc b7 2a 3e d0 ec 26 3d 01 3d ee bd
       -0.045315504 0.16671747 0.040753186 -0.11632729
000310 52 02 d4 3d f1 ac eb bd fe 6f 1f 3e 90 da 29 3d
       0.10352005 -0.11507595 0.15570065 0.041468203
000320 48 3c 25 3d c9 37 b0 bd b9 b0 51 3d c0 6a 83 3c
       0.04034069 -0.0860439 0.051193926 0.016042113
000330 da 5c ec 3d 7c 38 3d bd c1 50 14 be fd ea 8a bd
       0.115411475 -0.046196446 -0.1448393 -0.06783102
000340 39 78 eb bd 60 3f 08 bd 43 1c 15 be e6 8e 1c be
       -0.1149754 -0.033263564 -0.14561562 -0.15288886
000350 1e 48 6d bb 70 99 04 be 9f 77 c1 3d 52 b4 ec bc
       -0.0036206315 -0.12949157 0.09446644 -0.028894577
000360 74 5e 9b 3d 82 17 9f 3d 1c c4 ed ba 0c 00 71 bd
       0.07586375 0.07768156 -0.001814011 -0.058837935
000370 28 65 3b 3d e0 09 eb 3c 99 15 99 3d c9 64 29 3e
       0.045750767 0.028691232 0.074748226 0.16542353
000380 e8 a5 ec bc 80 07 24 3e 1e 16 fe 3d bd 0d 11 bc
       -0.028887704 0.16018486 0.12406562 -0.008853373
000390 b2 8a 01 3e 70 8f 3e 3e d0 e7 32 3e 22 43 2a be
       0.12650564 0.18609405 0.17471242 -0.16627172
0003a0 93 56 13 be 50 27 fe 3d c9 c4 1d 3e 40 b0 bd bc
       -0.14388494 0.12409842 0.15407099 -0.023155332
0003b0 98 b3 ed bc 54 26 3a bd 56 7b 72 3c 05 5e 07 be
       -0.029016301 -0.04544671 0.014799913 -0.1321946
0003c0 f6 91 ac b9 18 7f 21 3d e8 7d 60 3d 50 4c 9b 3d
       -0.00032915146 0.039427847 0.054807574 0.07582915
0003d0 78 8d 0a 3d ec 34 62 bd d3 29 02 be c2 dc 8b bd
       0.03382632 -0.05522625 -0.12711267 -0.068292156
0003e0 dc e1 f6 3d 1e 26 6e bd 70 d4 d3 3d ac 58 03 3e
       0.12054798 -0.05814182 0.103432536 0.12826794
0003f0 29 bd eb 3b 95 4d 18 bd 89 b4 18 be 78 e6 31 3d
       0.0071941805 -0.037183363 -0.14912619 0.043432683

bias f4 [32]
000000 4a dc 0b be 32 8d 3b bc 99 db 23 3e 30 1f ad 3c
       -0.13658252 -0.011447238 0.16001739 0.021133035
000010 70 62 7c bd 28 fd 9b bc b6 20 b2 bd a7 b1 3f 3c
       -0.061617315 -0.019041613 -0.08697645 0.01170007
000020 69 fb 1a be 3c 53 1a bd 44 70 8d bd 8c 17 d2 bd
       -0.15134968 -0.037677035 -0.069061786 -0.102583975
000030 39 b9 e0 bd bc 53 6a 3d b4 9f 16 be 9f e7 e3 bd
       -0.109728284 0.05720876 -0.1470936 -0.111281626
000040 2e e8 f5 3d ec cc 0e 3d 00 92 2d bd 80 d5 ed 3d
       0.120071754 0.034863397 -0.042375565 0.116129875
000050 f7 44 d7 bd 62 b0 70 bd 54 dc d5 bd ca 17 ad 3d
       -0.10511201 -0.05876196 -0.10442415 0.08451803
000060 70 6c 6f bd 5c fb 8a 3d ce ed 46 3c ec b5 82 bd
       -0.058453023 0.06786224 0.012141658 -0.06382355
000070 a0 7d 9c bd d5 c6 1b be 83 75 88 bd 9c 69 0e bd
       -0.076411486 -0.15212567 -0.066630386 -0.034768686

weight f4 [1, 32]
000000 3f b1 0f 3e 58 4c e8 bc 2e 1a 79 bd bc 66 39 3d
       0.14032458 -0.028356716 -0.060815983 0.04526399
000010 b2 c7 01 be 3c 64 3c bd 2e 1c 09 be 1b 86 06 3e
       -0.12673834 -0.04599403 -0.13389656 0.13137095
000020 b0 03 64 bc c7 f8 30 be 10 6d 58 bc 30 91 2b 3d
       -0.013916895 -0.17282401 -0.013209596 0.04188651
000030 3d 03 18 3e 1e 32 10 be 9c ef 8f 3d 85 d0 1b 3e
       0.14844985 -0.14081618 0.07028124 0.15216263
000040 a0 c5 43 bd 76 ee f5 3d cd dc 00 3e 75 30 34 3e
       -0.04779589 0.120083734 0.12584229 0.1759661
000050 2e 9f f8 bd 60 2a b5 3b 58 d4 4c 3d 00 b8 30 bd
       -0.12139736 0.005528733 0.050007194 -0.043144226
000060 3d 65 b7 bd c5 9c 07 3e 00 72 06 bb 94 d7 41 3d
       -0.089548565 0.13243397 -0.0020514727 0.047324732
000070 70 96 47 3d 80 5d b7 ba 30 57 de bc a8 98 d5 bd
       0.048727453 -0.0013989657 -0.027141184 -0.104295075

comm_mask f4 [3, 3]
000000 00 00 00 00 00 00 80 3f 00 00 80 3f 00 00 80 3f
       0.0 1.0 1.0 1.0
000010 00 00 00 00 00 00 80 3f 00 00 80 3f 00 00 80 3f
       0.0 1.0 1.0 1.0
000020 00 00 00 00
       0.0
