exp1/coop1.pt (torch_old, 161458 bytes, 10 tensors)

weight f4 [128, 18]
0	0xbdf6732e	-0.120336875
1	0xbda9483d	-0.082657315
2	0xbdfb5c35	-0.122734465
3	0xbcb5ef6c	-0.022208892
4	0xbe44fa52	-0.19236115
5	0xbcd544a4	-0.026033707
6	0x3e5b5f90	0.21423173
7	0x3d89acdf	0.06722426
8	0x3d90de09	0.070736
9	0x3de989fb	0.11403271
10	0x3c97adac	0.01851543
11	0xbd057052	-0.03257782
12	0x3e10edd8	0.1415323
13	0x3dcb0739	0.09913487
14	0x3de400fe	0.11133002
15	0x3d7cf5e4	0.061757937
16	0xbe5cabef	-0.21549962
17	0x3e25288f	0.16128753
18	0x3e20bf3f	0.15697955
19	0x3e42351f	0.18965577
20	0xbe11d20b	-0.14240281
21	0x3e3b0180	0.18262291
22	0xbe227536	-0.15865025
23	0x3dcf57e7	0.10124188
24	0xbd29b4ee	-0.041432314
25	0xbdaf1387	-0.085486464
26	0x3c2e26f3	0.010629403
27	0xbe30ffc4	-0.17285067
28	0xbd19c612	-0.03754241
29	0x3e202dc0	0.15642452
30	0xbc98329c	-0.01857882
31	0xbdcb4f63	-0.09927251
32	0x3e0defa1	0.13860942
33	0x3deab8be	0.11461018
34	0x3c38cf50	0.011279896
35	0x3deb8d52	0.11501564
36	0x3d1a95e6	0.03774061
37	0xbe1821b1	-0.14856602
38	0xbdec0694	-0.11524692
39	0x3dd714a5	0.105019845
40	0xbe6bb481	-0.23018076
41	0x3e19acc6	0.15007314
42	0x3ca7aecc	0.020469092
43	0xbdea494d	-0.11439762
44	0xbdfcf8a0	-0.12352109
45	0xbc091e87	-0.008369095
46	0xbde94fe5	-0.11392192
47	0x3d3360ea	0.043793596
48	0x3cb7b59c	0.022425465
49	0x3dbb205b	0.09137031
50	0xbe0ce5c4	-0.13759524
51	0xbcabc518	-0.020968005
52	0xbe5d7519	-0.216267
53	0xbcd32388	-0.025773779
54	0xbd4f46ca	-0.05060462
55	0x3e326184	0.17420012
56	0xbe54b2a8	-0.20771277
57	0xbe24ab56	-0.16080984
58	0x3e680db6	0.2266148
59	0x3dff727f	0.1247301
60	0x3d7ee1e2	0.062227137
61	0x3e4487fb	0.19192497
62	0xbdba9887	-0.091111235
63	0xbd83d5df	-0.06437277
64	0xbe3cc8fb	-0.18436043
65	0x3db16455	0.08661715
66	0x3e027542	0.12740043
67	0xbc99c10c	-0.01876881
68	0x3df9e76a	0.12202342
69	0x3e3e2c0b	0.18571489
70	0x3e38c69f	0.18044518
71	0xbd98d842	-0.07463123
72	0xbe2444d6	-0.16041884
73	0x3dbde159	0.09271497
74	0x3dbcf5d3	0.09226575
75	0x3d9fc073	0.07800379
76	0x3e5a12ea	0.21296278
77	0xbd73a162	-0.05948008
78	0x3dd11c19	0.10210437
79	0xbe6e7a63	-0.23288874
80	0x3e00bf69	0.12573017
81	0x3da333db	0.07968875
82	0x3e4f8bc6	0.20268163
83	0xbde45616	-0.11149232
84	0x3cfc57dd	0.030803615
85	0xbe0d8fcd	-0.13824387
86	0xbe6d277b	-0.23159592
87	0xbded8b5c	-0.11598846
88	0xbe608a28	-0.21927702
89	0x3ce9d5b8	0.028544292
90	0x3e4b95a5	0.19881304
91	0xbccabecc	-0.024749182
92	0x3e5a0254	0.2128995
93	0x3c5b6e62	0.0133930165
94	0x3e68dbf4	0.22740155
95	0xbe2f1ef6	-0.17101654
96	0xbde8ba1d	-0.11363623
97	0xbdc77f3f	-0.09741067
98	0x3cf3e524	0.029772349
99	0xbd3d4cfe	-0.046216004
100	0xbe5bebf4	-0.21476728
101	0xbd682afa	-0.05668161
102	0x3e2a1720	0.16610384
103	0xbc99af9c	-0.018760495
104	0xbe64de8b	-0.22350518
105	0x3e61f4fd	0.22066112
106	0xbc6e2500	-0.014535189
107	0xbe47f6d2	-0.19527748
108	0xbd629cb6	-0.055325232
109	0xbcf437b3	-0.029811716
110	0xbe501d9e	-0.20323798
111	0xbe072067	-0.13195954
112	0x3d51aa02	0.051187523
113	0x3e23718a	0.1596128
114	0xbe053ab5	-0.13010676
115	0x3ce1c3a4	0.027559109
116	0xbd879bdd	-0.066215254
117	0xbe28235a	-0.16419736
118	0x3be350ed	0.0069371373
119	0x3b97e9ae	0.004636011
120	0xbe2cff7d	-0.16894336
121	0x3e548ae0	0.20756102
122	0xbe58db89	-0.21177496
123	0xbe6eb72b	-0.2331206
124	0xbe4bfda4	-0.19920975
125	0x3b8c2f80	0.0042781234
126	0x3e1c913e	0.1528978
127	0xbe396a53	-0.18106966
128	0xbe15d1c4	-0.146308
129	0x3e3c2010	0.18371606
130	0x3e6396d0	0.22225499
131	0xbda185ff	-0.07886886
132	0x3e3e3612	0.18575314
133	0xbe08d0f7	-0.13360964
134	0xbd00079a	-0.03125725
135	0x3e456b89	0.19279303
136	0x3d661b82	0.056178577
137	0xbe056a58	-0.13028848
138	0xbd18d294	-0.037310198
139	0xbe1ae8bd	-0.15127845
140	0xbe2de43c	-0.16981596
141	0x3ca904f8	0.020632252
142	0x3d10debc	0.035368666
143	0xbbb4e300	-0.0055202246
144	0xbde509a2	-0.11183478
145	0xbe69f329	-0.22846664
146	0xbdc19041	-0.094513424
147	0xbe464462	-0.19362023
148	0xbe18a37f	-0.14906119
149	0xbe12194f	-0.14267467
150	0x3c59b9a2	0.013288887
151	0x3e20ed22	0.15715459
152	0x3e02936a	0.12751547
153	0xbe3bfcd0	-0.18358159
154	0x3d01e3a2	0.03171123
155	0xbe67b282	-0.22626689
156	0xbd0fb5de	-0.03508555
157	0xbe10b761	-0.14132454
158	0x3e522681	0.205225
159	0x3dce6abe	0.10078953
160	0xbe0c1f90	-0.13683915
161	0xbe6b936c	-0.23005456
162	0x3e094a84	0.13407332
163	0xbe0d0670	-0.13771987
164	0x3e010d6e	0.1260278
165	0xbe632b05	-0.2218438
166	0xbdb5ebc9	-0.08882863
167	0x3c9cb1fc	0.019127838
168	0x3c08b629	0.008344212
169	0x3d969bfd	0.07353971
170	0x3d379472	0.044819303
171	0xbb98366d	-0.00464516
172	0xbd17a3b6	-0.03702136
173	0xbe12e685	-0.14345749
174	0x3e319061	0.17340232
175	0xbdc2679f	-0.094924204
176	0x3e19cfa3	0.15020613
177	0x3e0bba2b	0.13645236
178	0xbd97b976	-0.07408421
179	0xbe12bb4e	-0.14329264
180	0x3e038525	0.1284376
181	0x3e083efb	0.13305275
182	0x3e268d7e	0.16264912
183	0xbe0482e7	-0.1294056
184	0xbd9e0cc3	-0.07717278
185	0x3d8699d3	0.065723084
186	0xbe3e40f7	-0.1857947
187	0x3e37715a	0.17914334
188	0xbe50e072	-0.20398119
189	0xbdaa3521	-0.08310915
190	0x3c356943	0.01107246
191	0xbce181d4	-0.027527727
192	0x3d883ebd	0.066525914
193	0xbcec5094	-0.028847016
194	0xbe139663	-0.14412837
195	0xbdfc666b	-0.12324222
196	0x3e319ea1	0.17345668
197	0xbe6a83f2	-0.22901896
198	0xbe4ebef5	-0.20190032
199	0xbb4639ad	-0.003024678
200	0x3e5cbdd2	0.21556786
201	0x3dd93f17	0.106077366
202	0x3deab96b	0.11461147
203	0x3e4bf598	0.19917905
204	0xbe5d3019	-0.21600379
205	0x3e47b86c	0.19503945
206	0xbdc8c097	-0.098023586
207	0x3d347f22	0.044066556
208	0x3da14cc3	0.07875969
209	0x3e40b806	0.188202
210	0xbe1287a3	-0.14309554
211	0x3e0ac47c	0.13551515
212	0xbd08947c	-0.03334473
213	0xbe24bee4	-0.16088444
214	0xbd7f7640	-0.06236863
215	0xbd8e8384	-0.06958678
216	0x3e46d7ae	0.19418213
217	0xbdde3e9b	-0.10851785
218	0x3e5b85b9	0.2143773
219	0x3e246437	0.16053854
220	0xbdadd7e7	-0.08488446
221	0xbc869664	-0.016429134
222	0xbd480686	-0.048834346
223	0xbdc2da0b	-0.09514245
224	0xbd801ef1	-0.062559016
225	0x3e6538e2	0.2238498
226	0x3c6d5db8	0.014487676
227	0xbcbbea64	-0.022938915
228	0xbe46b38a	-0.19404426
229	0x3e102ff6	0.14080796
230	0xbc85ecc8	-0.016348258
231	0xbba09240	-0.004900247
232	0x3df4c266	0.11951141
233	0x3e3de8df	0.18545865
234	0xbd1dcd42	-0.038525827
235	0xbd229262	-0.039690383
236	0xbe3385c0	-0.1753149
237	0xbe339d7d	-0.17540546
238	0x3e6cafa7	0.23113881
239	0x3c02ca30	0.007982776
240	0xbe6c680f	-0.2308657
241	0x3ccd74bc	0.025080077
242	0x3e67dc3c	0.22642606
243	0xbe61243c	-0.21986479
244	0x3e04ec72	0.12980822
245	0xbdd820f5	-0.10553161
246	0xbd9f478f	-0.077773206
247	0x3cb5f4dc	0.022211485
248	0x3c01c880	0.007921338
249	0x3e30e133	0.17273407
250	0x3df4862a	0.11939652
251	0xbdcf9f98	-0.10137862
252	0x3e3fefc3	0.18743806
253	0xbe2cd6ba	-0.16878787
254	0x3e12925c	0.14313644
255	0xbd46185e	-0.048363082

bias f4 [128]
0	0xbe33f285	-0.17572983
1	0xbcce4574	-0.025179602
2	0xbdc223e3	-0.09479501
3	0x3d095dd6	0.033536755
4	0x3dc498e3	0.09599473
5	0x3e0fa9a6	0.1402956
6	0x3cff35ec	0.031153642
7	0x3e18a756	0.14907584
8	0xbd226c9e	-0.039654367
9	0x3df9e59f	0.12202
10	0x3d1f5e12	0.03890807
11	0xbe27dfb4	-0.1639393
12	0xbd3caf5e	-0.04606568
13	0x3cf44cec	0.029821835
14	0x3d3a0772	0.045417257
15	0x3e16398a	0.14670387
16	0xbd23d79a	-0.040000536
17	0xbe362317	-0.17786823
18	0xbe43f043	-0.19134621
19	0xbda09731	-0.078413375
20	0xbe4598a2	-0.19296506
21	0x3e16e1d7	0.14734589
22	0xbd9e3c6d	-0.07726369
23	0xbe0166f6	-0.12636933
24	0x3c14f82f	0.009092375
25	0x3e143b7d	0.14475818
26	0x3e5535e8	0.20821345
27	0x3c415375	0.011799683
28	0xbd9e5f8b	-0.07733067
29	0x3e2285b4	0.15871316
30	0x3e05c62e	0.13063881
31	0x3d5e6642	0.05429674
32	0x3d3b9c26	0.04580321
33	0xbe1fcbfe	-0.1560516
34	0x3dd21269	0.10257418
35	0x3e3a3268	0.18183291
36	0xbd01e4ee	-0.031712465
37	0xbe0b7fb1	-0.13622929
38	0xbd8c89e5	-0.06862239
39	0x3e15a680	0.14614296
40	0x3d871ac7	0.06596904
41	0x3e58adb2	0.2116001
42	0x3e2e3d74	0.1701563
43	0xbdbb7a01	-0.0915413
44	0xbe378dd1	-0.17925192
45	0x3b0ae3fe	0.0021193023
46	0x3e60d25c	0.21955246
47	0xbdea7a03	-0.11449053
48	0xbbb705f2	-0.0055854255
49	0xbd14c7c6	-0.03632333
50	0xbe37fa63	-0.17966609
51	0xbc195f23	-0.009361061
52	0x3d147206	0.036241554
53	0xbe5ca193	-0.2154601
54	0x3e6b65e8	0.22988093
55	0x3dda770b	0.10667237
56	0xbe3f15b8	-0.18660629
57	0x3e38acca	0.18034664
58	0xbdacd685	-0.08439354
59	0xbca6d1e9	-0.020363765
60	0x3e1869f7	0.14884172
61	0xbd87c405	-0.06629185
62	0x3e26fa26	0.16306362
63	0x3e3cfb3e	0.18455216
64	0xbe36cf63	-0.17852549
65	0x3e38fd34	0.1806534
66	0x3dac4f77	0.08413594
67	0xbe0243a0	-0.1272111
68	0xbe6e12e8	-0.232494
69	0x3e3db810	0.18527246
70	0xbe09c2f7	-0.1345328
71	0x3df1ebe5	0.118125714
72	0x3d97e50b	0.07416733
73	0x3d86fa71	0.06590737
74	0xbd931ab7	-0.0718283
75	0xbd939f7f	-0.07208156
76	0xbe491ba2	-0.19639447
77	0xbbb19ab5	-0.005420054
78	0xbe33515f	-0.1751151
79	0x3de78585	0.11304764
80	0xbe5477ef	-0.20748876
81	0x3decb7ef	0.1155852
82	0xbde10c38	-0.10988659
83	0xbe5ac491	-0.21364047
84	0xbe39c34e	-0.18140909
85	0xbcdf27fc	-0.027240746
86	0xbe31a92f	-0.17349695
87	0x3dd76ba5	0.105185784
88	0xbe11c01f	-0.14233445
89	0x3e3a3cae	0.1818721
90	0x3e01e5d3	0.12685327
91	0xbd1b6c9e	-0.037945382
92	0xbe42ad03	-0.19011311
93	0xbd578a49	-0.052622113
94	0xbe52285b	-0.20523207
95	0x3e4d02ef	0.2002065
96	0x3e125430	0.14289927
97	0x3dbd05bb	0.092296086
98	0x3d23adfe	0.039960854
99	0xbdca9379	-0.098914094
100	0x3e697598	0.22798765
101	0xbd552542	-0.052037485
102	0xbe6215e3	-0.22078662
103	0xbc1f8818	-0.009737037
104	0xbe27a61d	-0.16371961
105	0xbccf592c	-0.025311075
106	0xbe456002	-0.19274905
107	0x3dc9c419	0.09851856
108	0xbe1af234	-0.15131456
109	0x3e5192ee	0.20466205
110	0xbe2f0e7b	-0.17095368
111	0xbc1c6bc8	-0.009547181
112	0x3e48d626	0.19612941
113	0xbe38a96f	-0.18033384
114	0xbdac633f	-0.08417367
115	0xbd9c3685	-0.07627586
116	0xbe6f9321	-0.23395969
117	0xbe0f9aff	-0.1402397
118	0xbe4620b7	-0.19348417
119	0xbdc8c0a5	-0.09802369
120	0x3e03dab0	0.12876391
121	0x3d92159d	0.07133029
122	0xbe42c942	-0.19022086
123	0x3d46c182	0.048524387
124	0x3d8d5849	0.06901605
125	0xbe5404bb	-0.2070493
126	0x3dc919e3	0.098193906
127	0x3e1c40ce	0.15259096

weight f4 [5, 128]
0	0x3c9bcc74	0.01901839
1	0xbd10cfbf	-0.035354372
2	0x3d337038	0.043808192
3	0xbcf560a4	-0.029953308
4	0xbd1282a9	-0.03576914
5	0xbd6f91f3	-0.058488797
6	0x3ca34604	0.019930847
7	0xbcd52280	-0.026017427
8	0x3d5570b0	0.05210942
9	0xbd7d913e	-0.061906092
10	0xbd2aa237	-0.041658606
11	0x3c32bfc4	0.010909978
12	0xbd6d3776	-0.05791422
13	0x3d56f5e8	0.05248061
14	0x3c58bdc5	0.013228838
15	0x3ce6063c	0.028079145
16	0xbc4f1d98	-0.012641333
17	0x3db128e8	0.086503804
18	0x3d75b7f0	0.05998987
19	0xbc2bf12b	-0.010494511
20	0xbd532c04	-0.05155565
21	0x3d583728	0.052786976
22	0xbd803b1b	-0.062612735
23	0xbd97a34b	-0.074041925
24	0xbd87c8b0	-0.06630075
25	0x3c4fc40e	0.01268102
26	0x3d9822ac	0.07428488
27	0xbd4826df	-0.048865195
28	0xbd8bf6ff	-0.0683422
29	0xbd97d721	-0.074140795
30	0xbc804e6d	-0.015662396
31	0x3c112795	0.008859535
32	0x3d6bd0a4	0.057572022
33	0xbd18336b	-0.03715841
34	0xbd4f628c	-0.05063109
35	0xbd6367d2	-0.055518933
36	0x3dae19f0	0.08501041
37	0x3bde4c80	0.006784022
38	0x3d6473bc	0.055774435
39	0x3c89b2b0	0.016808838
40	0xbd9edd67	-0.07757073
41	0x3bdc59d5	0.006724576
42	0x3cc574dc	0.024103574
43	0x3cf6e0c4	0.030136473
44	0xbd188899	-0.037239645
45	0x3d1515a0	0.036397576
46	0x3d342cf8	0.043988198
47	0x3db0002e	0.08593784
48	0x3c15fabd	0.009154019
49	0x3d8061bc	0.06268641
50	0xbdb1b7a6	-0.08677606
51	0x3c486693	0.012231487
52	0x3d0532e6	0.032519244
53	0xbdaee3ef	-0.08539569
54	0x3d4b1360	0.049579024
55	0x3d2187a0	0.039435983
56	0x3d7f7b0c	0.062373206
57	0x3d17e77c	0.037085995
58	0x3da77a44	0.08177617
59	0x3d6c1978	0.057641476
60	0x3cf50e14	0.02991394
61	0xbd982026	-0.07428007
62	0xbd361c24	-0.04446043
63	0xbdb15209	-0.08658225
64	0xbc42279f	-0.011850267
65	0xbd6e276e	-0.05814307
66	0xbd83e50f	-0.06440174
67	0xbd04ea57	-0.032450046
68	0xbd47667f	-0.048681732
69	0x3d925d10	0.071466565
70	0xbd67354e	-0.05644732
71	0x3d86931e	0.06571029
72	0xbd05bf38	-0.032653064
73	0x3da533c0	0.08066511
74	0xbd933a79	-0.07188887
75	0xbd42d9c3	-0.047570955
76	0xbcc3dde8	-0.023909524
77	0x3d3ee638	0.046606272
78	0xbcdee7f8	-0.02721022
79	0xbcedc8f8	-0.029026493
80	0xbcf6fecc	-0.030150793
81	0x3d742a04	0.05961038
82	0x3ce1a1e8	0.027543023
83	0x3c9e221c	0.019303374
84	0x3b6a24ea	0.003572757
85	0x3cc16f94	0.023612775
86	0xbd6e9ba4	-0.0582539
87	0x3cf69a48	0.030102864
88	0xbd3a22c6	-0.04544332
89	0xbcd27738	-0.025691614
90	0x3d50cda0	0.05097735
91	0xbad2425c	-0.0016041505
92	0xbdb75c91	-0.089532025
93	0x3d62930c	0.055316016
94	0x3d36c24c	0.04461889
95	0x3da0bf28	0.0784896
96	0x3cad4ca4	0.02115471
97	0xbdae3816	-0.08506791
98	0x3d2eb6b8	0.042654723
99	0xbd0a5513	-0.03377254
100	0x3adddc0c	0.0016926541
101	0x3d2e4fa8	0.042556435
102	0x3d9d5822	0.076828256
103	0x3c589e7a	0.0132213775
104	0xbb4126fe	-0.0029472704
105	0x3d95a96a	0.07307704
106	0x3d398888	0.045296222
107	0x3da9a76e	0.08283888
108	0xbd2d6625	-0.04233374
109	0x3d740a48	0.059580117
110	0xbc80aad4	-0.015706457
111	0xbd71c3fd	-0.0590248
112	0x3c549fc9	0.012977549
113	0x3b976ce7	0.0046211365
114	0x3d1b2320	0.037875295
115	0xbd3d978f	-0.046287116
116	0xbd566958	-0.052346557
117	0xbcda5a54	-0.0266544
118	0x3d897a80	0.06712818
119	0xbd4110fc	-0.04713534
120	0xbd50a02c	-0.050934
121	0x3d87896a	0.066180065
122	0x3dac999c	0.08427736
123	0x3d7d4774	0.06183572
124	0xbd54bea4	-0.05193962
125	0xbdad8303	-0.08472254
126	0x3aaef064	0.0013346788
127	0x3db3bf0a	0.08776672
128	0x3d8c7b70	0.06859481
129	0xbce977ee	-0.02849957
130	0x3bdfc700	0.0068291426
131	0x3c21e365	0.009880875
132	0xbd9c9c45	-0.076469935
133	0xbd9a11ab	-0.07522901
134	0x3c78ce90	0.015185967
135	0x3d57e238	0.052705973
136	0x3c86bb5c	0.016446762
137	0x3c5b853b	0.013398464
138	0xbad5d2b4	-0.0016313405
139	0xbb255186	-0.0025225594
140	0xbd8426c0	-0.064527035
141	0xba93d53c	-0.0011278759
142	0x3bfc5476	0.007700498
143	0x3b86257d	0.0040938244
144	0x3da70ee6	0.081571385
145	0xbc9c8158	-0.019104645
146	0xbd42d37f	-0.04756498
147	0x3d41a624	0.047277585
148	0x3cd6ce18	0.02622132
149	0xbd0c7193	-0.034288
150	0x3d0a0df0	0.033704698
151	0x3d638158	0.055543274
152	0x3d9a02b4	0.07520047
153	0xbd2c8c8a	-0.042126216
154	0xbca5bd78	-0.020231947
155	0xbd57a4bc	-0.052647337
156	0x3d08d952	0.033410378
157	0xbcf96d6c	-0.030447684
158	0x3d984348	0.07434708
159	0x3da764e4	0.0817354
160	0x3d039f3c	0.03213428
161	0xbc8a58f8	-0.016888127
162	0xbc7b166b	-0.015325169
163	0x3d13b664	0.036062613
164	0x3c4d0f6f	0.012515887
165	0x3cbd7544	0.023127206
166	0xbdb07575	-0.08616153
167	0xbd5861c1	-0.0528276
168	0xbd90309a	-0.0704052
169	0x3d6a8290	0.05725342
170	0x3c7c0217	0.015381358
171	0x3d30b158	0.04313788
172	0x3da58c70	0.08083427
173	0xbc088f23	-0.008334908
174	0xbc70610b	-0.014671574
175	0xbcb02988	-0.021504179
176	0xbd20391d	-0.039116967
177	0x3d075792	0.033042498
178	0xbd6a2847	-0.057167318
179	0x3c66d1e7	0.014088131
180	0xbd99321c	-0.07480261
181	0xbcab2908	-0.020893589
182	0x3d4e8bc0	0.050426245
183	0x3da21982	0.079150215
184	0x3a41cbea	0.0007392751
185	0xbd8c28cf	-0.06843721
186	0x3d5851f8	0.052812546
187	0xbcf79b7c	-0.030225508
188	0x3d71c3c0	0.059024572
189	0x3cae10dc	0.021248274
190	0xbd826259	-0.063664146
191	0x3dade580	0.08491039
192	0xbd201b22	-0.039088376
193	0xbd933ba9	-0.07189114
194	0x3c65d855	0.014028628
195	0xbc05ea4b	-0.008173536
196	0xbd387b4f	-0.04503947
197	0x3cf4d470	0.029886454
198	0xbd615598	-0.05501327
199	0x3d92eb7c	0.07173821
200	0xbcae4740	-0.021274209
201	0x3d096984	0.033547893
202	0xbda4ccfa	-0.08046909
203	0x3c352062	0.011055084
204	0xbd83d4c4	-0.06437066
205	0x3d1ee078	0.03878829
206	0x3d90e20c	0.07074365
207	0xbd5c8490	-0.05383736
208	0x3d233400	0.039844513
209	0x3d5cdbac	0.053920433
210	0x3d6e7300	0.05821514
211	0xbd71d637	-0.05904218
212	0xbcedac98	-0.029012963
213	0x3c97c270	0.018525332
214	0xbd47a153	-0.048737835
215	0xbdb2b583	-0.08726027
216	0xbc3fbe31	-0.01170306
217	0xbc6bc641	-0.014390529
218	0x3bd04fa6	0.006357151
219	0xbda3b40f	-0.07993328
220	0xbd3dc24c	-0.046327874
221	0xbd717b38	-0.0589554
222	0x3caf8268	0.021424487
223	0x3d38ac9c	0.045086488
224	0xbda03fd6	-0.07824676
225	0x3d08dec0	0.033415556
226	0x3d862fac	0.065520614
227	0x3c280a1d	0.010256317
228	0xbca9cf34	-0.020728685
229	0xbc18e5cb	-0.009332131
230	0x3c946ab0	0.018117279
231	0xbdaa8acd	-0.083272554
232	0x3cc5b704	0.02413512
233	0xbbc11475	-0.0058923312
234	0x3d8c8ffc	0.068634
235	0xbc9be75c	-0.01903122
236	0x3ca45c94	0.020063676
237	0x3c830bb9	0.0159968
238	0x3d0ad558	0.033894867
239	0x3c655443	0.01399714
240	0x3d557dc4	0.052121893
241	0xbd445a3d	-0.04793762
242	0x3ab38a6b	0.0013697868
243	0xbd1c5b86	-0.03817322
244	0x3c525bdf	0.012839287
245	0xbcf37f14	-0.029723682
246	0xbc3c928f	-0.011509552
247	0x3d53591c	0.051598653
248	0xbbe47139	-0.006971505
249	0xbd1a804a	-0.037720002
250	0x39c91730	0.00038354984
251	0xbdab13a7	-0.08353358
252	0x3d866504	0.06562236
253	0x3c1645db	0.009171928
254	0x3daa6918	0.08320826
255	0x3cc2087c	0.023685686

bias f4 [5]
0	0xbd840816	-0.06446855
1	0x3c2b30fd	0.010448691
2	0x3c8c6d20	0.017141879
3	0x3d569564	0.052388564
4	0xbcd6833a	-0.02618562

weight f4 [128, 128]
0	0x3cc57900	0.024105549
1	0x3d52abc4	0.05143334
2	0x3d16a548	0.03677872
3	0x3d27afbc	0.040939078
4	0x3d864376	0.06555836
5	0x3c6c98af	0.0144406995
6	0xbc261c53	-0.010138589
7	0x3d604e88	0.054762393
8	0x3d90dd7c	0.07073495
9	0xbb701a4e	-0.0036636773
10	0x3d70593c	0.05867885
11	0xbab98fe4	-0.0014157263
12	0x3d81ae3a	0.06332059
13	0xbd3a65c8	-0.045507222
14	0xbd49a0e7	-0.049225714
15	0x3d9ca628	0.07648879
16	0xbd5ab062	-0.053390868
17	0xbd69fd29	-0.057126198
18	0x3d887722	0.06663348
19	0x3d79b5b0	0.060964286
20	0xbda632ce	-0.08115159
21	0xbb2a3186	-0.002596946
22	0xbce16880	-0.02751565
23	0x3c4dbc88	0.012557156
24	0x3c412709	0.011789092
25	0x3d0f4e54	0.03498681
26	0xbc96beb4	-0.018401481
27	0x3d87d372	0.06632127
28	0x3d858ec4	0.06521371
29	0xbd7beb94	-0.06150396
30	0x3d1fb4dc	0.03899084
31	0xbd7d8fb4	-0.061904624
32	0x3d8b7382	0.06809141
33	0x3d0bc9e2	0.034128077
34	0x3db35fea	0.087585285
35	0x3d96fa4c	0.07371959
36	0x3db63f5c	0.088988036
37	0xbd557229	-0.052110825
38	0x3d27a2c4	0.04092671
39	0xbd738c44	-0.05945994
40	0xbd984453	-0.07434907
41	0x3d134c42	0.035961397
42	0xbd7a2fb5	-0.061080653
43	0xbd773dca	-0.06036166
44	0x3cb97798	0.022640035
45	0x3d910798	0.070815265
46	0x3d8eaf12	0.06966986
47	0xbda7bf3c	-0.08190772
48	0x3d76bae8	0.06023684
49	0xbc9ca070	-0.019119471
50	0x3c2a9a7e	0.01041281
51	0xbca32d20	-0.019918978
52	0x3c962ec8	0.018332854
53	0x3daca0c8	0.08429104
54	0x3db19928	0.0867179
55	0xbd52d54b	-0.051472943
56	0xbdb0ae19	-0.086269565
57	0x3b1580a9	0.0022812283
58	0xbc779b08	-0.015112646
59	0x3d373874	0.044731572
60	0x3d7c29b0	0.061563194
61	0x3d7dd12c	0.06196706
62	0x3db2b7bc	0.08726451
63	0x3c03e9ac	0.008051317
64	0x3cf57188	0.029961362
65	0xbd6aca29	-0.0573217
66	0xbd78a988	-0.060708553
67	0xbd40db0c	-0.0470839
68	0x3d782714	0.060584143
69	0xbd12d9e8	-0.035852343
70	0x3db0bb8e	0.08629523
71	0xbdae5c53	-0.08513703
72	0xbd95febe	-0.07323979
73	0xbc815f90	-0.015792638
74	0x3dad4258	0.0845992
75	0x3d87cf78	0.066313684
76	0x3c505a2b	0.01271681
77	0xbd826d3b	-0.0636849
78	0x3d13775c	0.0360025
79	0xbcea9388	-0.028634802
80	0xbc7be423	-0.015374216
81	0x3cef4198	0.029206082
82	0xbc4dbbcd	-0.012556982
83	0x3d3cf3c0	0.046130896
84	0x3d34a8b0	0.044106185
85	0x3cc88804	0.02447892
86	0xbd02308e	-0.031784587
87	0x3cb5a0f0	0.022171468
88	0xbda4817d	-0.080325104
89	0xbd8db795	-0.06919781
90	0x3d0822ac	0.03323619
91	0xbd00c7a1	-0.03144038
92	0x3d8c4a28	0.06850082
93	0x3cd1c7c8	0.025607958
94	0xbd8a1413	-0.0674211
95	0xbd2b0108	-0.04174903
96	0xbd12f5c9	-0.03587893
97	0x3d97e88e	0.07417403
98	0x3d99b8d2	0.07505955
99	0xbd3df468	-0.046375662
100	0xbd32fcdb	-0.043698173
101	0xbda7de01	-0.08196641
102	0xbd977874	-0.073960215
103	0x3d3f2d9c	0.046674356
104	0xbd70af62	-0.058761008
105	0x3a420d19	0.00074024644
106	0xbd823c3b	-0.06359144
107	0xbd333c50	-0.04375869
108	0x3da660e0	0.08123946
109	0x3db22bcc	0.0869976
110	0xbd3837dc	-0.044975147
111	0xbc9b8a80	-0.01898694
112	0x3d99360e	0.07481013
113	0xbd9074bb	-0.070535146
114	0xbd613369	-0.05498067
115	0xbcd21500	-0.02564478
116	0x3d0b2394	0.033969477
117	0x3bdb44ff	0.0066915746
118	0xbd473e57	-0.048643436
119	0x3d229ba4	0.03969921
120	0xbcd60444	-0.02612508
121	0x3d068cd0	0.032849133
122	0x3d24e858	0.040260643
123	0x3da450f6	0.080232546
124	0xbd2f68e7	-0.042824652
125	0x3d494b5c	0.049144134
126	0xbc821c60	-0.01588267
127	0x3d9b72c6	0.07590251
128	0x3d7d69f3	0.06186862
129	0xbd3c86f4	-0.04602714
130	0xbca1348c	-0.019678377
131	0xbcafd5d4	-0.021464266
132	0xbc303663	-0.010755154
133	0xbd77ac9c	-0.060467348
134	0x3daa0e10	0.083034635
135	0xbd223d23	-0.039609086
136	0x3ce3501c	0.02774816
137	0xbcd933fa	-0.026514042
138	0x3c90d7d4	0.01768104
139	0xbd179ed4	-0.037016705
140	0x3da2d5c2	0.07950927
141	0xbd4da88e	-0.050209574
142	0x3c8525ac	0.016253315
143	0xbc9a233c	-0.01881563
144	0xbd976099	-0.073914714
145	0xbbe3ef95	-0.0069560506
146	0xbc573b04	-0.013136629
147	0x3da189e4	0.07887629
148	0xbd53feb2	-0.05175657
149	0x3d9cce28	0.07656509
150	0x3c875930	0.01652202
151	0xbd7559a8	-0.059899956
152	0x3d0e333e	0.034716837
153	0xbd7a294b	-0.061074536
154	0xbd9a0021	-0.07519556
155	0xbca33010	-0.019920379
156	0xbd0077f9	-0.031364415
157	0x3c6ef4e7	0.014584756
158	0x3da2d9fc	0.079517335
159	0x3d289528	0.04115787
160	0x3d80be56	0.06286304
161	0xbdafb60a	-0.08579643
162	0x3d8bed06	0.06832318
163	0x3d681e18	0.056669325
164	0x3bd4279e	0.0064744493
165	0xbb298d46	-0.002587156
166	0x3bc594eb	0.0060297153
167	0x3bc4afb9	0.006002393
168	0x3d9b7d4e	0.07592259
169	0x3d8b3c0e	0.06798564
170	0x3c3d8621	0.011567623
171	0x3d857aa8	0.065175354
172	0x3ae7413c	0.0017643343
173	0xbb977fb1	-0.0046233763
174	0x3da60492	0.081063405
175	0x3d0abf16	0.03387364
176	0xbc98d310	-0.01865533
177	0x3d415998	0.047204584
178	0x3d0b496e	0.034005575
179	0x3ce016e0	0.027354658
180	0x3d9128d0	0.070878625
181	0xbc2e169d	-0.010625509
182	0x3d73c598	0.059514612
183	0xbda544dd	-0.08069775
184	0xbca3a20c	-0.01997473
185	0xbdb5b4b3	-0.08872356
186	0xbd90ce0c	-0.0707055
187	0x3d1a3af0	0.037653863
188	0x3d11498e	0.035470538
189	0x3b278f6e	0.0025567668
190	0xbb4506ea	-0.0030063936
191	0xbd96ff0b	-0.07372864
192	0xbccd44ec	-0.025057279
193	0xbd483f40	-0.048888445
194	0xbd8f4cbd	-0.069970585
195	0x3d675a04	0.05648233
196	0xbd523116	-0.051316343
197	0xbdaa4b94	-0.08315197
198	0xbda9990b	-0.08281144
199	0x3db057f8	0.08610529
200	0x3bad90fc	0.0052968245
201	0xbd5d7dc6	-0.054075025
202	0x3c9a5e14	0.018843688
203	0xbd42ebd2	-0.047588177
204	0x3d3ce698	0.04611835
205	0xbd10b04e	-0.035324387
206	0x3d826d4e	0.063685045
207	0x3da04be0	0.07826972
208	0x3d8c72ae	0.06857811
209	0xbd7b925c	-0.061418876
210	0xbd9f160a	-0.077678755
211	0x3da9856a	0.082774
212	0xbd8e5b4d	-0.06951008
213	0x3d7f5ec0	0.06234622
214	0xbd39214b	-0.045197766
215	0xbc8e92e8	-0.017404035
216	0xbd8960a7	-0.06707888
217	0x3ceec640	0.029147267
218	0x3d520894	0.051277712
219	0xbd7ee4e9	-0.062230024
220	0x3d9d8a3e	0.07692383
221	0xbbd9536c	-0.006632259
222	0x3da5abd2	0.08089413
223	0xbd5cacfc	-0.05387591
224	0xbb844a9d	-0.004037215
225	0x3c163334	0.009167481
226	0x3bcb17ca	0.0061979042
227	0x3d8ce3a4	0.068793565
228	0xbc178e88	-0.009250291
229	0x3c0cca81	0.008593203
230	0xbd8d6914	-0.06904808
231	0xbd5b9b02	-0.053614624
232	0xbbbbf27b	-0.005735693
233	0x3b7baede	0.003840379
234	0x3d701fb8	0.058624
235	0x3d82f3ca	0.06394155
236	0xbd857fa4	-0.06518486
237	0x3db4f090	0.08834946
238	0xbd720fc0	-0.05909705
239	0xbcc884bc	-0.024477355
240	0xbc96e4a8	-0.018419579
241	0xbd5d978a	-0.054099597
242	0xbd673d64	-0.05645503
243	0xbd4dd62d	-0.050253082
244	0x3c61edf7	0.013789645
245	0x3c27d2cc	0.010243129
246	0xbdb499c4	-0.08818391
247	0xbd877839	-0.066147275
248	0xbda5f268	-0.08102876
249	0x3d85bfde	0.065307364
250	0x3dac17a6	0.08402948
251	0xbd27cee6	-0.040968798
252	0xbd601246	-0.054704927
253	0x3d445120	0.04792893
254	0x3d6b0b88	0.057384044
255	0x3cb569ec	0.022145234

bias f4 [128]
0	0x3d5ca194	0.05386503
1	0xbd224427	-0.039615776
2	0x3c22b78c	0.009931456
3	0x3d387ef8	0.04504296
4	0xbcb74a18	-0.022374198
5	0xbd8fd2ab	-0.070226036
6	0xbd8c8aed	-0.068624355
7	0xbd3766e5	-0.044775862
8	0x3ce191a0	0.02753526
9	0xbd04af74	-0.032393888
10	0x3d48aa18	0.04899034
11	0xbdb1b131	-0.08676375
12	0xbd59c69f	-0.053167935
13	0x3d4d0e9c	0.05006276
14	0x3da2929e	0.07938121
15	0xbc000aa7	-0.00781504
16	0xbcd124e8	-0.025530294
17	0x3cd2de54	0.02574078
18	0xbbeffbd7	-0.007323723
19	0x3cd17168	0.025566772
20	0x3d786554	0.06064351
21	0xbd5f0fbe	-0.054458372
22	0x3cce15e0	0.025156915
23	0x3d80e828	0.0629428
24	0x3d90a96e	0.07063566
25	0x3cdc2cc0	0.026876807
26	0x3d96d85a	0.073654845
27	0x3d88d39a	0.06680985
28	0xbd6d95a8	-0.05800405
29	0x3db3cb0c	0.087789625
30	0x3d601270	0.054705083
31	0xbd8d0e21	-0.068874605
32	0x3d5dbb28	0.054133564
33	0x3d0b862e	0.03406351
34	0xbd05d510	-0.032673895
35	0xbc245f95	-0.010032554
36	0xbcf6917e	-0.030098673
37	0x3d9c3c5c	0.076287
38	0xbdaa4bf2	-0.08315267
39	0xbc995e88	-0.018721834
40	0x3da0c940	0.078508854
41	0xbd9c39da	-0.07628222
42	0x3c5f3d27	0.01362542
43	0xbce5d978	-0.028057799
44	0xbd74d3da	-0.05977235
45	0xbc804548	-0.015658036
46	0xbd936f9e	-0.07199024
47	0xbd5ced5a	-0.053937294
48	0x3d977550	0.073954225
49	0xbc906dd8	-0.017630503
50	0x3af5b22c	0.0018745116
51	0xbc89f804	-0.016841896
52	0xbd8a012f	-0.06738507
53	0x3d352734	0.04422684
54	0x3cceead4	0.02525846
55	0xbb3985c6	-0.0028308495
56	0x3cd6084c	0.026127003
57	0xbd6be63e	-0.057592623
58	0x3d24b43c	0.040210947
59	0x3cbfe338	0.023423776
60	0x3d86ca10	0.06581509
61	0xbba6a235	-0.0050852546
62	0xbda3a4f9	-0.079904504
63	0x3d2e45f8	0.042547196
64	0xbc7e720c	-0.015530121
65	0x3d99a6fe	0.07502554
66	0x3d8f4d4e	0.069971666
67	0x3c34f0e4	0.011043761
68	0x3d59f770	0.05321449
69	0x3cc16954	0.023609795
70	0x3c3c8a86	0.011507636
71	0xbd69f3af	-0.05711716
72	0x3d3ffd5c	0.04687248
73	0x3d3ed250	0.04658729
74	0x3cec07c4	0.028812297
75	0x3bc78da5	0.0060898834
76	0x3aa2e9dc	0.0012429315
77	0x3ceff384	0.029290922
78	0x3d2be758	0.041968673
79	0xbc8a6bf8	-0.016897187
80	0xbba545bb	-0.005043713
81	0xbd6e7a72	-0.05822224
82	0x3cbc5474	0.02298949
83	0x3d530f18	0.051528066
84	0x3d2fafe8	0.042892367
85	0x3da0a090	0.07843125
86	0xbd9f1dce	-0.07769357
87	0x3d397aec	0.045283243
88	0x3d3c7674	0.046011403
89	0xbc6c1fc3	-0.014411869
90	0xbd9bd69a	-0.076092914
91	0xbd863b1f	-0.06554245
92	0x3d2a8218	0.041627973
93	0xbdb293a3	-0.08719566
94	0x3c86b0ec	0.016441785
95	0x3d820130	0.06347883
96	0xbc377b7f	-0.011198877
97	0x3c1a9795	0.009435554
98	0xbd574255	-0.052553494
99	0x3cc14dd8	0.02359669
100	0xbcc84d08	-0.024450794
101	0x3d9c2b8a	0.07625492
102	0x3b5b75de	0.0033487002
103	0x3db1486e	0.08656393
104	0x3d4599a0	0.04824221
105	0x3d2049ac	0.03913276
106	0xbbbae779	-0.005703863
107	0xbcfcee0e	-0.030875232
108	0x3c487957	0.012235961
109	0x3bd240f7	0.006416436
110	0xbc9b784c	-0.01897826
111	0x3cd38c00	0.025823593
112	0xbd57b5bd	-0.052663554
113	0x3db0d27a	0.08633895
114	0x3d94d282	0.07266714
115	0xbda1e2bb	-0.079045735
116	0xbd8617e7	-0.06547528
117	0xbb46e794	-0.0030350434
118	0xbcdb3d2a	-0.026762564
119	0xbc1ac69f	-0.009446769
120	0x3d162a2e	0.03666132
121	0x3c1f37b3	0.00971787
122	0xbd5a08d7	-0.053231087
123	0xbd2d754f	-0.042348202
124	0x3d2fa928	0.04288593
125	0xbc489588	-0.012242682
126	0x3d9361d6	0.07196395
127	0x3cc28740	0.023746133

weight f4 [128, 128]
0	0x3ab9821c	0.0014153155
1	0x3ce2cf54	0.027686752
2	0x3d2da7cc	0.04239635
3	0xbcb0338c	-0.021508954
4	0xbd984b31	-0.074362166
5	0xbbe3b739	-0.006949332
6	0x3d9a0246	0.07519965
7	0xbba4045b	-0.005005402
8	0x3d9e5ea6	0.077328965
9	0xbd8b6d3c	-0.06807944
10	0x3cd1be38	0.025603399
11	0x3d40b580	0.047048092
12	0xbc8e6744	-0.017383225
13	0xbd9caf86	-0.07650666
14	0x3d12bdc4	0.035825506
15	0x3d692304	0.05691816
16	0xbd8958b0	-0.06706369
17	0x3d8f33bc	0.069922894
18	0x3d82f796	0.063948795
19	0xbd341b2a	-0.04397122
20	0x3d081a46	0.03322818
21	0xbd0a9145	-0.033829946
22	0x3b2fe8d6	0.0026841662
23	0x3b1cda92	0.002393399
24	0x3d5a4aa4	0.05329384
25	0x3d94d472	0.07267083
26	0x3d0bbd26	0.034115933
27	0x3d7ecd44	0.062207475
28	0x3dafac96	0.0857784
29	0xbd99ff63	-0.07519414
30	0x3d58d7b0	0.05294007
31	0x3da2fe06	0.079586074
32	0xbcb38ee4	-0.021918721
33	0x3c781e18	0.015143894
34	0xbd9967a4	-0.07490471
35	0x3c1c7b67	0.009550906
36	0xbd9cba72	-0.07652749
37	0xbd719002	-0.058975227
38	0x3d034298	0.03204593
39	0x3db1f9b8	0.08690208
40	0xbd5c4203	-0.05377389
41	0xbd9ca480	-0.076485634
42	0xbd3f13fb	-0.046649914
43	0xbd9703d1	-0.07373775
44	0xbbb1b029	-0.0054226113
45	0x3c89b46d	0.016809667
46	0x3d8aac4c	0.06771144
47	0xbd6ef1da	-0.058336116
48	0x3d9bdc50	0.07610381
49	0xbc901664	-0.017588802
50	0x3d2f6b04	0.042826667
51	0xbc9a637c	-0.018846266
52	0xbd8ae239	-0.0678143
53	0xbc781ca4	-0.015143547
54	0x3c189767	0.009313441
55	0x3da9475e	0.08265565
56	0x3d031d4a	0.032010354
57	0x3cccdc00	0.025007248
58	0x3d5c4268	0.053774267
59	0xbd2dd961	-0.042443637
60	0xbbf984c4	-0.007614704
61	0xbccd53d0	-0.025064379
62	0x3da0a748	0.07844406
63	0x3c643718	0.013929151
64	0xbc726603	-0.014794829
65	0x3c389949	0.011267015
66	0x3d4119ec	0.04714386
67	0x3d8c86d8	0.06861657
68	0x3c4b5cee	0.012412293
69	0xbd53c338	-0.051699847
70	0x3db58b0c	0.08864412
71	0xbda9aa90	-0.08284485
72	0xbc8216ec	-0.01588007
73	0xbcd57c0e	-0.02606013
74	0x3d9d2ca4	0.0767453
75	0xbbad936b	-0.0052971146
76	0x3c41ef90	0.011836901
77	0xbcbe3c5c	-0.023222141
78	0x3d401ab4	0.046900466
79	0x3c828f4b	0.015937468
80	0xbc31914b	-0.010837863
81	0xbd3c3297	-0.045946684
82	0x3cfffca0	0.03124839
83	0xbc979e58	-0.018508121
84	0xbd515e83	-0.051115524
85	0x3c997df8	0.018736824
86	0x3d7b66fc	0.06137751
87	0x3d3c61d0	0.04599172
88	0xbc53c6ce	-0.012925817
89	0xbb5d2da4	-0.0033749128
90	0x3d4e9114	0.050431326
91	0xbcf83186	-0.030297052
92	0xbd439794	-0.047751978
93	0x3d731288	0.059343845
94	0xbd5949f7	-0.053049054
95	0x3d51aa14	0.05118759
96	0xbd0de06a	-0.034637846
97	0xbd7daa10	-0.061929762
98	0xbc6e9749	-0.014562436
99	0x3c5bab3d	0.013407526
100	0xbd641243	-0.05568148
101	0x3c96f440	0.018427014
102	0x3bfdf74f	0.0077504287
103	0x3d8f2f28	0.06991416
104	0xbcfcd48c	-0.030863069
105	0x3ba0b3ef	0.0049042623
106	0x3b6aa47e	0.0035803611
107	0x3bacddb1	0.005275451
108	0xbd265bee	-0.040615015
109	0xbd9061b3	-0.07049885
110	0xbd33f792	-0.043937273
111	0xbc686c5c	-0.014185991
112	0x3d530720	0.051520467
113	0x3db12812	0.08650221
114	0x3d154944	0.036446825
115	0xbd058f16	-0.03260716
116	0xbc66d72a	-0.014089385
117	0x3ca15158	0.019692108
118	0x3da2e812	0.0795442
119	0xbca93ba0	-0.020658314
120	0xbda8edd5	-0.08248488
121	0xbd57292b	-0.052529495
122	0x3da21600	0.079143524
123	0x3ad49914	0.0016219937
124	0xbdacdc42	-0.08440448
125	0x3d6edfec	0.058319017
126	0xbd1b1bf6	-0.037868463
127	0x3d09ba26	0.03362479
128	0xbcc4e4f0	-0.024034947
129	0xbd9c2a61	-0.07625271
130	0xbd13e86c	-0.036110327
131	0x3d930746	0.07179122
132	0x3d885360	0.066565275
133	0x3d279398	0.04091224
134	0xbd85f930	-0.06541669
135	0xbda6497d	-0.081194855
136	0xbd049e5b	-0.032377582
137	0xbce25fe2	-0.027633611
138	0xbcc18e1c	-0.023627333
139	0x3b8345f6	0.0040061427
140	0xbd1facde	-0.03898322
141	0x3d93f0a6	0.072236344
142	0x3da2c61e	0.07947944
143	0xbd596021	-0.05307019
144	0xbcedd268	-0.029030994
145	0x3d984c6c	0.07436451
146	0xbd201256	-0.039079987
147	0xbd762406	-0.06009295
148	0x3d8ad188	0.06778246
149	0x3d1c2908	0.038125068
150	0xbc9b11b4	-0.01892934
151	0x3d34d99c	0.04415284
152	0x3d837778	0.06419271
153	0x3cf16b6c	0.029470168
154	0xbcc98b68	-0.024602607
155	0xbd11f667	-0.03563538
156	0x3ceb84e0	0.028749883
157	0xbc7599de	-0.014990298
158	0x3b98999b	0.004656983
159	0xbd873e8c	-0.06603727
160	0xbd8f7f32	-0.070066825
161	0x3d007fdf	0.031371947
162	0xbd84eb28	-0.06490165
163	0xbc045a29	-0.0080781365
164	0x3d7c7cb0	0.06164235
165	0x3d035004	0.03205873
166	0xbc15ea91	-0.009150163
167	0xbd32224d	-0.043489743
168	0x3d8a3b80	0.0674963
169	0xbd97af7e	-0.07406519
170	0x3da5e418	0.08100146
171	0x3cbe6ab0	0.023244232
172	0x3cf3bf48	0.029754296
173	0xbd9aa131	-0.07550276
174	0xbdb0e83d	-0.08638046
175	0xbd00f706	-0.03148558
176	0x3db1a3f4	0.0867385
177	0x3db141c2	0.086551204
178	0x3c130ae8	0.008974768
179	0x3bd6b41e	0.0065522334
180	0xbd9c1ec5	-0.07623056
181	0xbc9847b4	-0.018588878
182	0xbd7107c8	-0.05884531
183	0xba62e9fc	-0.0008656082
184	0xbd036493	-0.032078337
185	0xbcaaab3c	-0.020833604
186	0xbd9f3efd	-0.07775686
187	0xbd6837be	-0.056693785
188	0x3d7c8e58	0.061659187
189	0x3d2516b8	0.04030487
190	0x3b7c9bc0	0.0038544983
191	0x3cae60bc	0.02128636
192	0xbd168422	-0.036747105
193	0x3d549bcc	0.051906392
194	0x3da2c44e	0.079475984
195	0x395b6b62	0.00020925471
196	0xbc7ce43b	-0.015435274
197	0xbd5e21fe	-0.054231636
198	0x3dadc24e	0.08484326
199	0xbd6fa61d	-0.058508027
200	0x3b2ceb52	0.002638538
201	0x3d5c0d24	0.05372347
202	0xbd15176a	-0.036399283
203	0xbc606d7a	-0.013697976
204	0x3c99c4a4	0.018770523
205	0xbd32ae91	-0.04362351
206	0x3c8ae0e4	0.01695294
207	0xbd386bbf	-0.04502463
208	0xbd4e5530	-0.05037421
209	0xbc271722	-0.010198386
210	0xbcd04520	-0.025423586
211	0xbd861461	-0.06546856
212	0xbd57e457	-0.052707996
213	0xbd98aadf	-0.07454466
214	0xbba897dc	-0.005145056
215	0x3c876c6c	0.016531192
216	0xbd95c265	-0.073124684
217	0x3da32d86	0.07967667
218	0xbc8db044	-0.017295964
219	0x3d55bdf8	0.05218312
220	0xbca14f7c	-0.019691221
221	0x3cdf3f58	0.027251884
222	0xbbfee09f	-0.0077782418
223	0xbda6e514	-0.08149162
224	0xbc71eeb4	-0.014766384
225	0x3cc0332c	0.0234619
226	0x3be48c31	0.00697472
227	0x3d6be588	0.057591945
228	0x3d9d0a04	0.07667926
229	0xbd29f96d	-0.041497637
230	0xbcc52a58	-0.024068043
231	0xbae99f5c	-0.0017823982
232	0xbcc0501c	-0.0234757
233	0x3d800d92	0.06252588
234	0x3d31578c	0.04329638
235	0xbd6272ba	-0.055285193
236	0x3d1b0188	0.037843257
237	0xbda9b1e6	-0.082858846
238	0x3d33c298	0.04388675
239	0xbd1cd704	-0.038290992
240	0x3d076482	0.033054836
241	0x3cd39208	0.025826469
242	0xbbb7c43f	-0.005608111
243	0xbd1dee1a	-0.03855715
244	0xbcc38e78	-0.023871645
245	0xbd015835	-0.03157826
246	0x3d6ee6a8	0.05832544
247	0x3d661ce0	0.05617988
248	0x3d3980f0	0.04528898
249	0xbd7df916	-0.062005125
250	0xbd08f602	-0.033437736
251	0xbd878685	-0.066174544
252	0x3c73ff8f	0.014892473
253	0xbd83f2d5	-0.06442801
254	0xbd1ea765	-0.03873386
255	0x3d578d3c	0.052624926

bias f4 [128]
0	0xbd5eb123	-0.05436815
1	0x3d9ced0a	0.07662399
2	0xbcfa21d2	-0.030533705
3	0x3c96e370	0.018418998
4	0xbdb02ada	-0.08601923
5	0xbcc21620	-0.02369219
6	0xbd855aef	-0.06511485
7	0x3d7a88b0	0.06116551
8	0xbb0e9a8e	-0.0021759602
9	0xbd62c5b2	-0.05536432
10	0x3d4fd36c	0.050738737
11	0x3dac41e2	0.08411004
12	0x3db4a20e	0.08819972
13	0x3c443c89	0.011977323
14	0xbd763b69	-0.06011525
15	0xbaa7f0b5	-0.0012812825
16	0xbcf28ab8	-0.029607162
17	0x3d9d6a0e	0.07686244
18	0xbd04d91a	-0.032433607
19	0x3c48cef5	0.012256374
20	0x3cada184	0.02119518
21	0xbd214de0	-0.039380908
22	0x3dac65d6	0.08417861
23	0xbd799b2d	-0.060939003
24	0x3d723a60	0.059137702
25	0xbc04a0e8	-0.008095004
26	0x3b41e762	0.0029587378
27	0xbd8f9e09	-0.07012565
28	0x3d829d22	0.06377627
29	0x3d413380	0.047168255
30	0xbd08a34c	-0.033358857
31	0x3d24d69c	0.04024373
32	0xbd2e8ed3	-0.042616677
33	0xbd803de7	-0.06261807
34	0x3d7866b0	0.060644805
35	0x3d140a6c	0.03614275
36	0x3ccfb2ec	0.025353871
37	0x3d81a094	0.06329456
38	0xbcc7cbcc	-0.02438917
39	0x3da2fa66	0.07957916
40	0xbd300b8a	-0.042979755
41	0xbd97689d	-0.07393
42	0x3d989526	0.07450323
43	0xbc846170	-0.016159743
44	0xbd004eb2	-0.03132505
45	0x3d1a3b00	0.037653923
46	0x3daf17f4	0.085494906
47	0xbd33d29f	-0.043902036
48	0x3d80774c	0.06272754
49	0x3d8ab764	0.0677326
50	0x3d9fd5e0	0.07804465
51	0xbcba4eb8	-0.022742614
52	0x3d62b138	0.05534479
53	0xbc96cebc	-0.018409126
54	0x3da40a2e	0.08009754
55	0x3c256c05	0.010096555
56	0x3d0d821e	0.034547918
57	0xbd1073e2	-0.035266764
58	0x3d3e6514	0.046483114
59	0xbd88cc55	-0.06679598
60	0xbd047223	-0.03233541
61	0x3cdec660	0.027194202
62	0x3d715434	0.058918193
63	0xbd46b7c2	-0.04851509
64	0xbdaa2c1d	-0.08309195
65	0x3ba76cbf	0.005109399
66	0xbc79ff5f	-0.015258639
67	0x3ce0b214	0.027428664
68	0xbd97f673	-0.07420053
69	0x3d90c9da	0.0706975
70	0x3cf03c04	0.029325493
71	0x3ccafd68	0.024779037
72	0x3d7a3554	0.061086014
73	0xbd63e379	-0.055636857
74	0x3d7279a0	0.059198022
75	0xbc233dea	-0.009963492
76	0xbc00eea5	-0.007869397
77	0xbda5902a	-0.08084138
78	0xbcaf7e48	-0.02142252
79	0xbd4f79c3	-0.05065323
80	0xbd3da3b8	-0.046298712
81	0x3d809ea2	0.06280257
82	0x3d655b28	0.055995136
83	0xbd03da76	-0.032190762
84	0xbd6d434d	-0.05792551
85	0xbd904468	-0.070442975
86	0xbd9dc895	-0.077042736
87	0xbd7c16de	-0.061545245
88	0xbd8049e7	-0.06264096
89	0x3d9e5eb2	0.077329054
90	0x3c47da5f	0.01219806
91	0xbcede250	-0.029038578
92	0x3ccde858	0.025135204
93	0xbc28fc3f	-0.010314046
94	0x3d74351c	0.05962096
95	0xbd9b5836	-0.07585184
96	0x3ce5b134	0.028038599
97	0xbcf5736a	-0.02996226
98	0xbcebeb72	-0.028798793
99	0xbd89c29c	-0.06726572
100	0x3c8d6418	0.017259642
101	0x3d83b6a4	0.0643132
102	0x3cc7b42c	0.024377905
103	0xbb691646	-0.0035566255
104	0xbcefa0ca	-0.029251475
105	0xbd3ee97c	-0.046609387
106	0xbdb153af	-0.086585395
107	0xbdaf472b	-0.08558496
108	0x3c2fec1f	0.010737448
109	0x3da13fd4	0.078735024
110	0xbd805221	-0.06265665
111	0xbd00b2f0	-0.031420648
112	0xbd647c38	-0.055782527
113	0xbc485f93	-0.012229818
114	0xbcb1eb90	-0.02171877
115	0x3d955cb2	0.07293071
116	0x3dabbfd8	0.08386201
117	0xbd806dec	-0.06270966
118	0x3d8add5e	0.06780504
119	0xbcf30b06	-0.029668342
120	0xbd982358	-0.07428616
121	0xbac28554	-0.001484076
122	0xbd8ee4e0	-0.06977248
123	0xbcb4e4d0	-0.022081763
124	0xbd4da0cb	-0.050202172
125	0xbd8a751a	-0.067606166
126	0x3c8ac414	0.0169392
127	0x3d9dd02a	0.0770572

weight f4 [1, 128]
0	0x3cf43dac	0.029814564
1	0x3dab9477	0.08377927
2	0xbd8bda28	-0.068287194
3	0x3d1daf16	0.038497053
4	0xbc94fdd4	-0.018187441
5	0x3d92975d	0.071577765
6	0xbd3b7767	-0.045768168
7	0xbd81213f	-0.06305169
8	0xbccdd86c	-0.025127612
9	0x3d5971a6	0.0530869
10	0x3b9183e0	0.0044407696
11	0xbc2ae6b0	-0.010430977
12	0xbd307508	-0.04308036
13	0xbd6adffc	-0.057342514
14	0x3dab60c1	0.08368064
15	0x3d6948f6	0.056954347
16	0xbd64957e	-0.05580663
17	0xbc803ffc	-0.01565551
18	0x3cc4ad74	0.02400849
19	0xbd3896f3	-0.04506583
20	0xbda484da	-0.08033152
21	0xbdb10eea	-0.08645423
22	0x3d30bf2e	0.043151073
23	0x3ba1d2d0	0.004938461
24	0xbd4f7ae6	-0.050654314
25	0xbcb075e8	-0.021540597
26	0xbc0e4f90	-0.008685961
27	0xbd97c478	-0.0741052
28	0x3d396492	0.045261927
29	0x3c37adc0	0.011210859
30	0x3dac743f	0.0842061
31	0xbcc86848	-0.024463788
32	0x3da79057	0.081818275
33	0xbca2acd4	-0.019857801
34	0x3d6f8f66	0.058486365
35	0x3d0ba39e	0.034091584
36	0xbd202b8b	-0.039104026
37	0xbb2fe840	-0.0026841313
38	0x3c395f58	0.011314236
39	0xbc4a9ad8	-0.012366019
40	0xbd186ced	-0.037213255
41	0xbd4bfab2	-0.04979963
42	0xbd520a41	-0.05127931
43	0x3b7e0c20	0.0038764551
44	0x3cd953b0	0.026529163
45	0x3db1e53b	0.086863
46	0x3d978bd1	0.07399715
47	0xbd31a18d	-0.043366957
48	0xbd57e371	-0.05270714
49	0x3c72be00	0.014815807
50	0x3c93282c	0.017963491
51	0xbd80972b	-0.06278833
52	0xbd9e44ca	-0.07727964
53	0x3d6c142e	0.057636432
54	0x3d859a91	0.06523622
55	0x3c342a18	0.010996364
56	0xbcfafba8	-0.030637577
57	0x3d38967e	0.045065396
58	0xbd902cec	-0.07039818
59	0xbad05240	-0.0015893653
60	0x3d73dc6e	0.05953639
61	0x3cdd9ce8	0.027052358
62	0xbd565dea	-0.052335657
63	0xbd4de475	-0.0502667
64	0x3d8704f9	0.06592745
65	0x3c08d9e0	0.008352727
66	0x3c60ae30	0.013713405
67	0x3cdbb220	0.026818335
68	0xba92cd00	-0.0011200011
69	0x3d17dc1e	0.037075154
70	0xbd9221a0	-0.0713532
71	0xbd64efe7	-0.05589285
72	0x3b50a400	0.0031836033
73	0xbc688830	-0.014192626
74	0x3dab06cb	0.08350905
75	0xbd8cbf1a	-0.06872387
76	0xbc919cb0	-0.01777491
77	0x3c079a70	0.008276567
78	0x3b909b00	0.0044130087
79	0xbc0e2a90	-0.00867714
80	0x3d1e183a	0.038597323
81	0x3b8cef40	0.0043009818
82	0x3cb7c478	0.02243255
83	0x3d8a9fa1	0.06768728
84	0x3d0f446c	0.03497736
85	0x3d6a6582	0.05722571
86	0x3d155ed2	0.03646738
87	0x3c7d63b8	0.015465669
88	0xbd6506d2	-0.055914707
89	0xbda12a7d	-0.07869432
90	0xbd9786dc	-0.07398769
91	0x3ce97bd8	0.028501436
92	0xbc6f13d8	-0.014592133
93	0xbd7b1fdf	-0.06130969
94	0xbbb8df40	-0.005641848
95	0x3db19299	0.086705394
96	0xbd996327	-0.07489615
97	0xbd2afe95	-0.041746695
98	0xbd82c0b3	-0.06384411
99	0xbd0552f6	-0.03254982
100	0x3d571a66	0.05251541
101	0x3c446ee0	0.011989325
102	0x3c973b5c	0.018460922
103	0xbd264e9a	-0.040602304
104	0xbce07a48	-0.027402058
105	0xba913c00	-0.0011080503
106	0xbd7bb594	-0.061452463
107	0xbd4e8f72	-0.05042977
108	0x3d785bca	0.060634412
109	0x3b1a23a0	0.002351977
110	0x3ba174e0	0.0049272627
111	0xbd72090a	-0.05909065
112	0x3c2f3ac0	0.010695159
113	0xbcd4523c	-0.025918119
114	0xbd9adc6a	-0.07561572
115	0xbc9bce9c	-0.019019417
116	0xbd4bb01f	-0.04972851
117	0x3d2200ce	0.03955155
118	0x3c76b848	0.0150585845
119	0x3c895514	0.016764201
120	0xbdac461f	-0.08411812
121	0x3db0d9f9	0.08635325
122	0x3ce53ed4	0.02798406
123	0x3d8557b1	0.065108664
124	0xbd87159f	-0.06595921
125	0x3d35c57a	0.04437778
126	0x3d2103d6	0.0393103
127	0x3d9eb755	0.077498116

comm_mask f4 [3, 3]
0	0x00000000	0.0
1	0x3f800000	1.0
2	0x3f800000	1.0
3	0x3f800000	1.0
4	0x00000000	0.0
5	0x3f800000	1.0
6	0x3f800000	1.0
7	0x3f800000	1.0
8	0x00000000	0.0
