exp1/coop1.pt (torch_old, 161458 bytes, 10 tensors)

weight f4 [128, 18]
0	0xbdf636a4	-0.120221406
1	0xbdaa3a65	-0.08311919
2	0xbdfc4e5d	-0.12319634
3	0xbcb40b1c	-0.021977954
4	0xbe44813a	-0.19189921
5	0xbcd728f4	-0.026264645
6	0x3e5bd8a8	0.21469367
7	0x3d88f741	0.06687785
8	0x3d91d031	0.071197875
9	0x3de989fb	0.11403271
10	0x3c96bb84	0.018399961
11	0xbd047e2a	-0.032346882
12	0x3e110c1e	0.14164779
13	0x3dcb804d	0.09936581
14	0x3de400fe	0.11133002
15	0x3d7cf5e4	0.061757937
16	0xbe5cabef	-0.21549962
17	0x3e25288f	0.16128753
18	0x3e21b16f	0.15790342
19	0x3e42351e	0.18965575
20	0xbe120e97	-0.14263378
21	0x3e3b5c52	0.18296936
22	0xbe2238aa	-0.15841928
23	0x3dcf1b5d	0.10112641
24	0xbd2a2e02	-0.041547783
25	0xbdb005af	-0.08594834
26	0x3c31ef98	0.010860346
27	0xbe319722	-0.17342809
28	0xbd18d3ea	-0.037311472
29	0x3e1fd2ee	0.15607807
30	0xbc9285ac	-0.017886005
31	0xbdcb8bed	-0.09938798
32	0x3e0defa1	0.13860942
33	0x3deab8be	0.11461018
34	0x3c38cf50	0.011279896
35	0x3deb8d52	0.11501564
36	0x3d192aaa	0.037394203
37	0xbe183ff7	-0.1486815
38	0xbdeb50f6	-0.114900514
39	0x3dd84357	0.10559719
40	0xbe6bf10d	-0.23041172
41	0x3e1933ae	0.1496112
42	0x3ca4d854	0.020122685
43	0xbdeb77ff	-0.11497497
44	0xbdfd71b4	-0.12375203
45	0xbc12941f	-0.008946448
46	0xbde94fe5	-0.11392192
47	0x3d3360ea	0.043793596
48	0x3cba8c14	0.022771873
49	0x3dbb996f	0.091601245
50	0xbe0ce5c4	-0.13759524
51	0xbcabc518	-0.020968005
52	0xbe5d7519	-0.216267
53	0xbcd32388	-0.025773779
54	0xbd4c7052	-0.049911804
55	0x3e3224f8	0.17396915
56	0xbe54d0ee	-0.20782825
57	0xbe2542b4	-0.16138726
58	0x3e67ef70	0.22649932
59	0x3e003255	0.125192
60	0x3d7f5af6	0.062342606
61	0x3e451f59	0.1925024
62	0xbdbb119b	-0.09134217
63	0xbd81f18f	-0.06344902
64	0xbe3cc8fb	-0.18436043
65	0x3db29307	0.087194495
66	0x3e0256fc	0.12728494
67	0xbc95f86c	-0.018306933
68	0x3df9e76a	0.12202342
69	0x3e3e2c0b	0.18571489
70	0x3e38c69f	0.18044518
71	0xbd98d842	-0.07463123
72	0xbe248162	-0.1606498
73	0x3dbc3993	0.09190669
74	0x3dbe2485	0.09284309
75	0x3da0ef25	0.07858113
76	0x3e595d46	0.21226987
77	0xbd75fec6	-0.060057424
78	0x3dcfb0dd	0.10141156
79	0xbe6f3007	-0.23358165
80	0x3e00280b	0.12515275
81	0x3da20529	0.079111405
82	0x3e4e9996	0.20175776
83	0xbde5c152	-0.112185135
84	0x3cfb65b5	0.030688146
85	0xbe0e08e5	-0.1387058
86	0xbe6d277b	-0.23159592
87	0xbded8b5c	-0.11598846
88	0xbe608a28	-0.21927702
89	0x3ce9d5b8	0.028544292
90	0x3e4bd231	0.199044
91	0xbccbb0f4	-0.024864651
92	0x3e5ad63e	0.2137079
93	0x3c611b59	0.01373943
94	0x3e684496	0.22682413
95	0xbe2f5b83	-0.17124753
96	0xbdea61e3	-0.11444452
97	0xbdc834dd	-0.09775708
98	0x3cee3834	0.029079534
99	0xbd3f314e	-0.04667788
100	0xbe5bcdae	-0.2146518
101	0xbd6a0f4a	-0.057143487
102	0x3e2a3566	0.16621932
103	0xbc931084	-0.017952211
104	0xbe64de8b	-0.22350518
105	0x3e61f4fd	0.22066112
106	0xbc6e2500	-0.014535189
107	0xbe47f6d2	-0.19527748
108	0xbd6223a2	-0.055209763
109	0xbcf25363	-0.029580778
110	0xbe4fa486	-0.20277604
111	0xbe060ff1	-0.13092019
112	0x3d503ec6	0.050841115
113	0x3e226114	0.15857345
114	0xbe05b3cd	-0.1305687
115	0x3cd75bec	0.026288949
116	0xbd88517b	-0.06656166
117	0xbe29705b	-0.16546766
118	0x3bd42e65	0.006475257
119	0x3b97e9ae	0.004636011
120	0xbe2e0ff3	-0.16998272
121	0x3e546c9a	0.20744553
122	0xbe58db89	-0.21177496
123	0xbe6eb72b	-0.2331206
124	0xbe4bfda4	-0.19920975
125	0x3b8c2f80	0.0042781234
126	0x3e1ccdca	0.15312877
127	0xbe392dc7	-0.18083869
128	0xbe1558ac	-0.14584607
129	0x3e3c7ae2	0.18406251
130	0x3e62e12c	0.22156209
131	0xbda23b9d	-0.079215266
132	0x3e3e17cc	0.18563765
133	0xbe09a4e1	-0.13441803
134	0xbd035726	-0.032065533
135	0x3e44f272	0.1923311
136	0x3d67ffd2	0.056640454
137	0xbe052dcc	-0.13005751
138	0xbd185980	-0.03719473
139	0xbe1c35bf	-0.15254878
140	0xbe2de43c	-0.16981596
141	0x3ca904f8	0.020632252
142	0x3d10debc	0.035368666
143	0xbbb4e300	-0.0055202246
144	0xbde5bf40	-0.11218119
145	0xbe6a4dfb	-0.2288131
146	0xbdc1172d	-0.094282486
147	0xbe469f34	-0.19396669
148	0xbe18e00b	-0.14929216
149	0xbe11be7d	-0.14232822
150	0x3c540cad	0.012942475
151	0x3e2129ae	0.15738556
152	0x3e023898	0.12716901
153	0xbe3bc044	-0.18335062
154	0x3d025cb6	0.031826697
155	0xbe67ef0e	-0.22649786
156	0xbd0d587a	-0.034508206
157	0xbe107ad5	-0.14109357
158	0x3e522681	0.205225
159	0x3dce6abe	0.10078953
160	0xbe0c1f90	-0.13683915
161	0xbe6b936c	-0.23005456
162	0x3e08efb2	0.13372687
163	0xbe0c8d58	-0.13725793
164	0x3e016840	0.12637424
165	0xbe636791	-0.22207476
166	0xbdb6a167	-0.08917504
167	0x3c9da424	0.019243307
168	0x3c04ed83	0.008113268
169	0x3d96d887	0.07365518
170	0x3d362936	0.044472896
171	0xbb9bff0f	-0.00476063
172	0xbd16387a	-0.036674954
173	0xbe128bb3	-0.14311104
174	0x3e31eb33	0.17374878
175	0xbdc0bfd9	-0.09411592
176	0x3e19cfa3	0.15020613
177	0x3e0bba2b	0.13645236
178	0xbd97b976	-0.07408421
179	0xbe12bb4e	-0.14329264
180	0x3e02edc7	0.12786017
181	0x3e0899cd	0.1333992
182	0x3e266f38	0.16253364
183	0xbe0409cf	-0.12894367
184	0xbd9d5725	-0.07682637
185	0x3d856b21	0.06514574
186	0xbe3e22b1	-0.18567921
187	0x3e36bbb6	0.17845044
188	0xbe50c22c	-0.2038657
189	0xbdaba05d	-0.08380196
190	0x3c2fbc4d	0.010726047
191	0xbce54a74	-0.027989604
192	0x3d887b47	0.06664138
193	0xbcf01934	-0.029308893
194	0xbe139663	-0.14412837
195	0xbdfc666b	-0.12324222
196	0x3e319ea1	0.17345668
197	0xbe6a83f2	-0.22901896
198	0xbe4e2797	-0.2013229
199	0xbb18d212	-0.002331857
200	0x3e5c6300	0.2152214
201	0x3dd93f17	0.106077366
202	0x3debe81d	0.115188815
203	0x3e4c506b	0.19952552
204	0xbe5cd547	-0.21565734
205	0x3e479a26	0.19492397
206	0xbdc80af9	-0.09767718
207	0x3d34060e	0.043951087
208	0x3da1894d	0.07887516
209	0x3e403eee	0.18774006
210	0xbe131f01	-0.14367296
211	0x3e0b3d94	0.13597709
212	0xbd08947c	-0.03334473
213	0xbe24bee4	-0.16088444
214	0xbd7f7640	-0.06236863
215	0xbd8e8384	-0.06958678
216	0x3e46b968	0.19406664
217	0xbddd88fd	-0.10817144
218	0x3e5ad014	0.21368438
219	0x3e240966	0.1601921
220	0xbdac3021	-0.08407617
221	0xbc85a43c	-0.016313665
222	0xbd45300e	-0.04814153
223	0xbdc260f7	-0.09491151
224	0xbd7c7542	-0.061635263
225	0x3e655728	0.22396529
226	0x3c78b7a3	0.015180501
227	0xbcbdceb4	-0.023169853
228	0xbe46b38a	-0.19404426
229	0x3e0fb6de	0.14034602
230	0xbc85ecc8	-0.016348258
231	0xbba09240	-0.004900247
232	0x3df4c266	0.11951141
233	0x3e3de8df	0.18545865
234	0xbd1fb192	-0.038987704
235	0xbd212726	-0.039343975
236	0xbe33c24d	-0.17554589
237	0xbe341695	-0.1758674
238	0x3e6d28c0	0.23160076
239	0x3c0c3fc8	0.0085601285
240	0xbe6c0d3d	-0.23051925
241	0x3cd13d5c	0.025541954
242	0x3e68370e	0.22677252
243	0xbe608cde	-0.21928737
244	0x3e0491a0	0.12946177
245	0xbdd72ecd	-0.105069734
246	0xbd9f0b05	-0.07765774
247	0x3cb8cb54	0.022557892
248	0x3c01c880	0.007921338
249	0x3e30e133	0.17273407
250	0x3df4862a	0.11939652
251	0xbdcf9f98	-0.10137862
252	0x3e408721	0.18801548
253	0xbe2cb875	-0.1686724
254	0x3e13848c	0.14406031
255	0xbd452636	-0.048132144

bias f4 [128]
0	0xbe335b27	-0.1751524
1	0xbcca7cd4	-0.024717726
2	0xbdc2d981	-0.09514142
3	0x3d070072	0.03295941
4	0x3dc511f7	0.09622567
5	0x3e0ef402	0.13960269
6	0x3cf7a4ac	0.030229889
7	0x3e180ff8	0.14849842
8	0xbd25bc2a	-0.04046265
9	0x3df9e59f	0.12202
10	0x3d214262	0.03936995
11	0xbe27c16f	-0.16382383
12	0xbd3e93ae	-0.046527557
13	0x3cf6313c	0.030052774
14	0x3d35c5be	0.044378035
15	0x3e15fcff	0.14647292
16	0xbd2634fe	-0.04057788
17	0xbe369c2f	-0.17833017
18	0xbe4487a1	-0.19192363
19	0xbd9f2bf5	-0.07772056
20	0xbe4611ba	-0.193427
21	0x3e17001d	0.14746137
22	0xbd9e3c6d	-0.07726369
23	0xbe01a382	-0.1266003
24	0x3c1313e0	0.008976907
25	0x3e1459c3	0.14487366
26	0x3e557274	0.20844442
27	0x3c47006b	0.012146096
28	0xbd9fcac7	-0.078023486
29	0x3e220c9c	0.15825123
30	0x3e0602ba	0.13086978
31	0x3d5ded2e	0.05418127
32	0x3d3a30ea	0.045456804
33	0xbe20dc75	-0.15709098
34	0x3dd21269	0.10257418
35	0x3e3aab80	0.18229485
36	0xbd025e02	-0.031827934
37	0xbe0aca0d	-0.13553639
38	0xbd8d3f83	-0.068968795
39	0x3e163dde	0.14672038
40	0x3d875751	0.06608451
41	0x3e5852e0	0.21125364
42	0x3e2fa8bc	0.17154211
43	0xbdbb00ed	-0.09131036
44	0xbe376f8b	-0.17913644
45	0x3af782ec	0.0018883622
46	0x3e603afe	0.21897504
47	0xbdea7a03	-0.11449053
48	0xbbbace96	-0.0057008965
49	0xbd163302	-0.03666974
50	0xbe3891c1	-0.1802435
51	0xbc13b22f	-0.00901465
52	0x3d15dd42	0.03658796
53	0xbe5d38f1	-0.21603753
54	0x3e6cef76	0.23138222
55	0x3ddab395	0.10678784
56	0xbe3f15b8	-0.18660629
57	0x3e37f726	0.17965373
58	0xbdaba7d3	-0.08381619
59	0xbcae6329	-0.021287518
60	0x3e197a6d	0.14988108
61	0xbd8879a3	-0.06663825
62	0x3e26dbe0	0.16294813
63	0x3e3cdcf8	0.18443668
64	0xbe3766c1	-0.17910291
65	0x3e395806	0.18099985
66	0x3dab20c5	0.0835586
67	0xbe02255a	-0.12709561
68	0xbe6d99d1	-0.23203208
69	0x3e3d7b84	0.18504149
70	0xbe0ab526	-0.13545665
71	0x3df172d1	0.117894776
72	0x3d9587a7	0.07301264
73	0x3d86bde7	0.0657919
74	0xbd90bd53	-0.07067361
75	0xbd92ad57	-0.07161968
76	0xbe4939e8	-0.19650996
77	0xbbd3a867	-0.006459284
78	0xbe33e8bd	-0.17569251
79	0x3de70c71	0.1128167
80	0xbe5459aa	-0.20737329
81	0x3decb7ef	0.1155852
82	0xbde0cfae	-0.10977112
83	0xbe5aa64c	-0.213525
84	0xbe39c34e	-0.18140909
85	0xbcde35d4	-0.027125277
86	0xbe329b5f	-0.17442082
87	0x3dd76ba5	0.105185784
88	0xbe11654d	-0.141988
89	0x3e39c396	0.18141016
90	0x3e014e76	0.12627587
91	0xbd1d50ee	-0.03840726
92	0xbe4307d5	-0.19045956
93	0xbd54b3d2	-0.051929303
94	0xbe51cd89	-0.20488562
95	0x3e4c6b91	0.19962908
96	0x3e11bcd2	0.14232185
97	0x3dbe346d	0.09287343
98	0x3d242712	0.040076323
99	0xbdc9dddb	-0.09856769
100	0x3e69390c	0.22775668
101	0xbd570992	-0.05249936
102	0xbe623429	-0.2209021
103	0xbc2350bc	-0.009967979
104	0xbe27a61d	-0.16371961
105	0xbcd413f4	-0.02588842
106	0xbe4615a6	-0.19344196
107	0x3dc89567	0.09794121
108	0xbe1a5ad6	-0.15073714
109	0x3e51b134	0.20477754
110	0xbe2e771d	-0.17037626
111	0xbc1a8777	-0.009431711
112	0x3e48f46c	0.1962449
113	0xbe37f3cb	-0.17964093
114	0xbdad5567	-0.08463555
115	0xbd9d28ad	-0.07673774
116	0xbe6e6466	-0.23280486
117	0xbe10325d	-0.14081712
118	0xbe463efd	-0.19359966
119	0xbdc6dc55	-0.09709994
120	0x3e0453c8	0.12922585
121	0x3d90aa61	0.07063747
122	0xbe43425a	-0.1906828
123	0x3d455646	0.04817798
124	0x3d8e0de7	0.069362454
125	0xbe544147	-0.20728026
126	0x3dca4895	0.09877125
127	0x3e1bc7b6	0.15212902

weight f4 [5, 128]
0	0x3c99e824	0.018787451
1	0xbd10cfbf	-0.035354372
2	0x3d337038	0.043808192
3	0xbcf652cc	-0.030068778
4	0xbd1374d1	-0.036000077
5	0xbd70841b	-0.058719736
6	0x3ca161b4	0.019699909
7	0xbcd7f8f8	-0.026363835
8	0x3d5570b0	0.05210942
9	0xbd7efc7a	-0.0622525
10	0xbd2936fb	-0.0413122
11	0x3c2b2e7c	0.010448094
12	0xbd6ea2b2	-0.058260627
13	0x3d558aac	0.0521342
14	0x3c5c8669	0.01345978
15	0x3ce7ea8c	0.028310083
16	0xbc4b54f3	-0.01241039
17	0x3db16572	0.08661927
18	0x3d763104	0.06010534
19	0xbc245fe3	-0.010032627
20	0xbd532c04	-0.05155565
21	0x3d574500	0.052556038
22	0xbd80f0b9	-0.06295914
23	0xbd96edad	-0.07369552
24	0xbd874f9c	-0.06606981
25	0x3c5939a8	0.013258375
26	0x3d9822ac	0.07428488
27	0xbd47adcb	-0.048749726
28	0xbd8cac9d	-0.06868861
29	0xbd975e0d	-0.07390986
30	0xbc7cd436	-0.015431454
31	0x3c0f4343	0.008744064
32	0x3d680804	0.05664827
33	0xbd16c82f	-0.036812004
34	0xbd4f628c	-0.05063109
35	0xbd618382	-0.055057056
36	0x3daf852c	0.085703224
37	0x3be21522	0.006899492
38	0x3d64ecd0	0.055889904
39	0x3c87ce60	0.0165779
40	0xbda00c19	-0.078148074
41	0x3bd4c891	0.006493636
42	0x3cc66704	0.024219044
43	0x3cf8c514	0.030367412
44	0xbd188899	-0.037239645
45	0x3d1680dc	0.036743984
46	0x3d34a60c	0.044103667
47	0x3daf871a	0.085706905
48	0x3c17df0f	0.00926949
49	0x3d7fd150	0.062455475
50	0xbdb17b1c	-0.086660594
51	0x3c449def	0.012000545
52	0x3d0440be	0.032288305
53	0xbdae2e51	-0.08504928
54	0x3d4cf7b0	0.0500409
55	0x3d22f2dc	0.03978239
56	0x3d80369a	0.062604144
57	0x3d176e68	0.036970526
58	0x3da86c6c	0.08223805
59	0x3d6ba064	0.057526007
60	0x3cf6f264	0.030144878
61	0xbd982026	-0.07428007
62	0xbd38f29c	-0.045153245
63	0xbdb05fe1	-0.086120375
64	0xbc440bf1	-0.011965738
65	0xbd6e276e	-0.05814307
66	0xbd832f71	-0.06405533
67	0xbd03f82f	-0.03221911
68	0xbd4858a7	-0.04891267
69	0x3d92d624	0.0716975
70	0xbd63e5c2	-0.055639036
71	0x3d865694	0.06559482
72	0xbd06384c	-0.032768533
73	0x3da625e8	0.08112699
74	0xbd9284db	-0.071542464
75	0xbd407c5f	-0.04699361
76	0xbcc7a688	-0.0243714
77	0x3d3df410	0.046375334
78	0xbcdc1180	-0.026863813
79	0xbcf73e88	-0.030181184
80	0xbcf151dc	-0.029457979
81	0x3d72bec8	0.059263974
82	0x3ce29410	0.027658492
83	0x3c9b4ba4	0.018956967
84	0x3b444e96	0.0029954067
85	0x3cc261bc	0.023728244
86	0xbd6f8dcc	-0.058484837
87	0x3cf1df80	0.029525518
88	0xbd383e76	-0.044981442
89	0xbcd82428	-0.026384428
90	0x3d4fdb78	0.05074641
91	0xbaa4dac4	-0.0012577404
92	0xbdb6a6f3	-0.08918562
93	0x3d61a0e4	0.055085078
94	0x3d36c24c	0.04461889
95	0x3da0fbb2	0.07860507
96	0x3cad4ca4	0.02115471
97	0xbdae74a0	-0.08518338
98	0x3d2d4b7c	0.042308316
99	0xbd0b473b	-0.034003478
100	0x3ab07474	0.001346244
101	0x3d2f41d0	0.042787373
102	0x3d9bece6	0.07613544
103	0x3c5e4b6f	0.013567789
104	0xbb5f6c0e	-0.0034091505
105	0x3d96227e	0.073307976
106	0x3d381d4c	0.044949815
107	0x3da96ae4	0.08272341
108	0xbd2ddf39	-0.04244921
109	0x3d74835c	0.059695587
110	0xbc79c461	-0.015244574
111	0xbd6dfb5d	-0.058101047
112	0x3c52bb77	0.012862078
113	0x3ba2c6cd	0.0049675466
114	0x3d1c8e5c	0.038221702
115	0xbd406e07	-0.04697993
116	0xbd566958	-0.052346557
117	0xbcdd30cc	-0.027000807
118	0x3d89016c	0.06689724
119	0xbd427c38	-0.047481745
120	0xbd53efb8	-0.051742285
121	0x3d88027e	0.066411
122	0x3dac5d12	0.08416189
123	0x3d7cce60	0.061720252
124	0xbd55b0cc	-0.05217056
125	0xbdad8303	-0.08472254
126	0x3a9fcddc	0.0012192088
127	0x3db52a46	0.08845954
128	0x3d8c3ee6	0.068479344
129	0xbce885c6	-0.0283841
130	0x3bdbfe5e	0.0067136725
131	0x3c1a521e	0.009418992
132	0xbd9c2331	-0.076239
133	0xbd99d521	-0.07511354
134	0x3c802fec	0.01564785
135	0x3d5a3f9c	0.05328332
136	0x3c8a83fc	0.016908638
137	0x3c5f4ddf	0.013629406
138	0xbb092e6a	-0.0020932206
139	0xbafef664	-0.0019452092
140	0xbd82bb84	-0.06383422
141	0xba6b2058	-0.0008969358
142	0x3bf0fa8f	0.0073540877
143	0x3b86257d	0.0040938244
144	0x3da695d2	0.08134045
145	0xbc9f57d0	-0.019451052
146	0xbd3e91cb	-0.046525758
147	0x3d42984c	0.047508523
148	0x3cd3f7a0	0.025874913
149	0xbd0bf87f	-0.03417253
150	0x3d0ce468	0.034397513
151	0x3d630844	0.055427805
152	0x3d99c62a	0.075085
153	0xbd314752	-0.043280907
154	0xbca102b0	-0.019654602
155	0xbd5af448	-0.05345562
156	0x3d08d952	0.033410378
157	0xbcfb51bc	-0.030678622
158	0x3d9806be	0.07423161
159	0x3da81a82	0.08208181
160	0x3d0675b4	0.032827094
161	0xbc8b4b20	-0.017003596
162	0xbc8153d8	-0.01578705
163	0x3d0f74b0	0.03502339
164	0x3c457e26	0.012054002
165	0x3cbb90f4	0.022896267
166	0xbdaf0a39	-0.08546872
167	0xbd567d71	-0.052365724
168	0xbd8f7afc	-0.07005879
169	0x3d6c66e0	0.057715297
170	0x3c7a1dc6	0.015265888
171	0x3d321c94	0.043484285
172	0x3da73436	0.08164255
173	0xbc02e22d	-0.007988495
174	0xbc70610b	-0.014671574
175	0xbcad5310	-0.021157771
176	0xbd221d6d	-0.039578844
177	0x3d0a2e0a	0.033735313
178	0xbd6c85ab	-0.057744663
179	0x3c6a9a8b	0.0143190725
180	0xbd98b908	-0.07457167
181	0xbcb0d5f8	-0.021586403
182	0x3d4865bc	0.048925146
183	0x3da0ead0	0.07857287
184	0x3842d89a	4.645493e-05
185	0xbd8b36a7	-0.067975335
186	0x3d548958	0.051888794
187	0xbcf2e0b4	-0.029648162
188	0x3d705884	0.058678165
189	0x3ca771c4	0.02043999
190	0xbd81acbb	-0.06331774
191	0x3dad2fe2	0.084563985
192	0xbd1eafe6	-0.03874197
193	0xbd92860b	-0.07154473
194	0x3c620fb1	0.013797686
195	0xbc0f5fe5	-0.00875089
196	0xbd3696ff	-0.044577595
197	0x3cf10bd0	0.029424578
198	0xbd606370	-0.05478233
199	0x3d92eb7c	0.07173821
200	0xbcad5518	-0.02115874
201	0x3d096984	0.033547893
202	0xbda72a5e	-0.08162378
203	0x3c27e225	0.010246788
204	0xbd84114e	-0.06448613
205	0x3d223004	0.039596573
206	0x3d8fb35a	0.070166305
207	0xbd5aa040	-0.053375483
208	0x3d259164	0.04042186
209	0x3d5d54c0	0.054035902
210	0x3d6b9c88	0.057522327
211	0xbd6ff1e7	-0.058580305
212	0xbce9e3f8	-0.028551087
213	0x3c94ebf8	0.018178925
214	0xbd46af2b	-0.048506897
215	0xbdb0581f	-0.08610558
216	0xbc567209	-0.013088712
217	0xbc69e1ef	-0.014275058
218	0x3bf625fa	0.0075118514
219	0xbda42d23	-0.08016422
220	0xbd401fb0	-0.04690522
221	0xbd6db298	-0.05803165
222	0x3caf8268	0.021424487
223	0x3d37ba74	0.04485555
224	0xbda07c60	-0.07836223
225	0x3d07ec98	0.033184618
226	0x3d8721d4	0.06598249
227	0x3c2f9b65	0.010718201
228	0xbcb2529c	-0.021767907
229	0xbc1aca1d	-0.009447602
230	0x3c992578	0.018694624
231	0xbdaac757	-0.08338802
232	0x3cc97fa4	0.024596997
233	0xbbdb90e3	-0.0067006215
234	0x3d8ccc86	0.06874947
235	0xbc981ebc	-0.018569343
236	0x3ca54ebc	0.020179145
237	0x3c76f4e9	0.01507304
238	0x3d0ad558	0.033894867
239	0x3c70ae2f	0.014689966
240	0x3d566fec	0.05235283
241	0xbd47a9c9	-0.048745904
242	0x3aa467e3	0.0012543168
243	0xbd1a7736	-0.037711345
244	0x3c4701f3	0.012146461
245	0xbcedd224	-0.029030867
246	0xbc36e599	-0.011163139
247	0x3d55b680	0.052176
248	0xbbc9f4cb	-0.006163215
249	0xbd1c649a	-0.03818188
250	0x3a8d14fc	0.00107637
251	0xbdac05cf	-0.083995454
252	0x3d87d040	0.066315174
253	0x3c1bf2d1	0.009518341
254	0x3da9f004	0.082977325
255	0x3cc4def4	0.024032094

bias f4 [5]
0	0xbd838f02	-0.06423761
1	0x3c294cab	0.0103332205
2	0x3c8e5170	0.017372817
3	0x3d543800	0.05181122
4	0xbcd6833a	-0.02618562

weight f4 [128, 128]
0	0x3cc84f78	0.024451956
1	0x3d52abc4	0.05143334
2	0x3d15b320	0.03654778
3	0x3d26bd94	0.04070814
4	0x3d86bc8a	0.0657893
5	0x3c7245a5	0.014787112
6	0xbc2800a5	-0.01025406
7	0x3d5fd574	0.054646924
8	0x3d906468	0.07050401
9	0xbb7f3cd6	-0.0038946173
10	0x3d6fe028	0.05856338
11	0xba8c284c	-0.0010693162
12	0x3d8171b0	0.06320512
13	0xbd3bd104	-0.04585363
14	0xbd48aebf	-0.048994776
15	0x3d9d1f3c	0.07671973
16	0xbd5b2976	-0.053506337
17	0xbd69fd29	-0.057126198
18	0x3d874870	0.06605613
19	0x3d7aa7d8	0.061195225
20	0xbda66f58	-0.08126706
21	0xbb39540e	-0.002827886
22	0xbcdf8430	-0.027284712
23	0x3c49f3e5	0.012326215
24	0x3c3f42b8	0.011673622
25	0x3d1132a4	0.035448685
26	0xbc8c56fc	-0.017131321
27	0x3d87d372	0.06632127
28	0x3d864462	0.06556012
29	0xbd7cddbc	-0.0617349
30	0x3d20a704	0.03922178
31	0xbd7d16a0	-0.061789155
32	0x3d8bb00c	0.06820688
33	0x3d0d351e	0.034474485
34	0x3db2e6d6	0.08735435
35	0x3d986588	0.074412405
36	0x3db510aa	0.08841069
37	0xbd5406ed	-0.051764417
38	0x3d27a2c4	0.04092671
39	0xbd729a1c	-0.059229
40	0xbd99af8f	-0.07504188
41	0x3d153092	0.036423273
42	0xbd78c479	-0.060734246
43	0xbd79221a	-0.060823537
44	0x3cba69c0	0.022755504
45	0x3d92af5e	0.07162355
46	0x3d901a4e	0.07036267
47	0xbda7bf3c	-0.08190772
48	0x3d7641d4	0.060121372
49	0xbca06910	-0.019581348
50	0x3c2e6321	0.010643751
51	0xbca51170	-0.020149916
52	0x3c962ec8	0.018332854
53	0x3dac643e	0.08417557
54	0x3db19928	0.0867179
55	0xbd534e5f	-0.051588412
56	0xbdb0eaa3	-0.086385034
57	0x3b1580a9	0.0022812283
58	0xbc7b63ad	-0.015343589
59	0x3d391cc4	0.04519345
60	0x3d79cc4c	0.06098585
61	0x3d7cdf04	0.06173612
62	0x3db27b32	0.08714904
63	0x3c05cdfe	0.008166788
64	0x3cf93a28	0.030423239
65	0xbd6bbc51	-0.05755264
66	0xbd77b760	-0.060477614
67	0xbd433870	-0.047661245
68	0x3d78a028	0.060699612
69	0xbd1352fc	-0.035967812
70	0x3db005f0	0.085948825
71	0xbdae1fc9	-0.08502156
72	0xbd9677d2	-0.07347073
73	0xbc8343e0	-0.016023576
74	0x3dae3480	0.08506107
75	0x3d8719da	0.06596728
76	0x3c4e75d9	0.012601339
77	0xbd8322d9	-0.06403131
78	0x3d13f070	0.03611797
79	0xbced6a00	-0.028981209
80	0xbc7dc875	-0.015489687
81	0x3cf033c0	0.029321551
82	0xbc5cde5c	-0.013480749
83	0x3d3b8884	0.04578449
84	0x3d34a8b0	0.044106185
85	0x3cc795dc	0.02436345
86	0xbd01b77a	-0.031669118
87	0x3cb69318	0.022286937
88	0xbda5ecb9	-0.08101792
89	0xbd8d01f7	-0.068851404
90	0x3d073084	0.033005252
91	0xbd0232dd	-0.03178679
92	0x3d8c4a28	0.06850082
93	0x3cd59068	0.026069835
94	0xbd8bbbd9	-0.068229385
95	0xbd2a0ee0	-0.041518092
96	0xbd13e7f1	-0.03610987
97	0x3d98dab6	0.07463591
98	0x3d9b240e	0.07575236
99	0xbd3c1018	-0.045913786
100	0xbd302663	-0.04300536
101	0xbda85715	-0.082197346
102	0xbd98a726	-0.07453756
103	0x3d3f2d9c	0.046674356
104	0xbd70af62	-0.058761008
105	0xb9406da2	-0.00018351388
106	0xbd81c327	-0.063360505
107	0xbd32c33c	-0.04364322
108	0x3da78f92	0.08181681
109	0x3db2a4e0	0.08722854
110	0xbd3c007c	-0.0458989
111	0xbc9e60f8	-0.019333348
112	0x3d99af22	0.07504107
113	0xbd9166e3	-0.07099702
114	0xbd6390cd	-0.055558015
115	0xbcce4c60	-0.025182903
116	0x3d0aaa80	0.033854008
117	0x3be2d643	0.0069225146
118	0xbd46c543	-0.048527967
119	0x3d213068	0.039352804
120	0xbcd23ba4	-0.025663204
121	0x3d068cd0	0.032849133
122	0x3d25616c	0.040376112
123	0x3da50694	0.08057895
124	0xbd305b0f	-0.04305559
125	0x3d485934	0.048913196
126	0xbc803810	-0.015651733
127	0x3d9baf50	0.076017976
128	0x3d7e5c1b	0.062099557
129	0xbd3d791c	-0.046258077
130	0xbca318dc	-0.019909315
131	0xbcb1ba24	-0.021695204
132	0xbc24dc77	-0.010062329
133	0xbd72f1d4	-0.059312657
134	0x3dab3cc2	0.08361198
135	0xbd1f66ab	-0.03891627
136	0x3ce079a4	0.027401753
137	0xbcd47932	-0.025936697
138	0x3c8b2ae4	0.016988225
139	0xbd1817e8	-0.037132174
140	0x3da56fb0	0.08077943
141	0xbd4c3d52	-0.049863167
142	0x3c815d0c	0.015791439
143	0xbc9b1564	-0.018931098
144	0xbd95f55d	-0.0732219
145	0xbbf3121d	-0.0074179308
146	0xbc5556b2	-0.013021158
147	0x3da189e4	0.07887629
148	0xbd56d52a	-0.052449383
149	0x3d9e75ee	0.07737337
150	0x3c8d0620	0.017214835
151	0xbd728330	-0.05920714
152	0x3d0c4eee	0.03425496
153	0xbd793723	-0.060843598
154	0xbd981bd1	-0.074271806
155	0xbca7ead8	-0.020497724
156	0xbcff0ba2	-0.031133477
157	0x3c61b6a9	0.01377646
158	0x3da0f5ac	0.07859358
159	0x3d289528	0.04115787
160	0x3d804542	0.0626321
161	0xbdb12146	-0.086489245
162	0x3d8b73f2	0.06809224
163	0x3d67a504	0.056553856
164	0x3beadb6a	0.0071672695
165	0xbb56f4de	-0.003279976
166	0x3bd4b773	0.0064915954
167	0x3be6bd6b	0.0070416234
168	0x3d9a4e9c	0.07534525
169	0x3d8bb522	0.06821658
170	0x3c2e6391	0.010643856
171	0x3d85f3bc	0.06540629
172	0x3b210836	0.0024571544
173	0xbb977fb1	-0.0046233763
174	0x3da5126a	0.08060153
175	0x3d0e0ea2	0.034681924
176	0xbc9ba988	-0.019001737
177	0x3d42c4d4	0.04755099
178	0x3d08ec0a	0.03342823
179	0x3ce89a48	0.02839388
180	0x3d91655a	0.070994094
181	0xbc3d392d	-0.011549276
182	0x3d71e148	0.059052736
183	0xbda6b019	-0.08139057
184	0xbca67884	-0.020321138
185	0xbdb48601	-0.08814622
186	0xbd8fdbe4	-0.07024363
187	0x3d1b2d18	0.0378848
188	0x3d12b4ca	0.035816945
189	0x3af44fac	0.0018639467
190	0xbb100e0e	-0.0021981033
191	0xbd97b4a9	-0.07407505
192	0xbcc797fc	-0.024364464
193	0xbd4a9ca4	-0.04946579
194	0xbd907b6f	-0.07054793
195	0x3d640a78	0.055674046
196	0xbd4fd3b2	-0.050738998
197	0xbdabf35a	-0.08396025
198	0xbda73ba7	-0.08165675
199	0x3db278d2	0.08714451
200	0x3ba23716	0.0049504144
201	0xbd5f6216	-0.0545369
202	0x3c95a34c	0.018266343
203	0xbd454936	-0.048165523
204	0x3d3ecae8	0.046580225
205	0xbd0dd9d6	-0.034631573
206	0x3d7fa6c0	0.062414885
207	0x3da1017e	0.07861613
208	0x3d8caf38	0.06869358
209	0xbd78bbe4	-0.06072606
210	0xbda00832	-0.07814063
211	0x3daa7792	0.083235875
212	0xbd8d6925	-0.0690482
213	0x3d7e6c98	0.06211528
214	0xbd35d1bf	-0.044389483
215	0xbc8da0c0	-0.017288566
216	0xbd8831f5	-0.066501535
217	0x3ceafda0	0.028685391
218	0x3d53ece4	0.05173959
219	0xbd7e6bd5	-0.062114555
220	0x3d9c9816	0.076461956
221	0xbbabebd4	-0.0052466188
222	0x3da4b9aa	0.08043225
223	0xbd5f0a60	-0.054453254
224	0xbb8081fb	-0.003921745
225	0x3c181786	0.009282952
226	0x3bda3a52	0.0066597844
227	0x3d8d5cb8	0.0690245
228	0xbc0ffd40	-0.008788407
229	0x3c017095	0.007900377
230	0xbd8d6914	-0.06904808
231	0xbd60cede	-0.054884784
232	0xbba53eaf	-0.005042873
233	0x3b55d88a	0.0032630288
234	0x3d718af4	0.058970407
235	0x3d8514a4	0.064980775
236	0xbd850690	-0.06495392
237	0x3db3c1de	0.087772116
238	0xbd720fc0	-0.05909705
239	0xbcc1e5a4	-0.023669071
240	0xbc97d6d0	-0.018535048
241	0xbd61d93e	-0.05513882
242	0xbd699ac8	-0.057032377
243	0xbd4b78c9	-0.049675737
244	0x3c54afb9	0.012981349
245	0x3c3ca252	0.01151331
246	0xbdb2f1fe	-0.087375626
247	0xbd85d073	-0.06533899
248	0xbda6e490	-0.081490636
249	0x3d841818	0.06449908
250	0x3daeb194	0.08529964
251	0xbd2c109a	-0.04200802
252	0xbd5db4e2	-0.05412758
253	0x3d472798	0.048621744
254	0x3d6742e8	0.05646029
255	0x3cb569ec	0.022145234

bias f4 [128]
0	0x3d5c2880	0.05374956
1	0xbd2685db	-0.040655
2	0x3c2c2d25	0.01050881
3	0x3d387ef8	0.04504296
4	0xbcb83c40	-0.022489667
5	0xbd904bbf	-0.070456974
6	0xbd8e32b3	-0.06943264
7	0xbd37dff9	-0.04489133
8	0x3ce922e0	0.028459013
9	0xbd061ab0	-0.032740295
10	0x3d4b077c	0.049567685
11	0xbdb2dfe3	-0.08734109
12	0xbd5a3fb3	-0.053283405
13	0x3d4e00c4	0.0502937
14	0x3da2929e	0.07938121
15	0xbbed2a24	-0.0072376896
16	0xbcd032c0	-0.025414824
17	0x3cd0fa04	0.025509842
18	0xbbf78d1b	-0.007554663
19	0x3cd62c30	0.026144117
20	0x3d77732c	0.06041257
21	0xbd61e636	-0.055151187
22	0x3cc776c8	0.024348632
23	0x3d806f14	0.062711865
24	0x3d8f01a8	0.06982738
25	0x3cdc2cc0	0.026876807
26	0x3d9622bc	0.07330844
27	0x3d8a024c	0.06738719
28	0xbd6f00e4	-0.05835046
29	0x3db3156e	0.08744322
30	0x3d5cc2e4	0.0538968
31	0xbd8dc3bf	-0.06922101
32	0x3d5f2664	0.05447997
33	0x3d0bff42	0.03417898
34	0xbd07b960	-0.03313577
35	0xbc172157	-0.009224257
36	0xbcf875ce	-0.030329611
37	0x3d9b86be	0.075940594
38	0xbda9d2de	-0.08292173
39	0xbc9a50b0	-0.018837303
40	0x3da0502c	0.078277916
41	0xbd9d2c02	-0.076744094
42	0x3c6c7b65	0.014433716
43	0xbce9a218	-0.028519675
44	0xbd75c602	-0.060003288
45	0xbc840de8	-0.016119912
46	0xbd93ac28	-0.072105706
47	0xbd5d666e	-0.054052763
48	0x3d977550	0.073954225
49	0xbc8f7bb0	-0.017515033
50	0x3b118ce2	0.0022209217
51	0xbc8eb2cc	-0.017419241
52	0xbd8ab6cd	-0.06773148
53	0x3d34ae20	0.04411137
54	0x3cca300c	0.024681114
55	0xbb31f482	-0.0027153795
56	0x3cd7ec9c	0.026357941
57	0xbd6988da	-0.057015277
58	0x3d234900	0.03986454
59	0x3cbfe338	0.023423776
60	0x3d874324	0.06604603
61	0xbbb5c4bd	-0.0055471347
62	0xbda3a4f9	-0.079904504
63	0x3d2c61a8	0.04208532
64	0xbc802b2f	-0.015645592
65	0x3d9a9926	0.07548742
66	0x3d8f4d4e	0.069971666
67	0x3c312840	0.010812819
68	0x3d5ae998	0.05344543
69	0x3cc71644	0.02430261
70	0x3c3314ec	0.010930281
71	0xbd690187	-0.056886222
72	0x3d3cadd0	0.046064198
73	0x3d3b09b0	0.045663536
74	0x3cedec14	0.029043235
75	0x3bb86b1d	0.0056280033
76	0x3aee9684	0.0018202816
77	0x3ceff384	0.029290922
78	0x3d2cd980	0.04219961
79	0xbc8a6bf8	-0.016897187
80	0xbb9db477	-0.004812773
81	0xbd6fe5ae	-0.05856865
82	0x3cb88bd4	0.022527613
83	0x3d540140	0.051759005
84	0x3d311b24	0.043238774
85	0x3da192b8	0.078893125
86	0xbda0890a	-0.07838638
87	0x3d397aec	0.045283243
88	0x3d3ed3d8	0.04658875
89	0xbc60c5d7	-0.013719044
90	0xbd9d054c	-0.07667026
91	0xbd858581	-0.065196045
92	0x3d2e4ab8	0.042551726
93	0xbdb25719	-0.08708019
94	0x3c8b6bb4	0.01701913
95	0x3d83a8f6	0.06428711
96	0xbc2858ef	-0.01027511
97	0x3c13064d	0.00897367
98	0xbd599fb9	-0.05313084
99	0x3cbc9310	0.023019344
100	0xbcc84d08	-0.024450794
101	0x3d9ca49e	0.07648586
102	0x3b359f8a	0.00277135
103	0x3db1c182	0.08679487
104	0x3d4157ec	0.04720299
105	0x3d1f5784	0.03890182
106	0xbbc6415f	-0.0060502733
107	0xbcfbfbe6	-0.030759763
108	0x3c3b3b19	0.011427664
109	0x3bcaafb3	0.0061854958
110	0xbc9b784c	-0.01897826
111	0x3ccddf10	0.025130779
112	0xbd582ed1	-0.052779023
113	0x3db2012c	0.0869163
114	0x3d95c4aa	0.07312901
115	0xbda0f093	-0.07858386
116	0xbd84acab	-0.06478246
117	0xbb744f2c	-0.0037278635
118	0xbcde13a2	-0.027108971
119	0xbc115105	-0.008869414
120	0x3d171c56	0.036892258
121	0x3c1f37b3	0.00971787
122	0xbd5a08d7	-0.053231087
123	0xbd2c8327	-0.042117264
124	0x3d2c599c	0.042077646
125	0xbc520b22	-0.012820037
126	0x3d92ac38	0.07161754
127	0x3cc0a2f0	0.023515195

weight f4 [128, 128]
0	0x3af60c3c	0.0018771957
1	0x3ce2cf54	0.027686752
2	0x3d2e20e0	0.04251182
3	0xbcb217dc	-0.021739893
4	0xbd97d21d	-0.07413123
5	0xbbe77fdb	-0.007064802
6	0x3d9a3ed0	0.07531512
7	0xbbab959f	-0.005236342
8	0x3d9da908	0.07698256
9	0xbd8b30b2	-0.06796397
10	0x3cd3a288	0.025834337
11	0x3d438bf8	0.047740906
12	0xbc8c82f4	-0.017152287
13	0xbd9cec10	-0.07662213
14	0x3d1244b0	0.035710037
15	0x3d6b0754	0.057380036
16	0xbd891c26	-0.06694822
17	0x3d8f33bc	0.069922894
18	0x3d8241f8	0.06360239
19	0xbd350d52	-0.044202156
20	0x3d07281e	0.032997243
21	0xbd0bfc81	-0.034176353
22	0x3b20c64e	0.0024532261
23	0x3b1cda92	0.002393399
24	0x3d59d190	0.05317837
25	0x3d9510fc	0.0727863
26	0x3d0bbd26	0.034115933
27	0x3d7e5430	0.062092006
28	0x3dafe920	0.08589387
29	0xbd9a3bed	-0.07530961
30	0x3d58d7b0	0.05294007
31	0x3da3b3a4	0.07993248
32	0xbcb6655c	-0.022265129
33	0x3c7be6bb	0.015374835
34	0xbd99a42e	-0.07502018
35	0x3c16ce71	0.009204493
36	0xbd9e9ec2	-0.077451244
37	0xbd7024c6	-0.05862882
38	0x3d0434c0	0.03227687
39	0x3db2af56	0.08724849
40	0xbd5d342b	-0.05400483
41	0xbd9c67f6	-0.076370165
42	0xbd3d2fab	-0.046188038
43	0xbd977ce5	-0.073968686
44	0xbbb9416d	-0.0056535513
45	0x3c89b46d	0.016809667
46	0x3d8b9e74	0.06817332
47	0xbd6ef1da	-0.058336116
48	0x3d9c18da	0.076219276
49	0xbc93df04	-0.018050678
50	0x3d31c868	0.043404013
51	0xbc9a637c	-0.018846266
52	0xbd8b1ec3	-0.06792977
53	0xbc763852	-0.015028076
54	0x3c1a7bb8	0.009428911
55	0x3da983e8	0.08277112
56	0x3d00bfe6	0.03143301
57	0x3ccaf7b0	0.02477631
58	0x3d5bc954	0.0536588
59	0xbd2d604d	-0.042328168
60	0xbc0637fa	-0.008192057
61	0xbccb6f80	-0.02483344
62	0x3da1205c	0.078675
63	0x3c643718	0.013929151
64	0xbc726603	-0.014794829
65	0x3c34d0a6	0.011036074
66	0x3d4119ec	0.04714386
67	0x3d8b5826	0.06803922
68	0x3c4b5ced	0.012412292
69	0xbd53c338	-0.051699847
70	0x3db60420	0.088875055
71	0xbda9317c	-0.082613915
72	0xbc8216ec	-0.01588007
73	0xbcd0c146	-0.025482785
74	0x3d9da5b8	0.07697624
75	0xbbb524af	-0.0055280547
76	0x3c400b3e	0.01172143
77	0xbcbf2e84	-0.02333761
78	0x3d401ab4	0.046900466
79	0x3c7d8d54	0.01547559
80	0xbc281bb1	-0.010260508
81	0xbd3c3297	-0.045946684
82	0x3cfb41d8	0.030671045
83	0xbc9982a8	-0.01873906
84	0xbd51d797	-0.051230993
85	0x3c9b6248	0.018967763
86	0x3d7be010	0.06149298
87	0x3d3dcd0c	0.046338126
88	0xbc5f20bb	-0.013618643
89	0xbb3ee894	-0.0029130327
90	0x3d4e1800	0.050315857
91	0xbcfb07fe	-0.03064346
92	0xbd4410a8	-0.047867447
93	0x3d731288	0.059343845
94	0xbd5d1297	-0.053972807
95	0x3d529c3c	0.051418528
96	0xbd0f4ba6	-0.034984253
97	0xbd7cb7e8	-0.061698824
98	0xbc68ea52	-0.014216023
99	0x3c633c85	0.013869409
100	0xbd60c2b7	-0.054873195
101	0x3c950ff0	0.018196076
102	0x3beed4c7	0.0072885486
103	0x3d8f6bb2	0.07002963
104	0xbcfcd48c	-0.030863069
105	0x3b7d4c7a	0.003865032
106	0x3b63133a	0.003464891
107	0x3bb0a653	0.005390921
108	0xbd27c72a	-0.040961422
109	0xbd9061b3	-0.07049885
110	0xbd37471e	-0.044745557
111	0xbc6ffda3	-0.014647874
112	0x3d5656ac	0.05232875
113	0x3db12812	0.08650221
114	0x3d1364f4	0.03598495
115	0xbd049cee	-0.032376222
116	0xbc64f2d7	-0.013973913
117	0x3ca519f8	0.020153984
118	0x3da2e812	0.0795442
119	0xbcab1ff0	-0.020889252
120	0xbda70985	-0.081561126
121	0xbd55bdef	-0.052183088
122	0x3da2528a	0.07925899
123	0x3b17b422	0.002314814
124	0xbdae477e	-0.0850973
125	0x3d6e66d8	0.05820355
126	0xbd18be92	-0.037291117
127	0x3d08c7fe	0.033393852
128	0xbcc4e4f0	-0.024034947
129	0xbd9c2a61	-0.07625271
130	0xbd12f644	-0.03587939
131	0x3d915f80	0.07098293
132	0x3d89be9c	0.06725809
133	0x3d2ae324	0.041720524
134	0xbd84ca7e	-0.06483935
135	0xbda4a1b7	-0.08038657
136	0xbd0682ab	-0.03283946
137	0xbcdcb2f2	-0.026940797
138	0xbcc46494	-0.02397374
139	0x3b8e9fdc	0.004352553
140	0xbd1c5d52	-0.038174935
141	0x3d93b41c	0.072120875
142	0x3da21080	0.079133034
143	0xbd5acb5d	-0.0534166
144	0xbceafbf0	-0.028684586
145	0x3d9796ce	0.074018106
146	0xbd1ea71a	-0.03873358
147	0xbd77162e	-0.060323887
148	0x3d89a2d6	0.067205116
149	0x3d1c2908	0.038125068
150	0xbc9564c4	-0.018236525
151	0x3d373700	0.044730186
152	0x3d828550	0.063730836
153	0x3cecb0a4	0.028892823
154	0xbcc3de78	-0.023909792
155	0xbd1361a3	-0.035981786
156	0x3cef4d80	0.02921176
157	0xbc844284	-0.016144998
158	0x3b85ae71	0.004079633
159	0xbd86c578	-0.06580633
160	0xbd8f7f32	-0.070066825
161	0x3cfc44f4	0.030794598
162	0xbd8527b2	-0.06501712
163	0xbc0a071f	-0.008424549
164	0x3d7eda14	0.062219694
165	0x3d00f2a0	0.031481385
166	0xbc0e5949	-0.008688279
167	0xbd2fc4e9	-0.042912398
168	0x3d894958	0.06703442
169	0xbd96bd56	-0.07360332
170	0x3da4b566	0.080424115
171	0x3cc14128	0.02359064
172	0x3cfa5e60	0.03056258
173	0xbd99eb93	-0.07515635
174	0xbdb16151	-0.0866114
175	0xbcfa5ccc	-0.030561827
176	0x3db07542	0.08616115
177	0x3db27074	0.08712855
178	0x3c0f4244	0.008743826
179	0x3bf8c1d0	0.0075914636
180	0xbd9a3a75	-0.07530681
181	0xbc9fd8f4	-0.019512631
182	0xbd745754	-0.059653595
183	0xbaadff1e	-0.0013274883
184	0xbd03dda7	-0.032193806
185	0xbca40c24	-0.02002532
186	0xbd9ec5e9	-0.07752592
187	0xbd66cc82	-0.056347378
188	0x3d7d076c	0.061774656
189	0x3d23ab7c	0.039958462
190	0x3b91390b	0.004431849
191	0x3ca9a5f4	0.020709015
192	0xbd13adaa	-0.03605429
193	0x3d50d32c	0.05098264
194	0x3da1959c	0.07889864
195	0xb9fd8712	-0.00048356556
196	0xbc7552f2	-0.014973389
197	0xbd62dcc6	-0.055386327
198	0x3daf6a14	0.08565155
199	0xbd6d48b9	-0.05793068
200	0x3b255a0e	0.0025230679
201	0x3d5aa1e8	0.053377062
202	0xbd17ede2	-0.037092097
203	0xbc67fec2	-0.01415986
204	0x3c9ab6cc	0.018885992
205	0xbd30ca41	-0.043161634
206	0x3c86261c	0.016375594
207	0xbd377997	-0.04479369
208	0xbd4ce9f4	-0.050027803
209	0xbc1f85db	-0.0097365035
210	0xbccd6ea8	-0.02507718
211	0xbd852239	-0.06500668
212	0xbd56791b	-0.05236159
213	0xbd9923f3	-0.0747756
214	0xbb8a52cc	-0.004221296
215	0x3c8d195c	0.017224006
216	0xbd950cc7	-0.07277828
217	0x3da23b5e	0.0792148
218	0xbc880354	-0.01660315
219	0x3d57a248	0.052644998
220	0xbcaac50c	-0.020845912
221	0x3cec7d88	0.028868452
222	0xbc0154a1	-0.007893712
223	0xbda905ee	-0.08253084
224	0xbc73d306	-0.014881855
225	0x3cbe4edc	0.023230962
226	0x3bf3aeb9	0.0074366
227	0x3d6d50c4	0.057938352
228	0x3d9c90f0	0.07644832
229	0xbd2ccfe5	-0.04219045
230	0xbcc70ea8	-0.02429898
231	0xbb407c56	-0.0029370985
232	0xbcb8bedc	-0.022551946
233	0x3d7e36d4	0.062064007
234	0x3d32c2c8	0.04364279
235	0xbd5f232e	-0.05447691
236	0x3d1d5eec	0.038420603
237	0xbdab1d22	-0.08355166
238	0x3d334984	0.04377128
239	0xbd189550	-0.03725177
240	0x3d0856aa	0.033285774
241	0x3cc92a50	0.024556309
242	0xbbc6e6c7	-0.0060699913
243	0xbd1c09ca	-0.038095273
244	0xbcc93b68	-0.02456446
245	0xbcfc1152	-0.030769978
246	0x3d73285c	0.05936466
247	0x3d687a44	0.056757227
248	0x3d3980f0	0.04528898
249	0xbd80e0db	-0.06292888
250	0xbd052d62	-0.032513984
251	0xbd88f1c1	-0.06686736
252	0x3c79ac85	0.015238886
253	0xbd82c423	-0.06385066
254	0xbd23622d	-0.03988855
255	0x3d580650	0.052740395

bias f4 [128]
0	0xbd5f2a37	-0.05448362
1	0x3d9acc30	0.07558477
2	0xbcf5670a	-0.02995636
3	0x3c96e370	0.018418998
4	0xbdb06764	-0.0861347
5	0xbcc3fa70	-0.023923129
6	0xbd8702b5	-0.06592313
7	0x3d7a0f9c	0.061050043
8	0xbaa420dc	-0.0012522
9	0xbd6430ee	-0.055710725
10	0x3d5230d0	0.051316082
11	0x3dab1330	0.08353269
12	0x3db46584	0.08808425
13	0x3c48052d	0.012208265
14	0xbd763b69	-0.06011525
15	0xba388818	-0.00070393225
16	0xbcf19890	-0.029491693
17	0x3d9cf0fa	0.0766315
18	0xbd05cb42	-0.032664545
19	0x3c52448f	0.012833728
20	0x3cabbd34	0.020964243
21	0xbd242458	-0.040073723
22	0x3daabe10	0.08337033
23	0xbd7a8d55	-0.06116994
24	0x3d6eead4	0.05832942
25	0xbc04a0e9	-0.008095005
26	0x3b2b3396	0.0026123277
27	0xbd8e6f57	-0.0695483
28	0x3d81e784	0.06342986
29	0x3d3fc844	0.046821848
30	0xbd0bf2d8	-0.03416714
31	0x3d236b60	0.039897323
32	0xbd2d2397	-0.04227027
33	0xbd80015d	-0.0625026
34	0x3d768260	0.06018293
35	0x3d1759f8	0.036951035
36	0x3ccdce9c	0.025122933
37	0x3d80eaf6	0.06294815
38	0xbcc5e77c	-0.024158232
39	0x3da2bddc	0.07946369
40	0xbd30fdb2	-0.043210693
41	0xbd985ac5	-0.07439188
42	0x3d9a3cec	0.07531151
43	0xbc882a10	-0.01662162
44	0xbd0140da	-0.031555988
45	0x3d1856b0	0.037192047
46	0x3daedb6a	0.08537944
47	0xbd344bb3	-0.044017505
48	0x3d80774c	0.06272754
49	0x3d8af3ee	0.06784807
50	0x3da08b7e	0.07839106
51	0xbcbf0980	-0.02331996
52	0x3d6145fc	0.054998383
53	0xbc97c0e4	-0.018524595
54	0x3da2db7c	0.079520196
55	0x3c275057	0.010212026
56	0x3d0e7446	0.034778856
57	0xbd0e167e	-0.03468942
58	0x3d3cf9d8	0.046136707
59	0xbd88cc55	-0.06679598
60	0xbd037ffb	-0.032104474
61	0x3cdafdc0	0.026732326
62	0x3d715434	0.058918193
63	0xbd489c12	-0.048976965
64	0xbdaa68a7	-0.08320742
65	0x3bb68f47	0.005571279
66	0xbc79ff5f	-0.015258639
67	0x3cdecdc4	0.027197726
68	0xbd977d5f	-0.073969595
69	0x3d923516	0.071390316
70	0x3ceb813c	0.028748147
71	0x3ccce1b8	0.025009975
72	0x3d76e5c8	0.06027773
73	0xbd67ac19	-0.05656061
74	0x3d736bc8	0.05942896
75	0xbc2acf33	-0.010425377
76	0xbbeef220	-0.007292047
77	0xbda5902a	-0.08084138
78	0xbcad99f8	-0.021191582
79	0xbd4f79c3	-0.05065323
80	0xbd3cb190	-0.046067774
81	0x3d7fd208	0.06245616
82	0x3d6376d8	0.05553326
83	0xbd02e84e	-0.031959824
84	0xbd6bd811	-0.057579104
85	0xbd8f5240	-0.0699811
86	0xbd9f33d1	-0.07773555
87	0xbd7c16de	-0.061545245
88	0xbd7e3669	-0.06206361
89	0x3d9fc9ee	0.07802187
90	0x3c3e64c5	0.011620705
91	0xbceb0bd8	-0.028692171
92	0x3cd57998	0.026058957
93	0xbc2717ed	-0.010198575
94	0x3d769280	0.060198307
95	0xbd99b070	-0.07504356
96	0x3ced4274	0.028962351
97	0xbcf93c0a	-0.030424137
98	0xbcf0a63a	-0.029376138
99	0xbd8af14e	-0.067843065
100	0x3c8d6418	0.017259642
101	0x3d842fb8	0.06454414
102	0x3cc2f964	0.02380056
103	0xbb59f3be	-0.0033256854
104	0xbcf82432	-0.030290697
105	0xbd3fdba4	-0.046840325
106	0xbdb2094d	-0.0869318
107	0xbdaf0aa1	-0.08546949
108	0x3c22ade1	0.009929151
109	0x3da0c6c0	0.078504086
110	0xbd805221	-0.06265665
111	0xbd038968	-0.032113463
112	0xbd64f54c	-0.055897996
113	0xbc3ee9f9	-0.011652463
114	0xbcae22f0	-0.021256894
115	0x3d964eda	0.073392585
116	0x3dad2b14	0.08455482
117	0xbd81d928	-0.063402474
118	0x3d8a27c0	0.06745863
119	0xbcee503e	-0.029090997
120	0xbd97aa44	-0.074055225
121	0xbac28554	-0.001484076
122	0xbd8ee4e0	-0.06977248
123	0xbcb30080	-0.021850824
124	0xbd50f057	-0.051010456
125	0xbd8ba3cc	-0.06818351
126	0x3c87ed9c	0.016592793
127	0x3d9d5716	0.07682626

weight f4 [1, 128]
0	0x3cf43dac	0.029814564
1	0x3dab9477	0.08377927
2	0xbd8bda28	-0.068287194
3	0x3d1daf16	0.038497053
4	0xbc94fdd4	-0.018187441
5	0x3d92975d	0.071577765
6	0xbd3b7767	-0.045768168
7	0xbd81213f	-0.06305169
8	0xbccdd86c	-0.025127612
9	0x3d5971a6	0.0530869
10	0x3b9183e0	0.0044407696
11	0xbc2ae6b0	-0.010430977
12	0xbd307508	-0.04308036
13	0xbd6adffc	-0.057342514
14	0x3dab60c1	0.08368064
15	0x3d6948f6	0.056954347
16	0xbd64957e	-0.05580663
17	0xbc803ffc	-0.01565551
18	0x3cc4ad74	0.02400849
19	0xbd3896f3	-0.04506583
20	0xbda484da	-0.08033152
21	0xbdb10eea	-0.08645423
22	0x3d30bf2e	0.043151073
23	0x3ba1d2d0	0.004938461
24	0xbd4f7ae6	-0.050654314
25	0xbcb075e8	-0.021540597
26	0xbc0e4f90	-0.008685961
27	0xbd97c478	-0.0741052
28	0x3d396492	0.045261927
29	0x3c37adc0	0.011210859
30	0x3dac743f	0.0842061
31	0xbcc86848	-0.024463788
32	0x3da79057	0.081818275
33	0xbca2acd4	-0.019857801
34	0x3d6f8f66	0.058486365
35	0x3d0ba39e	0.034091584
36	0xbd202b8b	-0.039104026
37	0xbb2fe840	-0.0026841313
38	0x3c395f58	0.011314236
39	0xbc4a9ad8	-0.012366019
40	0xbd186ced	-0.037213255
41	0xbd4bfab2	-0.04979963
42	0xbd520a41	-0.05127931
43	0x3b7e0c20	0.0038764551
44	0x3cd953b0	0.026529163
45	0x3db1e53b	0.086863
46	0x3d978bd1	0.07399715
47	0xbd31a18d	-0.043366957
48	0xbd57e371	-0.05270714
49	0x3c72be00	0.014815807
50	0x3c93282c	0.017963491
51	0xbd80972b	-0.06278833
52	0xbd9e44ca	-0.07727964
53	0x3d6c142e	0.057636432
54	0x3d859a91	0.06523622
55	0x3c342a18	0.010996364
56	0xbcfafba8	-0.030637577
57	0x3d38967e	0.045065396
58	0xbd902cec	-0.07039818
59	0xbad05240	-0.0015893653
60	0x3d73dc6e	0.05953639
61	0x3cdd9ce8	0.027052358
62	0xbd565dea	-0.052335657
63	0xbd4de475	-0.0502667
64	0x3d8704f9	0.06592745
65	0x3c08d9e0	0.008352727
66	0x3c60ae30	0.013713405
67	0x3cdbb220	0.026818335
68	0xba92cd00	-0.0011200011
69	0x3d17dc1e	0.037075154
70	0xbd9221a0	-0.0713532
71	0xbd64efe7	-0.05589285
72	0x3b50a400	0.0031836033
73	0xbc688830	-0.014192626
74	0x3dab06cb	0.08350905
75	0xbd8cbf1a	-0.06872387
76	0xbc919cb0	-0.01777491
77	0x3c079a70	0.008276567
78	0x3b909b00	0.0044130087
79	0xbc0e2a90	-0.00867714
80	0x3d1e183a	0.038597323
81	0x3b8cef40	0.0043009818
82	0x3cb7c478	0.02243255
83	0x3d8a9fa1	0.06768728
84	0x3d0f446c	0.03497736
85	0x3d6a6582	0.05722571
86	0x3d155ed2	0.03646738
87	0x3c7d63b8	0.015465669
88	0xbd6506d2	-0.055914707
89	0xbda12a7d	-0.07869432
90	0xbd9786dc	-0.07398769
91	0x3ce97bd8	0.028501436
92	0xbc6f13d8	-0.014592133
93	0xbd7b1fdf	-0.06130969
94	0xbbb8df40	-0.005641848
95	0x3db19299	0.086705394
96	0xbd996327	-0.07489615
97	0xbd2afe95	-0.041746695
98	0xbd82c0b3	-0.06384411
99	0xbd0552f6	-0.03254982
100	0x3d571a66	0.05251541
101	0x3c446ee0	0.011989325
102	0x3c973b5c	0.018460922
103	0xbd264e9a	-0.040602304
104	0xbce07a48	-0.027402058
105	0xba913c00	-0.0011080503
106	0xbd7bb594	-0.061452463
107	0xbd4e8f72	-0.05042977
108	0x3d785bca	0.060634412
109	0x3b1a23a0	0.002351977
110	0x3ba174e0	0.0049272627
111	0xbd72090a	-0.05909065
112	0x3c2f3ac0	0.010695159
113	0xbcd4523c	-0.025918119
114	0xbd9adc6a	-0.07561572
115	0xbc9bce9c	-0.019019417
116	0xbd4bb01f	-0.04972851
117	0x3d2200ce	0.03955155
118	0x3c76b848	0.0150585845
119	0x3c895514	0.016764201
120	0xbdac461f	-0.08411812
121	0x3db0d9f9	0.08635325
122	0x3ce53ed4	0.02798406
123	0x3d8557b1	0.065108664
124	0xbd87159f	-0.06595921
125	0x3d35c57a	0.04437778
126	0x3d2103d6	0.0393103
127	0x3d9eb755	0.077498116

comm_mask f4 [3, 3]
0	0x00000000	0.0
1	0x3f800000	1.0
2	0x3f800000	1.0
3	0x3f800000	1.0
4	0x00000000	0.0
5	0x3f800000	1.0
6	0x3f800000	1.0
7	0x3f800000	1.0
8	0x00000000	0.0
