exp1/coop1.pt (torch_old, 161458 bytes, 10 tensors)

weight f4 [128, 18]
00000000: f41a f8bd 03f0 aabd fb03 fdbd 1c0b b4bc
00000010: 2208 44be 5460 d3bc c051 5c3e 41f7 883d
00000020: 57c2 923d 993f ea3d 1c38 8e3c a254 07bd
00000030: 7a56 103e 3907 cb3d fe00 e43d e4f5 7c3d
00000040: efab 5cbe 8f28 253e e374 213e 36ae 423e
00000050: f358 11be 987a 3b3e c2b1 22be 7194 cf3d
00000060: 668b 2cbd af05 b0bd a142 2c3c 7fe1 30be
00000070: d65a 18bd 78c2 1e3e 245c 95bc 77c8 cbbd
00000080: a1ef 0d3e beb8 ea3d 50cf 383c 528d eb3d
00000090: 46cd 163d 0fb9 18be 30a9 e9bd b98d d73d
000000a0: 6b88 6cbe 3a70 193e 3c39 9e3c ebfe eabd
000000b0: 7a19 ffbd 7ccb 0ebc bd5d e8bd 26cc 343d
000000c0: c4a7 b83c 6f99 bb3d c4e5 0cbe 18c5 abbc
000000d0: 1975 5dbe 8823 d3bc a254 4ebd 8214 313e
000000e0: 1c76 54be 12da 25be 9e94 673e cb42 013e
000000f0: ce68 7e3d fed4 453e 11d5 babd 5386 80bd
00000100: b5aa 3cbe 0793 b23d 4275 023e 4406 95bc
00000110: 6ae7 f93d 0b2c 3e3e 9fc6 383e 42d8 98bd
00000120: 34dc 24be 6b47 bb3d 23da be3d 5f47 9f3d
00000130: 7402 593e 8a93 74bd 3ffb ce3d a998 6ebe
00000140: ec5d ff3d efac a33d 0a5d 4e3e 2acf e4bd
00000150: b565 fb3c e508 0ebe 7b27 6dbe 5c8b edbd
00000160: 288a 60be b8d5 e93c ebb3 4b3e 6c87 cebc
00000170: 1031 5b3e e93d 703c 9644 683e 6d2f 30be
00000180: e361 eabd b755 cabd 5c2a ef3c eef9 42bd
00000190: aecd 5bbe ead7 6dbd 089e 293e 9caf 99bc
000001a0: 8bde 64be fdf4 613e 0025 6ebc d2f6 47be
000001b0: ca15 63bd 031c f6bc 86a4 4fbe d996 05be
000001c0: 02aa 513d 8824 223e 8795 05be 7485 d43c
000001d0: 67d8 87bd e7ac 29be 987a bd3b f17a 9f3b
000001e0: dde3 2ebe 6a7a 533e 89db 58be 2bb7 6ebe
000001f0: a4fd 4bbe 802f 8c3b 10ec 1c3e 536a 39be
00000200: 201c 15be 4012 3d3e 5a86 623e c52d a3bd
00000210: b49e 3d3e b3ff 09be 763b 05bd 145b 443e
00000220: 365d 6a3d 9f88 05be 2e75 16bd 9190 1cbe
00000230: 3ce4 2dbe f804 a93c bcde 103d 00e3 b4bb
00000240: a31c e8bd 29f3 69be 2d17 c1bd ee80 46be
00000250: 0be0 18be c3dc 11be ae0c 543c 670b 213e
00000260: 9838 023e 8ade 3bbe 5625 063d 3c94 67be
00000270: 66df 0cbd 056d 11be 8126 523e be6a ce3d
00000280: 901f 0cbe 6c93 6bbe 0e3a 083e 8632 0cbe
00000290: cca4 013e 63c2 63be f1dd b6bd 9c7a a03c
000002a0: df24 013c 9b51 973d 0e37 353d 87dc 8cbb
000002b0: eee8 12bd 0fd6 11be 9182 323e d9bf c0bd
000002c0: a3cf 193e 2bba 0b3e 76b9 97bd 4ebb 12be
000002d0: dd19 023e 13b8 083e 4e9b 253e 2da1 04be
000002e0: c1f9 9abd 495d 863d 8130 3dbe ce34 373e
000002f0: 880c 50be 2135 aabd 4dbc 2f3c 2466 e3bc
00000300: 954c 873d 3419 f0bc 6396 13be 6b66 fcbd
00000310: a19e 313e f283 6abe 3cdd 4ebe 331e 02bb
00000320: 7426 5c3e b5f4 d93d 45da ec3d 53d7 4b3e
00000330: bb98 5cbe e07b 473e e591 c7bd d29a 323d
00000340: b1e6 a33d 7a7b 403e 5d69 12be f087 0a3e
00000350: 7c94 08bd e4be 24be 4076 7fbd 8483 8ebd
00000360: 7ee5 453e fd88 ddbd ceb1 5a3e 0872 233e
00000370: f93d abbd 75e9 80bc e63d 44bd cf6e c1bd
00000380: a2ac 78bd 40d0 653e 52d3 763c 8cdc bcbc
00000390: e84a 47be c63d 0f3e c8ec 85bc 4092 a0bb
000003a0: 66c2 f43d dfe8 3d3e a62a 20bd 3aa0 21bd
000003b0: d9fe 33be 4ff8 33be c028 6d3e 1924 0e3c
000003c0: 832b 6cbe d413 d43c 82fa 673e de8c 60be
000003d0: b80a 053e 0787 d5bd 53dc 9dbd 04e7 b63c
000003e0: 80c8 013c 33e1 303e 2a86 f43d 989f cfbd
000003f0: 0b5b 413e 1721 2cbe bc76 143e 3626 45bd
-0.12114516 -0.0834656 -0.12354275 -0.021977954 -0.19143727 -0.025802769 0.2151556 0.06687785
0.07165974 0.114379115 0.01736074 -0.033039697 0.14095488 0.09913487 0.11133002 0.061757937
-0.21549962 0.16128753 0.15767245 0.19011769 -0.14194088 0.18308485 -0.15888122 0.10135735
-0.04212513 -0.08594834 0.010513932 -0.1727352 -0.037196003 0.15503871 -0.018232413 -0.09950345
0.13860942 0.11461018 0.011279896 0.11501564 0.036816858 -0.14914344 -0.11409223 0.10525078
-0.23098914 0.14984217 0.0193144 -0.11474403 -0.12456031 -0.008715507 -0.11346004 0.044140004
0.022540934 0.091601245 -0.13759524 -0.020968005 -0.216267 -0.025773779 -0.05037368 0.1729298
-0.2074818 -0.16196468 0.22615287 0.12623136 0.06211167 0.19319531 -0.091226704 -0.0627562
-0.18424495 0.087194495 0.12740043 -0.018191464 0.12202342 0.18571489 0.18044518 -0.07463123
-0.16099626 0.09144481 0.0931895 0.07777285 0.21192342 -0.059711017 0.10106515 -0.23300423
0.12469086 0.07991969 0.20152679 -0.11172326 0.030688146 -0.1387058 -0.23159592 -0.11598846
-0.21927702 0.028544292 0.19892852 -0.025211059 0.21405435 0.014663198 0.22682413 -0.17205591
-0.11444452 -0.0987963 0.029195003 -0.047601633 -0.2146518 -0.05806724 0.1656419 -0.018760495
-0.22350518 0.22066112 -0.014535189 -0.19527748 -0.0554407 -0.030042654 -0.20277604 -0.13045825
0.051187523 0.15834248 -0.13045321 0.025942542 -0.06633072 -0.16569863 0.0057824366 0.0048669507
-0.1707911 0.20652166 -0.21177496 -0.2331206 -0.19920975 0.0042781234 0.15324426 -0.18106966
-0.1456151 0.18463993 0.22121564 -0.07967714 0.18517572 -0.13476448 -0.03252741 0.19175369
0.0572178 -0.13040398 -0.036732845 -0.15289523 -0.16981596 0.020632252 0.035368666 -0.0055202246
-0.11333587 -0.22846664 -0.094282486 -0.1938512 -0.14929216 -0.1424437 0.012942476 0.15727006
0.12716901 -0.1834661 0.03275045 -0.2261514 -0.034392737 -0.14201744 0.205225 0.10078953
-0.13683915 -0.23005456 0.13303396 -0.13691148 0.12660521 -0.22242121 -0.08929051 0.019589715
0.007882326 0.07388612 0.044241957 -0.00429875 -0.03586667 -0.14241813 0.1743262 -0.09411592
0.15020613 0.13645236 -0.07408421 -0.14329264 0.12705179 0.13351469 0.16172525 -0.12952109
-0.07567168 0.065607615 -0.18475534 0.17891237 -0.2031728 -0.08310915 0.010726047 -0.027758665
0.06606404 -0.029308893 -0.14412837 -0.12324222 0.17345668 -0.22901896 -0.20201582 -0.0019854426
0.21499044 0.10642377 0.11565069 0.19906358 -0.21542637 0.19480848 -0.09744624 0.04360468
0.08002985 0.18797103 -0.14298005 0.13528419 -0.03334473 -0.16088444 -0.06236863 -0.06958678
0.19325826 -0.10817144 0.2135689 0.15961468 -0.0836143 -0.015736321 -0.047910593 -0.09444963
-0.06071151 0.22442722 0.015065031 -0.023054384 -0.19462168 0.13988408 -0.016348258 -0.004900247
0.11951141 0.18545865 -0.039103173 -0.039459445 -0.17577685 -0.17575191 0.23160076 0.008675599
-0.23063473 0.025888361 0.22654155 -0.21928737 0.1299237 -0.10426145 -0.07708039 0.022326954
0.007921338 0.17273407 0.11939652 -0.10137862 0.18882386 -0.16809498 0.14498419 -0.048132144

bias f4 [128]
00000000: c9c3 32be d47c cabc 6f73 c5bd fa29 043d
00000010: 0b8b c53d 76b7 0e3e fc88 f93c 82ff 163e
00000020: 6627 27bd 15a9 f93d c69f 233d 9fb3 28be
00000030: 86a1 3dbd ec4c f43c 96d3 343d b8de 153e
00000040: fe34 26bd 2f9c 36be d179 45be a547 9dbd
00000050: ba11 46be a8ef 153e f778 9ebd 54fe 01be
00000060: e866 0d3c dad2 143e fe61 543e 63ad 4c3c
00000070: 17af a1bd b485 223e a289 053e ca8f 5b3d
00000080: 5ee1 363d 0119 21be 7d8b d23d 5206 3b3e
00000090: 3ec9 03bd 9a06 0bbe e589 8cbd 9a6c 173e
000000a0: 17ff 883d 6c8f 583e ec9a 303e 773d bbbd
000000b0: 17ac 37be 8606 1a3b b81c 603e 65c4 e9bd
000000c0: 2852 a0bb 3e9e 17bd 63fa 37be 235f 19bc
000000d0: 42dd 153d 95ee 5dbe bc0d 6d3e 47e2 db3d
000000e0: 2a8c 3dbe c95f 373e 973c aabd 1910 b4bc
000000f0: 574e 1a3e f35d 8abd f607 263e 1056 3d3e
00000100: 4da3 37be 364a 3a3e 774f ac3d 729e 02be
00000110: d299 6dbe b220 3d3e f80f 0bbe 83a1 f23d
00000120: e1df 933d 358f 853d 1965 92bd 1b42 91bd
00000130: 16df 48be 4d02 dfbb 1a33 33be 8585 e73d
00000140: c2d2 54be 3f9c ee3d 88f0 e2bd 7c98 5bbe
00000150: 962e 3bbe ac43 ddbc bd32 33be 09c9 d93d
00000160: 35ec 10be 0a87 393e ea11 013e 1643 1ebd
00000170: d654 44be 1e72 50bd fd90 51be d689 4c3e
00000180: a417 123e d191 c03d 5ee5 1f3d 51a1 c9bd
00000190: 80fc 683e 5ac4 5bbd 87cb 62be 73bf 1bbc
000001a0: d787 27be cc21 d3bc ee80 47be 3fa3 c73d
000001b0: 903c 1abe d866 523e 4b1c 2ebe 9c80 09bc
000001c0: 9a99 483e cbf3 37be 53dc acbd d51a 9ebd
000001d0: ac82 6ebe a59d 11be e712 47be df18 c7bd
000001e0: 5490 043e af7b 8f3d 8a34 44be 9214 413d
000001f0: 0f00 8f3d be51 55be f9a5 cc3d 4204 1c3e
-0.17457499 -0.024717726 -0.09641158 0.032266594 0.09645661 0.13937172 0.030460827 0.14745906
-0.040809058 0.12190453 0.039947294 -0.1647477 -0.04629662 0.029821835 0.044147097 0.14635742
-0.04057788 -0.17833017 -0.1928475 -0.07679681 -0.193427 0.14642203 -0.07737916 -0.12694675
0.008630492 0.14533558 0.20740506 0.0124925105 -0.07894724 0.15871316 0.13040784 0.053603925
0.04464852 -0.15732194 0.102805115 0.1826413 -0.03217434 -0.13576737 -0.06862239 0.14787522
0.066892795 0.21148461 0.17246598 -0.09142583 -0.17936741 0.0023502423 0.21885955 -0.114144124
-0.0048926063 -0.037016146 -0.17966609 -0.009361061 0.03658796 -0.21673043 0.2314977 0.10736518
-0.185105 0.17907633 -0.08312338 -0.021980332 0.15068947 -0.06756201 0.16213974 0.18489861
-0.17933388 0.18192372 0.08413594 -0.12755755 -0.23203209 0.18469504 -0.1358031 0.11847212
0.07220436 0.06521455 -0.07148189 -0.07092687 -0.1961635 -0.006805694 -0.17499962 0.11304764
-0.20783523 0.11650895 -0.11081034 -0.21444887 -0.1827949 -0.027009808 -0.17499824 0.106340475
-0.14152606 0.1811792 0.1260449 -0.038638197 -0.19172987 -0.05089008 -0.20465465 0.19974455
0.1426683 0.09402812 0.0390371 -0.09845222 0.22752571 -0.053654052 -0.22147952 -0.009506094
-0.16360413 -0.025772952 -0.19482777 0.097479336 -0.15062165 0.20547044 -0.1700298 -0.008392479
0.19589844 -0.17964093 -0.08440461 -0.077199616 -0.23292035 -0.14220293 -0.19440804 -0.09721541
0.12945682 0.07006013 -0.19160667 0.047138758 0.06982433 -0.20831963 0.09992594 0.15235999

weight f4 [5, 128]
00000000: 4cda 9a3c d348 11bd 3870 333d 0498 f1bc
00000010: a982 12bd 1b84 70bd 8c6f a03c f8f8 d7bc
00000020: 9cf7 543d 6683 7ebd 0fb0 29bd 0b51 3a3c
00000030: ee0d 70bd 9811 553d 6986 5c3c 8cea e73c
00000040: e901 51bc 101b b23d 0431 763d 917b 22bc
00000050: 2c1e 54bd 0045 573d b9f0 80bd aded 96bd
00000060: b0c8 87bd b28c 533c 8430 973d 0719 49bd
00000070: 1370 8cbd 8321 97bd e5ef 7abc 9f7a 0b3c
00000080: f08e 673d 1b4f 16bd 50f7 4dbd aa75 62bd
00000090: a248 af3d 2215 e23b 9481 633d d8a4 8a3c
000000a0: cb3a a1bd d559 dc3b 0467 c63c 14c5 f83c
000000b0: d5f3 19bd a015 153d e4b3 333d 1a87 af3d
000000c0: 61c3 193c 3225 803d 30f4 b1bd ef9d 443c
000000d0: 964e 033d db6a aebd b0f7 4c3d 8c0e 213d
000000e0: 38ec 803d 407c 163d ceb6 a73d 3cae 6a3d
000000f0: 140e f53c 3a99 98bd 6087 37bd 5723 b0bd
00000100: 9f27 42bc 5aae 6dbd e7f2 82bd 1b7f 03bd
00000110: a758 48bd ae12 933d fe50 65bd 80dd 853d
00000120: 38bf 05bd d4ac a53d c70b 92bd c3d9 42bd
00000130: 60b4 c6bc 38e6 3e3d a803 ddbc c083 f2bc
00000140: a40c f6bc dc37 733d 3886 e33c 7c59 9a3c
00000150: ca9a 2d3b bc61 c23c b814 6fbd 20a8 f53c
00000160: b2a9 39bd d83f d6bc 6462 4f3d c4da a4ba
00000170: 696a b6bd f819 623d 24d0 353d 28bf a03d
00000180: bceb b33c 7882 adbd 90c4 2d3d 3b47 0bbd
00000190: 94fe ec3a bcc8 2e3d 981b 9d3d 6f4b 5e3c
000001a0: 968e 6ebb e27f 983d 38a4 373d 6ea7 a93d
000001b0: fd73 2cbd 8475 753d b3a8 7bbc 6121 74bd
000001c0: 25d7 503c cdc6 a23b 98f9 1d3d bbaf 44bd
000001d0: 44f0 55bd 1c15 dfbc e2c4 883d 108a 41bd
000001e0: f45a 55bd f4c5 873d 8820 ac3d 7447 7d3d
000001f0: e029 56bd 8dbf adbd 64f0 ae3a f858 b63d
00000200: 4889 8b3d d6d8 e2bc a28f e33b 29a5 143c
00000210: cfd8 9cbd ab11 9abd 3497 7c3c b0b8 5a3d
00000220: 745a 8d3c df4d 5f3c c417 f4ba cc8e d1ba
00000230: 7042 82bd 4c1a b2ba d38b f83b eba1 a03b
00000240: aaa3 a53d 482e a2bc a39f 3dbd 381f 423d
00000250: f0db d53c 9371 0cbd b8c8 0e3d 5881 633d
00000260: 8c10 993d 7a39 32bd 8810 a0bc d01d 58bd
00000270: 52d9 083d 945f fabc 4843 983d 0c57 a83d
00000280: 8c83 053d d066 89bc d853 81bc 284b 123d
00000290: 6d0f 4d3c 6c67 be3c 4d83 afbd 717d 56bd
000002a0: 5ec5 8ebd cced 6b3d 6ae6 7d3c bc0e 333d
000002b0: 22bb a63d 193c 0ebc 15b4 6abc 3845 aebc
000002c0: 452b 21bd 1ea7 0a3d 8393 6bbd 39b6 683c
000002d0: a66e 99bd d0e3 afbc 6c81 463d 3235 a03d
000002e0: 89d8 4238 45ec 8bbd 6c02 553d b4e0 f2bc
000002f0: 98d1 703d 3c48 aa3c 3170 81bd f6a8 ad3d
00000300: e6af 1ebd 0b86 92bd 55d8 653c e55f 0fbc
00000310: 3b02 38bd f8fd f13c acce 61bd de35 923d
00000320: 509a a8bc 8469 093d e866 a7bd 27e2 273c
00000330: 4e11 84bd 5414 243d 5ab3 8f3d 5419 5bbd
00000340: 2826 243d 7070 5b3d 889c 6b3d fb6a 70bd
00000350: 48c8 ebbc d0f9 933c 3f28 47bd 1f58 b0bd
00000360: 0972 56bc bbf6 56bc 41a4 023c d55b a5bd
00000370: b01f 40bd 98b2 6dbd f0ab ac3c 4cc8 363d
00000380: c2c6 9fbd e8d0 093d c0a8 863d cb25 263c
00000390: 1429 b5bc cbe5 18bc 5033 983c 434e aabd
000003a0: a47f c93c b9a5 c8bb e816 8c3d 1c56 94bc
000003b0: e440 a63c 452c 733c bc32 0d3d 8192 723c
000003c0: ec6f 563d 654c 45bd 7bcf d13a c2c6 1dbd
000003d0: 45e6 483c acfb eabc f51c 33bc bc21 573d
000003e0: b14e d5bb aedd 1cbd d89f 5d3a 5942 acbd
000003f0: de85 883d 7f0e 1a3c 2ce2 aa3d 44c3 c63c
0.01890292 -0.03546984 0.043808192 -0.029491432 -0.03576914 -0.058719736 0.01958444 -0.026363835
0.05199395 -0.06213703 -0.04142767 0.011371861 -0.058607034 0.05201873 0.01345978 0.028310083
-0.012756803 0.08696568 0.06010534 -0.009917156 -0.051786587 0.052556038 -0.06295914 -0.07369552
-0.06630075 0.012911962 0.073823005 -0.049096134 -0.06857314 -0.07379439 -0.015315984 0.008513122
0.0565328 -0.036696535 -0.050284684 -0.055287994 0.085587755 0.006899492 0.055543497 0.016924307
-0.07872542 0.006724576 0.024219044 0.030367412 -0.037586052 0.036397576 0.04387273 0.085706905
0.009384961 0.062570944 -0.08689153 0.012000545 0.032057367 -0.08516475 0.0500409 0.039320514
0.06295055 0.036739588 0.08189164 0.05729507 0.02991394 -0.07451101 -0.044806838 -0.086004905
-0.011850267 -0.058027603 -0.06393986 -0.03210364 -0.04891267 0.07181297 -0.055985443 0.065363884
-0.032653064 0.08089605 -0.071311526 -0.047570955 -0.024255931 0.046606272 -0.026979282 -0.029603839
-0.030035324 0.059379444 0.027773961 0.018841498 0.0026489967 0.023728244 -0.05836937 0.029987395
-0.04532785 -0.02615349 0.050630942 -0.0012577404 -0.08907015 0.055200547 0.04438795 0.0784896
0.021962993 -0.084721506 0.042423785 -0.034003478 0.0018081241 0.042671904 0.07671279 0.013567789
-0.0036400906 0.07446267 0.044834346 0.08283888 -0.042102803 0.059926525 -0.015360045 -0.059602145
0.012746607 0.0049675466 0.03856811 -0.048019152 -0.05223109 -0.027231745 0.066781774 -0.047250807
-0.052088693 0.066295534 0.08404642 0.06183572 -0.05228603 -0.08483801 0.0013346788 0.08903688
0.06813294 -0.027691286 0.0069446126 0.00907258 -0.076585405 -0.07522901 0.015416909 0.053398788
0.017255045 0.013629406 -0.0018622805 -0.0015987991 -0.06360328 -0.0013588159 0.0075850277 0.0049021146
0.08087857 -0.01979746 -0.04629482 0.047393054 0.026105851 -0.034288 0.03485939 0.055543274
0.07473859 -0.043511845 -0.019539133 -0.052762806 0.033410378 -0.030563153 0.07434708 0.08219728
0.032596156 -0.016772658 -0.01578705 0.035716206 0.012515885 0.023242675 -0.085699655 -0.052365724
-0.069712386 0.057599828 0.0154968295 0.043715224 0.081411615 -0.008681321 -0.014325161 -0.02127324
-0.039347906 0.03385078 -0.057513725 0.0142036015 -0.07491808 -0.021470934 0.04846327 0.07822646
4.645487e-05 -0.06832174 0.052004263 -0.029648162 0.058793634 0.020786397 -0.06320227 0.08479492
-0.03874197 -0.07154473 0.014028628 -0.00875089 -0.044924002 0.029540047 -0.05512874 0.071391806
-0.020581394 0.033547893 -0.08173925 0.01024679 -0.06448613 0.04005845 0.070166305 -0.05349095
0.04007545 0.053574026 0.057522327 -0.058695775 -0.028782025 0.018063456 -0.048622366 -0.08610558
-0.013088712 -0.013120349 0.0079737315 -0.08074156 -0.04690522 -0.05803165 0.02107808 0.04462461
-0.07801582 0.033646494 0.06575155 0.0101408465 -0.022114314 -0.009332131 0.018579155 -0.083157085
0.024596997 -0.0061232713 0.068403065 -0.018107466 0.020294614 0.014842098 0.034472212 0.014805437
0.05235283 -0.04816856 0.0016007269 -0.03851963 0.012261932 -0.02868446 -0.010932197 0.052522406
-0.006509625 -0.038297348 0.00084542995 -0.08411092 0.06666158 0.00940287 0.0834392 0.024263032

bias f4 [5]
00000000: 7852 83bd fd30 2b3c d088 8a3c d845 533d
00000010: b259 d9bc
-0.06412214 0.010448691 0.01691094 0.05158028 -0.026532028

weight f4 [128, 128]
00000000: a88d d53c c4ab 523d 58f8 103d 48ff 2a3d
00000010: 9e35 873d 5361 703c 0038 24bc 605c 5f3d
00000020: 061a 913d 51f8 8abb c482 6d3d d44a 9bba
00000030: 2635 813d b4ec 39bd 97bc 47bd 3c1f 9d3d
00000040: 8aa2 5bbd b126 67bd 5ccf 863d 1413 7c3d
00000050: 7e4e a4bd fe0e 1bbb 8068 e1bc e5f3 493c
00000060: 9949 503c f0f0 0c3d 0caa 86bc 1089 883d
00000070: d807 863d 089c 78bd 90f6 233d 5032 7bbd
00000080: 5a81 8a3d 32ae 0d3d d6e6 b23d c2bd 963d
00000090: 344d b53d 0180 54bd ec94 283d 3013 73bd
000000a0: 0573 99bd 56c5 133d 8d3d 79bd 7e7f 7bbd
000000b0: c069 ba3c 5c9c 8f3d c4dd 8f3d 8a90 a6bd
000000c0: 2426 783d c084 9ebc ed77 1b3c 88b0 abbc
000000d0: 4005 993c c8a0 ac3d 2899 b13d 9793 4ebd
000000e0: 5519 b2bd 7534 2c3b 15ee 71bc 9c2a 383d
000000f0: 3853 793d 54c3 7e3d f60f b13d 51b2 073c
00000100: b063 f63c 01d8 69bd 7430 78bd 982a 44bd
00000110: 8cfd 7a3d 2445 14bd 3ed7 ae3d b5a6 adbd
00000120: befe 95bd b851 82bc e27e ad3d b227 863d
00000130: 7d3e 523c 0115 84bd c0d4 153d 504e efbc
00000140: 2d37 76bc b0e0 f53c 3ce5 6dbc 700f 3b3d
00000150: 9c2f 343d 8cb1 c53c 2cb4 febc 3032 bd3c
00000160: f557 a7bd 813e 8dbd d414 093d b540 01bd
00000170: 8ca7 8e3d d81a cc3c b1c9 8abd 0801 2bbd
00000180: 0987 1abd a261 983d e631 9a3d c82b 3abd
00000190: 4fad 2fbd 29d0 a8bd b0e3 98bd 60c2 3d3d
000001a0: 3abd 6fbd a92f 29ba 4fb5 82bd 503c 33bd
000001b0: f4d9 a63d 42ef b13d 6887 3bbd d06e 9dbc
000001c0: 4aa1 9a3d e366 91bd a59e 62bd 604c cebc
000001d0: 1c4d 083d 19eb cf3b 075a 45bd 6830 213d
000001e0: b48e ccbc f87e 073d a8cc 263d 9406 a53d
000001f0: abfd 2dbd 3459 483d d8f2 84bc 6428 9c3d
00000200: 58c7 7f3d 7cb0 39bd 7ce1 a6bc 84f1 adbc
00000210: 1ba5 28bc 24d6 74bd 3800 ab3d 0fc4 21bd
00000220: 6c34 e53c aa4f d7bc ace5 8f3c acac 16bd
00000230: 12ba a43d eedf 49bd 2e60 773c 2484 93bc
00000240: f997 93bd d980 ebbb a903 5bbc 94a5 9f3d
00000250: 165c 56bd 8a18 9c3d d021 8b3c 6cee 73bd
00000260: 1641 0d3d e7cb 77bd f90d 99bd e83d a2bc
00000270: 0df1 00bd f047 693c d4e7 a13d 7879 2a3d
00000280: 56be 803d 32a8 b0bd 7cb0 8b3d 04a5 673d
00000290: 6adb ea3b 9a63 4fbb eb94 c53b 8563 db3b
000002a0: 1212 9a3d 0e3c 8b3d e247 303c e4e5 863d
000002b0: c463 f63a b17f 97bb 6a12 a53d 7a1c 0d3d
000002c0: 88a9 9bbc 9859 413d ba07 073d 80df e33c
000002d0: 6ede 913d 378c 37bc 844c 733d a3ec a6bd
000002e0: 94cb a0bc ed0c b4bd a870 8ebd 04b4 1a3d
000002f0: de2d 133d e66c 183b ca7c 08bb 81c2 96bd
00000300: 4c7c c9bc a49c 4abd d1c5 8fbd b475 653d
00000310: ee3e 51bd 467a abbd bbb4 a7bd fa6a b33d
00000320: 5ac8 a93b 52cd 60bd 4ca3 953c fadd 43bd
00000330: 98e6 3c3d 76a2 11bd 744c 803d ccd2 9f3d
00000340: 10bd 8b3d 0cae 79bd 3208 a0bd 1cb4 aa3d
00000350: 2569 8dbd ace5 7e3d fb3c 37bd 70bc 8bbc
00000360: 6bf5 87bd 68b8 ef3c bcfa 523d 8587 7cbd
00000370: a0d4 9c3d 76b4 afbb 486f a53d 4c91 5ebd
00000380: 9d4a 84bb 3533 163c 3894 e53b 062e 8c3d
00000390: e4c5 13bc 81ca 0c3c c697 8ebd b6dc 5fbd
000003a0: af3e a5bb ce69 5d3b e011 713d 909b 843d
000003b0: 1a43 85bd 06b4 b43d 981d 71bd 2c0f bfbc
000003c0: 48ad 9abc 16e7 60bd a0a8 68bd c978 4bbd
000003d0: f7ed 613c f66a 403c 26e4 b3bd fd0c 86bd
000003e0: 7c6b a6bd 1818 843d 1eee ae3d 0ec1 28bd
000003f0: aa6f 62bd fc84 493d 6019 6a3d 3c4e b73c
0.026068524 0.05143334 0.03539309 0.04174736 0.066020235 0.014671641 -0.010023117 0.054531455
0.07085042 -0.0042410274 0.057986036 -0.0011847862 0.063089654 -0.045391753 -0.048763838 0.07671973
-0.053621806 -0.056433383 0.065825194 0.06154163 -0.08022784 -0.002366006 -0.02751565 0.012326215
0.01271286 0.034409463 -0.016438507 0.066667676 0.06544465 -0.060695678 0.040030062 -0.06132728
0.06762953 0.034589954 0.08735435 0.07360412 0.08852616 -0.051879887 0.041157648 -0.05934447
-0.07492641 0.036076866 -0.060849715 -0.061400883 0.022755504 0.07012245 0.0702472 -0.081330374
0.06058325 -0.01935041 0.009489042 -0.0209582 0.018679261 0.08429104 0.0867179 -0.05043372
-0.08696238 0.0026276384 -0.014766236 0.04496251 0.06087038 0.062198 0.086456224 0.00828226
0.030076832 -0.057090763 -0.060593084 -0.047892183 0.061276957 -0.03619875 0.08537148 -0.084790625
-0.07323979 -0.015908107 0.084714666 0.0655054 0.012832281 -0.06449319 0.036579847 -0.029212147
-0.015027803 0.030014366 -0.014519986 0.04566902 0.043990716 0.024132513 -0.031091772 0.02309522
-0.08171073 -0.06896687 0.03346713 -0.03155585 0.06965551 0.024915144 -0.06776751 -0.04174903
-0.037726436 0.07440497 0.075290486 -0.04545191 -0.04288989 -0.082428284 -0.07465303 0.04632795
-0.05853007 -0.00064539403 -0.06382238 -0.04375869 0.0814704 0.08688213 -0.04578343 -0.019217879
0.07550295 -0.07099702 -0.055327076 -0.025182903 0.033276662 0.0063451645 -0.04818156 0.039352804
-0.02497039 0.03308007 0.04072252 0.08057895 -0.042478245 0.048913196 -0.016229078 0.076248914
0.06244597 -0.045334324 -0.020371191 -0.021233328 -0.01029327 -0.059774533 0.08349651 -0.039493617
0.027979098 -0.026283104 0.01756557 -0.036785766 0.080433026 -0.04928582 0.015098615 -0.018007345
-0.07206721 -0.0071869907 -0.013367572 0.077952534 -0.052333914 0.07621868 0.016983896 -0.05955355
0.0344859 -0.06049719 -0.07473368 -0.01980491 -0.031479884 0.014238343 0.07905546 0.041619748
0.06286304 -0.08625831 0.06820771 0.056553856 0.0071672695 -0.003164506 0.0060297153 0.0066952133
0.07522978 0.06798564 0.010759326 0.06586817 0.0018798043 -0.0046233763 0.08060153 0.034450985
-0.019001737 0.047204584 0.032966353 0.027816534 0.07122503 -0.011202863 0.059399143 -0.081506036
-0.019628324 -0.08791528 -0.06955081 0.037769333 0.035932414 0.0023258268 -0.0020826333 -0.073613174
-0.024595402 -0.04946579 -0.07020152 0.056020454 -0.051085405 -0.08372931 -0.081887685 0.087606385
0.0051813545 -0.05488331 0.018266343 -0.047819115 0.04611835 -0.035555325 0.06264582 0.07803878
0.0682317 -0.060957 -0.07814063 0.083351344 -0.0690482 0.06223075 -0.04473589 -0.017057627
-0.06638607 0.029262736 0.05150865 -0.06165268 0.076577425 -0.005362089 0.08077866 -0.054337785
-0.004037215 0.009167482 0.0070061944 0.06844716 -0.009019349 0.008593203 -0.06962542 -0.054653846
-0.005042873 0.0033784988 0.058854938 0.06474984 -0.06506939 0.08823399 -0.058866113 -0.023322664
-0.018881455 -0.05490788 -0.05680144 -0.049675737 0.013789645 0.0117442515 -0.0878375 -0.06545446
-0.0812597 0.06449908 0.08541511 -0.041199736 -0.055282272 0.04919909 0.057153106 0.022376172

bias f4 [128]
00000000: a81a 5d3d db85 26bd dd9b 243c bc13 373d
00000010: a073 b4bc 2196 8fbd 9fb9 8dbd 49c4 39bd
00000020: 903e e73c c493 06bd f0b7 473d 452a b2bd
00000030: 9fc6 59bd 741c 4c3d 28cf a23d c5f2 f0bb
00000040: c032 d0bc b415 cf3c 3533 ecbb 9063 d23c
00000050: 90d0 793d fa7a 60bd b823 cd3c 9eab 803d
00000060: a801 8f3d c02c dc3c d09b 963d d63e 8a3d
00000070: d087 6ebd 5a9c b23d f83b 5d3d ab4a 8dbd
00000080: 3c34 5e3d f21a 0a3d 38c7 06bd 6174 11bc
00000090: 569f f5bc 5c3c 9c3d b6e0 a8bd 885e 99bc
000000a0: b68c a03d da39 9cbd 657b 6c3c 78d9 e5bc
000000b0: ee4c 75bd 9829 82bc 3c25 94bd aad1 5ebd
000000c0: 8ce0 983d 8889 8ebc 9efb 093b 54dc 8bbc
000000d0: e12f 8bbd d0c9 323d 3422 cb3c c685 39bb
000000e0: 4c08 d63c ee01 6abd 14c2 233d e8fe bd3c
000000f0: 9a06 873d 7933 aebb 83e1 a3bd e4cc 2d3d
00000100: c5e0 76bc 4e8b 9b3d 62c6 8f3d 9d5f 2d3c
00000110: d454 5c3d dc92 be3c 90dd 363c eb5e 6bbd
00000120: e426 3d3d d8fb 3b3d b4b4 f13c 1d6b b83b
00000130: ec2e c13a fcc9 f23c 80d9 2c3d a887 88bc
00000140: 77b4 9dbb aee5 6fbd 2470 ba3c 68f3 543d
00000150: 8878 333d a419 a13d 0a89 a0bd 00f4 393d
00000160: c45a 3e3d d7c5 60bc ae4f 9cbd 1f3b 86bd
00000170: ccc3 2e3d f164 b1bd 8c79 8a3c ba3d 823d
00000180: d15f 39bc 0575 0b3c b99f 59bd 98bc b93c
00000190: e05a c7bc 28e1 9c3d 5653 4c3b 963a b23d
000001a0: c88b 463d c0c2 203d bd78 c2bb 9617 fabc
000001b0: 5779 483c 9909 d63b 4c78 9bbc 60c3 cf3c
000001c0: e5a7 58bd 2c01 b23d 2088 953d 93f0 a0bd
000001d0: abac 84bd 0cc5 37bb 6ace e2bc 0fa4 0bbc
000001e0: cacc 133d 6153 1d3c d708 5abd 3bfc 2cbd
000001f0: 9c59 2c3d bc80 5bbc c2e8 923d c8b0 bf3c
0.0539805 -0.040655 0.010046926 0.044696555 -0.02202779 -0.07011057 -0.0692017 -0.045353208
0.028228074 -0.032855764 0.0487594 -0.086994685 -0.053167935 0.049831823 0.07949668 -0.007353159
-0.025414824 0.025278904 -0.007208253 0.02568224 0.060989916 -0.05480478 0.025041446 0.062827334
0.06982738 0.026876807 0.073539376 0.06750266 -0.05823499 0.08721228 0.05401227 -0.068990074
0.054249033 0.033717103 -0.032904834 -0.008877845 -0.029983204 0.076287 -0.08245985 -0.018721834
0.078393385 -0.07628222 0.014433716 -0.028057799 -0.05988782 -0.015888974 -0.072336644 -0.05439917
0.07464704 -0.017399564 0.0021054517 -0.017072834 -0.067962416 0.043649495 0.024796583 -0.0028308495
0.026127003 -0.057130747 0.03998001 0.023192838 0.06593056 -0.0053161946 -0.08001997 0.042431727
-0.015068238 0.0759493 0.070202604 0.010581878 0.053791836 0.023263387 0.011161223 -0.057463568
0.046179667 0.045894474 0.029505111 0.0056280033 0.0014738715 0.02963733 0.04219961 -0.016666248
-0.004812773 -0.05856865 0.022758551 0.051989943 0.04381612 0.07866219 -0.07838638 0.045398712
0.04647328 -0.013719044 -0.07632385 -0.06554245 0.042667195 -0.08661831 0.016903661 0.0635943
-0.011314348 0.008511786 -0.05313084 0.022672936 -0.024335325 0.07660133 0.0031177602 0.08702581
0.04847315 0.039248228 -0.0059348033 -0.030528825 0.012235961 0.006531906 -0.01897826 0.025361717
-0.05289449 0.0869163 0.073013544 -0.07858386 -0.06478246 -0.0028041033 -0.027686317 -0.008523001
0.036083974 0.009602399 -0.053231087 -0.042232733 0.042077646 -0.013397392 0.07173301 0.023399726

weight f4 [128, 128]
00000000: 8221 3f3b a4b3 e43c a4b5 2c3d 8c33 b0bc
00000010: 1dd2 97bd f525 dcbb 6ef4 9a3d 85ef b6bb
00000020: 1c22 9e3d b230 8bbd 38be d13c f88b 433d
00000030: 4467 8ebc 2465 9dbd ecaf 133d dc30 683d
00000040: 12a3 88bd e425 903d 4613 813d 6686 35bd
00000050: aa77 0a3d a9ee 0cbd 0a35 193b c626 063b
00000060: 309a 5d3d 5e5b 943d 26bd 0b3d 3054 7e3d
00000070: f8f6 ae3d b1d0 98bd 00bc 5a3d 56e2 a43d
00000080: 3473 b5bc 00bc 813c 2ea4 99bd e1ab 073c
00000090: 4cdb 9ebd c624 70bd c034 043d e0eb b23d
000000a0: 2b34 5dbd a896 9dbd 97b6 3cbd 21e8 98bd
000000b0: cb78 b5bb c5d0 7a3c d6e8 8a3d c678 6ebd
000000c0: 6455 9c3d dcec 92bc 8c94 2c3d cc47 9cbc
000000d0: 39e2 8abd 68de 6abc f5b9 273c 9ab2 aa3d
000000e0: b4e0 fa3c 50c0 ce3c cc9f 5e3d 4d60 2dbd
000000f0: 9d00 0abc 0899 c8bc aaf1 9f3d bcff 673c
00000100: bad4 6abc 9c7d 3a3c d8a0 403d 2658 8b3d
00000110: e309 513c 9c20 56bd 96c7 b53d 68b8 a8bd
00000120: 1409 83bc 6eb3 d1bc 90b3 9c3d 3747 c4bb
00000130: e2d3 433c 9ccd c5bc 54e3 433d 538d 7d3c
00000140: 5f37 26bc 0be3 38bd 98b0 f33c 8090 98bc
00000150: bfc9 52bd e0de 923c 38d2 7c3d 84a3 403d
00000160: 0c05 61bc 609c 55bb 0018 4e3d d615 fabc
00000170: 582c 42bd e849 6f3d f749 59bd 648e 533d
00000180: 5a8d 13bd 389c 7ebd 3e44 74bc 3458 613c
00000190: 578b 64bd c81d 943c 17c7 cc3b 14b6 8e3d
000001a0: 14fe f9bc 8137 863b f681 5b3b 3900 bc3b
000001b0: 3e40 28bd 2925 90bd 4639 38bd 3c73 79bc
000001c0: d448 573d 88eb b03d 08de 133d b231 03bd
000001d0: 29d7 66bc 5851 a13c 88ab a23d 90e8 aebc
000001e0: 3525 a5bd 17b0 56bd 148f a23d 8c76 c53a
000001f0: 7e47 aebd c4ed 6d3d 6acc 17bd 4eac 0a3d
00000200: 40c9 c6bc 9b82 9abd 94da 14bd 94d8 913d
00000210: fe08 893d 9893 273d f48d 84bd df93 a5bd
00000220: 33ac 03bd 4297 debc 1c8e c1bc a853 a53b
00000230: 3ee4 1bbd a6f0 933d 323f a33d d17b 57bd
00000240: 10a2 dfbc ce96 973d 5612 20bd 5608 78bd
00000250: d6a2 893d a4cb 193d c464 95bc 14b0 373d
00000260: 64fe 823d a4b0 ec3c 18a7 c7bc 67f6 11bd
00000270: b892 ea3c 0c6c 81bc b53f 8d3b 3c5a 85bd
00000280: 0a8d 8ebd 1c37 fd3c 8a35 84bd 15b4 0fbc
00000290: 2853 7f3d a0f2 003d 53ac 08bc fd3d 30bd
000002a0: a61a 883d 6a36 97bd 7a2e a53d 2841 c13c
000002b0: e887 f73c 7f72 99bd c937 b4bd 7c78 f8bc
000002c0: ccb1 b03d d6ba b13d 4442 0f3c 489f e93b
000002d0: 61c1 99bd b447 98bc a015 70bd c4ab f9ba
000002e0: 57f9 01bd 8443 a0bc 8568 9cbd be37 68bd
000002f0: 588e 7c3d 9024 243d 25df 853b f4a5 a93c
00000300: aaad 13bd 404c 513d 9c95 a13d d13f aa39
00000310: 8cc8 7ebc 8a71 61bd 28e3 af3d b948 6dbd
00000320: da0d 3c3b d428 5a3d ce74 17bd 1f36 64bc
00000330: 54e0 973c e192 34bd bcee 893c abf2 37bd
00000340: 5847 4fbd 7e4e 23bc f852 cfbc afe5 84bd
00000350: 0700 56bd 7d60 99bd b2ac 95bb 840b 8e3c
00000360: c70c 95bd 72b4 a23d 0c6b 92bc 840d 593d
00000370: bce0 a8bc 10a7 e93c b986 f3bb c613 a8bd
00000380: 630a 70bc 5425 c13c 5b77 f73b 4c7a 6a3d
00000390: 040a 9d3d a964 2bbd 70c9 cbbc ce59 31bb
000003a0: 5495 bbbc fc28 7f3d 042e 343d 6a8e 60bd
000003b0: 1451 1e3d 70ee a9bd 48de 313d 8c00 1abd
000003c0: 6eeb 063d a00e cb3c 8355 bfbb 0675 1dbd
000003d0: f064 c6bc 7a03 fdbc 3436 723d 080f 673d
000003e0: 2cec 3a3d 51a4 80bd 8a1f 06bd 99ff 87bd
000003f0: a3a5 683c 23c4 82bd b58b 20bd a0ea 593d
0.002916426 0.02791769 0.042165413 -0.021508954 -0.07413123 -0.006718392 0.075661525 -0.005582752
0.077213496 -0.06796397 0.025603399 0.047740906 -0.017383225 -0.07685307 0.036056444 0.05668722
-0.06671728 0.07038477 0.06302504 -0.044317625 0.033805527 -0.03440729 0.002337756 0.0020469888
0.054102123 0.072439894 0.034115933 0.062092006 0.08543199 -0.0746168 0.053401947 0.08050983
-0.02214966 0.015836716 -0.07502018 0.008280725 -0.07756671 -0.05862882 0.03227687 0.08736396
-0.05400483 -0.07694751 -0.04607257 -0.0746615 -0.0055380813 0.015308564 0.06782691 -0.058220647
0.076334745 -0.017935209 0.042133853 -0.019077204 -0.0678143 -0.014335252 0.010237207 0.08334847
0.030624725 0.025238186 0.054351613 -0.042328168 -0.008422998 -0.024487033 0.07809766 0.014160093
-0.0143329445 0.011382487 0.047028393 0.06803922 0.012758705 -0.052277192 0.088759586 -0.08238298
-0.01599554 -0.025598254 0.07651436 -0.005989935 0.011952372 -0.024145894 0.04782422 0.015475589
-0.010145037 -0.0451384 0.029747292 -0.01862359 -0.05146193 0.01792854 0.061723918 0.04703094
-0.013734113 -0.0032594427 0.050315857 -0.03052799 -0.04740557 0.058420092 -0.053049054 0.051649466
-0.036023475 -0.0621607 -0.014908848 0.013753939 -0.055796947 0.018080607 0.0062493193 0.069683224
-0.030516662 0.004095972 0.003349421 0.005737331 -0.04107689 -0.07038338 -0.044976495 -0.015225228
0.05255969 0.08638674 0.036100417 -0.032029815 -0.014089384 0.019692108 0.07942873 -0.021351129
-0.08063737 -0.052414026 0.07937446 0.0015065237 -0.0850973 0.05808808 -0.03706018 0.03385573
-0.024265885 -0.07544442 -0.036341265 0.07121387 0.06691168 0.04091224 -0.06472388 -0.08084845
-0.032146644 -0.027171735 -0.023627333 0.005045373 -0.038059466 0.072236344 0.07971038 -0.052608315
-0.027298957 0.074018106 -0.039079987 -0.060554825 0.067205116 0.037547722 -0.018236525 0.044845656
0.063961774 0.028892823 -0.024371669 -0.03563538 0.028634414 -0.015798591 0.004310573 -0.065113515
-0.06960495 0.030910067 -0.06455524 -0.008770962 0.062335163 0.031481385 -0.008341867 -0.043027867
0.06645708 -0.073834255 0.08065505 0.02359064 0.030216172 -0.074925415 -0.08799703 -0.030330889
0.08627662 0.08678214 0.008743826 0.0071295835 -0.07507587 -0.018588878 -0.058614373 -0.0019048383
-0.03173193 -0.019563444 -0.07637123 -0.056693785 0.061659187 0.04007393 0.004085439 0.020709015
-0.03605429 0.05109811 0.07889864 0.00032472474 -0.015550744 -0.05503992 0.085882485 -0.05793068
0.002869478 0.053261593 -0.036976628 -0.013928919 0.018539585 -0.044085387 0.01683747 -0.04490916
-0.050605148 -0.009967444 -0.025308117 -0.06489121 -0.05224612 -0.07489107 -0.004567706 0.017339475
-0.07277828 0.079445735 -0.01787331 0.052991405 -0.020614974 0.028522044 -0.0074318317 -0.082068965
-0.014650914 0.02357737 0.00755207 0.057245538 0.07667926 -0.041844044 -0.024876326 -0.0027061584
-0.022898354 0.062294945 0.043989196 -0.054823317 0.03865154 -0.082974315 0.043424875 -0.037598178
0.032939367 0.024787247 -0.005839051 -0.03844168 -0.024218053 -0.030885447 0.059133723 0.05641082
0.045635387 -0.06281341 -0.03274492 -0.06640548 0.014199647 -0.06385066 -0.039195735 0.05320227

bias f4 [128]
00000000: 0f38 5ebd 30cc 9a3d aa2f f9bc f80c 943c
00000010: 3c75 afbd f823 c1bc a189 86bd 4c2b 783d
00000020: ec65 c2ba 02aa 64bd 44e1 4e3d cec8 ab3d
00000030: 0ea2 b43d e573 403c 55c2 75bd 28cd 56ba
00000040: 9098 f1bc e677 9c3d 0660 04bd 47b3 4a3c
00000050: fc77 b03c 1cb9 22bd 4c29 ac3d 4114 7abd
00000060: d4ea 6e3d e9a0 04bc 1e56 3a3b cd32 8ebd
00000070: 0e24 823d 1cd6 3e3d c479 0bbd 885d 243d
00000080: bf15 2ebd 85f3 80bd 8874 773d 34c5 183d
00000090: 14a5 d03c 94a0 813d dc1e c2bc 66fa a23d
000000a0: 9e84 30bd 9d68 97bd ec3c 9a3d 7061 84bc
000000b0: c6c7 00bd d848 193d 5662 ae3d efb6 35bd
000000c0: 88e2 813d 7830 8b3d f44e a03d 0833 bcbc
000000d0: d453 603d 8489 9bbc 0618 a33d 056c 253c
000000e0: 1e82 0d3d 928f 0ebd ec72 3d3d 6945 89bd
000000f0: 0ff9 03bd 10e2 dc3c 20db 703d d630 47bd
00000100: f539 a9bd cfb1 c53b bb36 76bc 74e9 dc3c
00000110: c1c7 96bd 3c14 903d 8c65 ed3c f026 c83c
00000120: dc5e 773d f1b9 66bd 1850 753d 33cf 2abc
00000130: 064c fabb 8cda a4bd f899 adbc 9b87 4ebd
00000140: 90b1 3cbd 08d2 7f3d 0069 643d 26f6 01bd
00000150: ad7a 69bd 54cb 8fbd d133 9fbd ca9d 7bbd
00000160: 7daf 7ebd eec9 9f3d bb11 443c 50e2 edbc
00000170: c06b d63c a586 1fbc 6c19 763d ac1b 9bbd
00000180: 0cbf e43c aa04 fdbc 3aa6 f0bc eca6 8bbd
00000190: 4056 8e3c 426c 843d dccf c53c 36d1 4abb
000001a0: 7abc edbc 6870 3ebd c3cc b1bd 8d91 aebd
000001b0: 1fec 2f3c 5e7c a13d 2152 80bd 4097 02bd
000001c0: 606e 65bd f9e9 3ebc 1815 afbc da4e 963d
000001d0: 142b ad3d b0e9 7fbd 0ef9 883d c679 ebbc
000001e0: 0a52 99bd dca7 d1ba e0e4 8ebd a8f2 b3bc
000001f0: 57f0 50bd 7ed2 8cbd c4df 883c 8c1a 9d3d
-0.05425268 0.07558477 -0.030418236 0.01807259 -0.085672826 -0.023576722 -0.065692194 0.060588166
-0.00148314 -0.055826195 0.0505078 0.0838791 0.08819972 0.011746381 -0.059999783 -0.0008194023
-0.029491693 0.07640056 -0.032318138 0.012371845 0.021541588 -0.039727315 0.08406314 -0.061054472
0.05832942 -0.008095005 0.0028432677 -0.06943283 0.06354533 0.04659091 -0.03405167 0.04012826
-0.042501207 -0.06296448 0.060413867 0.037297443 0.02546934 0.06329456 -0.023696356 0.07957916
-0.043095224 -0.07393 0.07531151 -0.016159743 -0.03144052 0.037422985 0.0851485 -0.044363912
0.063420355 0.06796354 0.07827559 -0.022973552 0.054767445 -0.018986471 0.079635665 0.010096555
0.034547918 -0.034804888 0.046252176 -0.06702692 -0.032219943 0.026963264 0.058802724 -0.048630558
-0.082630076 0.0060331593 -0.015027697 0.026966788 -0.07362319 0.070351094 0.028979085 0.02443263
0.0603932 -0.05632967 0.059890836 -0.010425377 -0.007638457 -0.08049497 -0.021191582 -0.050422292
-0.046067774 0.06245616 0.0557642 -0.031728886 -0.05700176 -0.07021204 -0.07773555 -0.061429776
-0.062179077 0.07802187 0.011967118 -0.029038578 0.026174426 -0.009736692 0.060082838 -0.07573637
0.02792313 -0.030886013 -0.029376138 -0.06818947 0.017375112 0.06465961 0.024146967 -0.0030947453
-0.029020537 -0.046493918 -0.08681633 -0.08523855 0.010737448 0.07885049 -0.06265665 -0.031882524
-0.056013465 -0.011652463 -0.021372363 0.073392585 0.08455482 -0.06247872 0.066881284 -0.02874459
-0.07486351 -0.001599546 -0.06977248 -0.021966293 -0.051010456 -0.06876086 0.016708262 0.07671079

weight f4 [1, 128]
00000000: ac3d f43c 7794 ab3d 28da 8bbd 16af 1d3d
00000010: d4fd 94bc 5d97 923d 6777 3bbd 3f21 81bd
00000020: 6cd8 cdbc a671 593d e083 913b b0e6 2abc
00000030: 0875 30bd fcdf 6abd c160 ab3d f648 693d
00000040: 7e95 64bd fc3f 80bc 74ad c43c f396 38bd
00000050: da84 a4bd ea0e b1bd 2ebf 303d d0d2 a13b
00000060: e67a 4fbd e875 b0bc 904f 0ebc 78c4 97bd
00000070: 9264 393d c0ad 373c 3f74 ac3d 4868 c8bc
00000080: 5790 a73d d4ac a2bc 668f 6f3d 9ea3 0b3d
00000090: 8b2b 20bd 40e8 2fbb 585f 393c d89a 4abc
000000a0: ed6c 18bd b2fa 4bbd 410a 52bd 200c 7e3b
000000b0: b053 d93c 3be5 b13d d18b 973d 8da1 31bd
000000c0: 71e3 57bd 00be 723c 2c28 933c 2b97 80bd
000000d0: ca44 9ebd 2e14 6c3d 919a 853d 182a 343c
000000e0: a8fb fabc 7e96 383d ec2c 90bd 4052 d0ba
000000f0: 6edc 733d e89c dd3c ea5d 56bd 75e4 4dbd
00000100: f904 873d e0d9 083c 30ae 603c 20b2 db3c
00000110: 00cd 92ba 1edc 173d a021 92bd e7ef 64bd
00000120: 00a4 503b 3088 68bc cb06 ab3d 1abf 8cbd
00000130: b09c 91bc 709a 073c 009b 903b 902a 0ebc
00000140: 3a18 1e3d 40ef 8c3b 78c4 b73c a19f 8a3d
00000150: 6c44 0f3d 8265 6a3d d25e 153d b863 7d3c
00000160: d206 65bd 7d2a a1bd dc86 97bd d87b e93c
00000170: d813 6fbc df1f 7bbd 40df b8bb 9992 b13d
00000180: 2763 99bd 95fe 2abd b3c0 82bd f652 05bd
00000190: 661a 573d e06e 443c 5c3b 973c 9a4e 26bd
000001a0: 487a e0bc 003c 91ba 94b5 7bbd 728f 4ebd
000001b0: ca5b 783d a023 1a3b e074 a13b 0a09 72bd
000001c0: c03a 2f3c 3c52 d4bc 6adc 9abd 9cce 9bbc
000001d0: 1fb0 4bbd ce00 223d 48b8 763c 1455 893c
000001e0: 1f46 acbd f9d9 b03d d43e e53c b157 853d
000001f0: 9f15 87bd 7ac5 353d d603 213d 55b7 9e3d
0.029814564 0.08377927 -0.068287194 0.038497053 -0.018187441 0.071577765 -0.045768168 -0.06305169
-0.025127612 0.0530869 0.0044407696 -0.010430977 -0.04308036 -0.057342514 0.08368064 0.056954347
-0.05580663 -0.01565551 0.02400849 -0.04506583 -0.08033152 -0.08645423 0.043151073 0.004938461
-0.050654314 -0.021540597 -0.008685961 -0.0741052 0.045261927 0.011210859 0.0842061 -0.024463788
0.081818275 -0.019857801 0.058486365 0.034091584 -0.039104026 -0.0026841313 0.011314236 -0.012366019
-0.037213255 -0.04979963 -0.05127931 0.0038764551 0.026529163 0.086863 0.07399715 -0.043366957
-0.05270714 0.014815807 0.017963491 -0.06278833 -0.07727964 0.057636432 0.06523622 0.010996364
-0.030637577 0.045065396 -0.07039818 -0.0015893653 0.05953639 0.027052358 -0.052335657 -0.0502667
0.06592745 0.008352727 0.013713405 0.026818335 -0.0011200011 0.037075154 -0.0713532 -0.05589285
0.0031836033 -0.014192626 0.08350905 -0.06872387 -0.01777491 0.008276567 0.0044130087 -0.00867714
0.038597323 0.0043009818 0.02243255 0.06768728 0.03497736 0.05722571 0.03646738 0.015465669
-0.055914707 -0.07869432 -0.07398769 0.028501436 -0.014592133 -0.06130969 -0.005641848 0.086705394
-0.07489615 -0.041746695 -0.06384411 -0.03254982 0.05251541 0.011989325 0.018460922 -0.040602304
-0.027402058 -0.0011080503 -0.061452463 -0.05042977 0.060634412 0.002351977 0.0049272627 -0.05909065
0.010695159 -0.025918119 -0.07561572 -0.019019417 -0.04972851 0.03955155 0.0150585845 0.016764201
-0.08411812 0.08635325 0.02798406 0.065108664 -0.06595921 0.04437778 0.0393103 0.077498116

comm_mask f4 [3, 3]
00000000: 0000 0000 0000 803f 0000 803f 0000 803f
00000010: 0000 0000 0000 803f 0000 803f 0000 803f
00000020: 0000 0000
0.0 1.0 1.0 1.0 0.0 1.0 1.0 1.0
0.0
