exp1/coop.pt (torch_old, 161222 bytes, 10 tensors)

weight f4 [128, 18]
00000000: 24ae af3c 5b7c 6ebe 7dd8 cf3d c9b0 cebd
00000010: 0352 debd 8c0f a3bc 0255 073e c881 64be
00000020: d356 a8bd 2928 a93d 39f7 ba3d b6d6 393e
00000030: 7f3f db3d 9047 093e 1d98 263e 6c72 1dbe
00000040: f257 84bd 8307 233e 2ba1 343e 03bb 2bbe
00000050: d5b1 79be a634 5bbd 00f4 4cbc 8b74 16be
00000060: c62c 2f3c f6fc 1f3b 6009 193e a0b6 64be
00000070: 7c2b c43b bd15 483e 9974 0cbe 8a70 0ebe
00000080: a3e6 0e3e 6aaf f73d c83d 953c 7283 6ebe
00000090: 1579 94bd 8def e43d d642 57be 6d23 11be
000000a0: 4b51 23be 0a1f 403d fbaf babd 8c70 3abe
000000b0: 21ee d53d fb4e 1dbe dbcb 8ebd 4827 4eba
000000c0: a427 063e ce86 7f3d c7b6 503e 8300 4b3e
000000d0: 69b3 1e3e 45ba 023e b54d 1dbe 7f0f ec3d
000000e0: 9c70 3c3e 81d0 babd 22db 683d 1abe 3c3e
000000f0: ad49 cb3d d223 e2bd e19a 993c d109 9b3d
00000100: 9afa 43be 62fa 2d3e 3e65 5a3d d58e a8bd
00000110: 65fe 6e3e 8c40 22bd cc91 12bd b7f7 513e
00000120: d56b 5ebe e5b8 4ebe 0359 dabd 1787 db3d
00000130: 56a2 56bb a669 2b3c 58ea 34be 2a91 6a3d
00000140: cca5 213e 6bbc b5bd 42c7 253d 076d 6dbe
00000150: ad0b 20be e936 84bd c797 0d3e a027 91bd
00000160: 4ae1 a93d e208 ee3d 918f fabd 614b 15be
00000170: 3a1d 643e baf4 103e c3bf 8bbd a284 47bd
00000180: a07d ebbd 1e8e ff3d ac4a d0bc b261 3b3d
00000190: 1dab b0bd 70ec 413e cc80 533e ba85 f5bd
000001a0: af8b ecbd 1436 b3bd 8044 053b 6a28 d83d
000001b0: afa1 253d 9fad 133e 69e1 893c 9646 5f3e
000001c0: 6f9d 4dbe 3a2b 0ebd 2d5a 37be b7fe 3cbe
000001d0: c213 313d d44a 59bc 8758 b8bd 463f 693d
000001e0: 8c77 ae3c 72b7 3f3e 30b1 5dbd ecdf 60bd
000001f0: bf06 0e3e b2ed 48be 4360 37bd ea58 0a3d
00000200: 19bf 83bb 2e29 47be 9f6b c63d e9fb a5bd
00000210: 941c b7bc a002 153e c661 60be e0b6 653e
00000220: 7049 65be fca7 1dbe d754 1dbe 35e2 4dbc
00000230: 63d8 f9bd 904b 5dbe 5cef 44bd bcae 06bd
00000240: cb29 fcbd 6c6f f23c 7915 f33d 3c43 273e
00000250: 97cf e93d 0a88 43be 5e9f 0ebe 000c 683e
00000260: 8beb 6dbe 5b7e 62be 72d0 42bd 63f5 ac3d
00000270: 78f0 403e 6fd6 bebd 07f2 f5bd 5ccf 53bd
00000280: 5b1d 2d3e 5b26 ffbd 8e43 7bbd 97c4 ea3d
00000290: 2833 1b3e efb0 36be 6ba8 0bbe f2e5 08bc
000002a0: 7a4d 793d 4779 1ebe f2ff 1bbd d891 34be
000002b0: 8766 09be 874d 0ebe 5b25 31bc 75d6 c9bd
000002c0: bcdd 18bd 6aca fd3d 4af2 dfbd db40 5e3e
000002d0: 5f38 033b ef66 57be 6bb1 39be 5a0e fc3d
000002e0: 055c 82bd fa77 533e 7ba4 e4bd bb85 85bd
000002f0: 5fab d1bd 7dea b2bd c6e6 103e 2abb 063e
00000300: b58e bbbb d418 573e c523 0a3e c9a4 20be
00000310: ba38 ea3d 66c9 9d3d 0fe6 f23b c95a 21be
00000320: dcc2 f9bc 5a3f 05bd a4a3 c73c a0a1 383e
00000330: ed9c f23d 941d f0bd f3a8 52be d91b 933d
00000340: 2732 e63d 95cb 2bbe ef75 02be cea5 173d
00000350: 1285 99bd b5b5 1b3e 2069 b43b 5461 643d
00000360: 0c89 803a 74da e9bd 7087 393e ef3b a93d
00000370: 8406 703e 7d2e 513e e219 40bd eaf8 6dbe
00000380: b0c1 f3bd 3622 063e bca5 41be 82da 12bd
00000390: 9f6d f03d 0c27 97bc a56f 473e 383d e4bd
000003a0: 10f8 653c 1050 c0bd 98c1 133e 9962 003d
000003b0: c10b 2ebe 3a6f 4d3d 5471 1ebc cdd7 9dbd
000003c0: a0b8 0cbe 186e 6fbe 5164 a3bd 31e2 14be
000003d0: 405a 003e e25d 1b3e c6f5 133d 22af 48be
000003e0: 9883 01be 9acc 9b3d d0a4 33bd 9a5e 2cbe
000003f0: f248 b3bb 10c3 9fbd 04cf 543e a98a 82bd
0.021445341 -0.23289625 0.10148714 -0.10092313 -0.10855486 -0.019904874 0.13216022 -0.22315133
-0.082196854 0.08259613 0.09129185 0.18148312 0.1070547 0.13406205 0.16268964 -0.1537568
-0.06462087 0.15920834 0.17639606 -0.16770558 -0.24384244 -0.053517006 -0.012509346 -0.14692895
0.010691827 0.002441225 0.14944983 -0.22335291 0.005986629 0.19539542 -0.13716353 -0.13910118
0.13955168 0.120940045 0.018217936 -0.2329233 -0.07249657 0.11178503 -0.2102159 -0.1417367
-0.1594898 0.0469046 -0.09115597 -0.18206996 0.1044581 -0.1536216 -0.06972476 -0.000786413
0.13101059 0.06238442 0.20382224 0.19824414 0.15498127 0.12766369 -0.15361674 0.11526393
0.18402332 -0.091218 0.056849606 0.18431893 0.09926162 -0.110419884 0.01875061 0.07570232
-0.19138566 0.16990045 0.05331921 -0.08230368 0.23339231 -0.039612338 -0.035783574 0.20504652
-0.21720822 -0.20187719 -0.10661509 0.10719126 -0.0032750568 0.0104622 -0.1766752 0.057267345
0.15785903 -0.088738285 0.04047323 -0.23186122 -0.15629454 -0.06455786 0.1382743 -0.07087636
0.082949236 0.11622788 -0.12234414 -0.14579536 0.22276774 0.14155856 -0.06823685 -0.048710473
-0.114985704 0.124782786 -0.025426231 0.045747466 -0.08626387 0.1893785 0.20654601 -0.11988397
-0.1155008 -0.08750549 0.0020335019 0.10554583 0.040437397 0.144217 0.016831117 0.2180427
-0.20079587 -0.034709193 -0.17905493 -0.18456541 0.043231733 -0.013262469 -0.0900126 0.056945108
0.021297239 0.18722323 -0.054124057 -0.05490105 0.13869761 -0.19621924 -0.044769537 0.0337762
-0.0040205834 -0.19449303 0.09688496 -0.08104689 -0.022352494 0.14551783 -0.21912298 0.22433043
-0.22391295 -0.15396112 -0.15364395 -0.012566139 -0.121994756 -0.21610856 -0.048079833 -0.032881483
-0.12312659 0.029594146 0.1186933 0.16334242 0.11416548 -0.19094864 -0.13927981 0.22660828
-0.23234384 -0.22118513 -0.04756207 0.08445241 0.18841732 -0.09318244 -0.12009054 -0.051711425
0.1690573 -0.124584876 -0.061343722 0.11463278 0.15156233 -0.17840932 -0.13638465 -0.0083556045
0.060864903 -0.15475951 -0.038085885 -0.1763376 -0.13418017 -0.13896762 -0.010812129 -0.098553576
-0.037320837 0.12392123 -0.10934885 0.21704428 0.0020022613 -0.2103536 -0.18134086 0.12307425
-0.063652076 0.20651236 -0.11164185 -0.06519648 -0.102377646 -0.08736131 0.14150533 0.13157335
-0.005723799 0.21005565 0.13490207 -0.1568786 0.11436601 0.07704429 0.007412679 -0.15757288
-0.030488424 -0.03253112 0.024370022 0.18030405 0.118463375 -0.117243916 -0.20572262 0.07183046
0.112400346 -0.16776879 -0.127403 0.037023358 -0.07496084 0.15206034 0.005505696 0.05575688
0.0009806468 -0.1141862 0.18118072 0.082633846 0.23439986 0.2042789 -0.046899684 -0.23239484
-0.11902177 0.13098988 -0.18910879 -0.035852917 0.117396586 -0.018451236 0.19476183 -0.11144489
0.0140361935 -0.09390271 0.14429319 0.03134403 -0.16996671 0.050154902 -0.009670574 -0.07707176
-0.13742304 -0.23381841 -0.07978118 -0.1453941 0.12534428 0.15172532 0.03612306 -0.19598058
-0.12647855 0.07607384 -0.04385835 -0.16832963 -0.0054713422 -0.07800877 0.20782095 -0.063741036

bias f4 [128]
00000000: 4f73 ba3d 3509 29be 6a43 5b3e ca36 3a3e
00000010: abc9 a4bd 546d 4f3e 5f0b af3d b475 2cbe
00000020: 0534 063e a7a6 0bbe 0150 01be 6647 bfba
00000030: 1b4d ddbd 265a 323e c56e af3d 2c21 1f3e
00000040: cd3d 1dbe a71e f03d a31a 443c ebf6 a0ba
00000050: a20b 59be 68e5 2d3e 4d75 6e3e 2a2b 1ebd
00000060: 6f96 d43d 529b 6dbd 06e4 103e 4d5c 023e
00000070: 9f62 da3d acae e63c 0abf 3bbe b508 60be
00000080: 9483 eb3c 4aa8 53be 3dac 9f3d c950 a1bd
00000090: 973f da3d 1ef2 f2bd e479 693e c08b 69be
000000a0: 642c 9d3c 1e77 7c3d 7812 6fbe 140b 20be
000000b0: 1b0f 2abe 5353 5f3e bf08 0abe 733b 6cbe
000000c0: 20fa 5f3e cf90 cbbd f28b 62be edb1 6a3e
000000d0: 4753 e5bd 1fc0 1ebe df23 dd3d 5825 10be
000000e0: c1d8 3dbe 5922 333e 4550 c03d 07e3 6dbe
000000f0: 6338 623e c2ff 363e 783a 583e f0b0 1e3e
00000100: d2ea 4dbd 23f8 223e dbcd 8bbd d5db 7d3d
00000110: ebc1 14be 5a0f 3c3e 959e 85bd ee56 79bd
00000120: 6d46 a5bd 15d5 00be 98e5 2fbe 1d56 90bc
00000130: 0ea5 7bbd 930d 2bbe a6df b3bc 546a 1bbe
00000140: d905 e6bd a22d 053d 4215 f2bd 7ec1 3e3d
00000150: 5bb7 2fbe d520 b5bd 0fbc 6dbe 73fb 2cbe
00000160: 5c2b 063e f9c1 4fbc 8457 59bc b43a 493e
00000170: 6ef3 31be 495f 5c3e 1018 b7bd 7fc5 843d
00000180: f33b 023c b5e4 0bbe b8f6 57be d730 623c
00000190: 4bfb d8bd 437a e83d ad47 35be 9113 07bc
000001a0: 9dcb ca3d b6b7 dcbb 1170 19be bef0 223d
000001b0: de7c 6a3e c10a 8fbd 9c40 52be e37f d13d
000001c0: 0178 543c 2d4e 42be 9581 ad3d b362 06be
000001d0: 349e 6cbe efa3 523e 2ad0 0e3b 69a7 59be
000001e0: 8ae0 393e 1d44 f4bd aa6f 5c3e 5126 d4bd
000001f0: d36c 813d 5108 bb3d 777e 543e f218 31bd
0.091040246 -0.16507418 0.21412435 0.18184963 -0.080462776 0.20256549 0.08547091 -0.16841775
0.13105781 -0.13637792 -0.12628175 -0.0014593422 -0.10805722 0.17417201 0.085660495 0.15539998
-0.15355606 0.117245965 0.011969241 -0.0012280619 -0.21195844 0.16982043 0.23286934 -0.038615383
0.103802554 -0.058009453 0.14149484 0.12730522 0.10663342 0.028159462 -0.18334594 -0.21878321
0.028749265 -0.20669666 0.07796524 -0.07876737 0.1065666 -0.118625864 0.22800404 -0.22807217
0.019186206 0.061637037 -0.23346889 -0.15629226 -0.16607325 0.2180913 -0.13479899 -0.23069553
0.21872759 -0.099397294 -0.22123697 0.22919436 -0.111975245 -0.15502976 0.107978575 -0.14076746
-0.18539716 0.17493571 0.0939031 -0.23231135 0.22091822 0.17871001 0.21116054 0.15497184
-0.05027277 0.15914969 -0.06826373 0.061977226 -0.14527099 0.18365231 -0.06524388 -0.06087392
-0.08070073 -0.12581284 -0.17177427 -0.017619187 -0.061436705 -0.16704397 -0.02195723 -0.1517728
-0.11231584 0.032514222 -0.11820461 0.046571247 -0.17159788 -0.08844153 -0.2321627 -0.16892795
0.13102478 -0.012680524 -0.013265494 0.196513 -0.17378017 0.21520723 -0.089401364 0.06482982
0.007948863 -0.13661464 -0.2109021 0.01380559 -0.10594805 0.113514446 -0.17703123 -0.008244411
0.099021174 -0.0067357672 -0.14984156 0.03978037 0.22899196 -0.06984473 -0.20532459 0.102294706
0.012968064 -0.18975134 0.084719814 -0.13123588 -0.23107225 0.20570348 0.0021791556 -0.21255268
0.18152061 -0.11927054 0.21526971 -0.10358871 0.06319585 0.091324456 0.20751368 -0.04323668

weight f4 [5, 128]
00000000: e29f 59bd 20cc 6a3d 4cc9 db3c faac 56bd
00000010: 3c20 203d 4df2 83bd 37db 9fbd 8d6b 99bb
00000020: 9d57 9dbd bc4a 623d 60ec 98bd 18b5 813c
00000030: 0421 723d 38d7 143d 1815 49bd f8e8 7cbd
00000040: 6c9b 273d e596 34bc 5c53 363d 0cc3 473d
00000050: 8497 8a3a 103b e83c 3404 53bd e2b9 f1bc
00000060: 39cb 18bd 74ea b13c 4c27 503d 3cb0 573d
00000070: 082a 6b3d 79dc c73b ecd5 6c3d d57f 26bc
00000080: 009d 923d 62f4 1cbc 947a a63c 28b6 dc3c
00000090: f403 9b3d fe40 a83d 84d7 833d ddb6 a2bd
000000a0: 7c35 463d c893 9fbd eadf 7b3c dcc6 e73c
000000b0: fc0e 31bd 412a 60bd a438 133d 4c30 a53d
000000c0: 701b a73c 623b 46bd 04c0 a5bd a8ac 6cbd
000000d0: f64e 1a3b d013 cdbc e0ac a8bc 5e8d 93bd
000000e0: 802b dcbc baa7 773b 7c5d a93d 3d90 91bd
000000f0: 28a7 153d cb93 453c b094 6d3d 7ad5 863d
00000100: d098 f93c b28a 063c 985a a0bd 5099 aa3d
00000110: c6f2 ad3d a2e7 1abd 8865 ae3d fe4d ecbc
00000120: 2482 4f3d 900c d6bc 94a0 b7bd f1b2 a2bd
00000130: 62ed ae3d 1089 683d dab6 55bd 1670 55bd
00000140: 96e3 b13d 6c86 8abc f040 903d c8a0 823c
00000150: 4be6 3ebc 074c 28bd 5f4d 2ebd 3c9a 37bd
00000160: 68b2 bdbc fcd0 7f3d bf3d 56bd 558c 91bd
00000170: 2242 eabc 5ab2 9e3d 50ec cfbc 6880 aa3c
00000180: af89 a0bd bca2 babc b0ae a83c 023c 943d
00000190: 2cc3 2ebd ac97 3a3d d38c 69bc 42c1 b4bd
000001a0: 60df c0bc 5adf 20bd 7385 84bd a010 2d3d
000001b0: 5cf1 693d 2f85 9fbd e71a 71bc 442f ff3c
000001c0: 446c 463d 401c 263d 90a2 fabc 1372 843b
000001d0: f427 b1bc 68b7 303d 7cbe 6b3d 5602 97bd
000001e0: d3b7 86bd e0bb 663d 3ec5 ae3d 39df 8ebd
000001f0: 0e1b a2bd f1b8 2f3c 0080 4c3d 540b 653d
00000200: 1141 91bd b4ed 94bc 11e5 6dbd c90e a9bd
00000210: ad7c 8ebd a68d ae3d e0da 533d 331f a8bd
00000220: b43c f7bc 0400 77bd d8d1 783d 104d 813d
00000230: aa1c 26bd cfe0 2b3c 10cd 79bd 54d0 2f3d
00000240: 18a8 8b3d ccc9 763d 15c5 a2bd 5cb9 9aba
00000250: 628f 933d 745c a2bc 0dea 283c 5473 a5bd
00000260: af49 ddbb 19b3 81bd 1a85 a73d da78 393c
00000270: 9008 e33c 3bb1 8ebd 6069 97bc 18f3 3e3d
00000280: 317f 70bc 5cd9 563d ce08 b2bd b163 a2bd
00000290: 74d5 993c 08f0 7bbd 7c78 a83c aa57 1cbc
000002a0: b231 9e3d 701f e43c 5a9c 9fbd cc04 063c
000002b0: ce9e 493c b815 2b3d b79b b03b 946d a7bc
000002c0: 1f61 abbd e0cf 97bc ee6a 0ebd 72e7 a33d
000002d0: cb03 1ebd e7a2 8a3b 0612 0fbb 6c78 9bbd
000002e0: cb66 d5bb dade a73d 7df0 96bd ec68 813d
000002f0: d05f a3bc dcc4 e93c cd6f 56bd c2e2 453c
00000300: c0e0 0fbd c614 0e3d 6469 8d3c adda 9dbd
00000310: 8891 ad3d 6c19 34bd 862a 19bd 6c36 aabd
00000320: c698 27bd 6482 9a3d 1de0 23bc e46c f53c
00000330: 8bc7 08bd 9c8b ecbc a831 453d 7e52 ad3d
00000340: 3061 b33d e918 96bd 9469 cd39 de7b 013d
00000350: f090 763d 83fa 19bd 4cd7 a93c bad8 83bd
00000360: 60ee 2d3d 597e a7bd f625 a3bd 44f6 bebc
00000370: 6382 4abd 44cc bbbc 96f9 033d 3915 a6bd
00000380: 0a61 963d 482a f13c 6708 7a3c 96fe a13d
00000390: 0518 06bd 40cb 5bbd 8c1a 13bd 5139 5fbd
000003a0: 0e00 b0bd 109b 793d b01f 07bd cb93 203c
000003b0: c7ef 3abc 0068 943c 8c05 a7bd ddf4 01bd
000003c0: 396a 97bd b626 9d3d 78e1 a7bc cd4a 43bd
000003d0: c42a 863c 8acb b1bd dfba c8bb c0fc 203d
000003e0: 409a 7a3d dbee 22bc eebe debc 6c02 b73d
000003f0: 3443 a83d 5604 7abb ed6d 96bd 38d4 4dbd
-0.05313099 0.057323575 0.026829384 -0.052411057 0.03909324 -0.064426996 -0.07805484 -0.0046820105
-0.076827265 0.055247054 -0.0746696 0.015833423 0.059113517 0.03633806 -0.049092382 -0.061745614
0.040919706 -0.011022304 0.04451309 0.048769996 0.001057372 0.028348476 -0.05151768 -0.029507581
-0.037303183 0.021718241 0.050818726 0.052658305 0.05741313 0.0060992804 0.0578212 -0.0101623135
0.071588516 -0.00957975 0.020322122 0.026942328 0.075691134 0.08215521 0.06437591 -0.07945035
0.04839085 -0.07791859 0.0153732095 0.028293066 -0.04322718 -0.054727796 0.03594269 0.080658525
0.020398825 -0.048396476 -0.08093265 -0.057781845 0.00235456 -0.025033861 -0.020590246 -0.07204698
-0.026876211 0.0037789182 0.08269784 -0.071075894 0.036536366 0.012059162 0.058003128 0.06583686
0.030468374 0.0082117785 -0.078297794 0.08330023 0.08493571 -0.03781856 0.08515459 -0.028845783
0.05066122 -0.026129037 -0.08966175 -0.079442866 0.08541371 0.056771338 -0.052176334 -0.052108847
0.08685987 -0.0169098 0.07043636 0.015945807 -0.011651586 -0.04108813 -0.042554256 -0.044824824
-0.02315636 0.062455162 -0.05230498 -0.07106844 -0.028595988 0.077488616 -0.025381237 0.020813182
-0.07838761 -0.022782676 0.02059111 0.07238008 -0.0426666 0.0455548 -0.0142547665 -0.088259235
-0.023544014 -0.039275505 -0.06470766 0.042252183 0.057114944 -0.07789075 -0.014715887 0.031150468
0.048443094 0.040554285 -0.030595094 0.004041919 -0.021625496 0.04314366 0.057554707 -0.073734924
-0.065780304 0.056331515 0.08533715 -0.0697617 -0.079153165 0.010725246 0.049926758 0.055919006
-0.070924886 -0.018179752 -0.058079783 -0.08254773 -0.06957374 0.08523111 0.051722407 -0.08209076
-0.030180313 -0.06030275 0.060746998 0.06313527 -0.04055468 0.01049061 -0.06098658 0.042923287
0.06819171 0.060251042 -0.07947747 -0.0011804509 0.072050825 -0.019819476 0.010309708 -0.08078638
-0.0067531685 -0.06332988 0.08179684 0.011320317 0.027714044 -0.06967398 -0.018482864 0.04661855
-0.014678762 0.052453384 -0.086930856 -0.07929171 0.01877854 -0.06150821 0.020565264 -0.009542385
0.077243224 0.027847022 -0.077934936 0.008179855 0.012305928 0.04176876 0.0053896564 -0.020437993
-0.08368134 -0.01853174 -0.034769945 0.08003129 -0.038577836 0.0042308453 -0.0021830811 -0.07591328
-0.006512498 0.081968024 -0.07370088 0.063188404 -0.019943148 0.028536253 -0.052352715 0.012077989
-0.035126448 0.03468778 0.017262168 -0.07707725 0.084750235 -0.043969557 -0.03739407 -0.083111614
-0.04091718 0.07544401 -0.010002163 0.02995915 -0.033393424 -0.028875165 0.04814306 0.08463
0.087587714 -0.0732897 0.0003917931 0.03161227 0.060196817 -0.037592422 0.020732544 -0.06437822
0.04246366 -0.08178396 -0.07966225 -0.023310788 -0.049440753 -0.02292455 0.032220446 -0.08109517
0.073427275 0.029439107 0.015260792 0.079098865 -0.03273775 -0.05366063 -0.03591399 -0.05449802
-0.085937604 0.060938895 -0.032989204 0.009800862 -0.011409706 0.018115997 -0.08155355 -0.03172766
-0.07393307 0.07673399 -0.020493254 -0.047678757 0.016377814 -0.086814 -0.0061257924 0.03930354
0.06118226 -0.009944643 -0.027190652 0.08936009 0.08215943 -0.0038149557 -0.073451854 -0.050251216

bias f4 [5]
00000000: 0a0a a33d 5cc4 a7bd bc73 b83c dac1 413b
00000010: 40f9 abbc
0.07960899 -0.081917495 0.022516124 0.0029565007 -0.020992875

weight f4 [128, 128]
00000000: c584 b9bb 80c7 383d 48a8 9b3d 9227 7e3b
00000010: 8398 a1bd 2039 e03c 4024 c23c 49bc acbb
00000020: 3ac4 b0bd 137c a5bd 0bc1 20bd d6a9 90bd
00000030: e39a 5cbd 4ced d03c ecce e83c 2f7c 15bd
00000040: e482 443d 2008 cfbc ba60 b03d 6419 9e3d
00000050: 049d bfbc 472e 003c a560 80bd 945b 2e3d
00000060: d65b 8bbc 886a 86bc a076 873d 1800 9f3d
00000070: 6180 86bd 2c80 b0bc 6c44 823d c601 06bb
00000080: c9b3 df3b 924e adbd 87ef 06bd 7c46 a93d
00000090: f957 61bd 96bb 92bd 08c7 90bc 2f82 593d
000000a0: fb06 2abd f81f 9d3d 809a 843d 8259 94bd
000000b0: abee 52bc f645 71bd b4c8 b6ba 186b a83d
000000c0: 84ba aabd 1fac 1bbd ce6c 13bd 654b 9cbd
000000d0: df88 cfbb 8438 c33c c618 a73d 80cd 303d
000000e0: 3136 80bb 6c37 1e3d 14b1 8dbc 116c 0cbd
000000f0: 5ade 073b 04c9 74bd 9929 1ebd b874 a8bc
00000100: db62 86bd 2614 0f3d f263 913d 6c6d 093d
00000110: 0563 42bd c300 debc 6b89 8cbd 1809 0c3d
00000120: 92b6 a93d e4bb dfbc 500e c2bc b214 61bb
00000130: 8696 a43d 1550 a1bd ca11 213c 1b10 1b3c
00000140: d688 42bd 38c4 593d 5dc7 4bbc ec1d f03c
00000150: 2291 2fbd 8e50 143c cad0 35bd b273 9abd
00000160: 1750 8fbd bc73 02bc 6afd 47bd d4e4 06bd
00000170: 4a48 0c3d fc51 ab3c 99c3 86bb 2c83 7bbd
00000180: 2c7d 913d a663 003d d420 b23c d06a 66bd
00000190: 8c0d 38bd f096 883d fe2c 873d 72d9 a93d
000001a0: ab36 1bbd b46f 5ebd 0755 00bc 340e 6a3d
000001b0: f627 c6ba a84c 84bd 98dc 8bbd 528d e3bc
000001c0: 6a1e b33d 808c 80bd e822 4f3c 70ea 6b3d
000001d0: f26e 38bd 6c76 e63a 0f50 97bd d509 3cbd
000001e0: 0a03 94bd 84e0 983d 0856 35bd 98fe 943d
000001f0: 6404 4ebd 3802 7eba f557 4b3c 3c4d a03d
00000200: 04dd adbd e757 6dbd d071 df3c 0c8c bb3c
00000210: 60e8 523d 07cc 413c f6b9 013c 94f7 843d
00000220: 9e93 ac3d bfda 84bd 12b2 8dbd 56ad 913d
00000230: 3d89 07bd 0dea b5ba 34e8 993c 75ad 8abd
00000240: 2840 9d3d 3271 803d ab6e abbb be92 46bc
00000250: 6c43 cabc 6828 1a3d c5aa 80bd 8067 883d
00000260: 9d09 97bd a871 89bd e38c 633c 5e60 1c3d
00000270: a12b 2fbd 4700 50bc 5825 403a c240 f83a
00000280: 2446 a73c d62e ac3d ccf5 f83c a049 5d3d
00000290: 4ae5 873d 728c 5abb 054e 11bd e75d b3bb
000002a0: d75b 313c e491 293d 167b 7ebd 375c 4abc
000002b0: 1080 9dbd b80c e73b ce35 acbd f840 393d
000002c0: 1cae b13d fc18 703d f963 90bd acea 043d
000002d0: ea88 443b bf3a 85bd 5423 873c 7e8e 20bd
000002e0: 1490 b4bc 3402 563d c7e7 07bd c7c6 503c
000002f0: 50f3 da3c 6475 cbbc f68e 043d c0fd 163d
00000300: 4387 28bd 34f3 03bd b656 0b3d 54c9 28bd
00000310: c86b 92bc 040a b43c 9a38 8fbd 908c 843d
00000320: a89b 86bd 5e7e af3d b814 033d 939e f73b
00000330: ae65 07bc 9c22 a63c f458 913d f453 60bd
00000340: 989b af3d 22df ddbc 43fd 84bd f8bd a93d
00000350: 01cb 8abd 3a81 6cbb f47f 853d a8c5 a9bc
00000360: da9a 15bd 4875 823d 3c7e 893c 0c57 c23c
00000370: 2030 adbc 6c95 273d b0ec e4bc 1c04 e7bb
00000380: ee7b 79bd e813 483d 4430 673d d97c 52bc
00000390: a599 b2bb 5b7a f7bb 5cc1 e73c d03d 5b3d
000003a0: dcf4 983d f0fb 303d 32b8 0c3d 1a8c ab3d
000003b0: b28a 823d c0bf aebd 8845 44bc 9dd9 1d3c
000003c0: 8770 5abd f450 293d a856 ddbc bc22 453d
000003d0: 84ca 4d3d ccaf 743d 497f a7bd 16ed 9b3d
000003e0: 74c6 e53c 1ad3 ccbc 3697 29bb 7064 b63c
000003f0: 96cf 893d 28b5 9c3d 3ff0 d1bb 9ccc 323d
-0.0056615793 0.045112133 0.076004565 0.003878091 -0.078904174 0.02737099 0.023698926 -0.005271469
-0.08631177 -0.08080306 -0.0392466 -0.07063644 -0.05385865 0.025503777 0.02841898 -0.036495384
0.04797639 -0.025272429 0.08612199 0.077196866 -0.0233903 0.007823533 -0.062684335 0.042567804
-0.017011564 -0.01640822 0.06614423 0.0776369 -0.06567455 -0.021545492 0.06360707 -0.0020447834
0.006826852 -0.08462252 -0.032943275 0.08265397 -0.055015538 -0.071646854 -0.01767303 0.05310267
-0.041510563 0.07672113 0.06474781 -0.07243635 -0.012874286 -0.05890461 -0.0013945312 0.082235515
-0.08336356 -0.038005944 -0.035992436 -0.07631568 -0.006333455 0.02383066 0.08159022 0.04316473
-0.00391271 0.038627073 -0.017296351 -0.034282748 0.0020731897 -0.059762016 -0.03861389 -0.020563468
-0.06561824 0.034931324 0.07099141 0.03355162 -0.047457714 -0.027099973 -0.06862148 0.03418836
0.08286776 -0.027311273 -0.023688465 -0.003434461 0.080365226 -0.078766026 0.009830901 0.009464289
-0.04749378 0.053165644 -0.012437669 0.029311143 -0.04286302 0.009052409 -0.04438857 -0.075415984
-0.06997698 -0.007962164 -0.04882566 -0.03293307 0.034248628 0.020913117 -0.0041126725 -0.061404392
0.07103953 0.031345032 0.02174417 -0.056254208 -0.044934794 0.06669414 0.066003785 0.082934275
-0.037893932 -0.054305747 -0.007832772 0.05714245 -0.001511811 -0.064599335 -0.06829184 -0.027777348
0.087460354 -0.06276798 0.0126426 0.057596624 -0.04502768 0.00175829 -0.07388317 -0.045907814
-0.07227142 0.07464698 -0.0442715 0.072751224 -0.050297156 -0.00096896617 0.012411107 0.07827231
-0.08489421 -0.05794516 0.02727595 0.022893928 0.05149114 0.011828429 0.007917872 0.06492534
0.08426593 -0.06487035 -0.0691873 0.07113139 -0.033089865 -0.0013878957 0.01878748 -0.067713656
0.076782525 0.0627159 -0.0052316985 -0.012119947 -0.024690352 0.03763619 -0.06282572 0.06660366
-0.073748805 -0.06711131 0.0138885705 0.03817784 -0.042766217 -0.012695379 0.00073297834 0.0018940198
0.020419188 0.08407371 0.030390643 0.054025292 0.0663553 -0.0033347872 -0.035474796 -0.0054738405
0.010825119 0.041398898 -0.062129103 -0.012351087 -0.076904416 0.0070510767 -0.084087 0.045227975
0.08675787 0.058617577 -0.07050318 0.032450363 0.0029988834 -0.065053456 0.016496338 -0.03919839
-0.022041358 0.052248195 -0.033180024 0.012742705 0.026727349 -0.02483625 0.0323629 0.03686309
-0.04114462 -0.03221436 0.03401824 -0.041207626 -0.01787366 0.021977432 -0.06993218 0.06472123
-0.06572658 0.085690245 0.03200218 0.0075567453 -0.008263988 0.020280175 0.070970446 -0.054767564
0.08574599 -0.027083937 -0.06493618 0.08288187 -0.06777001 -0.0036087767 0.06518546 -0.020724133
-0.03652463 0.06370026 0.016783826 0.023723148 -0.021141112 0.040913984 -0.027944893 -0.0070500504
-0.060909204 0.04884711 0.056442514 -0.012847149 -0.0054504448 -0.0075524277 0.028290443 0.053525746
0.07468578 0.043209016 0.03435535 0.083763316 0.0637411 -0.08532667 -0.011979468 0.009634403
-0.05332997 0.04133697 -0.02701886 0.04812883 0.050241962 0.059737965 -0.081785746 0.0761358
0.028048731 -0.025003005 -0.0025877482 0.02226469 0.06729047 0.0765174 -0.0064068134 0.043652162

bias f4 [128]
00000000: 0beb abbd 4a63 ae3d a667 21bd 0a93 60bd
00000010: 0428 743d 1c6c ed3a 766f 45bd c2c1 143d
00000020: be0e 2bbc fa44 7dbd ecff a63d ec82 3d3d
00000030: 2c18 a8bd c00e 9abd eef1 3fbb 440b 433d
00000040: 689f 143d 9cbb d13c 3862 2a3d ce6a 04bd
00000050: 0578 99bd 3012 2fbd 68e1 3d3d 2ca4 4a3d
00000060: ecb1 ea3a 46a8 adbd 3106 81bd 5307 82bd
00000070: 697f 31bd fe3a 053d 53c3 6cbc 5ce5 3dbc
00000080: 6290 6ebd 4304 0dbd 8c51 a23c 97d1 713c
00000090: 92a9 b63d 622e 65bd 0886 7d3d 6889 333d
000000a0: a326 a2bd 8cd5 2f3d 0045 92bc 88ae 7e3d
000000b0: c8c9 b33d 9257 27bd 94bd 873d 9b0e 0abd
000000c0: f267 70bd 3495 9dbc b474 673d f2f4 b4bd
000000d0: be4b 843d f85e 1e3d a8bc 633d cc88 343d
000000e0: 8cd0 edbc 1cee 733d 489b 8fbc 50ff 553d
000000f0: 8092 c43c 76bf a03d 6b71 0abd c5d6 aebb
00000100: e61c 97bd 2479 463d 5c3c f13a 7704 02bd
00000110: 8dd3 b1bd 9032 953c f65a fbbc 4cd4 8c3d
00000120: 483f 5fbd 3fb9 073c 74de 143d 74b7 62bd
00000130: a2c7 5abd 504e 8c3d 4c57 063d ada9 9bbd
00000140: a48e eb3a 15d2 25bc 0042 2f3d 88ad 96bc
00000150: ab91 12bd 560f 863d e420 b4bc 93d0 1ebd
00000160: 1c57 aa3d 74c9 5c3d 615e 6dbd dcd2 b5bc
00000170: a68d 9a3d 0b56 a83b e27f 3fbd 00ec 613d
00000180: c4b4 a5bd 0283 943d 3d5d 1fbd b17c 1bbd
00000190: d859 483c d701 b0bd a124 56bd 55ba a0bd
000001a0: 0e4f d2b7 2088 0c3d 482a 903d c8be 733d
000001b0: 0854 aa3d 5d62 9fbd 3630 873c 2071 223d
000001c0: c8be df3c f48a 7fbd b297 1a3b bc25 303d
000001d0: e601 173b 2e71 b13d 8983 a2bd 6b5d 643c
000001e0: 0f1c 1abd a729 50bd 808a d9bc 167e 013c
000001f0: bcef 7dbd 30a9 2a3d 6a44 923d 527d 883d
-0.0839444 0.08515032 -0.039405487 -0.054827727 0.059608474 0.0018113884 -0.048202 0.036317594
-0.0104405265 -0.06183336 0.08154282 0.046267435 -0.082077354 -0.075223446 -0.0029288488 0.047618166
0.036284834 0.025602154 0.041597575 -0.03232842 -0.07493595 -0.042741954 0.046357542 0.049472973
0.0017905808 -0.08479361 -0.06300009 -0.06349053 -0.0433344 0.032526962 -0.014450866 -0.011590328
-0.058243163 -0.034427892 0.019814275 0.014759443 0.08919062 -0.055952437 0.0618954 0.043832213
-0.079175256 0.042928264 -0.017855167 0.062178165 0.08778721 -0.040854998 0.06627956 -0.033705335
-0.05869288 -0.019236185 0.05650778 -0.08835782 0.06459759 0.038664788 0.05559984 0.044075772
-0.029030107 0.05955325 -0.017530099 0.052245438 0.023995638 0.07849018 -0.03379957 -0.005335661
-0.07378559 0.048455372 0.0018404829 -0.03174254 -0.08682928 0.018212587 -0.030683022 0.0687643
-0.05450371 0.008283912 0.03634496 -0.055350736 -0.05341304 0.068508744 0.032798097 -0.076007225
0.0017971587 -0.010120888 0.042787552 -0.018393293 -0.03578345 0.06545894 -0.02198834 -0.03877313
0.08317396 0.05390306 -0.057951335 -0.022195272 0.075465485 0.0051372102 -0.046752818 0.055156708
-0.08091119 0.0725155 -0.03890728 -0.037960712 0.012228452 -0.08594101 -0.052281026 -0.0784804
-2.5070764e-05 0.034309506 0.070393145 0.059508115 0.08316809 -0.07782433 0.016502481 0.039658666
0.027312651 -0.062388375 0.0023588953 0.043004736 0.0023041903 0.086641654 -0.079352446 0.013938288
-0.037624415 -0.050820973 -0.0265553 0.007903596 -0.061996207 0.041665256 0.07141955 0.06664528

weight f4 [128, 128]
00000000: 6708 12bd 93a0 9d3d e1ee a33d 346e e7bc
00000010: cf00 9b3d b883 0d3d ecb1 013d 47e6 1bbd
00000020: 900a 6e3c 9cd5 b5bc 5834 12bc fa72 413d
00000030: 10bf a33c 48a9 95bd a290 0a3d 0532 82bd
00000040: 97d8 963d a057 223c f48e aabc 4909 a93d
00000050: 725d 1abd c06e 91bb f877 5cbc 7a9d 5f3d
00000060: 1e61 6f3d aeab 18bd fb70 a33d 6ed1 723d
00000070: a050 9bbb 20fd 6bbc 2001 0bbd d4c4 4abd
00000080: db9b a43d a06c 32bb 3722 96bd 3ef0 2ebd
00000090: f752 aebd eeac 4d3d a812 18bc 7e61 d7bc
000000a0: 2a62 573d 623c 90bd c245 4a3d a292 1f3d
000000b0: 494d a5bd a08b 363b 78de 55bc 814f 98bd
000000c0: ee1d 723d 515e 8f3d 3642 2c3d dd58 44bd
000000d0: 0547 863d 00ca c6b9 f0fa 4f3c f41e 80bd
000000e0: 848e a7bd bae6 233d dd4f 9abd 88ae 5d3c
000000f0: 8cf5 8abd 80f3 ab3c 9ac7 2c3d a24d 233d
00000100: 24b6 993c 41fe 983d 22f0 f7bc 41d5 25bd
00000110: d17a 61bd e449 8b3c ba45 473d ba5b 423d
00000120: bc79 96bc b00f f43c 7f2e 873d 2072 513b
00000130: ff02 903d 20ea ae3c 4e98 ddbc 2de5 99bd
00000140: f74a 67bd d28c 703d a850 9f3c a407 96bd
00000150: aab1 8ebd 5e86 e4bc 50b9 bf3c c886 d13c
00000160: c00b 7e3c 2aca 363d 7a3e 1b3d 96b8 6cbd
00000170: 380f 02bc a8d6 ef3c 108b 3a3c 10bd e03b
00000180: c094 4fbc e3ba 9a3d d8cd cd3c 707f c53c
00000190: 70d8 fe3b 5906 9d3d c051 783b 4ab4 2e3d
000001a0: f87c 3cbc 8863 ea3c d6fc 3a3d 7821 a5bc
000001b0: 23a1 ab3d a07a a23c d0e4 b8bb 7e37 10bd
000001c0: 02dd 133d 0ecf 43bd 0c7e 47bd 79a0 a93d
000001d0: 42b2 7f3d f026 863b b8a0 d03c 3493 47bd
000001e0: f82a 673c 1cef 4fbd a2ae 033d c87a 44bd
000001f0: 639e 983d 3ac1 59bd c366 9bbd f09f 7fbc
00000200: 7405 b2bc 08ac 80bc 5499 dcbc 9845 273c
00000210: 2e97 6a3d 355f b23d 28af 043c 9d3a 81bd
00000220: 8460 843c d202 303d 667e 7b3d 88cc c6bc
00000230: c05c 2abc 9ce6 863c cca3 843c 0ba6 843d
00000240: 002e d63b 94a5 9fbd 9e90 71bd cea8 723d
00000250: 2d27 aabd 3e58 7fbd f768 aabd 5808 003c
00000260: 3b7c 95bd 8217 6b3d 6f3b 88bd 3a41 303d
00000270: f3c6 8f3d 4916 39bd 59c6 6fbd a87e 933c
00000280: 907a 85bc 2a29 543d 6c24 9c3c dd88 b33d
00000290: 00ab dcbc 9c1d e03c e38d 93bd a12b 8cbd
000002a0: 9428 ee3c d6bf 523d 0f04 ab3d 0040 87b8
000002b0: 3ea0 273d 33d6 853d 00b2 223c 6218 3f3d
000002c0: f962 883d 9880 393c 0239 5f3d 7d56 9e3d
000002d0: 5672 013d d088 e3bb ac60 1cbd 4ce8 4ebd
000002e0: 683a 02bd b2b7 8fbd 8a5a 253d fea0 3e3d
000002f0: ea55 96bd bc5f f13c e1a6 06bd ce33 1d3d
00000300: 62a2 1d3d 2e01 05bd 03a7 8d3d 6019 07bd
00000310: 2f14 46bd 08ba 703c 0605 1c3d 323a 273d
00000320: c0c2 a8ba 4517 93bd 6280 4a3d 4012 22bb
00000330: c099 e93c 711e 843d 7030 8fbd 04c1 92bd
00000340: 6833 523c 3926 893d e83f b43c 9f65 abbd
00000350: ac8f a93c e1c3 9ebd a1db af3d 22b0 1b3d
00000360: 6784 55bd d500 1fbd 482c 87bd 40b9 02bc
00000370: 647f acbd 245f 8c3c f30a a3bd ac56 d0bc
00000380: 681a cfbc cc9e cdbc 1a5f edbc f2ea 87bd
00000390: 0eae 2fbd 6698 373d 66d7 3f3d 24ee 50bd
000003a0: 3acb d6bc 8656 9ebd ac58 c3bc ac04 a63c
000003b0: 78bb 973c 1aca 023d fe22 713d 5055 e8bb
000003c0: d49f 0b3d 2aa8 613d 60e9 3b3b 3035 a8bd
000003d0: 0007 c23a 8878 41bc 6648 633d bee6 5f3d
000003e0: bec2 3fbd 1e9c 303d 1116 82bd bdf5 a7bd
000003f0: 535f 16bd d11e 7cbd 7e95 203d f600 e1bc
-0.035652544 0.07696643 0.08004547 -0.028250791 0.075685136 0.034549445 0.03166382 -0.038061406
0.0145288855 -0.022196583 -0.008923613 0.04722879 0.019988567 -0.073076785 0.03382934 -0.06357197
0.0736553 0.009908587 -0.020820118 0.08253724 -0.037686773 -0.0044382513 -0.013456337 0.05459354
0.058442228 -0.0372731 0.07980534 0.05928176 -0.004739836 -0.014403611 -0.03393662 -0.049504116
0.080375396 -0.002722539 -0.07330745 -0.04270958 -0.08511918 0.050213747 -0.009281792 -0.026291605
0.05258385 -0.07042767 0.049382932 0.0389582 -0.080713816 0.002785422 -0.013053529 -0.07437039
0.059110574 0.07000411 0.04205533 -0.04793631 0.06556515 -0.00037916005 0.0126941055 -0.06255904
-0.081814796 0.04001496 -0.07534764 0.013530381 -0.067851156 0.020990133 0.042182542 0.03986896
0.01876361 0.0747037 -0.030265871 -0.040486578 -0.055048767 0.017003007 0.04865048 0.04745076
-0.018368594 0.029792637 0.06600665 0.0031958893 0.070318215 0.021351874 -0.027050164 -0.07514415
-0.056467976 0.058728047 0.01944764 -0.07325676 -0.069674805 -0.027896103 0.023403794 0.025576964
0.015505731 0.044626392 0.03790138 -0.057793222 -0.007938199 0.02927716 0.011385694 0.0068584755
-0.012669742 0.07555177 0.025122568 0.024108618 0.007777266 0.07667226 0.0037890524 0.042652406
-0.011504404 0.028611913 0.04565128 -0.02015756 0.08380344 0.019833863 -0.005642511 -0.03520917
0.03609944 -0.047804885 -0.048704192 0.08282561 0.06242586 0.004093997 0.025467262 -0.04872437
0.014109366 -0.05076514 0.032148965 -0.047968656 0.07452085 -0.05316279 -0.075879596 -0.015602097
-0.021731116 -0.01570703 -0.026928581 0.010209464 0.057273082 0.087095656 0.008098401 -0.06310008
0.016159303 0.04297144 0.06139984 -0.02426745 -0.01039809 0.016467385 0.016191386 0.06476983
0.0065362453 -0.077952534 -0.05897581 0.059243016 -0.083082534 -0.062340014 -0.08320802 0.007814489
-0.07299086 0.057395466 -0.06651961 0.043030955 0.070203684 -0.04518727 -0.05853877 0.01800473
-0.016293794 0.05179707 0.019060336 0.08766339 -0.026937008 0.027357869 -0.07204797 -0.06844259
0.029072084 0.05145248 0.083503835 -6.4492226e-05 0.040924303 0.06534996 0.009930134 0.046654113
0.066595025 0.011322163 0.054497726 0.0773134 0.03160318 -0.0069437996 -0.03817813 -0.050514504
-0.03179398 -0.07017459 0.040369548 0.046540253 -0.073406056 0.029464595 -0.032873992 0.038379483
0.03848494 -0.03247183 0.069166206 -0.032983184 -0.048359092 0.014692791 0.03809073 0.040826984
-0.0012875423 -0.07182173 0.04943884 -0.0024730116 0.028515697 0.06451119 -0.069916606 -0.07165721
0.012829639 0.066967435 0.02200313 -0.08368992 0.02069839 -0.07752205 0.08586813 0.03800977
-0.05212822 -0.038819153 -0.06600243 -0.007978737 -0.08422735 0.01713521 -0.07961073 -0.025431953
-0.025281146 -0.025100134 -0.028976012 -0.06636609 -0.0428906 0.044823073 0.04683628 -0.05100836
-0.026219953 -0.07731347 -0.023845993 0.0202659 0.01852201 0.03193102 0.05887126 -0.007090248
0.03408797 0.055092014 0.0028673038 -0.0821327 0.0014803112 -0.011808522 0.055488966 0.054663412
-0.04681658 0.043117635 -0.06351865 -0.08201168 -0.036712002 -0.061552826 0.039205067 -0.027466279

bias f4 [128]
00000000: 9778 adbd 94a2 2d3d 589b 7c3d 16ab 24bd
00000010: e061 593d 346d 623d 3442 9cbc e51e 47bd
00000020: f49f 513d bcd6 513d 8848 b4bd 9c23 ef3c
00000030: dd02 743c c60d a33d 50ef fd3c 56c3 003d
00000040: 3424 9fbc 1714 a1bd 180a 713d feba 0e3d
00000050: f124 c63b 4843 00bd f0f6 8bbc 4cdd f9bc
00000060: 795e 27bd eb82 74bd 01ba 613c 908d 4e3d
00000070: 805d d83c c783 a1bd fa98 813d 6cda 423d
00000080: 88f8 b43c 8a02 83bd 1070 913c f007 40bd
00000090: 4149 87bd 220d 813d 784c 8cbd a8b6 3a3d
000000a0: 124f a33d feb1 af3d 7fc1 1cbd 1d3d 22bd
000000b0: 26bd 0c3d ce5a 04bd 3ae4 963d da5c 9abd
000000c0: 9a8e f7bc be18 913d bceb 82bd 10f4 9c3d
000000d0: e0dc 59bd d186 40bd 8854 a0bc 4844 9abc
000000e0: 8042 843c 5305 e9bb e3c1 afbd 27f2 ebbb
000000f0: 31b4 adbd 8d65 abbd 021e b33d 143b 5c3d
00000100: 4008 893d 7cac 52bc c935 54bc 4c11 a43d
00000110: a020 413d dcdf 4ebd a05c 123d 6e3a 59bd
00000120: 161f b53d 86f8 f13b d37c 9dbd cce3 203d
00000130: 6753 1f3c a8d5 963c f628 48bb 2417 45bd
00000140: 777a b1bd e6a3 8f3d 6870 be3c d474 a4bd
00000150: ac6b 25ba f409 643d 6a03 f9bb 08a7 75bd
00000160: b04f e63c 1613 73bb 925c 933d 24e0 9b3c
00000170: 9a54 a9bd c1b8 41bd 4bab d4bb bea9 17bc
00000180: dea0 5fbd 9443 1d3d 6035 133d 10a7 ab3d
00000190: 6ce2 1f3d 68c1 023d d8ce a43d d576 6bbd
000001a0: 9873 493d c322 94bd b810 473d 56ee ccbc
000001b0: 0857 673d 88ba 7bbd f439 263d cad9 b4bd
000001c0: f0fa 3f3d 5c84 d73c 94f9 323d 7cb8 be3c
000001d0: 54f1 843d 64db 98bc 108f 7cbc 8dec f23b
000001e0: 05bc a6bd b5a7 98bd d254 e6bc a41d abbc
000001f0: f06d 96bc d8bf f1bb 008b 7fbd f277 afbd
-0.08470266 0.042391375 0.061671585 -0.040202223 0.053071856 0.055279925 -0.019074537 -0.048613448
0.051177934 0.051230177 -0.08802897 0.029191785 0.014893261 0.079616114 0.030997902 0.031436287
-0.019426443 -0.0786516 0.058847517 0.0348463 0.006046884 -0.031314164 -0.017085522 -0.03050103
-0.04086158 -0.059695166 0.013777257 0.050427973 0.026411772 -0.07886463 0.06328006 0.047571585
0.022091165 -0.06396969 0.01775363 -0.04688257 -0.06605769 0.06301333 -0.06850523 0.04558435
0.07974066 0.08578871 -0.03827047 -0.039609063 0.034360074 -0.03231316 0.073677495 -0.07537241
-0.030219365 0.07084797 -0.06392619 0.07663739 -0.05318916 -0.04700357 -0.019571558 -0.018831387
0.01614499 -0.0071112304 -0.08581903 -0.0072004977 -0.084816344 -0.08368979 0.08745958 0.05376728
0.06691027 -0.012858506 -0.0129522765 0.080111116 0.047150254 -0.050506458 0.035732865 -0.05303424
0.0884382 0.0073843626 -0.07689824 0.039279744 0.0097244745 0.018412426 -0.0030541993 -0.04811777
-0.086659364 0.07013683 0.023246959 -0.08030096 -0.0006310295 0.055673555 -0.007599284 -0.059973747
0.02811417 -0.0037090234 0.07195391 0.019027777 -0.082680896 -0.047295336 -0.0064901463 -0.009256778
-0.054596774 0.038394526 0.035939574 0.08381474 0.039034292 0.031922728 0.08047265 -0.057486374
0.049182504 -0.07233193 0.04859993 -0.025015991 0.056479484 -0.061457187 0.040582612 -0.088306025
0.046870172 0.026308231 0.043695047 0.023281328 0.06491342 -0.018659301 -0.015414968 0.007413453
-0.08141331 -0.074538626 -0.028116617 -0.020888157 -0.01836297 -0.007377606 -0.06238842 -0.085678

weight f4 [1, 128]
00000000: 86f9 f4bc 728d 4c3d 1f04 a0bd 009b b8b9
00000010: 7282 463d 7b11 84bd 0019 c23b 78e7 7fbc
00000020: e23a 653d 46f9 353d dc4d 0b3d 500a 31bc
00000030: b2ac 5d3d fcfc a0bc 00df 73bb 8711 9cbd
00000040: 9c61 aabc 70e4 abbd 0040 78ba d02d e7bc
00000050: 20d9 2fbc 308d 963b 6b46 3ebd 54ba 81bd
00000060: d158 27bd 0ab1 413d ba97 a4bd d0b2 00bc
00000070: 949f 81bc 3f44 ad3d c025 2dbb ed66 44bd
00000080: e656 7d3d 558a b3bd f07c 6f3c 3f59 18bd
00000090: e379 2fbd a4b3 84bc cf21 933d f643 403d
000000a0: 389e 30bd 872e 94bd f4fe d0bc ce6e 733d
000000b0: 209e 98bd a832 14bc 5084 bbbb 76d0 263d
000000c0: d0d2 94bd a640 153d 671d 873d 0eea 4ebd
000000d0: 7eab 3b3d ad6c 58bd 7897 123c 8efb 283d
000000e0: 6fb3 a03d f828 6c3c 23f4 abbd 2c3d 8e3c
000000f0: 1710 acbd 9df0 803d 0336 8ebd edc9 893d
00000100: 321c 203d 92d7 613d 0a3d 4dbd 301a d53b
00000110: c5f2 833d aeae 493d 5409 d63c b86a d33c
00000120: 0d94 b23d 06bb 19bd 12c6 723d 600b c2bc
00000130: 0e8f 1f3d 10de 3a3c 6490 8d3c 3ee4 93bd
00000140: f4ab f1bc 16cf 19bd 50b1 1dbc 88fd 283c
00000150: a425 d5bc 6dfc a13d eee0 9dbd 5288 6fbd
00000160: c240 82bd 0091 403b a2f4 4b3d b0f6 76bc
00000170: bd8e 92bd 50df d1bc 5b4c 9e3d 3bea 3bbd
00000180: e9e2 913d 0970 7ebd 169b 293d af02 07bd
00000190: 5bbf 883d 1238 7fbd 9e52 103d c194 a73d
000001a0: 301a 483c d632 81bd 40d6 443b bde0 b3bd
000001b0: 44c9 9f3c 14dc c7bc 46e1 333d 67de 77bd
000001c0: 8e72 7a3d e327 9c3d fd3a ad3d 3016 ef3c
000001d0: d8db 9cbc a5f1 b43d e460 f5bc ce7b 77bd
000001e0: 14de 983c 0be3 9b3d fb83 01bd 2c06 9f3c
000001f0: 8859 cc3c afb2 ab3d 6884 c53c 50c6 a3bb
-0.029904138 0.04993958 -0.07813286 -0.000352107 0.048464246 -0.06448647 0.0059233904 -0.015619151
0.05596436 0.04442718 0.0340098 -0.010805681 0.054119773 -0.019651882 -0.0037211776 -0.076205306
-0.020798497 -0.0839318 -0.0009469986 -0.028220087 -0.010732919 0.0045944676 -0.046453875 -0.063343674
-0.040856186 0.04728798 -0.08036752 -0.007855132 -0.015823163 0.084602825 -0.0026420206 -0.04794972
0.06185045 -0.08766619 0.01461719 -0.037194487 -0.04284085 -0.01619894 0.07184183 0.046939813
-0.04311964 -0.07235437 -0.025512196 0.059431843 -0.07452035 -0.0090452805 -0.00572256 0.040726148
-0.07266772 0.036438607 0.06597405 -0.05051618 0.045817845 -0.052838016 0.008947246 0.041255526
0.07846724 0.014414065 -0.08396175 0.017363153 -0.084015064 0.06295893 -0.06943896 0.067279674
0.03908939 0.055137224 -0.05010704 0.006503366 0.06442789 0.049238853 0.026127495 0.025807723
0.08719645 -0.037531875 0.059270926 -0.023687065 0.038954787 0.011405483 0.017280765 -0.07221268
-0.029500939 -0.03755101 -0.009624794 0.010314353 -0.026018925 0.079094745 -0.077089176 -0.058479615
-0.06360008 0.0029383302 0.049793847 -0.015073463 -0.071561314 -0.025619179 0.077294074 -0.045877676
0.07123358 -0.062118564 0.041407667 -0.032961544 0.06677123 -0.062309332 0.03523504 0.081826694
0.012213275 -0.06308524 0.003003493 -0.087831 0.01950515 -0.024396934 0.04391601 -0.060514834
0.061144404 0.07624795 0.08458517 0.029185385 -0.019147798 0.088351525 -0.029953428 -0.060420804
0.018660583 0.076116644 -0.031620007 0.019412123 0.024945036 0.083836906 0.024110988 -0.004998006

comm_mask f4 [3, 3]
00000000: 0000 0000 0000 803f 0000 803f 0000 803f
00000010: 0000 0000 0000 803f 0000 803f 0000 803f
00000020: 0000 0000
0.0 1.0 1.0 1.0 0.0 1.0 1.0 1.0
0.0
