exp1/simple_spread_reinforce_ic3net.pt (torch_old, 166459 bytes, 14 tensors)

weight f4 [64, 18]
00000000: 8d3b 433f e455 09bf 2519 edbe 5a9b 99be
00000010: 190f d73e d38a 0f3e ad49 633f f866 953e
00000020: d2dd 363f 25e1 af3e 370f fc3e 2fc7 bfbf
00000030: 15e2 a03e 550e b9bf dc62 be3d 5325 b23d
00000040: 8556 2e3d 25e4 12bd 3c3d acbe bb97 a9be
00000050: fdee 22bf c1ff 6ebe 2fea bebe 4562 2b3f
00000060: 4f3d 233f 769a 47be 1016 823f e0a0 6abe
00000070: 98df a53e 1f41 153f baf6 193f 5a8f 6f3f
00000080: 1fb2 16be 81ff 90bc eb56 41be e5b8 9bbc
00000090: 05b2 4abf 4e0b 903f 1587 41be 2257 2cbe
000000a0: 01f1 24bf 88c5 1abf b1e2 bcbe 50fd 803e
000000b0: ac68 00be d2d5 bd3d 4acf 873c 5240 c2be
000000c0: d96c 34bc 15b7 3abf 1ba7 57bc ccef c63d
000000d0: bbfb d4bd 5303 c1bc 0b1c 10bf b16c 433f
000000e0: 46f6 33be 93d1 823f 2786 8ebf 62c3 5ec0
000000f0: ec01 82bf 9469 47c0 ab11 25bf 7dd2 65c0
00000100: 862c 563f 4246 6440 0bfc 5b3f a0db 7140
00000110: 920f 67bd 25e1 42bd 4f32 a13d 43ea bcbd
00000120: eb0f efbb 9e63 373d b44f 72bf 8916 b0be
00000130: eefa e640 2e98 44bf 4a72 b8c0 72d7 aa3e
00000140: 6be4 f9bf 75fe 483e 048c ffbd c4e7 f2bd
00000150: dd18 9dbe d416 26bc 5ade 703d f2e6 d1bd
00000160: d2d8 e1bd 94f3 8e3d dc64 0dbf 8f81 5cbb
00000170: a305 7cbf 4b3c d63e 9c59 5e40 c611 313f
00000180: 04c2 6740 1b5c 833f 3298 6740 4885 ab3f
00000190: 6af3 76c0 30b9 58bf 1e5b 7cc0 fd23 65bf
000001a0: e8d0 f53d 2abf b93c 27b7 f0bd 4e6f c639
000001b0: bcd0 293f c8b6 a63d a665 683f a598 f33e
000001c0: d28d 33c0 ef05 5bc0 cbd3 a1bf 849a 9d3f
000001d0: 1dc5 53bf 1c3c 9f3f 075a 0440 3fea fa3e
000001e0: 6824 0640 af06 0d3f eb56 57be 41b1 2a38
000001f0: f367 23be 933f 323e c7d0 93bf 2311 033f
00000200: 88a5 3dbe 9819 f2bd 83b3 e43d 5bd5 763c
00000210: 63a0 e33e 4a4d 0a3e e0a6 4a3e 8ddd f4bb
00000220: c8ef 63bd 2be5 3abf 440a 5c3d a21d 2dbf
00000230: 1e44 8dbd f338 ef3d 1423 42bb 2bcb 1dbd
00000240: 9a96 813d bd45 313e 5d6b 1bbe 7cff 98be
00000250: 0a97 f73f 2bc5 6ec0 2156 e33f 9530 6cc0
00000260: 7db5 0440 3930 68c0 3950 01c0 5ca6 6240
00000270: 3a5b 00c0 c9a5 6240 ccb3 a23d eba7 193d
00000280: b584 fa3d fc21 143d dcce 173f 6ee6 e3be
00000290: 100f 2a3f 68bb 673f c302 d8bf 52bb fd3f
000002a0: a325 8ebf 75d1 5fbf 842f 23bf d511 05c0
000002b0: 3949 ac3f 5f61 223f d10e a73f 1364 1a3f
000002c0: cb35 ec3d 4c14 9abc 9b4a c7bd c22a 5c3c
000002d0: 9c7d 5abf fd8a b8bf 8406 be3d 4f13 2bbe
000002e0: 671b 7fbf 591a 84be 7639 8d3c bee3 753e
000002f0: 35c0 a23d 6722 723d 9b14 0c3e e69d 1bbf
00000300: 56d2 cd3d 2cb4 4abf 8774 493a 4b0d b9bd
00000310: 83b9 033d 912e 8b3e b4c6 93be 4fba 6dbf
00000320: fd0c 363c a186 c8be 4795 32bf 5b01 a7bd
00000330: f8a2 99be c280 4a3e 360a 82bd dcd5 923e
00000340: 5dc9 42be df46 813f 7592 7fbe 085b 9f3f
00000350: 8f96 ec3d cb43 003d a6a4 17be 11f2 a23d
00000360: 4f61 973f 12da 2d3f 18f8 6d3d 7253 2f3e
00000370: cdde a1be 354f 7abe 883b cdbe 108d 433e
00000380: 0a43 d23d 9f2e 7bbe 3b67 123e 4c4c 153f
00000390: 1c85 653d f059 2d3f 89a6 c23d 22f8 dfbd
000003a0: 4f22 a4bc 352c a4bd 71c4 40bf 2bd0 4b3d
000003b0: 9d81 69be 015a 33be 0d44 823e 528e dd3d
000003c0: a9b9 1b3f c705 90be fbbf d63e c073 e53d
000003d0: 6054 0dbe 0ccc 2fbf a96a cebe 509e 25bf
000003e0: 2010 09be e8cc 81bd 852d 9fbd 4103 053d
000003f0: 2aa0 36bf 7a28 24be ec00 34bf 4387 3b3e
0.7626274 -0.53646684 -0.46308246 -0.30001336 0.42003706 0.14017801 0.88784295 0.2918012
0.7143222 0.3435146 0.49230358 -1.4982661 0.31422487 -1.4457499 0.092962 0.08698525
0.04256298 -0.035862107 -0.33640468 -0.33123574 -0.6364592 -0.2333975 -0.37288043 0.6694682
0.63765424 -0.19492516 1.0162983 -0.22912931 0.3239715 0.5830249 0.601421 0.9357811
-0.14716385 -0.017699959 -0.18880813 -0.019009063 -0.79177886 1.125345 -0.18899186 -0.16830114
-0.6443024 -0.6045766 -0.36891702 0.25193262 -0.12539929 0.092692986 0.016578335 -0.37939698
-0.011012279 -0.7293561 -0.0131624 0.097137064 -0.10399576 -0.023561155 -0.5629279 0.76337725
-0.17574415 1.0220207 -1.113469 -3.4806752 -1.0156837 -3.115819 -0.64480084 -3.5909722
0.8366169 3.5667882 0.8593146 3.7790298 -0.056411333 -0.047577996 0.07870924 -0.092243694
-0.0072955987 0.044772737 -0.9465287 -0.34392193 7.218131 -0.7679471 -5.7639513 0.33367497
-1.9522833 0.19628318 -0.12477878 -0.11860612 -0.30683032 -0.010137279 0.0588058 -0.102491274
-0.11027683 0.069800526 -0.55232024 -0.003364656 -0.984461 0.41842875 3.4742193 0.69167745
3.6212168 1.0262483 3.6186643 1.3400049 -3.8586068 -0.84657574 -3.9430614 -0.8950804
0.12002736 0.022674162 -0.117536835 0.0003784843 0.6633413 0.081403315 0.90780103 0.47577396
-2.805531 -3.4222372 -1.2642759 1.231278 -0.82722646 1.2440219 2.0679948 0.4900684
2.095972 0.55088323 -0.2102925 4.069624e-05 -0.15957622 0.17407064 -1.1548089 0.51198024
-0.18520176 -0.11821288 0.11167052 0.015065516 0.44458303 0.13506046 0.1979022 -0.0074727
-0.055648595 -0.7300593 0.053720728 -0.6762334 -0.06897758 0.11680784 -0.002962296 -0.038523834
0.06327553 0.1731176 -0.15177675 -0.2988242 1.9342968 -3.7307842 1.776066 -3.6904652
2.0735772 -3.6279433 -2.0205214 3.5414038 -2.005568 3.5413687 0.0794445 0.037513655
0.12232343 0.036165223 0.5930002 -0.4451174 0.66429234 0.90520334 -1.6875843 1.9822791
-1.1105236 -0.8742898 -0.6374438 -2.0792134 1.3459846 0.63429826 1.3051397 0.6030895
0.11533698 -0.018808506 -0.09731027 0.013437929 -0.85347915 -1.4417416 0.092785865 -0.16706584
-0.9965119 -0.25801352 0.017239314 0.24012658 0.07946817 0.05911484 0.13679735 -0.6078781
0.10049884 -0.7918117 0.00076849054 -0.090357386 0.03215934 0.27183965 -0.28862536 -0.9286241
0.011111495 -0.39165214 -0.6975903 -0.081545554 -0.30007148 0.1977568 -0.06349604 0.28678787
-0.19022126 1.0099753 -0.24958213 1.2449656 0.11552154 0.031314652 -0.14808902 0.07956327
1.1826571 0.67910874 0.05809793 0.17121676 -0.31615296 -0.24444278 -0.4008448 0.1909678
0.10266693 -0.24529503 0.14297192 0.58319545 0.056035146 0.6771536 0.0950442 -0.109359995
-0.02003589 -0.08016244 -0.75299746 0.04975907 -0.2280335 -0.17514803 0.25442544 0.10818161
0.6083017 -0.28129408 0.41943344 0.11203718 -0.13801718 -0.68670726 -0.4031575 -0.6469469
-0.13385057 -0.06337911 -0.07772354 0.032473806 -0.7133814 -0.16031066 -0.70313907 0.18313317

bias f4 [64]
00000000: a492 8740 558b 8e40 7a02 8b40 57e3 0d3e
00000010: 619c b13e a169 4d3e 6937 5e40 c3a9 8a40
00000020: 4bd5 c6bd 5a83 3640 cdce 8d40 37f2 7740
00000030: 9ca9 7b40 454d 8740 b769 5240 faae 7440
00000040: 49d8 7740 468c 7b40 3367 6040 62a7 5940
00000050: c1a5 8dbe 7c7c 3040 fc33 7340 d9a2 8240
00000060: 9db2 dc3f c023 8540 2ae1 8c40 2b49 813e
00000070: 05c8 8940 bba0 8d40 8a3e 8140 6c86 7f40
00000080: 4297 8440 2902 5d40 eb51 8540 265d 7c40
00000090: 2af8 7e40 4c85 8240 e65a 8140 dfd2 8940
000000a0: a743 8e40 cabb 823f e2a4 7740 02a8 8940
000000b0: e816 8d40 158a 7540 5e73 8c40 5764 7f40
000000c0: 86f9 8c40 8459 8940 2fd9 8340 0477 8a40
000000d0: 6223 7640 e2ed 7040 a589 8840 bc93 8040
000000e0: ddf8 38be 6fe0 8940 0d56 8340 814b 8cbf
000000f0: d506 8140 03ce 8240 7deb f4be 0f2c 5440
4.2366505 4.4545083 4.3440523 0.13856255 0.3468962 0.20059825 3.472132 4.333223
-0.09708651 2.851767 4.431494 3.8741586 3.9322271 4.2281823 3.2877023 3.8231797
3.872576 3.9304366 3.5062988 3.4008412 -0.27665523 2.757598 3.8000479 4.082379
1.7242008 4.160614 4.402486 0.25251135 4.3056664 4.4258704 4.038884 3.9925795
4.143464 3.4532568 4.1662498 3.9431853 3.9838967 4.0787716 4.042346 4.306991
4.4457583 1.0213559 3.8694386 4.301759 4.409046 3.8365529 4.389083 3.9904993
4.4054594 4.292177 4.1202617 4.3270283 3.8459096 3.7645192 4.2668023 4.018034
-0.18063684 4.3086467 4.1042542 -1.0960542 4.032084 4.087648 -0.47835913 3.3151891

weight f4 [1, 64]
00000000: 5e1a 0bc0 ef11 eabf 98bb 05c0 bf3f 34c0
00000010: e2ae 86c0 06c1 52c0 130e 3ec0 937d fcbf
00000020: bbdf 86c0 f201 1cc0 ad93 eebf 1022 1fc0
00000030: 7781 0ec0 aeb2 e8bf df17 b5bf c861 1ac0
00000040: 5d2a 1dc0 b274 afbf 11e4 35c0 9cea e9bf
00000050: 1d52 a43f 8a71 a1bf 9bf6 1fc0 eb5b 28c0
00000060: b2a1 25c0 e8cc 0ac0 8158 febf 30d7 4cc0
00000070: c012 03c0 fa66 06c0 f1dd 18c0 74e2 17c0
00000080: b37d 1bc0 b47e 06c0 2c2c 20c0 3878 12c0
00000090: bba0 1cc0 48b8 1dc0 ad7e 16c0 2c54 efbf
000000a0: 43dd f8bf 1738 1bc0 2ff9 1dc0 218b 1dc0
000000b0: ff66 06c0 c613 26c0 7e7b 10c0 c852 03c0
000000c0: 40a4 d8bf 8ea1 06c0 5793 21c0 5896 f3bf
000000d0: 04a1 14c0 db92 d0bf 017c 15c0 a2f7 07c0
000000e0: 450b 2940 76ed 00c0 1d57 17c0 9238 be3f
000000f0: 464e 20c0 ae6d 1bc0 77d8 a93f a7aa 04c0
-2.1734843 -1.8286723 -2.0895748 -2.8163908 -4.208848 -3.2930312 -2.969609 -1.9725822
-4.214811 -2.4376187 -1.8638817 -2.486454 -2.226652 -1.8179529 -1.414791 -2.412218
-2.4557106 -1.3707488 -2.842045 -1.8274722 1.2837559 -1.2612774 -2.4994266 -2.6306102
-2.587994 -2.1687565 -1.9870759 -3.200634 -2.0480194 -2.1000352 -2.3885462 -2.3731966
-2.429547 -2.1014833 -2.502696 -2.2885876 -2.4473102 -2.4643726 -2.3514817 -1.8697562
-1.9442524 -2.4252985 -2.468334 -2.4616168 -2.1000364 -2.5949569 -2.2575374 -2.0519276
-1.6925125 -2.1036105 -2.524618 -1.9030256 -2.3223276 -1.6294817 -2.3356936 -2.1244893
2.6413128 -2.0144935 -2.364692 1.4861014 -2.5047774 -2.4285693 1.3269185 -2.0729158

weight f4 [5, 64]
00000000: 42a5 bf3e 1e2b 2c3d a9ca 0a3e 3cb6 2b3e
00000010: c701 1cbe e179 78be 81d1 8f3d 9afa 23be
00000020: 28b6 2cbd 7e88 6bbe 0b22 803d 6926 1c3e
00000030: b60a 283c 0e66 173e 2dfe a3bb 07ac 053e
00000040: 9241 dcbe 292c bfbe c1ec 77bf 2f52 59bc
00000050: c161 ec3e bbec 1ebe d108 bd3e b1b7 c2bd
00000060: 0410 ef3e e455 063c 0115 cd3d 60f4 ed3d
00000070: c2a0 ccbd 14ab d7bd 7dac 823c 12f2 8fbc
00000080: 94e0 efbd 5d1c 293f 84f4 a5be c655 623e
00000090: 4bc2 f23c d5bf 823b 80a6 cdbd ad8b df3d
000000a0: b6d0 28be 1a8f ccbd 3ef8 b8bd 8646 94be
000000b0: 2508 4ebe 67b3 963e 2ab1 7dbe 1bfa d7bd
000000c0: 1dfe 77be eaee 44be 43fd 123e 05e8 86be
000000d0: 2f55 8c3d 7ea8 9abc 7605 dc3d 43a8 01bd
000000e0: 0fe9 a73e 381d bebe f4e1 0fbf 9654 0d3e
000000f0: aec0 ffbd 1617 8c3d 524b 6fbe 9264 14be
00000100: 1ffa 08bf fc92 583f 7600 7cbe 3d63 44bf
00000110: 9b03 323e 001a e6be 10ee 3c3f 9a98 5cbf
00000120: 33a8 07bf 845e 48bf 088e 273e 1757 8a3f
00000130: 95bb 0bbf d448 73bf 657a 0abe e7b5 5e3f
00000140: 5e13 bfbe 4d28 083f aca6 68be b4db 2dbf
00000150: 3e1e 4bbe 0a6b 18bf f43d 373f 6332 aabf
00000160: c678 943d 8eae 193f 135b 1cbd 317a 3abf
00000170: 024b 83be 9b31 843d 34b9 9abe cb79 b43e
00000180: 1926 82bf 671f 0c3f 7741 06bf 9bcf 463e
00000190: 1582 1bbf 7283 633e a582 36be 89a1 19bf
000001a0: fd24 f8bd 5935 12be 19bc 813e 09ef ac3f
000001b0: b009 fabe 89d8 28bd 8541 3e3f d1d3 c93e
000001c0: 583e 24bf b53f 17bf bfac bdbe d7fe 333f
000001d0: b417 743f 9f2a 7d38 51b6 8a3f 26b5 58be
000001e0: 53b3 303f 1a23 f13d a91c 2c3e ce50 78bf
000001f0: 88b7 67bf aa8b 483e ddcc bcbd d626 a4bf
00000200: eeeb 223f f3ac 94bf 0f85 993e cb70 8d3f
00000210: 6f95 eabe b3f3 213e f285 b8be f1e5 173d
00000220: baa1 903e 1061 45be 8561 3c3e 1b74 57be
00000230: 2b98 423f 1a97 653f 8ffd 9b3e c458 12bf
00000240: ff2d 64bf 914d 44bf b56e 6fbf 6762 513f
00000250: 75cf fd3e 3cdc 8e3e ed61 f4be f706 7c3f
00000260: 0f4b d33e 1398 33bf 0631 86be 1e0f 2a3f
00000270: 19a7 a53c de9b 35be 8083 893e 01c8 babd
00000280: f47e 753f 522a f3bd 1ae2 473f 908c c83e
00000290: c091 113f f550 f4be 8217 e8bd 7dd2 783f
000002a0: bc91 c9bd 3aa8 803e fb16 38bf 3ebe 37be
000002b0: eb4d de3e 27c6 b63e 5085 0dbe ccb4 30bf
000002c0: 13f7 173f 684d c23e a880 f53e 48af 80bf
000002d0: a5c4 95bf b739 f3be bcbf 15bf fdf2 7b3e
000002e0: 741d 8bbe 6c4e 11be db15 2e3f 4067 1a3f
000002f0: bdfe 3c3e 8c5c 60bd 3d92 393e caf2 623f
00000300: 19c1 db3f a798 eb3d 9e78 a9bd d9f6 50be
00000310: 1cfd 073e 1553 acbe bd20 943e f964 703f
00000320: 3c30 68bf 23cb 2ebe 7d80 97be 8291 073e
00000330: f75a 0dbf fdc0 3e3e b690 073e 69dd 24bf
00000340: a9a0 99bf 59eb 553f 2298 913e 879a e7bb
00000350: 7aaa edbe 81b5 d33e cf7e 543e db3d 2cbf
00000360: ddb7 9c3e 23f7 a03d 19c0 6dbf 5363 04bf
00000370: 11b8 b0be 7f97 763f 1864 30bf 306e 05bf
00000380: a6bf 8b3e d442 f1be 821c 2a3f 3f42 b4be
00000390: aeda a7be af5a f63e 9301 38bf 0c79 88bd
000003a0: db58 b0be b3f8 a0bd 680a 4dbf 59c6 873e
000003b0: 90ae 553f 63f3 663f 859b 873d 32e2 25be
000003c0: 14bc dd3e b1ee a5be e857 5b3f 2bf7 933e
000003d0: a64d a6bd 13a9 073f 4082 2bbe de9e fcbe
000003e0: 2a6a 33be c4b2 04bf f603 0fbf bc12 59bf
000003f0: 015e b23e 79ab 0dbf b4dd 39bf 1231 24be
0.3743077 0.042033307 0.13553871 0.16768736 -0.15235053 -0.24265243 0.070223816 -0.16013566
-0.042165905 -0.23001286 0.06256493 0.15249027 0.01025646 0.14785025 -0.0050046653 0.13053904
-0.43018776 -0.3733838 -0.9684563 -0.013264223 0.4616833 -0.15519993 0.3692079 -0.095076926
0.46691906 0.008199189 0.10013772 0.116188765 -0.099915996 -0.105306774 0.01595139 -0.017571483
-0.11712757 0.66058904 -0.32413113 0.22103032 0.029633662 0.0039901533 -0.10041523 0.10915313
-0.16485867 -0.09988232 -0.090317234 -0.28960055 -0.20120294 0.29433748 -0.24774614 -0.10545751
-0.2421803 -0.19231763 0.14354424 -0.26348892 0.06852185 -0.018879171 0.10743229 -0.031654608
0.32794997 -0.37131667 -0.5620415 0.13801798 -0.124879226 0.06840341 -0.23368576 -0.1449149
-0.53506655 0.8459928 -0.24609551 -0.76713926 0.17384188 -0.4494171 0.73800755 -0.8617035
-0.52991027 -0.7826922 0.16362774 1.0807828 -0.545831 -0.95033 -0.13523252 0.8699631
-0.37319463 0.53186494 -0.2271983 -0.67913365 -0.19835755 -0.5953833 0.7157891 -1.3296627
0.07249598 0.60031974 -0.038172793 -0.728427 -0.25643164 0.06454774 -0.30219424 0.3524917
-1.0167876 0.54735416 -0.5244364 0.19415133 -0.60745364 0.22218111 -0.17823274 -0.6001211
-0.1211643 -0.14278163 0.2533882 1.3510448 -0.48835516 -0.04122213 0.74318725 0.39419416
-0.6415763 -0.59081584 -0.37045857 0.7031073 0.9534867 6.0359594e-05 1.0836889 -0.21162853
0.6902363 0.11774273 0.16807808 -0.969983 -0.9051442 0.19584528 -0.09218762 -1.2824352
0.6364125 -1.161528 0.29984328 1.1050047 -0.45817134 0.1581562 -0.36039692 0.037084524
0.28248388 -0.19275308 0.18396576 -0.21040384 0.7601344 0.8968369 0.30466887 -0.57166696
-0.89132684 -0.76680857 -0.935283 0.81790775 0.4957234 0.279024 -0.4773096 0.9844813
0.41268203 -0.7015392 -0.26209277 0.66429317 0.02022128 -0.1773524 0.2685814 -0.09120179
0.9589684 -0.11873306 0.7807938 0.3916974 0.5686302 -0.47718015 -0.11332609 0.9719618
-0.0984225 0.25128347 -0.71910065 -0.17943665 0.43418822 0.35698053 -0.13820386 -0.69025874
0.5936138 0.3794968 0.4794972 -1.0053492 -1.1700636 -0.4750497 -0.5849569 0.24604411
-0.27170908 -0.14190072 0.680021 0.60313797 0.1845655 -0.05477576 0.18122192 0.88651717
1.7168304 0.115037255 -0.08274959 -0.20406665 0.13280147 -0.33657137 0.28931227 0.9390407
-0.906986 -0.17069678 -0.29590216 0.132391 -0.55216926 0.18628307 0.13238797 -0.64400345
-1.2002155 0.8356224 0.2843638 -0.0070679816 -0.46419126 0.41349414 0.20751499 -0.67281884
0.30609027 0.078596376 -0.9287124 -0.51714057 -0.34515432 0.96324915 -0.6890273 -0.5212126
0.27294654 -0.47121298 0.6644975 -0.35206792 -0.32784027 0.4811606 -0.718774 -0.06663713
-0.3444279 -0.078599356 -0.80094004 0.26518515 0.83469486 0.9021513 0.0662146 -0.16199568
0.43307555 -0.3240867 0.8568101 0.28899512 -0.08120279 0.5299236 -0.16748905 -0.49339956
-0.17520967 -0.51835275 -0.5586542 -0.8479421 0.34837344 -0.5533977 -0.7260392 -0.16034344

bias f4 [5]
00000000: 3bbf 7c3e 9d2e 61be be85 d93e f2e5 b43d
00000010: 00eb 2b3e
0.24682324 -0.21990438 0.4248485 0.08832921 0.16788864

weight f4 [64, 18]
00000000: 8991 c13e 79ec b2bd ec87 18be d25a 293e
00000010: 0ba7 1d3d 2bc3 b4be 4920 10c0 f3e0 813f
00000020: 94eb fa3e 9daa 22bf f124 86be 96bf 6e3f
00000030: fb6d babe e58a 6c3f 9be9 86be 1293 d33d
00000040: 9f5f 85ba f2e6 633d aa7c e6bc 8dac dabe
00000050: 8b55 a3be 6503 aabc 2f21 c6be 3f38 573f
00000060: d430 c33e e609 8b3e d07d eb3e fe65 c33e
00000070: abbc a4bf bf2b 9c3f 42fa 95be 56e4 20bf
00000080: dbad 16bd 5041 533e 2b0f b53c cbb7 303c
00000090: 3427 56bf 313a 53be bd72 cabe ecf7 bf3d
000000a0: ab7c 263f c4a4 d7be 5f40 9f3d 0fbb 58be
000000b0: 6779 723f 21fd acbe e8fb 893e 671d af3e
000000c0: 044e 793e 7d1e 053f 24ab 2f3e 2d00 693d
000000d0: 6186 a0bd 01b9 12be 55ef ae3c a7a1 883e
000000e0: 561a e3bc b10d 91bd d3be a8be 7a83 68be
000000f0: 8631 50be 61bc babe bb68 8b3e 3888 d9be
00000100: af8d 96bf 7deb c9bf d64f 963f 2847 f33f
00000110: bb6a 133e 030e e73d 00d2 2b3d 321b 96bd
00000120: e35c 91be 8c70 533d 6d01 d2be bc10 37be
00000130: 9909 eabe dd85 3dbf 2a09 823d 8167 483f
00000140: e021 c83f 1a4e 1fbe 7e12 80bf fb00 8fbe
00000150: 778a 80bf 0681 c9be 706e bc3d 1187 353b
00000160: 821c b43c c36d 2c3e 9df2 173e 7643 dfbe
00000170: 36ef 93bd ac2a 25bd 2f40 cbbf 31d5 3d40
00000180: 35df a23e 3abc eebd 6f2b 813e 8869 8dbe
00000190: 1552 9cbe ad71 093d 6c54 54be 60da f33d
000001a0: 42d6 19be 4a06 b63d bbc4 4b3d 2478 9f3d
000001b0: f97c 053f 72ee 0abe 7b99 a3be adad 433e
000001c0: 85e8 813e b931 863e 2351 7dbe 7756 ddbf
000001d0: ee73 4c3d 4fe9 8e3e b903 0ebf cbdd af3f
000001e0: e672 783f a7ab 6b3f 8b04 e63d c335 e33c
000001f0: 072d 1ebb c01a 9cbb c163 3cbd b523 25bf
00000200: 6548 a43e ea53 bfbe 6025 8cbe 4eb9 653f
00000210: 1c86 e43d c9f2 a3be c002 d13e 7fea fb3f
00000220: 9da7 593e f672 5a3f bce3 2bbd 5436 1e3f
00000230: 37b9 a83d ed24 e93d 8331 913d f631 2bbd
00000240: e73d fdbd a34f 80bc ee67 03be 41d2 a63c
00000250: 3268 513c bc44 a2bb de60 30bc 4ffc 82bd
00000260: cbf9 ddbb d7c1 653d af94 d3bd 8f59 2cbd
00000270: 0d8a 4e3d 4f53 4dbc 5bcc 2dbe b4be 44bd
00000280: bf31 663d 1f4c 83bc 2c7f 0dbd b89a cebd
00000290: 8620 b3be 5a2a aa3d 1777 1d3f 1366 3d3f
000002a0: 0651 27bf 0f46 99bf a804 903f 7cd5 0c3f
000002b0: 3a3f 7dbf bc5f 6dbf 26c1 97bf 9519 7dbf
000002c0: 688c f73a 9b34 fb3d b819 663d 643f 353e
000002d0: 602e c5be e9ab dd3c 07e8 cfbc 5cf0 99be
000002e0: 5167 5cbe bf44 f93c 31dc 8c3e a92c e1be
000002f0: 37bd a23f ee24 58bf 396b 90be df9a 183d
00000300: 4822 3fbf a100 bb3d 5ed5 9f3d 939f 25be
00000310: 38c8 8fbc 36fb c7bd eb7e 5ebe 9a18 d0bd
00000320: e98f ecbc c642 babe f17f fcbe 6ff7 a23f
00000330: a829 0abf e1fe ac3f cf89 533f e2f9 aebf
00000340: 3d20 f63e af6a c5bf 8c91 fc3e 5715 aabf
00000350: 2082 3abe 1070 393d f000 d13d 8c15 0f3e
00000360: 579d 2abe 3d4e 99be 35a8 eb3e 410d 4cbe
00000370: 0072 15bf 5f5d dfbe 0d07 d53f 2b0b bb3f
00000380: 11b6 963e 20c6 05be bc75 31bf 6cd4 5cbf
00000390: 7e04 2cbf 89ba 33bf 5b39 08be 2244 10be
000003a0: ff76 ca3c 8264 793e 42cc 12bf 7c02 fc3c
000003b0: b492 57be 0791 9cbb 7303 693f 380e 623e
000003c0: 06fc 053f ec20 d43d 05f8 353d b7b4 07bf
000003d0: 9472 debf 69e3 2cbe 77f5 aa3f 498c 393f
000003e0: 2c56 1fbe 9766 ac3c 9fb1 0b3c 38de 0fbe
000003f0: e793 713e 045a 2e3f ceea 2ebe 771e 093c
0.37806347 -0.0873651 -0.148956 0.16538551 0.038489383 -0.3530515 -2.2519705 1.0146774
0.49007857 -0.63541585 -0.2620006 0.93261087 -0.36412033 0.92399436 -0.26350102 0.10330786
-0.0010175592 0.05564017 -0.028135616 -0.4270977 -0.31901202 -0.020753572 -0.38697192 0.840702
0.3812319 0.2715599 0.45994425 0.3816375 -1.2870077 1.220085 -0.29292494 -0.62848413
-0.036786895 0.20630383 0.02210196 0.010786007 -0.8365357 -0.20627667 -0.39540663 0.09373459
0.6503398 -0.42117894 0.0777595 -0.21165107 0.94716495 -0.33786872 0.26950002 0.3420212
0.24346167 0.51999646 0.17155129 0.056884933 -0.07838131 -0.14328386 0.021354357 0.2668583
-0.027722519 -0.070826896 -0.32958087 -0.22706404 -0.20331392 -0.36471847 0.2722834 -0.4248674
-1.1761988 -1.577499 1.1743114 1.900609 0.14396183 0.112819694 0.04194832 -0.07329406
-0.2839118 0.051621005 -0.41016713 -0.17877477 -0.45710447 -0.74032384 0.06349404 0.78282934
1.5635338 -0.15557137 -1.0005643 -0.27930436 -1.0042256 -0.3935625 0.09200752 0.0027698914
0.02198625 0.16838746 0.14838643 -0.43606156 -0.0722336 -0.0403239 -1.5878962 2.9661372
0.31810918 -0.11656995 0.2522845 -0.27619576 -0.30531374 0.033555675 -0.2073533 0.11906886
-0.15023139 0.08887918 0.049748164 0.07786587 0.5214382 -0.13567522 -0.31953034 0.19109221
0.2537271 0.2620981 -0.24737982 -1.7292012 0.049915247 0.27912375 -0.5547443 1.3739561
0.9705032 0.92058796 0.11231335 0.027735597 -0.0024135725 -0.004763931 -0.04599357 -0.6450761
0.32086483 -0.3736871 -0.27372265 0.8973588 0.11158392 -0.32021168 0.4082241 1.9680938
0.21255346 0.85331666 -0.04196523 0.6180165 0.08238452 0.11383996 0.07089522 -0.041795693
-0.123653226 -0.015662974 -0.12832615 0.020363929 0.01278119 -0.0049520414 -0.010765282 -0.0639578
-0.0067741624 0.056093063 -0.103310935 -0.042077597 0.050424624 -0.012532069 -0.16972487 -0.04803343
0.056199785 -0.016027508 -0.03454511 -0.10088104 -0.3498575 0.08308859 0.6150984 0.7398388
-0.65358007 -1.1974505 1.1251421 0.5501325 -0.989246 -0.92724204 -1.1855819 -0.9886716
0.0018886449 0.12265893 0.05617687 0.17699963 -0.38511944 0.027059512 -0.025379194 -0.30066192
-0.21523787 0.030428289 0.27511743 -0.43979385 1.2713994 -0.8443135 -0.28206804 0.03725707
-0.74661684 0.09130979 0.078043684 -0.16174154 -0.017551526 -0.097647116 -0.21728103 -0.101609424
-0.028877215 -0.3637907 -0.49316362 1.2731761 -0.5396981 1.3515283 0.82632154 -1.3670008
0.4807147 -1.5423182 0.49329793 -1.3287762 -0.18213701 0.045272887 0.10205257 0.13973063
-0.16661583 -0.29942504 0.4602677 -0.19926931 -0.58377075 -0.43625924 1.6642777 1.4612783
0.2943578 -0.1306386 -0.69320273 -0.8626163 -0.67194355 -0.70206505 -0.1330313 -0.1408849
0.024714945 0.24354747 -0.5734292 0.030762903 -0.21052057 -0.004778031 0.9102089 0.22075737
0.5233768 0.10357842 0.044425983 -0.53010124 -1.7378716 -0.16883625 1.335616 0.72479683
-0.15560216 0.021045012 0.008526235 -0.14049613 0.23591577 0.681061 -0.17081758 0.00836908

bias f4 [64]
00000000: 91df b03d bf73 e7be 2e87 f5bf 5cf1 55bf
00000010: f820 dabf f30f 203f ffb0 d8bf 8e2b bebf
00000020: 770b 30bf 4eb9 01bf 7737 e3bf 4ccd 24bf
00000030: 2757 cbbf ddc1 83bf b83a f6bf cde4 30be
00000040: ea8c c6bf e456 5f3f 2d6c d1bf a80e ac3f
00000050: 4b40 65bf 8cbc 27bf 02ef 57be 59ed 85bf
00000060: 37d9 cebf 1bcd 09bf 2fd5 b5bf 184f 323f
00000070: 6c3f 58bf cc2b 79bf 24fc acbf 4caf 753f
00000080: 873c 10bf b1f4 04c0 f11f 13c0 f6ee 5dbf
00000090: 6884 bfbf ec38 bdbf f07d d3bf cf35 41bf
000000a0: 8fa2 c8bf 5a94 7fbf 75d5 e9bf d6b7 ebbf
000000b0: cf48 d9bf 508c 6bbf bca3 6fbf 2b6a 9fbe
000000c0: 40a1 863e e0f8 c8bf 2a9a 91bf dba0 693f
000000d0: 46d2 e8bf 5796 8abf 4222 43bf 8cae b2bf
000000e0: f940 933f 2af6 043f 4190 e5be bf8c 24be
000000f0: 3715 513f 12cf b5bf a80e 8abf 748d babf
0.08636392 -0.45205495 -1.9181879 -0.8357141 -1.7041311 0.62524337 -1.6929015 -1.4857042
-0.68767494 -0.5067338 -1.7751302 -0.6437576 -1.5885972 -1.0293537 -1.923667 -0.1727478
-1.5511754 0.8724196 -1.6361138 1.3441973 -0.8955123 -0.65522075 -0.21087268 -1.0463058
-1.6160039 -0.5382859 -1.4205683 0.6965194 -0.84471774 -0.97332454 -1.3514447 0.95970607
-0.5634236 -2.0774348 -2.2988245 -0.8669275 -1.4962282 -1.4782996 -1.6522808 -0.7547273
-1.5674609 -0.9983574 -1.8268267 -1.8415477 -1.6975344 -0.92010975 -0.93609214 -0.31135687
0.262949 -1.5700951 -1.1375172 0.9126107 -1.818917 -1.082713 -0.7622415 -1.3959517
1.1504203 0.51938117 -0.4483662 -0.16069315 0.81672996 -1.4203818 -1.0785723 -1.4574418

weight_ih f4 [256, 64]
00000000: a55f 9fbf ec5d 51c0 e4e0 323f 4874 103f
00000010: 4e9a 323d 77df 663e 092d c9bf 01f4 ad3b
00000020: fa7f 5fbd 93c3 cfbf 815a 583e f78a a43f
00000030: c0bb 8c3f 6e70 20bf dd6c 333f 191b de3e
00000040: c581 b0bf b9c0 6e3f 1fed 973f 39ac a73d
00000050: 0932 cbbf 2e9f d83e 58df ffbf 7f58 18bf
00000060: 79d5 25bf edfa 1bbe 1c11 99bf 74af 563f
00000070: 31f9 47c0 a185 dfbf fbee e33f 808c 8dbf
00000080: 958a 84bf 02c3 01bd 3175 93be dba0 f9bd
00000090: 4ca9 18bf 7730 913c 1816 0cbf 8c10 b4be
000000a0: c045 553f 7c22 82bd 306c 3c3f 925f aabe
000000b0: 4b60 5ebe a21e 2a3f ac1b 1fc0 6375 513f
000000c0: d808 8dbe 6635 2cbe b251 9cbf 156e ffbe
000000d0: 8e9b 92bf 9909 f1be 980a 633f 7efc ea3f
000000e0: abc4 183f 85e7 de3e 94ea 3dbe 1e09 9f3f
000000f0: 7fc2 47bf b7fc 84be a8ec c53d 5aca 03bd
00000100: ad3e 9ebe d4c0 ebbf c75c 383e 55fb 153f
00000110: 0f62 c8bf e6bd 3abf e7e6 913e 8d78 73bf
00000120: 265e 733c 9e11 9abe 96b1 5cbf fd03 cc3e
00000130: 1cfd b63f 164a 2bc0 911f 723e 2800 583e
00000140: 61f2 0abf f134 3c39 b08d 963e 4896 2e3f
00000150: cf32 e2bf 9da2 573e 1ecb 19bf 1a38 6fbf
00000160: 8391 4dbf d827 78be e1d4 56bf 728a 203f
00000170: 5f92 cebe 4adc a2bf 1617 aa3e 696b cd3d
00000180: 7b74 ec3d ab21 10bf 48eb b0bf 151e edbe
00000190: 4e23 78bf 3eec aabf 69f4 9e3e c549 fe3d
000001a0: 75ca c4bd 60bb acbd a2ba 11bf 1480 70bf
000001b0: f670 30be deda 8d3f 78d9 9fbe 7157 c93e
000001c0: 933e 08c0 7caf 003e 3ef4 84bf c916 4fbf
000001d0: 585a 1cbf 43ba 37bf ab0f 89bf d860 eabc
000001e0: 8d5e 86c0 ddea 5fbe 5baa 2abe 7677 853f
000001f0: 9687 1c3e 916d 9ebe 41e3 c63e a26c d3bd
00000200: 90ee 92be ff15 e7be bf85 683e a45c d1bf
00000210: 7a51 92bf b3ec e1bf 3cf9 0d3e b79c ee3e
00000220: 6fe1 a93e a20b 453f 7e41 ecbe 192d 663e
00000230: 15b2 86be cfd0 2bbf de42 9b3f af09 91bf
00000240: 1d8e 0d3d ca6d 403f 2739 56bf a35c a1bf
00000250: a9ca d93d 2f6d b23d ff02 eebe c189 a73d
00000260: ec91 bcbe e87c 07be 5d77 57bf 091d fcbe
00000270: fac1 5838 9317 433c 270e e9be cdc4 0a3e
00000280: 5b50 fd3b f7ca aabf af41 80bf 31ac 033f
00000290: 3a38 0cbf 7da9 303f 05b7 1fbe c5cd 9e3f
000002a0: 8dca 42bf 5032 493f 1961 c6be d9ef 2dbe
000002b0: 0619 b1be fbad e6bf 1262 863f 2449 4fbf
000002c0: 94ab bfbe 3f30 92be ce90 e83e 6fdd 073f
000002d0: 9628 eebd 3170 33bf 06a7 fc3d 30fd a8be
000002e0: b33c 003f 1990 9ebf f445 4fbd bf42 463f
000002f0: 9fea d73c 1965 de3f b370 88bf f5b7 56bf
00000300: be48 efbc 602b 5c3d a23e 9fbf ea04 75be
00000310: 0376 5abd 629c 85be 6366 903f e5cd 963e
00000320: da4b 283d 0c95 33bf cdee fe3e 15ce 8a3f
00000330: bfd8 213f 9717 1fbf b3ff f8be 35df 65be
00000340: eceb b6be ad5f 0c3f 51f1 d43e 6e71 ef3e
00000350: 2e54 8abe f7e9 02c0 2db6 12bf 2142 4d3f
00000360: c96f a03e 0d89 73bb f619 aa3e f06a bc3e
00000370: 5085 bdbc 6692 06c0 8cd6 e7bf d2d0 8bc0
00000380: 1188 6f3e d980 d63e 2820 a6bf 5557 b23f
00000390: fc25 fe3e 6458 1e3f 7d85 253f 47d0 773e
000003a0: 64b2 883f 494a d33e 0386 ed3e 490f 6bbe
000003b0: 01ba ddbe 8820 793e 4f79 e53e 38c3 7b3f
000003c0: 71d1 753e 6eb2 aa3e 2568 0d3f 12dd 193e
000003d0: 1324 c5be b01d dc3c 2a95 223f 4c8e 94be
000003e0: 6e03 f53e 75be 2cbe d4bf c6bc 977e 4a3f
000003f0: e8b4 81bf fcb2 833e a0e3 eebe f13d 0abe
-1.2451063 -3.2713575 0.69874406 0.5642743 0.043604188 0.22546183 -1.5716869 0.0053086285
-0.054565407 -1.623156 0.21128275 1.2854909 1.0994797 -0.62671554 0.7008799 0.4338005
-1.3789603 0.9326282 1.1869239 0.08187146 -1.5874645 0.42308944 -1.9990034 -0.59510034
-0.6477886 -0.1523244 -1.1958346 0.8386147 -3.1245844 -1.7462655 1.7807306 -1.1058502
-1.0354792 -0.031680115 -0.28800347 -0.12188884 -0.59633327 0.017723305 -0.5472121 -0.35168874
0.83309555 -0.063542336 0.7360258 -0.3327604 -0.2171642 0.6645299 -2.486064 0.8181974
-0.2754581 -0.16817245 -1.2212431 -0.49888673 -1.1453722 -0.47077635 0.8868804 1.8358305
0.5967509 0.4353601 -0.18546516 1.2424657 -0.7803115 -0.25974056 0.09664279 -0.0321754
-0.30907193 -1.8418221 0.18004142 0.5858663 -1.5654925 -0.7294601 0.28496477 -0.9510582
0.01485399 -0.30091566 -0.86208475 0.39846793 1.4295993 -2.6763968 0.23644854 0.2109381
-0.5427609 0.000179488 0.29404974 0.6819806 -1.7671756 0.21058126 -0.6007556 -0.9344498
-0.8030016 -0.24233949 -0.8391858 0.6271125 -0.40346047 -1.2723477 0.33220738 0.100302525
0.115456544 -0.56301373 -1.3821802 -0.46312013 -0.9692887 -1.3353345 0.31045845 0.12416414
-0.09608928 -0.084341764 -0.56925404 -0.9394543 -0.17230591 1.1082418 -0.31220603 0.39324525
-2.1288192 0.12566942 -1.0387037 -0.8089414 -0.61075354 -0.7176859 -1.0707906 -0.028610632
-4.199042 -0.21866937 -0.16666548 1.0427082 0.15286097 -0.30942968 0.38845256 -0.103234544
-0.28697634 -0.4513397 0.2270727 -1.6356397 -1.1431115 -1.765036 0.13864607 0.4660394
0.33179805 0.76970875 -0.46143717 0.22478141 -0.2630774 -0.6711549 1.2129781 -1.133108
0.034559358 0.75167525 -0.8368096 -1.2606395 0.106343575 0.08712231 -0.4648666 0.08180571
-0.3683008 -0.13231242 -0.8416651 -0.49240902 5.1679068e-05 0.011907476 -0.4551861 0.13551636
0.0077305264 -1.334319 -1.0020045 0.5143462 -0.54773295 0.6900862 -0.1559716 1.2406546
-0.7609032 0.78592396 -0.38745955 -0.16986026 -0.34589404 -1.8021845 1.0498679 -0.8097098
-0.3743559 -0.28552434 0.45422977 0.53072256 -0.11628835 -0.70093066 0.12336545 -0.33005667
0.5009262 -1.2387725 -0.050603822 0.77445596 0.026356993 1.7374603 -1.0659393 -0.83874446
-0.02920949 0.053752303 -1.2440989 -0.23927656 -0.0533352 -0.26095873 1.1281246 0.2945396
0.041087963 -0.701493 0.49791566 1.0844141 0.63221353 -0.6214537 -0.48632583 -0.22448428
-0.3572687 0.5483349 0.4159036 0.46766227 -0.2701735 -2.04553 -0.5730923 0.8017903
0.31335285 -0.0037160546 0.33222932 0.36800337 -0.023134857 -2.1026855 -1.811235 -4.3692408
0.23391749 0.41895178 -1.2978563 1.3932902 0.49638355 0.61853623 0.6465681 0.24200545
1.067944 0.41267613 0.46391305 -0.2295505 -0.43305972 0.24328816 0.44819114 0.98344755
0.24005677 0.33339256 0.55237037 0.15025738 -0.38504085 0.026869625 0.63508856 -0.29014814
0.4785418 -0.16869529 -0.024261393 0.7909941 -1.0133333 0.25722492 -0.4665804 -0.13500191

weight_hh f4 [256, 64]
00000000: 4069 bbbb e250 8abd ec6b 833d 4095 d6bb
00000010: a08c 5b3d aa11 a43d e01a 053d 94de f2bd
00000020: 2cf6 08bd 005c dbb9 0a45 89bd a872 dd3c
00000030: 6834 98bd c0a9 15bb d267 d9bd de31 fc3d
00000040: 1015 dbbd c833 dcbd 7651 8e3d 04bc c03d
00000050: 2405 263d 909a 8f3d b8fe 46bd 1094 4abc
00000060: 1ec1 fa3d 6a57 a23d c6ca ed3d 8053 4bbb
00000070: 049b d83d 00e0 4f38 d8a8 14bd 707c 543c
00000080: 1e88 be3d a626 ccbd ac2b 8fbd cafa b83d
00000090: f63b 9a3d bc6d 623d 6ca4 acbd ee7b a4bd
000000a0: dea3 f2bd a078 b6bd 3013 a83d 788a 493d
000000b0: 340d 073d 301a e1bd 1c54 de3d 1c72 a03d
000000c0: 503a 473c b403 243d 888d a63c 3019 33bd
000000d0: bc60 b8bd c889 b2bd f08c 5ebc 2867 83bd
000000e0: 48ca 72bd c487 78bd e8f6 83bc bc5d 9ebd
000000f0: ace2 d2bd 7401 a7bd c8e4 87bd aca3 833d
00000100: 2a5d f63d 906e bbbd cce2 71bd c0ef edbc
00000110: 4a18 f3bd 50af 033c ea1f 973d 60af fbbb
00000120: 9e31 b9bd da8f c4bd f0fa 2dbc e2d5 b13d
00000130: 302c eebd e819 36bd 38f0 9bbd d0ac bb3c
00000140: f2a5 9dbd 78d4 db3d b008 21bc c4ea 4a3d
00000150: 0a86 f2bd 208f 94bb 804b b2bd b6db e13d
00000160: 5497 d23d f856 423d 000e e2bb ced6 d4bd
00000170: b6de cb3d a8dd b73d 2c3f 253d deba c5bd
00000180: 5c88 fabd 46df f2bd 60cb 6b3d 20b1 3a3d
00000190: c821 d6bd f4b6 543d 141c 70bd b863 d93c
000001a0: 98f2 bcbd 1ac2 923d 3e85 b13d 02bc ef3d
000001b0: 4009 eebc c08f dcbc a0bc 1ebd f85f 143d
000001c0: 40ba a93d f84b 373d 78ef eebd 7c15 68bd
000001d0: 26be d63d 50b8 b2bd e66a f83d a8ed 41bd
000001e0: aada f53d ce17 a73d dc2c 6dbd f6bd e5bd
000001f0: 0a41 cdbd 50fa 183d 52d5 91bd 86db bb3d
00000200: b4fb 40bd 1422 0c3d a0b8 1cbd 4c55 d53d
00000210: a877 c13d d423 073d 4024 ea3b 0863 7cbd
00000220: e446 dabd fc8c cabd 18fb 563d baa1 97bd
00000230: 00b4 93bb 409e c1bd b0b5 f63d da22 8d3d
00000240: c0f7 9fbc d051 e8bd bec9 fa3d e230 c3bd
00000250: ec95 03bd 1c66 3c3d 960b 8cbd aa69 debd
00000260: 8c9a 09bd d003 103c 0af8 893d 0cc9 10bd
00000270: 2cb8 26bd 14e9 fb3d 94e1 67bd 7c40 5d3d
00000280: 80f3 503b da69 ca3d 98c3 bb3c de57 893d
00000290: 381f 10bd 0414 823d 8c17 943d 30d6 f5bd
000002a0: 9477 5a3d 64bf 773d 60b0 c03c b647 b33d
000002b0: 22f6 ed3d 24ba 4b3d 7463 fdbd b854 c6bd
000002c0: 0098 4f3a f8f9 a93c 608a 19bc 8011 3ebc
000002d0: bcd9 29bd 9e6e d0bd e43d d8bd d876 f3bd
000002e0: 9055 33bc 20aa b4bb d88a 053d 3c8b 05bd
000002f0: ee46 98bd 38ed 873c 0c22 f83d 30bf 803c
00000300: ee96 fdbd 06e1 fb3d 6474 833d 60ff 683c
00000310: e0a0 703c 30c1 a63c f000 47bd 3a2e debd
00000320: e0e0 33bc c8f3 afbc 5e30 ec3d 1086 cc3c
00000330: 3e41 efbd 80be 003c 80a1 4c3d e89b d73d
00000340: ca37 96bd 62fc c33d 8c03 203d b40c a53d
00000350: b053 d73c c821 f9bd 90f2 3fbd 4ce4 20bd
00000360: a8c7 7bbd 0448 ea3d f072 97bd d0e9 89bd
00000370: 2058 d1bc 3056 0bbd a830 e03c 16a4 b03d
00000380: 1855 afbc d238 82bd ea46 80bd 5c58 253d
00000390: b005 293d 4012 29bc a02b 5f3d 2816 f1bc
000003a0: 5c13 453d 365f ff3d 7aa7 f1bd d80a 4abd
000003b0: c843 debd dcff abbd c025 7cbb 9211 97bd
000003c0: 04db e13d 00ad 2dbb e80f edbc 980c edbc
000003d0: 3cf3 f8bd 820d fbbd 6020 f33c aea9 bebd
000003e0: 2477 91bd c06d 7ebd c035 0fbc b85d f93c
000003f0: 4809 a2bd 0452 86bd 0210 b3bd 74fb 0a3d
-0.005719334 -0.067537084 0.06417069 -0.0065485537 0.053600907 0.08011182 0.032496333 -0.1185886
-0.033437893 -0.0004183948 -0.06702621 0.027032211 -0.07431871 -0.0022836775 -0.10615505 0.12314199
-0.10697377 -0.10752064 0.06949131 0.09410861 0.040532246 0.07011902 -0.048582762 -0.012364402
0.122438654 0.07926829 0.116109416 -0.0031025112 0.10576442 4.9561262e-05 -0.036293834 0.012969121
0.09303306 -0.09968309 -0.069907516 0.09032209 0.07530968 0.055280432 -0.084297985 -0.0803145
-0.118476614 -0.08909726 0.08206785 0.04920432 0.032971576 -0.10991323 0.10855886 0.07834265
0.012159899 0.040042594 0.02033116 -0.043725193 -0.090028256 -0.08717686 -0.013583407 -0.0641616
-0.05927494 -0.06067635 -0.016108945 -0.07732722 -0.102971405 -0.08154574 -0.066354334 0.06427702
0.120294884 -0.091519475 -0.05905418 -0.029044986 -0.11869867 0.008037403 0.07379134 -0.0076808184
-0.09042667 -0.0959775 -0.01061891 0.08683373 -0.11629522 -0.0444583 -0.076141775 0.022909552
-0.07697667 0.107338846 -0.009828731 0.049540296 -0.11841972 -0.0045336634 -0.08705807 0.11028235
0.1028277 0.04744622 -0.0068986416 -0.10392533 0.09954588 0.089778244 0.04034345 -0.09654783
-0.1223304 -0.11858992 0.057567 0.045579076 -0.10455662 0.05193229 -0.058620527 0.026536807
-0.092259586 0.07165928 0.08667992 0.117057815 -0.029057145 -0.026924014 -0.038754106 0.036224335
0.082874775 0.044750184 -0.11666769 -0.056661114 0.10485487 -0.08726561 0.12129764 -0.047345787
0.120045975 0.08158837 -0.05790411 -0.11217873 -0.10022171 0.03734809 -0.07120766 0.0917273
-0.047115043 0.034212187 -0.03826201 0.1041666 0.09446651 0.032993153 0.0071454346 -0.06161788
-0.106580526 -0.09890172 0.052485555 -0.07403894 -0.0045075417 -0.09454012 0.12046373 0.06891413
-0.019527316 -0.113437295 0.122455105 -0.09530808 -0.0321254 0.045995817 -0.06838147 -0.108599976
-0.033594653 0.0087899715 0.06736763 -0.035347983 -0.040702984 0.123003155 -0.056611612 0.054016575
0.0031883419 0.09883471 0.022920415 0.067062125 -0.035186023 0.06351474 0.07231054 -0.12003744
0.053336695 0.06048526 0.023521602 0.08753912 0.11619212 0.049738064 -0.12372485 -0.096841276
0.0007919073 0.020749077 -0.00937137 -0.011600852 -0.041467413 -0.101773486 -0.1055868 -0.11887902
-0.010945693 -0.0055134445 0.032603115 -0.032603487 -0.07435404 0.016592607 0.12115869 0.015716165
-0.12382303 0.12298779 0.06418684 0.014221042 0.014686793 0.02035579 -0.04858488 -0.10848661
-0.010978907 -0.021478549 0.11532663 0.02496627 -0.11682366 0.007857919 0.049958706 0.10527784
-0.0733486 0.095696226 0.039065883 0.080590636 0.026285022 -0.121646464 -0.046862185 -0.03928022
-0.061469704 0.11439517 -0.073949695 -0.06734049 -0.025554717 -0.03401774 0.027366951 0.08625047
-0.02140288 -0.06358494 -0.06263526 0.04036747 0.04126519 -0.010319293 0.054484963 -0.02942951
0.048114166 0.12469332 -0.11799522 -0.049326748 -0.10852772 -0.08398411 -0.003847465 -0.07376398
0.11028102 -0.002650082 -0.028938249 -0.02893667 -0.12155768 -0.12258436 0.029678524 -0.093097076
-0.071028024 -0.062116385 -0.008740842 0.030440196 -0.079119265 -0.06558612 -0.087432876 0.03393121

bias_ih f4 [256]
00000000: e5f2 20bf b9a3 14bf 0b6a 5bbf e6a4 87bf
00000010: 8ac9 a4be 7d37 8abf ca43 5fbe 9177 97be
00000020: e13a 3cbe 43fb 93bf 7849 93bf ab03 5c3e
00000030: c35d 92bf ce63 69bd b563 72bf 73aa 0c3f
00000040: 4059 a0bf 7b5d 52bf b09b 5c3e 4045 0abf
00000050: 978b 59bf a92b 91bf 6770 31bf 5902 cfbe
00000060: 98b9 c2bf 68f3 e03e 4954 853f a761 2abf
00000070: 36f9 93bf 4e83 8ebe 5dc8 fbbe 5b44 68be
00000080: 1384 b6bf c8ac 98be b40f 70bf c294 21be
00000090: 94fe b0be 0838 68be fc1c 88bf 9905 a9be
000000a0: d967 a4bf ce64 6bbf 4268 f6be 50ae a6bf
000000b0: ed55 87be 7ac3 aabe edc2 a1bf 5e82 cebf
000000c0: b949 c53d 6475 15bf 7589 8cbf 5332 b6bf
000000d0: 5846 b9be 7f08 d73d 3d60 c3bd 4c55 44bf
000000e0: 2f07 b4be 8742 4aba a7f8 9cbf 61b8 04bf
000000f0: 2eb1 24bf 2dce b3bd 4a8e 3dbe 6ff0 0f3d
00000100: b42b e6bd 1404 66bd d84e 5bbd be02 f23d
00000110: 52c0 86bd fc39 9e3d 6403 d6bd 7865 49bd
00000120: 0cde 613d 3852 dbbd 7834 3b3d 32d3 a2bd
00000130: e4de aebd 6845 8a3d 40b0 613c fc28 9f3d
00000140: 30f6 af3c 5e54 bebd d86a 48bd e4b0 333d
00000150: 64e2 783d 783c febd 6605 bb3d e094 91bc
00000160: a010 983d 809c 8cbb f4b0 cc3d 5ea7 fabd
00000170: f88c ffbc 44f2 1cbd d886 17bd 50b1 6ebd
00000180: 6ce5 ff3d a05e c7bd 083e a9bc c82f 8fbc
00000190: 4497 303d 32ad cabd 88e1 6b3d 28be bfbd
000001a0: d4c4 053d 341b ccbd 208e cb3c e0bf 1abc
000001b0: b81e 303d a0be 723d da92 923d 0ed8 ffbd
000001c0: c048 0f3b 2e34 f9bd 164e e63d 009b cfba
000001d0: c832 90bd 8e42 843d c4df 57bd a02a e83d
000001e0: ce62 93bd c0f0 5ebd 7aec e23d 40fa f63b
000001f0: 1e24 fa3d a005 78bd 0e00 9e3d 9cc9 093d
00000200: c742 03bf 276a 56bb cb12 a7bf 7b9f 0c3f
00000210: bafc ebbe 5365 a43f 334d 2f3e d12a 5fbe
00000220: fa08 8bbf 91d9 d6be e1bb a23f d51d 043f
00000230: 70d6 3c3e 7d23 00bf 479a 9fbe 7210 da3f
00000240: 5f11 b5be 9737 0cbf e19e ecbe 708d e13e
00000250: 147d cfbe e574 973f d33d 2ebe 1ab0 1bbe
00000260: 8364 083f 6cec b93d 7062 253f 3f0c 1c3f
00000270: 133a 2d3e 7923 b2bd dead 0bbf 069f 623d
00000280: fddd 5bbf 91b1 253f 629e 9f3e 9c99 bebc
00000290: 6f56 a23d c950 073f 5d47 a43f bf59 3e3e
000002a0: 4a03 3dbf 5bd6 04bf 10e0 b73d c5c6 a03f
000002b0: ef08 5abf 4520 b33e cfa6 343f a82e 473e
000002c0: f24c c0be cb4a ac3f a094 2bbf 7e33 133f
000002d0: a6fe a3bf 2805 3bbe 1848 ee3e 0a77 d0be
000002e0: 92b5 0b3f 8e38 843f 884d acbd c6bb 9d3d
000002f0: d021 06bf 7505 373f 4120 0e3f 4fd6 1bbe
00000300: 7a4b 53bf 170b abbf 4bb5 8fbf 17bd 99bf
00000310: af46 c7be 5b7a 55bf 74c3 05bf bc2a 28bf
00000320: f5ac 5fbf 4de0 80bf b363 1ebf 7c36 6bbf
00000330: e238 4dbf 7fa0 fabe 405d 64bf 17a7 06bf
00000340: 108e ebbe 1bc7 24be 0876 01bf c7f6 7abf
00000350: aa51 5bbf 6112 d1bf c775 763d ed21 34bf
00000360: dd92 86bf db01 67be 5046 9e3e 86df 99bf
00000370: e21d a0bf e074 393f e793 cfbe 52d1 98bf
00000380: 5d06 8bbf 8d76 66be 9fe2 5dbf 7fb1 24be
00000390: de74 66bf 1851 a3bc 5a1d 9fbf 834a fdbe
000003a0: 33ea acbf 731f 8fbf 8a5b 33bf ae3c aebe
000003b0: f40a 4fbf 7ab4 07be 4f12 6fbf e60b e7bf
000003c0: a734 ce3d 8ada 35bf 2b13 61bf 9ddb a0bf
000003d0: 41df c7be 294c 9a3e bb78 323f db94 74bf
000003e0: 593a 4bbf f2e1 a63e 2716 f9be 1507 50bf
000003f0: b69b dcbe e01c 7fbf 5af8 a6bd 2fe3 55bf
-0.6287063 -0.5806232 -0.85708684 -1.0597198 -0.32185012 -1.0798184 -0.21803203 -0.2958341
-0.18381836 -1.1561054 -1.1506796 0.21485774 -1.1434864 -0.056979947 -0.9468339 0.54947585
-1.2527237 -0.8217389 0.21543765 -0.5401192 -0.8497862 -1.1341449 -0.6931214 -0.4043148
-1.5212889 0.43935704 1.0416347 -0.66555256 -1.1560428 -0.27834553 -0.49176303 -0.22682326
-1.4259056 -0.29819322 -0.9377396 -0.15779403 -0.34569228 -0.22677624 -1.0633845 -0.33012083
-1.2844192 -0.9195069 -0.48126417 -1.3021946 -0.26432744 -0.33352262 -1.2637612 -1.6133535
0.09633202 -0.5838225 -1.0979449 -1.4234108 -0.3618648 0.104996674 -0.0953984 -0.7669265
-0.3516173 -0.0007715602 -1.2263383 -0.5184384 -0.64332855 -0.08779559 -0.1851131 0.035141405
-0.112388045 -0.056156233 -0.053541988 0.11816929 -0.06579651 0.077259034 -0.104498655 -0.049169034
0.0551434 -0.10709041 0.045704335 -0.079504386 -0.08538607 0.067515194 0.013774931 0.07771489
0.021479696 -0.092934355 -0.04893002 0.043869868 0.060762778 -0.12413877 0.09131889 -0.017771184
0.07425046 -0.004291117 0.09994689 -0.12238954 -0.031195149 -0.03831698 -0.03699383 -0.058274567
0.124949306 -0.09734845 -0.020659462 -0.017478839 0.04311301 -0.09896316 0.05758813 -0.09362441
0.032658413 -0.09966126 0.024848044 -0.009445161 0.042998046 0.059263825 0.07156916 -0.12492381
0.002186343 -0.121681556 0.112453625 -0.001583904 -0.07040936 0.06458007 -0.052703634 0.11336255
-0.0719658 -0.054428816 0.110802606 0.0075371563 0.1221392 -0.06055224 0.07714854 0.033639535
-0.5127377 -0.003271708 -1.305261 0.5493085 -0.46091253 1.2843422 0.17119293 -0.21793677
-1.0862114 -0.41962865 1.2713586 0.5160802 0.18441176 -0.5005415 -0.31172392 1.7036269
-0.35364816 -0.54772323 -0.46214965 0.4405322 -0.40525115 1.1832548 -0.17015772 -0.15203896
0.5327837 0.09078297 0.6460333 0.60956186 0.16916685 -0.08698172 -0.54562175 0.055327438
-0.858856 0.6472407 0.31175524 -0.023266606 0.07926642 0.52857643 1.2834278 0.18588923
-0.73833144 -0.5188958 0.089782834 1.256066 -0.8516988 0.34985557 0.7056703 0.19451392
-0.37558705 1.3460325 -0.6702366 0.57500446 -1.2812088 -0.18263686 0.46539378 -0.4071582
0.5457393 1.0329759 -0.084132254 0.077018306 -0.52395344 0.714927 0.55517966 -0.15218471
-0.82537043 -1.3362759 -1.1227201 -1.2010831 -0.38921115 -0.83389825 -0.5225136 -0.6569021
-0.87373286 -1.0068451 -0.6187088 -0.9188001 -0.8016492 -0.48950574 -0.8920479 -0.5259871
-0.46006823 -0.16091578 -0.50570726 -0.980328 -0.85671484 -1.6333734 0.060170915 -0.70364267
-1.0513569 -0.22559302 0.3091302 -1.2021339 -1.250912 0.7244396 -0.40542528 -1.193888
-1.0861317 -0.22506161 -0.8667392 -0.16083334 -0.90022075 -0.01993613 -1.2430832 -0.4947091
-1.3508972 -1.1181473 -0.7006155 -0.3403067 -0.8087609 -0.1325244 -0.9338731 -1.8050506
0.100686364 -0.7103659 -0.87919873 -1.2567021 -0.39037517 0.3013623 0.6971547 -0.95539635
-0.79385906 0.32594258 -0.48649713 -0.81260806 -0.43087548 -0.99653435 -0.08152838 -0.8354978

bias_hh f4 [256]
00000000: fb76 22bf 9a92 19bf 30e2 63bf a2a3 8abf
00000010: 4d5a 83be 6546 97bf 8d22 33be fa89 86be
00000020: 8f2d 70be aeb4 a3bf e6e9 84bf 3fd6 3f3d
00000030: da1d 7ebf 666c dcbc ffd5 71bf dbe7 eb3e
00000040: 52b6 88bf fa3e 3abf c493 2e3e a7c4 c9be
00000050: 8ca8 37bf 34a5 8bbf f28e 1bbf 3655 d4be
00000060: 534c bdbf db27 9c3e f150 733f 4ad6 1abf
00000070: d8ed 9abf d14f 3ebe 9e2c 01bf 2455 18be
00000080: c17a aabf 8e6c cdbe 1e35 83bf f3bc 78be
00000090: 4894 d1be 591f 8ebe 72f4 7ebf 90c6 4ebe
000000a0: 454b 90bf 3dfc 65bf 4d0b ecbe dc9f 94bf
000000b0: d846 aabe 84e2 e3be 2218 8abf a8d3 c1bf
000000c0: 3be1 f33d 92ec f2be ae61 99bf 5fe5 babf
000000d0: ff8c a2be 1ad0 a43d 2f39 a8bc decb 36bf
000000e0: 17a7 aabe 5ca0 6c3e 6dc9 abbf b711 14bf
000000f0: cb4c 30bf 1e17 20be 008a 5ebe cdce b9bc
00000100: 4ce1 07bd 4863 debc 8264 c13d 84d9 52bd
00000110: 5434 093d 404a 1bbc 00d7 87bb 70b3 ebbd
00000120: 1893 eabd 34c9 59bd 5a31 dd3d 70a8 24bc
00000130: 105e ee3d 126f ee3d c8a4 ae3c 9048 5fbd
00000140: 5058 2b3d 7ab2 adbd f825 9cbc 4848 7a3d
00000150: acfb 683d 2879 e1bd 1e79 d2bd 8ea5 fd3d
00000160: c042 613d f69a 8c3d 1c97 7c3d d0e9 313d
00000170: f4f9 fcbd 2698 a23d 0400 cdbd a481 96bd
00000180: e0ae fbbb d030 193c b8d2 66bd 3081 3bbc
00000190: a450 85bd 48bb d7bc 8e5c a0bd 90e7 4cbc
000001a0: a0b3 123d 1ab6 943d 10c1 d4bc b8a1 f13d
000001b0: ca6c 95bd ac8e b9bd aa0a cb3d 88d8 e83c
000001c0: 4cc0 4ebd 20ba 343d 76e6 ebbd b823 a03c
000001d0: 3cda afbd f475 d83d f01f 77bd a074 74bd
000001e0: c07b 323c 6c0d ec3d c0d4 edbc 2cad 353d
000001f0: c08e a5bd b25e 99bd 6441 e13d 3e97 c13d
00000200: e067 d8be 29f3 adbd b477 b1bf 3557 113f
00000210: 0f06 02bf 1a45 b43f d212 343c 08f9 19be
00000220: 7a5f 97bf 1cae 8bbe ec68 903f 0b35 d93e
00000230: bd85 643e 59ab 28bf b574 bbbd 62b9 d33f
00000240: 3204 a7be 0ebe 1abf ae9a dabe 267d 0e3f
00000250: 880f f1be 08b6 a33f 6eff 17be 3175 c1be
00000260: f38a 153f 6c65 95bc 8cff 053f 973b 363f
00000270: c194 383e 3da7 b1bd 50bc e1be 50e2 2fbc
00000280: 0bc1 45bf 3fd5 083f 5086 4a3e de7c f5bd
00000290: 5294 c23d b87b 1e3f 1b83 953f a254 383e
000002a0: 69b1 66bf 02cc ddbe faa8 093e 4a4f 993f
000002b0: ff49 62bf 73f8 bf3e d0fd 343f 7c17 893e
000002c0: e73b ebbe a638 c23f 8936 3abf 9f89 f03e
000002d0: 7bd7 adbf 4f64 5bbe d748 c93e 18c7 acbe
000002e0: dcc8 f53e 772a 583f c837 7bbd d2c5 98bb
000002f0: a785 0cbf a821 423f ba22 103f 7042 5bbe
00000300: d380 86bf 19a3 a7bf 898b a3bf 105d 94bf
00000310: bedd d2be 4097 55bf 0fb7 bfbe 23aa 34bf
00000320: b054 5dbf 7b22 8abf 4c9d 0cbf 9235 60bf
00000330: 6715 5bbf 6f08 34bf ceba 6ebf ef28 1abf
00000340: 882b f1be 6b4b 03be 75e7 ccbe 2710 7fbf
00000350: d464 6fbf 4fd4 c7bf 6180 703e 08fb 03bf
00000360: 7753 53bf 5831 24bd 6aa5 de3e 4296 a9bf
00000370: 823a a0bf cd55 5b3f f1cf 98be 5ba7 a6bf
00000380: 443b 89bf 6355 37be 04c5 69bf 60d4 51be
00000390: d14c 82bf ddc4 2e3d 0173 a9bf b6f8 26bf
000003a0: dde1 94bf c607 90bf 272b 36bf 667f 51be
000003b0: 3aed 40bf 8b1b 9abd 1daf 6ebf cbf2 ecbf
000003c0: 0fb6 053e 5fa0 43bf e3c6 74bf 3b6b 99bf
000003d0: d77b b7be d8c4 983e d5d3 493f 5d34 90bf
000003e0: 09e9 0dbf ac11 173e 0fdd 06bf c953 71bf
000003f0: 26ca c1be 35a0 67bf 8cd3 b0bd 77c9 7cbf
-0.634628 -0.5998932 -0.8901701 -1.0831187 -0.25654832 -1.1818358 -0.17493649 -0.26277143
-0.23454879 -1.2789514 -1.038388 0.04683518 -0.992643 -0.026907157 -0.9446716 0.4607533
-1.068064 -0.72752345 0.17048556 -0.39407846 -0.7174156 -1.0909791 -0.6076499 -0.4147126
-1.4788917 0.30499157 0.9504538 -0.6048323 -1.2103834 -0.18585135 -0.50458705 -0.14876229
-1.3318712 -0.40121883 -1.0250585 -0.24290828 -0.40933442 -0.2775829 -0.99591744 -0.20192933
-1.127297 -0.8983801 -0.46102372 -1.1611285 -0.33257174 -0.44508755 -1.0788615 -1.5142717
0.11908194 -0.47446114 -1.1982934 -1.4601249 -0.31748196 0.08047505 -0.02053508 -0.71404827
-0.33330604 0.23108047 -1.3420845 -0.5783953 -0.68867177 -0.15633819 -0.2173233 -0.022681618
-0.033173844 -0.02714695 0.094429985 -0.05147697 0.03349717 -0.009478152 -0.004145503 -0.11508834
-0.11453837 -0.053170398 0.10800429 -0.010049924 0.11639035 0.11642279 0.021318808 -0.05451256
0.04183227 -0.08481307 -0.019061074 0.06110409 0.056880638 -0.11009437 -0.102770075 0.12385093
0.0549953 0.06865494 0.061667547 0.04343587 -0.12352362 0.07939176 -0.100097686 -0.07348946
-0.007680759 0.009350017 -0.0563533 -0.011444375 -0.065095216 -0.02633442 -0.078301534 -0.012506381
0.035815835 0.072612956 -0.025970966 0.117984235 -0.072961405 -0.090604156 0.099141434 0.028423563
-0.050476357 0.044122815 -0.11518566 0.019548282 -0.08586547 0.10569373 -0.060333192 -0.059681535
0.010893762 0.115259975 -0.029032111 0.044354603 -0.08083868 -0.07488765 0.109988004 0.09452675
-0.4226675 -0.08493645 -1.3864655 0.5677369 -0.50790495 1.4083588 0.010990815 -0.15036404
-1.1826012 -0.27281272 1.128202 0.4242328 0.22316642 -0.65886456 -0.091531195 1.6540949
-0.32620388 -0.6044625 -0.42696136 0.5565971 -0.47082162 1.2789927 -0.14843532 -0.37784722
0.58415145 -0.018236838 0.5234306 0.71184677 0.18025495 -0.08674476 -0.44088984 -0.010735109
-0.77247685 0.5345039 0.19777799 -0.11986707 0.09500946 0.6190753 1.1680635 0.18001035
-0.90114456 -0.43319708 0.13443366 1.1977322 -0.8839416 0.3749424 0.7069979 0.2677573
-0.4594414 1.5173538 -0.72739464 0.46979997 -1.3581384 -0.21424983 0.39313385 -0.33745646
0.48004806 0.84439796 -0.061332494 -0.004662254 -0.5489144 0.75832605 0.5630299 -0.21412063
-1.0508064 -1.3096648 -1.2776958 -1.15909 -0.411848 -0.83433914 -0.3744435 -0.7057211
-0.8645735 -1.0791773 -0.54927516 -0.8758174 -0.8557953 -0.7032537 -0.9325379 -0.6021871
-0.47103524 -0.12821738 -0.40020338 -0.9963402 -0.93513227 -1.5611666 0.23486473 -0.5155492
-0.8254923 -0.04008612 0.43485576 -1.324898 -1.2517855 0.85677797 -0.29846147 -1.3019823
-1.0721211 -0.17903666 -0.91316247 -0.20491171 -1.0179693 0.042668212 -1.3238221 -0.6522325
-1.1631428 -1.1252372 -0.71159595 -0.20458755 -0.7536198 -0.07524785 -0.9323595 -1.8511595
0.13057731 -0.7641658 -0.9561598 -1.1985849 -0.3583667 0.2983768 0.78838855 -1.126598
-0.5543371 0.14752835 -0.5268106 -0.9426847 -0.3784954 -0.9047883 -0.08634099 -0.9874491
