exp1/simple_spread_actor_critic_ic3net.pt (torch_old, 166462 bytes, 14 tensors)

weight f4 [64, 18]
-0.5461725 -0.20270786 -0.4114111 -0.23616444 0.6189986 0.20155898 0.44919705 -0.27354127
-0.21948661 0.6357092 0.76564693 0.5436188 0.8144214 0.6219941 0.030838901 -0.026227007
0.09048065 0.068799235 1.0457404 0.8506596 0.27878493 -0.23700525 -0.44643673 0.8373656
-0.4687992 -0.29683006 -0.46030647 1.1127657 0.3886313 -0.21190648 0.7316376 -0.020074725
-0.010167737 0.0674913 0.04830287 -0.09574511 -0.03578476 -0.064627595 0.30195636 -0.08465801
2.285191 2.8672369 3.5762796 4.8034415 -5.575558 -7.780726 0.07403841 0.4495824
-0.029685933 -0.19288257 -0.09423746 0.08139429 0.003949051 -0.06443048 -0.37687448 0.41571382
-0.95726347 0.2722617 0.115156814 -0.530202 0.21228921 -1.337929 0.8567337 0.8117548
0.030223818 0.2332727 0.4010423 0.25779524 0.10055434 -0.03463671 -0.039658647 0.16417639
0.87496763 -0.33258685 0.8704539 -0.5303876 -3.0208359 0.5148924 -2.498911 0.15570724
-1.056788 0.03776051 2.6567848 -0.3117488 2.175855 0.28941706 0.066253036 0.10974634
-0.17195506 0.092160724 -0.4744136 0.69861054 -0.4947004 0.2910807 0.30093044 -0.23219466
0.4625613 -0.9948114 0.13725272 -0.17284177 -0.21260183 0.43913767 -0.046604592 0.41763023
0.052896746 0.13885053 0.1576387 0.12076048 0.48295578 -0.28081954 -0.07640509 -0.62451696
0.88413197 -0.4080994 -0.59184587 -1.536025 0.6332831 0.11562044 0.5972595 -0.97454745
-3.9745328 2.9634013 0.16111474 -0.11857144 -0.043707978 0.12146004 0.15534076 0.7095451
0.55528885 0.8617105 -0.068790995 -2.7801485 -0.75171614 -0.8425727 -1.6055635 -1.7328598
1.6892805 2.2760272 0.9017777 1.8231493 -0.09600625 -0.02564247 0.059304208 -0.040558584
-0.76122737 -0.62478507 0.22026312 0.026979692 0.2512545 0.6596948 0.34680974 -0.42479306
0.15948659 0.7882145 -0.11898812 -0.15470578 -0.12831087 -0.10358632 0.059667826 0.07071953
-0.06451692 -0.11230608 -0.66790026 0.34094593 -0.22866748 0.19729695 0.17121938 0.15362145
0.21056354 -1.0167156 -0.023168303 0.08387206 -0.13043962 -0.09517532 0.18585628 -0.16488175
0.14559482 0.12509084 -0.07245676 -0.003527321 0.23786017 0.2474719 1.1388304 0.8244325
-2.0480256 3.4315197 2.4106627 -3.8063548 0.20625304 -1.861633 -1.324822 2.7222314
1.1533916 0.16468024 -0.044046205 -0.2178825 -0.039649744 -0.108225346 0.6913735 0.73126227
0.01991547 0.05632655 0.033755608 -0.08631974 -0.3594978 -0.83489585 -0.21174769 0.13001949
-0.05552705 0.2511738 0.28989738 0.12555821 0.18648875 -0.024675244 0.0971871 0.057562348
0.14745349 0.947887 0.52102333 0.1268909 0.14301133 0.11822571 -0.4990107 -1.1906075
-0.6085857 0.29874516 0.24805923 0.22985402 0.42001423 0.15116195 -0.051157083 0.06504101
0.12323781 0.023505427 -0.07655199 -0.98517144 -0.27145523 -0.18039665 0.45654875 0.8444755
0.37966067 -0.58620995 0.5047694 0.3170151 -0.5779203 -0.31416574 -0.055865817 -0.26608086
-0.011512266 0.080011964 -0.09622231 -0.18440834 -0.785586 1.1469698 0.5309163 -0.09688442
00000000: f6d1 0bbf a692 4fbe 7aa4 d2be 17d5 71be
00000010: b176 1e3f 7a65 4e3e 28fd e53e 9a0d 8cbe
00000020: 19c1 60be d7bd 223f 7001 443f 9a2a 0b3f
00000030: ec7d 503f 013b 1f3f dda1 fc3c 05da d6bc
00000040: eb4d b93d 9de6 8c3d d2da 853f d4c4 593f
00000050: e6bc 8e3e 81b1 72be 5b93 e4be 985d 563f
00000060: 7306 f0be 1cfa 97be 4aad ebbe 1b6f 8e3f
00000070: affa c63e 03fe 58be 9a4c 3b3f c073 a4bc
00000080: 9496 26bc e138 8a3d 3bd9 453d 0316 c4bd
00000090: 0a93 12bd 795b 84bd 069a 9a3e 2e61 adbd
000000a0: 9240 1240 cf80 3740 c4e1 6440 cbb5 9940
000000b0: f96a b2c0 b5fb f8c0 73a1 973d aa2f e63e
000000c0: ea2f f3bc 0283 45be 92ff c0bd 0db2 a63d
000000d0: 0a67 813b 21f4 83bd b1f5 c0be 71d8 d43e
000000e0: 380f 75bf e365 8b3e 56d7 eb3d 51bb 07bf
000000f0: 5862 593e 4241 abbf e652 5b3f 2acf 4f3f
00000100: f197 f73c 0adf 6e3e 6b55 cd3e bdfd 833e
00000110: 6fef cd3d 39df 0dbd 1b71 22bd db1d 283e
00000120: e1fd 5f3f d348 aabe 11d6 5e3f 7bc7 07bf
00000130: 6055 41c0 fdcf 033f 28ee 1fc0 b871 1f3e
00000140: d444 87bf c4aa 1a3d c308 2a40 8a9d 9fbe
00000150: 3541 0b40 792e 943e acaf 873d b0c2 e03d
00000160: fd14 30be c3be bc3d 57e6 f2be 24d8 323f
00000170: 5f49 fdbe 8808 953e 8e13 9a3e 70c4 6dbe
00000180: d6d4 ec3e f6ab 7ebf fa8b 0c3e 6ffd 30be
00000190: 4bb4 59be a7d6 e03e 75e4 3ebd a1d3 d53e
000001a0: 42aa 583d d52e 0e3e 0a6c 213e 4551 f73d
000001b0: fb45 f73e 94c7 8fbe 467a 9cbd 58e0 1fbf
000001c0: 7956 623f 68f2 d0be 3683 17bf 789c c4bf
000001d0: d71e 223f 69ca ec3d 00e6 183f f17b 79bf
000001e0: bf5e 7ec0 5ea8 3d40 43fb 243e 95d5 f2bd
000001f0: 2307 33bd 0bc0 f83d a611 1f3e bfa4 353f
00000200: 6927 0e3f 0f99 5c3f 4be2 8cbd f4ed 31c0
00000210: 7870 40bf d8b2 57bf 1b83 cdbf 5ace ddbf
00000220: 583a d83f 6eaa 1140 e7da 663f f55c e93f
00000230: ed9e c4bd 2810 d2bc f8e8 723d c220 26bd
00000240: ccdf 42bf eaf1 1fbf a88c 613e 8404 dd3c
00000250: 6ea4 803e c2e1 283f 0c91 b13e 7a7e d9be
00000260: 7450 233e 6dc8 493f 0bb0 f3bd 316b 1ebe
00000270: ed63 03be 1125 d4bd 4066 743d 67d5 903d
00000280: 7221 84bd bb00 e6bd 83fb 2abf 7790 ae3e
00000290: cf27 6abe 3608 4a3e 2254 2f3e f14e 1d3e
000002a0: f89d 573e bd23 82bf 74cb bdbc 1dc5 ab3d
000002b0: f791 05be 47eb c2bd 1c51 3e3e c3d6 28be
000002c0: cf16 153e d017 003e 3664 94bd a02a 67bb
000002d0: 9e91 733e 4669 7d3e 32c5 913f 020e 533f
000002e0: da12 03c0 059e 5b40 4c48 1a40 519b 73c0
000002f0: ff33 533e fd49 eebf c493 a9bf 0a39 2e40
00000300: 56a2 933f f0a1 283e cb69 34bd 971c 5fbe
00000310: c567 22bd 40a5 ddbd dbfd 303f 0134 3b3f
00000320: c525 a33c abb6 663d 5243 0a3d 67c8 b0bd
00000330: 1810 b8be bcbb 55bf 63d4 58be d423 053e
00000340: 5570 63bd da99 803e 6e6d 943e 5592 003e
00000350: e8f6 3e3e bd23 cabc 080a c73d 7fc6 6b3d
00000360: 0cfe 163e b9a8 723f c961 053f b0ef 013e
00000370: 9071 123e 5220 f23d 557e ffbe d465 98bf
00000380: 46cc 1bbf 20f5 983e 3d03 7e3e da5e 6b3e
00000390: 1b0c d73e 33ca 1a3e 178a 51bd 3934 853d
000003a0: 1b64 fc3d 748e c03c 4ac7 9cbd 3234 7cbf
000003b0: 2efc 8abe e6b9 38be c2c0 e93e 8c2f 583f
000003c0: e262 c23e db11 16bf 9138 013f ce4f a23e
000003d0: 96f2 13bf 55da a0be 8ed3 64bd c03b 88be
000003e0: f19d 3cbc 50dd a33d 3410 c5bd 8ad5 3cbe
000003f0: 2a1c 49bf e8cf 923f 21ea 073f 576b c6bd

bias f4 [64]
3.3965192 3.6678686 2.1715653 3.5374742 2.6644406 3.7057276 -0.014924368 1.8173791
3.7147543 3.6596816 1.079678 3.7886288 3.8194597 3.6141076 3.3085136 3.745305
3.4739482 3.752257 0.6389238 2.266254 1.22229 3.6816566 3.6217337 3.7390091
1.3463583 3.644646 3.8403075 3.715159 3.8789396 3.7627554 3.5538754 -0.6220113
3.5838406 3.9353247 3.7564316 3.6663003 1.1220063 2.0885906 1.3971674 -0.020082131
3.3948793 -0.5149976 3.6138368 3.6885905 3.8003585 3.727604 3.7449741 3.7834237
3.4058025 3.3449368 3.8447075 2.5272014 3.3794367 3.8286347 2.4699829 3.6623096
3.6824105 3.5911343 3.7414238 3.297924 3.8514493 -2.3813088 0.5008191 0.070512675
00000000: 9260 5940 5cbe 6a40 edfa 0a40 fa65 6240
00000010: 3286 2a40 a42a 6d40 5685 74bc e19f e83f
00000020: 89be 6d40 3938 6a40 e432 8a3f e578 7240
00000030: 0772 7440 8a4d 6740 b0be 5340 14b3 6f40
00000040: 2b55 5e40 fb24 7040 8390 233f 4e0a 1140
00000050: 0074 9c3f 43a0 6b40 7cca 6740 ed4b 6f40
00000060: 7855 ac3f e141 6940 99c7 7540 2ac5 6d40
00000070: 8c40 7840 fcd0 7040 b272 6340 223c 1fbf
00000080: a55d 6540 5cdc 7b40 6069 7040 aaa4 6a40
00000090: e79d 8f3f 78ab 0540 62d6 b23f 4883 a4bc
000000a0: b445 5940 e2d6 03bf 1a49 6740 de11 6c40
000000b0: 1339 7340 1091 6e40 a8ad 6f40 9d23 7240
000000c0: abf8 5940 7213 5640 b00f 7640 abbd 2140
000000d0: b148 5840 5a08 7540 3314 1e40 4863 6a40
000000e0: 9dac 6b40 25d5 6540 7d73 6f40 3011 5340
000000f0: 257e 7640 5d67 18c0 ae35 003f f368 903d

weight f4 [1, 64]
-2.8757238 -2.527468 -8.875835 -2.716617 -3.5753398 -2.5000854 2.7791622 -3.0898838
-2.5764072 -2.780634 -4.1975927 -2.4816973 -2.536272 -2.5952892 -2.2855492 -2.513355
-2.408856 -2.5691972 -6.826769 -3.697109 -6.742091 -2.6934302 -2.6286566 -2.5671673
-5.846573 -2.7433608 -2.5771163 -2.5079715 -2.4822474 -2.5796368 -2.6421065 -7.703119
-2.561232 -2.4152286 -2.4968648 -2.6921434 -7.8685856 -7.9871 -6.282717 -9.273903
-2.464723 -3.8997312 -2.5203514 -2.6223066 -2.4959073 -2.611291 -2.628433 -2.4103763
-2.4645865 -2.4990222 -2.5808 -2.9888537 -2.4849277 -2.585744 -3.1787949 -2.5122721
-2.5441866 -2.6073554 -2.6256733 -2.5826268 -2.59027 -9.526784 -6.9241724 -5.4254756
00000000: dc0b 38c0 09c2 21c0 6c03 0ec1 0edd 2dc0
00000010: 5ed2 64c0 6601 20c0 cbdd 3140 a8c0 45c0
00000020: dbe3 24c0 e8f5 31c0 ae52 86c0 21d4 1ec0
00000030: 4852 22c0 3819 26c0 7046 12c0 cfda 20c0
00000040: b22a 1ac0 ba6d 24c0 e474 dac0 6f9d 6cc0
00000050: 36bf d7c0 2961 2cc0 e93b 28c0 784c 24c0
00000060: 2017 bbc0 3993 2fc0 79ef 24c0 9b82 20c0
00000070: 24dd 1ec0 c518 25c0 4618 29c0 f37f f6c0
00000080: 3aeb 23c0 1b93 1ac0 a2cc 1fc0 144c 2cc0
00000090: 74cb fbc0 5396 ffc0 050c c9c0 e861 14c1
000000a0: 06be 1dc0 3295 79c0 704d 21c0 dfd3 27c0
000000b0: f2bc 1fc0 641f 27c0 3f38 28c0 9b43 1ac0
000000c0: c9bb 1dc0 fbef 1fc0 d42b 25c0 6149 3fc0
000000d0: 0e09 1fc0 d47c 25c0 6071 4bc0 11c9 20c0
000000e0: f4d3 22c0 e9de 26c0 080b 28c0 c249 25c0
000000f0: fcc6 25c0 b56d 18c1 d292 ddc0 7f9d adc0

weight f4 [5, 64]
-0.56374407 -0.015806759 1.2807416 -0.19365332 -0.34161857 -0.14361784 -0.7239786 0.115397684
0.007964852 0.05106194 0.30735326 -0.0383928 0.18469739 -0.43435463 -0.40123755 -0.04187436
-0.03571533 0.9027059 -0.42686206 0.0875701 0.6524102 0.029495906 -0.0154565945 0.20914692
0.12726311 0.119399816 0.15228952 -0.0702113 -0.3123268 1.0215201 -0.21229692 0.49779183
-0.13053311 -0.2104748 0.0035054516 -0.035998177 -0.24308646 -0.124480195 -0.31571376 0.29110497
0.08848444 -0.2829935 -0.10395027 0.10026406 0.084992014 -0.5473911 0.116705365 -0.23269337
0.18112306 0.1872545 0.021266475 0.0693529 0.044825256 -0.062146246 0.29498783 -0.7511747
0.10499564 0.04722644 -0.101539545 -0.48655808 0.09780251 -0.23172557 -0.06838181 -0.2679301
0.8175726 -0.23744962 -0.46341085 -0.28731218 -0.6947772 0.64730924 0.45364898 0.09866188
-0.15843125 -0.5583935 -0.5551102 0.24766722 0.6361828 -0.030059222 0.843623 -0.4926643
-0.24007739 -1.0389386 0.9978842 0.08548795 -0.15477598 0.16691364 -0.19426572 -0.08785073
0.060793586 0.7502944 0.41019127 0.3933582 -0.38811883 -0.009035894 -0.68073887 0.042976707
0.279167 1.1117064 -0.10749027 0.2989885 0.20874602 0.19676928 -0.36295044 0.525327
1.2069396 0.31836686 -0.17112532 0.6671614 -0.69918346 0.011934728 -0.21862839 0.68624157
-0.051328845 -0.000918792 0.2349246 -0.20531632 0.013895477 -0.32230756 -0.21155545 0.2557184
0.46758208 0.57011825 0.25024965 0.09946909 -0.5111506 -0.9437515 -0.03548527 -0.28323662
-0.0963151 0.49024743 -0.7599897 -0.21942377 1.7443597 -0.747269 -0.51767623 0.072835244
0.22935513 0.8280681 0.7690164 -0.12937078 -0.87321585 -0.21516739 -0.99255264 0.36568415
0.51798546 0.11211609 -0.68239045 0.109257616 -0.030199071 -0.12302019 0.24459977 0.26198477
-0.6379232 -0.6930839 -0.61245054 -0.4682986 0.532737 -0.2650534 0.42357254 -0.011793121
-0.28766766 -0.35407 0.107327245 -0.30090368 -0.29084304 -0.41277802 -0.33336866 0.25662363
-0.8840463 -0.90803564 -0.03038945 -0.59818095 0.99528384 0.22326165 0.03671871 -0.24601673
0.28209734 -0.37939733 0.055962943 0.39681736 0.41895905 0.4486314 0.48271352 -0.3186289
-0.39955887 -0.75971997 -0.45614418 0.30006725 0.47871235 -0.49468505 0.025629275 -0.3160134
-0.4598473 0.011816318 0.87520057 0.92107904 0.41378045 -0.14597237 0.95876527 -0.069443494
0.027941544 0.3026238 0.53980255 -0.67372614 -0.25118548 0.7534754 0.055859413 -1.1655443
-0.4064689 1.1027812 0.27121672 -0.011025744 -0.10250908 -0.1379989 0.24415624 -0.07917702
0.07152844 -0.26198944 -0.2067664 0.35839036 -0.367313 -0.38578767 -0.0064836093 0.094094485
0.38507235 -0.07219828 -0.28777054 0.76868534 0.152947 -0.17961393 -0.72066444 -0.50587857
-0.042328294 -0.587661 0.0364861 0.115004055 0.67049056 -0.69029325 -1.0333469 -0.17856757
-0.9046677 -0.49680528 -0.10404946 0.1481521 0.21341363 -0.5201334 0.3632699 0.4444399
0.5645951 -0.3637596 -0.3326283 0.4490652 -0.5390918 -0.87742174 -0.31036443 -0.4041181
00000000: 8851 10bf 2d7d 81bc 57ef a33f 0e4d 46be
00000010: a1e8 aebe 8e10 13be a956 39bf 9f55 ec3d
00000020: 037f 023c 5326 513d 685d 9d3e c541 1dbd
00000030: 5021 3d3e bb63 debe 026f cdbe 7384 2bbd
00000040: 3d4a 12bd bc17 673f aa8d dabe f457 b33d
00000050: 5b04 273f 66a1 f13c a83d 7dbc 9c2a 563e
00000060: 4351 023e e487 f43d c9f1 1b3e f1ca 8fbd
00000070: 4ce9 9fbe 2cc1 823f 5d64 59be 92de fe3e
00000080: 79aa 05be b586 57be b8bb 653b d372 13bd
00000090: a8eb 78be 79ef febd 3ca5 a1be b60b 953e
000000a0: 5537 b53d 86e4 90be e1e3 d4bd 3e57 cd3d
000000b0: 4b10 ae3d d321 0cbf 3903 ef3d 2c47 6ebe
000000c0: 5378 393e a5bf 3f3e 0837 ae3c e508 8e3d
000000d0: b09a 373d 108d 7ebd a508 973e fc4c 40bf
000000e0: f407 d73d 8370 413d f7f3 cfbd 241e f9be
000000f0: af4c c83d 7849 6dbe c30b 8cbd 222e 89be
00000100: 704c 513f fe25 73be 3044 edbe 951a 93be
00000110: ebdc 31bf 0fb6 253f ae44 e83e 3d0f ca3d
00000120: cd3b 22be e0f2 0ebf b41b 0ebf 7a9c 7d3e
00000130: e0dc 223f c23e f6bc adf7 573f 7f3e fcbe
00000140: d9d6 75be f1fb 84bf 5775 7f3f 4e14 af3d
00000150: 987d 1ebe 69eb 2a3e 98ed 46be 15eb b3bd
00000160: b202 793d 4b13 403f 9704 d23e 3f66 c93e
00000170: 83b7 c6be 490b 14bc e744 2ebf 5808 303d
00000180: faee 8e3e 654c 8e3f dc23 dcbd 0515 993e
00000190: 84c1 553e e37d 493e a4d4 b9be d57b 063f
000001a0: ff7c 9a3f fb00 a33e 7a3b 2fbe 17cb 2a3f
000001b0: b0fd 32bf e189 433c 1fe0 5fbe 87ad 2f3f
000001c0: 323e 52bd 16db 70ba 1390 703e 713e 52be
000001d0: dba9 633c 7f05 a5be fea1 58be 86ed 823e
000001e0: eb66 ef3e 45f3 113f b920 803e 73b6 cb3d
000001f0: c4da 02bf b399 71bf 0159 11bd 6404 91be
00000200: da40 c5bd b601 fb3e af8e 42bf a0b0 60be
00000210: 2e47 df3f 054d 3fbf 6e86 04bf a52a 953d
00000220: 12dc 6a3e 45fc 533f 42de 443f c679 04be
00000230: 138b 5fbf d754 5cbe ee17 7ebf f43a bb3e
00000240: b29a 043f 1f9d e53d 24b1 2ebf 75c2 df3d
00000250: 0b64 f7bc 02f2 fbbd 5d78 7a3e de22 863e
00000260: ef4e 23bf f26d 31bf 8fc9 1cbf d6c4 efbe
00000270: 7461 083f 14b5 87be 80de d83e ef37 41bc
00000280: 2d49 93be aa48 b5be 63ce db3d 0c10 9abe
00000290: 61e9 94be a457 d3be 4caf aabe 2c64 833e
000002a0: dc50 62bf 0675 68bf 4cf3 f8bc 6322 19bf
000002b0: ecca 7e3f b49e 643e 5c66 163d cfeb 7bbe
000002c0: 106f 903e 5e40 c2be 6639 653d a52b cb3e
000002d0: cd81 d63e 04b3 e53e 3a26 f73e 5423 a3be
000002e0: fb92 ccbe 027d 42bf bb8b e9be 6aa2 993e
000002f0: c919 f53e 5c47 fdbe 7cf4 d13c 82cc a1be
00000300: 1b71 ebbe 3b99 413c 250d 603f d6cb 6b3f
00000310: 08db d33e c879 15be a471 753f 6438 8ebd
00000320: aae5 e43c 82f1 9a3e 8030 0a3f 5179 2cbf
00000330: 629b 80be c4e3 403f d7cc 643d 8e30 95bf
00000340: b11c d0be ef27 8d3f ebdc 8a3e 52a5 34bc
00000350: 48f0 d1bd 954f 0dbe 1804 7a3e 9027 a2bd
00000360: 817d 923d 7b23 86be 92ba 53be f17e b73e
00000370: 7310 bcbe f685 c5be 7574 d4bb 9cb4 c03d
00000380: 3428 c53e b1dc 93bd a956 93be 90c8 443f
00000390: 239e 1c3e b7ec 37be 777d 38bf 4281 01bf
000003a0: 6f60 2dbd f470 16bf 7372 153d 3f87 eb3d
000003b0: 45a5 2b3f 0fb7 30bf b644 84bf 6bda 36be
000003c0: 4d98 67bf 435d febe e217 d5bd 2fb5 173e
000003d0: 1a89 5a3e 7627 05bf 83fe b93e a08d e33e
000003e0: 4e89 103f b33e babe 424e aabe e0eb e53e
000003f0: ec01 0abf b69e 60bf 16e8 9ebe 91e8 cebe

bias f4 [5]
0.09685204 -0.10930012 0.17175266 -0.04016791 0.0027290932
00000000: 5d5a c63d bed8 dfbd eedf 2f3e 1b87 24bd
00000010: 96da 323b

weight f4 [64, 18]
0.095299035 0.16166452 -0.93964106 0.8555061 0.96494144 -0.1468198 -1.3569021 -0.21603093
0.67495936 -0.09061747 -1.2204353 0.3101294 -0.13478136 0.61057466 -0.076299176 0.065707855
0.029782731 0.03655106 -0.6031609 0.27464545 -0.5722479 0.4976965 2.0820513 -0.45323065
1.5876181 -0.14685886 0.72425115 -0.03877078 -1.8612424 0.24197307 -1.4817963 -0.08260292
0.1087987 -0.10616714 0.116377726 0.012811421 0.5316864 -0.49618873 -0.049445897 0.52439773
-1.2827322 -1.4773822 -0.30842006 0.2117425 0.01218423 0.25215638 0.39614224 0.6874399
0.31460205 0.7222124 0.06567029 0.027750567 -0.118321314 0.055232372 0.1492958 -0.0024386775
0.14406705 -0.13350321 -0.20336592 0.5797406 -1.1148595 -0.78480595 -0.25674808 0.5238447
0.416754 -0.107695766 0.98941183 0.4995962 0.122894995 0.020317985 0.012718217 -0.021294354
0.12964018 0.39583948 0.43495184 0.4378881 0.2018746 -1.8947608 -0.3718797 -0.18717368
-1.5726683 -1.4729544 0.99515945 1.4472408 1.0705758 1.5213231 0.010898385 -0.02166073
0.13189057 0.115739666 -0.11994114 -0.6438615 -0.39874396 -0.663131 0.05547568 2.231308
0.54729974 0.6542869 1.2216086 1.4887195 -1.3154205 -1.8224276 -0.61819524 -1.4618973
-0.106780544 0.06299809 0.0034725645 0.056175362 0.15181711 -0.08967935 0.16706888 -0.0029371232
0.072446495 -1.0470243 -0.2398006 -0.74960023 -0.6593987 1.7934787 0.34330785 0.4403226
0.6175852 -0.10892115 -0.0013029363 0.1982605 -0.05318854 -0.15068547 -0.16909069 -0.6682976
-0.13053115 -1.142421 0.32379115 0.08350368 -0.4689548 0.7773958 0.34274983 0.3845843
0.067824766 0.65023565 -0.16374175 0.68364155 -0.050702047 -0.016111093 -0.036609914 -0.10959952
0.24329019 0.40328568 -0.106258586 0.17966704 0.39899054 -0.5942258 -0.4415024 -0.26151243
-1.283679 -0.24675904 0.830688 -0.22383499 0.5132588 -0.65169483 0.03450517 -0.036358494
0.050298095 0.059616055 0.11568862 -0.13610929 -0.13603598 -0.053242154 -0.5535387 -0.01817209
0.40499103 0.10304505 -0.20419995 0.39090848 0.047878616 -0.13657717 0.26694468 -0.22422412
-0.07811447 -0.017919978 -0.02966912 -0.0426474 0.46390814 -0.7432709 0.016366687 0.58207124
-1.2056468 -1.6395496 -0.43031576 0.4513273 -0.22871396 0.43654823 0.10964209 0.8354711
0.36329144 0.73540187 -0.0061134803 -0.117364064 0.24758935 -0.11533033 -0.5622724 -0.14192364
-0.9249223 -0.15223977 -0.0022901108 0.09960704 0.11148897 0.07140167 0.054656364 -0.16748221
0.7524753 0.17679293 0.92043966 0.25729096 -0.14715903 -0.1520008 -0.004974539 -0.027366627
-0.16147216 -0.20668615 -0.08841986 -0.15453498 0.09419294 -0.07500289 -0.1841425 -0.04956682
0.12974004 -0.34522766 -0.12361797 0.3263059 -0.21381585 0.20955142 -0.033511925 0.016427033
-0.11359733 -0.03270867 -0.016020516 -0.10868368 0.33026648 0.26835006 0.60686773 1.7702905
-0.50583345 0.6434432 -0.3649211 -1.8081856 0.15337564 0.016959623 0.11535985 0.019498002
0.031281106 -0.28856632 -0.04662878 -0.02626968 0.082646616 0.1753375 0.06457597 -0.078544065
00000000: 242c c33d 628b 253e 518c 70bf 7302 5b3f
00000010: 6706 773f ee57 16be f8ae adbf 3637 5dbe
00000020: 23ca 2c3f a795 b9bd 3937 9cbf 48c9 9e3e
00000030: 2004 0abe 9f4e 1c3f be42 9cbd d791 863d
00000040: eafa f33c 90b6 153d c168 1abf 549e 8c3e
00000050: d77e 12bf 13d2 fe3e 5440 0540 d90d e8be
00000060: 1237 cb3f 2b62 16be 8668 393f 1cce 1ebd
00000070: 313d eebf cac7 773e 80ab bdbf b82b a9bd
00000080: dad1 de3d 286e d9bd 7257 ee3d ffe6 513c
00000090: 9a1c 083f 730c febe c887 4abd ee3e 063f
000000a0: 9230 a4bf dc1a bdbf 3ce9 9dbe 07d3 583e
000000b0: 5da0 473c a41a 813e 28d3 ca3e 10fc 2f3f
000000c0: 8513 a13e e9e2 383f 257e 863d 2855 e33c
000000d0: 7252 f2bd 573b 623d 00e1 183e 38d2 1fbb
000000e0: 5086 133e 11b5 08be 283f 50be e169 143f
000000f0: b7b3 8ebf 0be9 48bf 7c74 83be b01a 063f
00000100: c860 d53e 998f dcbd 184a 7d3f 13cb ff3e
00000110: 5fb0 fb3d e771 a63c 1260 503c 7f71 aebc
00000120: 65c0 043e 79ab ca3e 02b2 de3e de32 e03e
00000130: 37b8 4e3e 8687 f2bf 0467 bebe 75aa 3fbe
00000140: 324d c9bf c589 bcbf c5c2 7e3f 303f b93f
00000150: a108 893f b7ba c23f 248f 323c d871 b1bc
00000160: 520e 073e eb08 ed3d b3a3 f5bd 1bd4 24bf
00000170: 2b28 ccbe f4c2 29bf 773a 633d c0cd 0e40
00000180: d61b 0c3f 597f 273f ac5d 9c3f 5c8e be3f
00000190: b35f a8bf 4f45 e9bf 0b42 1ebf 731f bbbf
000001a0: c2af dabd 2505 813d f793 633b 2318 663d
000001b0: f275 1b3e cfa9 b7bd 1b14 2b3e c07c 40bb
000001c0: d45e 943d e404 86bf 4a8e 75be cde5 3fbf
000001d0: 5ace 28bf b690 e53f 0cc6 af3e f771 e13e
000001e0: 101a 1e3f 0d12 dfbd 4ac7 aaba cd04 4b3e
000001f0: 3adc 59bd 4b4d 1abe 1c26 2dbe 8d15 2bbf
00000200: f5a9 05be da3a 92bf f4c7 a53e fa03 ab3d
00000210: d81a f0be 6903 473f e87c af3e 3ce8 c43e
00000220: b6e7 8a3d d875 263f ebab 27be 2203 2f3f
00000230: f3ac 4fbd 69fb 83bc 47f4 15bd b775 e0bd
00000240: 1021 793e 767b ce3e 1a9e d9bd a3fa 373e
00000250: 7d48 cc3e 2f1f 18bf 9a0c e2be f5e4 85be
00000260: 984f a4bf 67ae 7cbe f8a7 543f 0035 65be
00000270: ee64 033f 79d5 26bf 4b55 0d3d a5ec 14bd
00000280: 6005 4e3d f72f 743d 28ee ec3d 3c60 0bbe
00000290: 044d 0bbe 7214 5abd b6b4 0dbf a3dd 94bc
000002a0: fc5a cf3e 4809 d33d cb19 51be 2825 c83e
000002b0: 5e1c 443d e3da 0bbe f9ac 883e 029b 65be
000002c0: 7bfa 9fbd ebcc 92bc a80c f3bc 0aaf 2ebd
000002d0: 5e85 ed3e 0047 3ebf 6e13 863c 9f02 153f
000002e0: a252 9abf c3dc d1bf 5952 dcbe 5f14 e73e
000002f0: fe33 6abe 4083 df3e 088c e03d 6fe1 553f
00000300: 5601 ba3e 4c43 3c3f 9753 c8bb 925c f0bd
00000310: 1088 7d3e 4f32 ecbd 16f1 0fbf 6e54 11be
00000320: b5c7 6cbf bee4 1bbe af15 16bb c7fe cb3d
00000330: 5454 e43d 0a3b 923d 5adf 5f3d 7580 2bbe
00000340: 39a2 403f 3509 353e efa1 6b3f a4bb 833e
00000350: dbb0 16be 19a6 1bbe 7501 a3bb fa2f e0bc
00000360: f558 25be 89a5 53be 7915 b5bd 6b3e 1ebe
00000370: 3ae8 c03d 1d9b 99bd da8f 3cbe 9406 4bbd
00000380: 93da 043e aec1 b0be 6b2b fdbd 9111 a73e
00000390: 8bf2 5abe a694 563e cd43 09bd fc91 863c
000003a0: b8a5 e8bd 87f9 05bd 753d 83bc 8d95 debd
000003b0: b018 a93e 2e65 893e af5b 1b3f e198 e23f
000003c0: 4d7e 01bf b2b8 243f f0d6 babe a072 e7bf
000003d0: 810e 1d3e e8ee 8a3c c941 ec3d 46ba 9f3c
000003e0: 9e20 003d f7be 93be d2fd 3ebd 8333 d7bc
000003f0: a142 a93d ac8b 333e 6840 843d b6db a0bd

bias f4 [64]
0.37720916 -1.1914685 -2.1427238 -1.5655518 -1.0208067 -0.91599786 -0.23885413 -1.7631346
-1.5560832 -2.0017998 -1.8268533 -2.312036 -1.9089152 -0.073596 -0.37813622 -1.6321061
-0.57044345 -2.082638 0.51725256 -1.932623 -1.3291569 -0.6700743 -0.96088034 -1.5028006
-0.75808245 -1.3372623 -1.2209762 -0.79219127 -0.055477515 -1.1730002 -0.0045854463 -2.093791
-0.008964149 -1.0743589 -1.1633749 -0.6369203 -2.129829 -1.0051363 -1.0340441 -1.5697907
0.13696782 0.1943013 -1.8514938 -0.8404833 -1.5896837 -0.9593173 -0.9525962 -1.4798219
-0.4333817 -0.6252752 -0.8185371 0.37025058 -1.272312 -2.6692724 -0.95705867 -2.1636586
-0.20992167 -1.4543594 -1.7401383 -0.95008767 -0.66774327 0.15668193 0.38250327 -1.0769087
00000000: 8f21 c13e 0a82 98bf 6322 09c0 0064 c8bf
00000010: cba9 82bf d67e 6abf 2d96 74be 65ae e1bf
00000020: bc2d c7bf 7d1d 00c0 54d6 e9bf 66f8 13c0
00000030: 5557 f4bf 80b9 96bd 129b c1be dae8 d0bf
00000040: 9508 12bf f149 05c0 aa6a 043f 3160 f7bf
00000050: d021 aabf fd89 2bbf 41fc 75bf c55b c0bf
00000060: b111 42bf 692b abbf f348 9cbf 0ccd 4abf
00000070: 643c 63bd df24 96bf 8341 96bb ac00 06c0
00000080: 5ede 12bc 9884 89bf 78e9 94bf 350d 23bf
00000090: 1e4f 08c0 4ea8 80bf 8f5b 84bf e7ee c8bf
000000a0: 4b41 0c3e ecf6 463e c0fd ecbf ea29 57bf
000000b0: c17a cbbf d295 75bf 58dd 73bf ce6a bdbf
000000c0: 35e4 ddbe 0912 20bf a68b 51bf 7c91 bd3e
000000d0: 1fdb a2bf 5cd5 2ac0 cc01 75bf 6279 0ac0
000000e0: b5f5 56be 7328 babf dabc debf f238 73bf
000000f0: 39f1 2abf 3a71 203e 78d7 c33e 25d8 89bf

weight_ih f4 [256, 64]
-0.20150378 3.1733713 -1.3833377 -0.9924218 0.0155726895 -0.027732879 -0.17604697 -0.44672897
-0.24095842 0.59701276 -2.0506446 -0.07574576 0.029403495 -0.14777793 -0.15926062 1.1569202
0.21701525 0.7742185 -0.13542774 0.8478395 0.30537227 0.10314201 0.13891576 0.20482944
-0.056155276 0.063735396 1.122966 -0.34529832 -0.28039533 0.15525462 0.31987688 -1.4123884
-0.3920096 0.3383755 -0.45167968 0.34269303 -0.18277517 1.9805818 -0.11402322 -0.038939044
-0.22353208 0.51784027 0.42785057 0.51432186 -0.10940462 1.0736377 0.101230636 -1.5720941
-0.18533735 -0.32201803 0.7388251 -0.08622731 -0.07895452 -0.65737855 -0.12392371 -0.6327776
-0.1323994 -0.017271308 -0.22600521 -0.2599214 0.22504319 -0.1941975 -0.09985763 0.24690178
0.7449031 -0.7713047 1.9369798 -0.31052107 -0.5709221 -1.055308 2.0842159 0.6475806
-0.08850889 -0.009082683 -0.4565797 4.3347683 0.29694247 -0.061706103 1.5394894 1.5618006
-0.069026545 -0.19345005 -0.024872413 -0.15251444 0.15492603 -0.5257624 -0.3470039 0.08200123
0.31201527 0.90301293 -0.795061 1.4348075 -0.18082723 -0.41228577 -0.8671229 -0.1631292
-0.9670597 0.69123036 -0.06296009 1.3368875 3.4759781 -0.5096553 0.3527604 0.2201596
-0.23880444 -0.01885089 -0.0661604 -0.31601742 -0.065656945 -0.7834636 0.9024015 -0.19377486
0.7899236 0.2910052 -0.47922733 -0.33727515 0.79536927 0.40105572 0.3181362 0.7307687
0.6331963 -0.20585947 0.6529464 0.5582977 -0.07371882 1.0133686 0.6783306 -1.7498039
-0.18466805 -1.3154467 -0.054870553 -0.3411054 1.0312469 -1.0349617 1.8936076 0.115734756
-0.583037 0.38611582 0.15311927 0.12618853 0.8691802 0.77901787 -0.049793378 0.01074639
-0.11063786 -0.23485236 1.6403475 0.00045070308 -0.5735041 0.26925758 -0.008892968 1.3011293
1.0116339 1.4143407 0.58307254 -0.34136653 1.2109091 -0.749707 2.6342604 -0.22415991
1.0724897 1.1202725 0.42968905 0.53486156 0.006482834 -0.83681506 0.2812615 -0.01624557
1.2148279 1.4048713 -0.39242536 1.7828848 -0.25046572 0.6128045 0.73017305 0.04643468
1.2200592 0.72278374 0.81056476 -0.15685174 -0.19092222 0.09778907 0.5529845 0.58116174
0.34892043 1.5869864 -0.34522378 0.37627754 0.99943846 1.0664891 -0.23543921 1.2150916
-1.7982588 -0.8393486 -1.0748551 0.14372316 -0.6932918 -0.2200315 -0.43271694 0.40221035
-0.15399006 -1.3488318 0.5140329 -1.3761952 0.40452653 -0.55901957 -2.067666 -0.7628756
-0.013755038 0.82080925 -0.18602161 0.22991543 -0.03266664 -1.2877152 -1.0396875 -0.9729424
-1.2107544 -0.8068523 -0.4157432 -0.673548 -0.6091052 -0.09574233 -1.4098296 -0.2482293
-0.7945914 -0.16144796 -0.1803743 -2.0302198 0.55501634 -0.83338076 -0.103204295 -0.86975944
-2.0640156 -2.3824832 -1.0782549 -1.580446 -0.15474711 -0.6462229 -0.8884423 0.52189577
-1.1491748 -1.0092956 -0.36530334 -0.07293776 1.0415993 -0.76025504 -1.35232 0.2111448
-0.8174364 0.01760503 -0.3750265 -1.1045763 -0.4323161 -0.26308367 -2.3514774 -0.23970522
00000000: 0257 4ebe 8418 4b40 3611 b1bf 5b0f 7ebf
00000010: 9824 7f3c 1030 e3bc a845 34be a9b9 e4be
00000020: cebd 76be d4d5 183f c33d 03c0 9820 9bbd
00000030: 99df f03c 1953 17be 3715 23be f615 943f
00000040: 3f39 5e3e 2f33 463f 92ad 0abe 020c 593f
00000050: c159 9c3e 1e3c d33d ef3f 0e3e cfbe 513e
00000060: 1303 66bd b487 823d 5abd 8f3f f1ca b0be
00000070: fa8f 8fbe 11fb 1e3e e7c6 a33e 25c9 b4bf
00000080: 7bb5 c8be 8e3f ad3e 8f42 e7be 7675 af3e
00000090: 6a29 3bbe b483 fd3f 0285 e9bd 8c7e 1fbd
000000a0: 98e5 64be 2e91 043f 3b0f db3e 99aa 033f
000000b0: 880f e0bd f66c 893f 0252 cf3d 613a c9bf
000000c0: 13c9 3dbe 8cdf a4be a423 3d3f f297 b0bd
000000d0: e8b2 a1bd f649 28bf b7cb fdbd b6fd 21bf
000000e0: b593 07be 8f7c 8dbc e96d 67be 6b14 85be
000000f0: b971 663e b6db 46be 2882 ccbd d2d3 7c3e
00000100: f8b1 3e3f 3a74 45bf f4ee f73f 9efc 9ebe
00000110: f327 12bf 5514 87bf cb63 0540 d8c7 253f
00000120: 2644 b5bd 89cf 14bc d0c4 e9be 6cb6 8a40
00000130: d808 983e 8abf 7cbd fd0d c53f 15e9 c73f
00000140: ca5d 8dbd c517 46be 3bc1 cbbc bf2c 1cbe
00000150: eea4 1e3e 5d98 06bf 7faa b1be 43f0 a73d
00000160: 77c0 9f3e db2b 673f 1e89 4bbf c6a7 b73f
00000170: c62a 39be 1f17 d3be c4fb 5dbf 570b 27be
00000180: 3991 77bf 79f4 303f 38f1 80bd 211f ab3f
00000190: 6d76 5e40 c578 02bf 039d b43e 8571 613e
000001a0: 2789 74be 2f6d 9abc 1b7f 87bd 09cd a1be
000001b0: 2677 86bd 1291 48bf c903 673f eb6c 46be
000001c0: 6f38 4a3f a2fe 943e 495d f5be 54af acbe
000001d0: 529d 4b3f 2d57 cd3e bfe2 a23e a813 3b3f
000001e0: 2719 223f d3cc 52be 7f27 273f 99ec 0e3f
000001f0: e5f9 96bd 10b6 813f 13a7 2d3f 93f9 dfbf
00000200: 9f19 3dbe 8f60 a8bf f2bf 60bd 5ea5 aebe
00000210: e6ff 833f a079 84bf bc61 f23f 5806 ed3d
00000220: ea41 15bf f9b0 c53e 4ccb 1c3e 9137 013e
00000230: 9882 5e3f b76d 473f 24f4 4bbd a011 303c
00000240: 1a96 e2bd 237d 70be e8f6 d13f 584c ec39
00000250: 2ad1 12bf 21dc 893e d0b3 11bc 688b a63f
00000260: 387d 813f 1e09 b53f 3e44 153f 98c7 aebe
00000270: 12ff 9a3f ccec 3fbf b997 2840 2d8a 65be
00000280: 5847 893f 1765 8f3f 3400 dc3e b0ec 083f
00000290: f46d d43b 8339 56bf 8201 903e 6e15 85bc
000002a0: 7b7f 9b3f d3d2 b33f faeb c8be 9235 e43f
000002b0: 0b3d 80be c1e0 1c3f 9fec 3a3f 4b32 3e3d
000002c0: e62a 9c3f 5b08 393f 2c81 4f3f be9d 20be
000002d0: 1d81 43be a345 c83d 6490 0d3f 04c7 143f
000002e0: b3a5 b23e 5f22 cb3f 2cc1 b0be 73a7 c03e
000002f0: 33db 7f3f b782 883f fa16 71be 1f88 9b3f
00000300: 582d e6bf 8ddf 56bf da94 89bf 2a2c 133e
00000310: 927b 31bf f04f 61be 138d ddbe 84ee cd3e
00000320: 92af 1dbe 85a6 acbf a997 033f 2a27 b0bf
00000330: 1a1e cf3e e81b 0fbf a454 04c0 d14b 43bf
00000340: d05c 61bc 8e20 523f 737c 3ebe f36e 6b3e
00000350: 74cd 05bd dad3 a4bf 7b14 85bf c112 79bf
00000360: 00fa 9abf df8d 4ebf 4bdc d4be a46d 2cbf
00000370: 52ee 1bbf 8e14 c4bd 4c75 b4bf d22f 7ebe
00000380: 586a 4bbf 9d52 25be 0ab4 38be 1fef 01c0
00000390: 8d15 0e3f 7158 55bf c65c d3bd 8ea8 5ebf
000003a0: d518 04c0 9b7a 18c0 4204 8abf 0e4c cabf
000003b0: 0776 1ebe dd6e 25bf f470 63bf f69a 053f
000003c0: 2918 93bf 9930 81bf 0a09 bbbe 6460 95bd
000003d0: 2053 853f 13a0 42bf d218 adbf 5836 583e
000003e0: 8343 51bf 6d38 903c 7903 c0be c262 8dbf
000003f0: 8958 ddbe e7b2 86be 9b7e 16c0 4975 75be

weight_hh f4 [256, 64]
-0.10431895 -0.027334362 0.09623839 -0.030883893 -0.07956931 -0.08087592 -0.004398331 0.006548956
0.08811578 0.120448634 0.05539334 0.055515602 0.052431345 0.073315725 0.02068749 -0.012214541
-0.029152825 0.079911694 0.025069296 -0.016898856 -0.0035978556 0.033126593 -0.08576481 0.06184423
-0.037677914 -0.1158095 -0.010549992 0.08147912 0.10514173 0.085959986 0.058921292 -0.107795134
-0.025780365 -0.10888575 0.00519751 -0.10178201 0.11326343 -0.017389834 0.07000069 0.12152314
-0.043377027 -0.01637876 -0.012089625 0.031705797 -0.009644866 -0.11185971 -0.009656474 0.078259304
-0.09111583 0.0781378 -0.032536104 -0.03628391 -0.011984751 -0.09953378 -0.026379243 0.10896288
0.09710014 0.082338855 -0.0064404607 0.030390307 0.07514016 0.059633717 0.106689826 -0.03732489
-0.027031347 0.077475786 0.08500609 0.09023169 -0.07054372 0.06495413 -0.11065781 -0.034751534
-0.029969618 -0.021643877 -0.025007263 -0.07652098 0.038909882 0.089934334 0.03927572 0.107574105
-0.021990135 0.09725572 0.043592766 0.032086745 0.109161004 0.118236974 0.1235258 -0.036512256
-0.08909309 -0.019524649 0.031778455 0.10219529 0.09858543 -0.083474085 -0.12362827 0.11828704
0.03539683 0.047112584 -0.01542373 -0.1206485 0.011175916 0.10719018 -0.03644052 -0.040452346
0.021727756 -0.029167444 -0.07844807 0.007820636 -0.0948073 -0.08584826 -0.049398854 -0.12323819
-0.032063708 0.12074505 0.06136115 -0.032862306 -0.09907758 -0.07740213 -0.0031117648 0.03845422
-0.008174762 -0.0462576 0.08087754 0.105411366 -0.028289303 0.09547235 0.009946942 -0.025967062
-0.095822945 0.09162021 0.08259252 0.1237354 -0.028630123 0.06189251 0.018059611 -0.09811455
-0.08696355 0.032017544 0.019567385 0.034901857 0.0380646 0.09149648 0.059652254 0.07379539
-0.08440991 -0.07142541 0.041305587 -0.11497459 -0.08443031 -0.112550974 0.11283465 0.065364614
0.05568114 -0.07832788 -0.080641896 -0.061623007 -0.115325704 -0.0913308 -0.006085351 0.030135974
0.08186093 0.10090549 0.12484169 -0.009890035 -0.085602194 -0.0907926 -0.0250808 0.08290477
-0.011723682 0.018144399 0.11363019 -0.020224646 -0.0775536 -0.016122684 -0.083172455 -0.07043867
0.027453914 -0.031205699 0.06666906 -0.11646062 -0.09060094 0.05933091 -0.013982609 0.07268816
-0.07224026 0.02930805 -0.052531123 0.0010355413 -0.056895524 0.0042378753 0.12126778 0.08672604
-0.031535015 -0.049242735 0.045870095 -0.020621046 -0.09771237 0.0071602017 0.038074225 0.02343291
-0.030715644 -0.120092124 0.10713886 0.010381803 0.058920413 -0.1182203 0.059102774 0.0068476647
0.12404129 0.018964276 0.0379529 -0.10720202 0.002026841 0.05589418 0.06043367 0.029507712
-0.016185805 -0.056841195 0.016596437 -0.11216605 0.036636397 -0.09095168 0.06978159 -0.049082637
0.10843438 0.10170326 -0.07745272 -0.011719167 -0.029394358 0.0053524524 -0.0033225268 -0.11665198
0.048830107 0.0055906475 0.09561911 -0.07878949 0.0051898956 -0.0043296963 -0.12367275 -0.024164408
0.090422064 0.045031488 -0.052535847 0.0448983 -0.035749152 -0.027776733 -0.05999182 0.01871644
-0.06059484 0.022024408 0.018596768 0.124872 0.03128609 0.029738724 0.0861859 -0.099903256
00000000: 2ca5 d5bd 50ec dfbc a218 c53d 3800 fdbc
00000010: 3cf5 a2bd 46a2 a5bd e01f 90bb a098 d63b
00000020: 0c76 b43d c6ad f63d 20e4 623d 5464 633d
00000030: 40c2 563d 8e26 963d d078 a93c 801f 48bc
00000040: e8d1 eebc bea8 a33d 205e cd3c 786f 8abc
00000050: 00ca 6bbb c0af 073d 76a5 afbd 6050 7d3d
00000060: 2854 1abd 882d edbd e0d9 2cbc 86de a63d
00000070: 8c54 d73d ca0b b03d 7457 713d b2c3 dcbd
00000080: 5831 d3bc 7eff debd e04f aa3b 1673 d0bd
00000090: a8f6 e73d 2075 8ebc 865c 8f3d 20e1 f83d
000000a0: 1cac 31bd c02c 86bc 9013 46bc f0dd 013d
000000b0: 8005 1ebc b416 e5bd 3036 1ebc 6a46 a03d
000000c0: f09a babd b606 a03d 9444 05bd 709e 14bd
000000d0: b05b 44bc 5ed8 cbbd 4819 d8bc ee27 df3d
000000e0: 70dc c63d 46a1 a83d 800a d3bb 18f5 f83c
000000f0: 16e3 993d 7c42 743d 3280 da3d fce1 18bd
00000100: d870 ddbc a0ab 9e3d ac17 ae3d 64cb b83d
00000110: 3a79 90bd ac06 853d 90a0 e2bd a057 0ebd
00000120: d882 f5bc 804e b1bc 08dc ccbc 08b7 9cbd
00000130: f85f 1f3d 7e2f b83d 94df 203d d04f dc3d
00000140: a824 b4bc 022e c73d 548e 323d 646d 033d
00000150: ce8f df3d 3a26 f23d 18fb fc3d e08d 15bd
00000160: 7076 b6bd 28f2 9fbc 202a 023d c44b d13d
00000170: 28e7 c93d 76f4 aabd d230 fdbd 7a40 f23d
00000180: 44fc 103d 20f9 403d d0b3 7cbc 9016 f7bd
00000190: 301b 373c 8686 db3d a842 15bd 5cb1 25bd
000001a0: 68fe b13c 90f0 eebc 62a9 a0bd 2022 003c
000001b0: 542a c2bd 36d1 afbd 7456 4abd 4e64 fcbd
000001c0: 3c55 03bd 2e49 f73d d455 7b3d a09a 06bd
000001d0: 30e9 cabd 0285 9ebd c0ee 4bbb 2c82 1d3d
000001e0: 70ef 05bc 9c78 3dbd 20a3 a53d eae1 d73d
000001f0: f8be e7bc 0287 c33d 80f8 223c e0b8 d4bc
00000200: d23e c4bd 60a3 bb3d 4426 a93d fc68 fd3d
00000210: b889 eabc 0083 7d3d c0f1 933c 48f0 c8bd
00000220: f219 b2bd d424 033d c84b a03c 40f5 0e3d
00000230: a0e9 1b3d 8262 bb3d ec55 743d 0a22 973d
00000240: 1adf acbd 7c47 92bd 0c30 293d cc77 ebbd
00000250: cce9 acbd 2081 e6bd da15 e73d e2dd 853d
00000260: e811 643d 5e6a a0bd 9427 a5bd 6868 7cbd
00000270: e22f ecbd a40b bbbd a067 c7bb b8df f63c
00000280: b4a6 a73d 8aa7 ce3d 00ad ff3d d009 22bc
00000290: 3450 afbd 78f1 b9bd 4076 cdbc fac9 a93d
000002a0: b014 40bc 90a3 943c f2b6 e83d 28ae a5bc
000002b0: 6cd4 9ebd b813 84bc 5256 aabd 2642 90bd
000002c0: 08e7 e03c 18a3 ffbc ca89 883d e882 eebd
000002d0: fc8c b9bd f804 733d 5017 65bc 88dd 943d
000002e0: b4f2 93bd 7017 f03c e02a 57bd 00bb 873a
000002f0: 480b 69bd e0dd 8a3b 3e5b f83d 6c9d b13d
00000300: dc2a 01bd c0b2 49bd 48e2 3b3d 78ed a8bc
00000310: 6c1d c8bd 20a0 ea3b b8f3 1b3d 60f6 bf3c
00000320: 609f fbbc dcf2 f5bd 9e6b db3d 7018 2a3c
00000330: 8856 713d 7c1d f2bd c015 723d 6062 e03b
00000340: 5c09 fe3d f85a 9b3c 8074 1b3d bc8c dbbd
00000350: c0d4 043b 4cf1 643d 4c89 773d 28ba f13c
00000360: 1898 84bc 50d2 68bd 40f5 873c 50b7 e5bd
00000370: 0c10 163d e044 babd a6e9 8e3d e00a 49bd
00000380: d812 de3d cc49 d03d 889f 9ebd c001 40bc
00000390: 70cc f0bc a063 af3b c0be 59bb 3ce7 eebd
000003a0: 1402 483d c031 b73b f4d3 c33d 625c a1bd
000003b0: 0010 aa3b 20e0 8dbb 2448 fdbd 70f4 c5bc
000003c0: 342f b93d f072 383d d42f 57bd 48e7 373d
000003d0: b46d 12bd 088c e3bc fcb9 75bd 3853 993c
000003e0: 4c32 78bd 886c b43c 4058 983c e4bc ff3d
000003f0: d825 003d a09e f33c 3c82 b03d 149a ccbd

bias_ih f4 [256]
-1.7596592 -1.2390945 -0.56543314 -1.1230848 -1.4881428 -1.9700681 -1.3490943 -0.54883724
0.8747675 -0.3214029 -1.525594 -0.93252367 -2.111458 -0.40508613 -0.4785286 -2.396029
-0.951099 -0.9467789 -0.5224674 -0.7565736 -0.06895911 0.18376383 -0.3241869 -1.3448687
-0.019354336 -0.48756197 -1.5513324 -0.73805887 -0.044200495 -1.0134475 -0.112100035 -2.4632506
-0.6411774 -0.88119113 0.14589588 -0.72309774 -1.9409859 -0.062412698 -0.2673999 -1.5630096
0.47525784 -1.1059994 -0.40630475 -1.1196895 0.56465226 -0.8370719 0.2401606 0.08731872
-1.2128506 -0.8519494 -1.0883753 -0.11724928 -1.5116526 -0.91110355 -0.90484387 -1.6492172
-1.3466079 -0.6196162 1.3096217 -0.84254825 -0.6715418 -1.7594079 -1.384523 -1.2236532
0.087826535 0.07972348 0.121267244 -0.036536545 0.03600526 -0.09537929 -0.024672091 -0.05114518
-0.049518034 -0.079898655 -0.07650313 0.023430854 0.024670094 0.11989644 0.03706944 -0.09597276
-0.027628213 -0.006134376 0.053937927 -0.024190426 0.013862744 0.013907611 -0.03670259 -0.040781125
0.110126 -0.056741163 0.10585989 -0.0921177 0.11997299 0.032974362 0.08955747 -0.05360253
-0.006656572 -0.021161228 0.048357606 -0.02400221 -0.021870062 -0.05416976 0.08109394 0.085438296
-0.049554557 -0.11584179 0.038767055 0.013718188 -0.07512459 0.02192299 0.07472853 0.057150558
-0.0078002214 0.070086345 -0.012810528 0.08638106 -0.012417048 -0.094111174 -0.08552575 -0.039408058
0.046566427 0.08915773 -0.08291535 -0.06889382 0.038945615 -0.05196929 0.037783965 0.0023958236
0.05676516 -0.17727531 -0.62562454 0.4380287 0.6418212 0.39145848 0.14299461 -1.0724872
-0.6399014 0.578185 -0.21171182 0.09773192 -0.22398774 0.29433274 0.34099707 -0.037337538
1.142114 1.117263 0.017644135 -0.5481187 0.32495397 -0.7441662 0.45805135 0.45642355
0.16627535 0.2560515 -0.002792034 -0.24665569 0.64262253 -0.597433 0.7345012 0.2179396
0.33333865 -0.03670895 -0.6515682 0.8012957 0.2571812 0.44467357 0.26193586 0.611833
-0.26939136 0.26404873 -0.46897 -0.25420487 0.8749949 -0.078621954 -0.714671 0.6036439
0.38316393 -1.1344821 -0.31622308 0.57892436 -0.6453015 0.6519269 0.054834753 0.19627269
0.47522825 -0.04939666 -0.93655515 0.042056378 -0.31669584 1.0574353 0.15855438 0.29686898
-2.603808 -1.2888117 -1.6542599 -0.9088067 -1.9019802 -1.5716199 -0.7552652 -0.050010797
0.149307 -0.63568044 -2.3029823 -1.3034742 -1.9640989 -1.3244065 -0.60415107 -1.6562263
-0.9700304 0.18892665 -0.8540178 -0.50717884 -1.135285 0.02559284 -0.8032573 -1.6698028
-1.3811276 -0.2642015 -0.5810879 -0.4544452 -0.820755 -0.9105385 -1.0354881 -3.4244542
-0.7140057 0.4815836 0.3586354 -1.2165247 -0.45083517 -0.7939474 -1.0180789 -1.21296
-0.29384613 -0.04563059 0.8337186 -1.9613073 -1.1566535 -1.0786986 -0.09469248 -1.0011921
-1.3855416 -1.867663 0.028998034 0.40327013 -1.8301888 0.045015346 -1.0018544 -1.7841549
-1.3041959 -0.72400635 1.1920879 -1.1167672 -1.102238 -1.9639648 -1.5603006 0.20291513
00000000: 833c e1bf a69a 9ebf 3ac0 10bf 3ec1 8fbf
00000010: 777b bebf 312b fcbf 1faf acbf 9980 0cbf
00000020: c3f0 5f3f ec8e a4be aa46 c3bf dfb9 6ebf
00000030: 2122 07c0 7367 cfbe b301 f5be 8a58 19c0
00000040: 397b 73bf 1a60 72bf 6cc0 05bf cfae 41bf
00000050: 6f3a 8dbd 962c 3c3e d3fb a5be a824 acbf
00000060: fc8c 9ebc b9a1 f9be 0f92 c6bf 6df1 3cbf
00000070: 940b 35bd a6b8 81bf b494 e5bd e6a5 1dc0
00000080: 3424 24bf be95 61bf bb65 153e ef1c 39bf
00000090: 3a72 f8bf 75a4 7fbd a4e8 88be b310 c8bf
000000a0: ff54 f33e 6391 8dbf 2d07 d0be fc51 8fbf
000000b0: 0d8d 103f 584a 56bf a9ec 753e 28d4 b23d
000000c0: b03e 9bbf 5b19 5abf e24f 8bbf 6420 f0bd
000000d0: d57d c1bf 153e 69bf d9a3 67bf 8d19 d3bf
000000e0: a65d acbf 2b9f 1ebf afa1 a73f 3eb1 57bf
000000f0: 2aea 2bbf 4734 e1bf 0d38 b1bf aba0 9cbf
00000100: 66de b33d 1046 a33d f65a f83d 58a7 15bd
00000110: 407a 133d 3856 c3bd 201d cabc 9c7d 51bd
00000120: 6cd3 4abd e8a1 a3bd acad 9cbd 10f2 bf3c
00000130: f018 ca3c 448c f53d 20d6 173d 5e8d c4bd
00000140: 9054 e2bc e002 c9bb 04ee 5c3d 002b c6bc
00000150: 9020 633c c0dc 633c 7455 16bd 1c0a 27bd
00000160: be89 e13d 6c69 68bd 12cd d83d 34a8 bcbd
00000170: 66b4 f53d 2010 073d e869 b73d 548e 5bbd
00000180: 601f dabb 505a adbc a012 463d 48a0 c4bc
00000190: d828 b3bc 1ce1 5dbd 9414 a63d 46fa ae3d
000001a0: b8f9 4abd 763e edbd 34ca 1e3d 40c2 603c
000001b0: ecda 99bd d897 b33c 460b 993d b416 6a3d
000001c0: 0099 ffbb 6e89 8f3d 40e3 51bc 8ee8 b03d
000001d0: e070 4bbc 5cbd c0bd 2028 afbd 586a 21bd
000001e0: 70bc 3e3d 5498 b63d 86cf a9bd 3418 8dbd
000001f0: 7085 1f3d c0dd 54bd 5cc3 1a3d 4003 1d3b
00000200: 9682 683d a987 35be ee28 20bf 4c45 e03e
00000210: 654e 243f 3f6d c83e 2e6d 123e 4347 89bf
00000220: 94d0 23bf ef03 143f fcca 58be ac27 c83d
00000230: 0b5d 65be c8b2 963e 2b97 ae3e 3fef 18bd
00000240: cb30 923f 7902 8f3f 6f8a 903c 8251 0cbf
00000250: 5e60 a63e ad81 3ebf b585 ea3e 59b0 e93e
00000260: 1644 2a3e 2f19 833e 8ffa 36bb 4f93 7cbe
00000270: e982 243f 5ef1 18bf 4508 3c3f 8f2b 5f3e
00000280: 5dab aa3e 205c 16bd 2ccd 26bf b721 4d3f
00000290: 41ad 833e 41ac e33e 751c 863e 16a1 1c3f
000002a0: aaed 89be 6531 873e d61c f0be 2427 82be
000002b0: aaff 5f3f 8c04 a1bd aef4 36bf 6888 1a3f
000002c0: 102e c43e b636 91bf fee7 a1be 6334 143f
000002d0: 7b32 25bf aee4 263f 689a 603d b5fb 483e
000002e0: 1e51 f33e 2754 4abd 14c2 6fbf 4f43 2c3d
000002f0: f525 a2be 0a5a 873f 145c 223e 36ff 973e
00000300: caa4 26c0 c8f7 a4bf cabe d3bf 8ea7 68bf
00000310: 1674 f3bf d72a c9bf 0f59 41bf 1fd8 4cbd
00000320: efe3 183e f4bb 22bf 1064 13c0 3ed8 a6bf
00000330: 9867 fbbf 2786 a9bf a5a9 1abf 39ff d3bf
00000340: ea53 78bf fd75 413e e9a0 5abf 79d6 01bf
00000350: 0551 91bf 13a8 d13c 45a2 4dbf 19bc d5bf
00000360: cac8 b0bf 6b45 87be 2dc2 14bf 0bad e8be
00000370: 001d 52bf 0d19 69bf e08a 84bf 422a 5bc0
00000380: 14c9 36bf 2092 f63e 0f9f b73e 15b7 9bbf
00000390: ded3 e6be 2340 4bbf 6950 82bf 4642 9bbf
000003a0: 0073 96be 24e7 3abd 956e 553f 1e0c fbbf
000003b0: 390d 94bf cc12 8abf 22ee c1bd 1027 80bf
000003c0: 6d59 b1bf 950f efbf 498d ed3c 6c79 ce3e
000003d0: a043 eabf 0362 383d c43c 80bf 305f e4bf
000003e0: e4ef a6bf 7b58 39bf 5696 983f 3af2 8ebf
000003f0: 2316 8dbf 3363 fbbf eeb7 c7bf fcc8 4f3e

bias_hh f4 [256]
-1.8946197 -1.2337594 -0.49181145 -0.98155713 -1.4746563 -1.900364 -1.4660602 -0.7207301
0.88276774 -0.22668491 -1.6473163 -0.911835 -2.184748 -0.37510353 -0.38947767 -2.285934
-0.9909742 -0.80392975 -0.5375562 -0.9304637 -0.06746952 0.091338016 -0.35123765 -1.4683665
-0.07104555 -0.27468562 -1.560741 -0.74397135 -0.115136154 -1.0658114 -0.029878128 -2.268035
-0.62542796 -0.735323 0.1716621 -0.9206506 -2.079638 -0.082088105 -0.46249434 -1.5129628
0.46034995 -1.2012955 -0.3750799 -1.0634362 0.36803466 -0.9479263 0.39945182 -0.027538262
-1.0814283 -0.80189955 -1.1343198 -0.16926816 -1.5208925 -0.68689525 -0.84603435 -1.7404102
-1.3451608 -0.6694947 1.2294844 -0.95472974 -0.7500765 -1.673831 -1.2190312 -1.1955149
-0.04077761 -0.080703914 0.08539733 0.014242664 -0.085724995 -0.12064144 -0.044935763 0.0851361
-0.05175875 -0.017780408 -0.057825536 0.055368572 0.12224361 -0.0032042712 -0.1088531 -0.06404559
0.101485476 -0.089380905 -0.0091269165 -0.0982807 0.116445735 0.0010186881 -0.021943629 0.064317316
-0.100891605 -0.0016278028 -0.09835854 0.011613563 -0.08280675 0.026420176 0.042267114 -0.07607168
-0.0064195246 -0.115642324 0.058747917 -0.08785476 -0.05262822 0.08656709 -0.017314553 0.10961574
0.06843868 0.015279323 0.0106550455 0.03419973 -0.06165512 0.060375586 -0.086697206 -0.08203828
-0.0071866065 -0.012144938 -0.120690376 -0.05301875 0.055994987 0.045468494 0.11871496 -0.078729674
-0.016356453 -0.024808064 0.033720553 0.098232254 -0.006603405 -0.051811114 0.1041628 0.053200513
0.14464705 -0.36938235 -0.8146945 0.4728947 0.5217977 0.19605827 -0.040817816 -0.9173101
-0.61342925 0.5498655 0.0038717468 0.06356354 -0.06281156 0.25006396 0.37959433 -0.083119646
1.0896579 1.182531 -0.13564001 -0.61178267 0.4006241 -0.7804548 0.31380275 0.4127719
0.24780232 0.27391174 -0.11046073 -0.10851316 0.6843519 -0.68846804 0.7605537 0.1830419
0.3429574 -0.067393996 -0.72864324 0.7283102 0.11777501 0.4706879 0.33961222 0.5824883
-0.2391305 0.2745312 -0.4235637 -0.30201188 0.85954565 -0.11956543 -0.76485276 0.59666646
0.4529203 -1.1362354 -0.2913609 0.59683764 -0.8371329 0.6239062 0.084378205 0.24571507
0.23982269 -0.14764719 -1.1411126 0.25629127 -0.4143114 0.87591374 0.40037894 0.1959089
-2.6157537 -1.2959017 -1.6082588 -1.0680232 -1.8448315 -1.3974885 -0.73232186 -0.011923537
0.074956104 -0.72010547 -2.246213 -1.405694 -2.0517843 -1.4612738 -0.7584161 -1.5182434
-1.1480417 -0.0160231 -0.80048656 -0.4904211 -1.198512 0.10520422 -0.836912 -1.7396462
-1.2487988 -0.3536625 -0.6126907 -0.5258863 -0.82271343 -1.1195583 -0.93568736 -3.3163934
-0.75602 0.49737746 0.43702582 -1.1358949 -0.5356777 -0.79754996 -0.96332383 -1.1341224
-0.2496634 -0.092329204 0.84060997 -1.8171859 -1.2045807 -1.0796652 -0.15003258 -1.0829973
-1.4118439 -1.7456907 -0.053488303 0.24977201 -1.967636 0.024603523 -1.0223237 -1.7386415
-1.3141509 -0.8755406 1.1727937 -1.1443912 -1.0759239 -1.9391676 -1.5388241 -0.0202344
00000000: e682 f2bf d4eb 9dbf b6ce fbbe 5447 7bbf
00000010: 8ac1 bcbf 213f f3bf dca7 bbbf c581 38bf
00000020: 11fd 613f 1720 68be 43db d2bf 056e 69bf
00000030: e9d2 0bc0 920d c0be 9e69 c7be be4c 12c0
00000040: 7cb0 7dbf 57ce 4dbf 489d 09bf de32 6ebf
00000050: 762d 8abd 6d0f bb3d 6cd5 b3be 6ff3 bbbf
00000060: 5480 91bd 98a3 8cbe 5cc6 c7bf e874 3ebf
00000070: 81cc ebbd 826c 88bf fac2 f4bc 7c27 11c0
00000080: 0c1c 20bf 213e 3cbf 31c8 2f3e c2af 6bbf
00000090: ca18 05c0 cf1d a8bd 0fcc ecbe c4a8 c1bf
000000a0: fdb2 eb3e 0dc4 99bf 790a c0be ad1e 88bf
000000b0: 0a6f bc3e 4cab 72bf f384 cc3e ec97 e1bc
000000c0: 3e6c 8abf 4a49 4dbf 6431 91bf a254 2dbe
000000d0: 9bac c2bf 5ed8 2fbf b595 58bf c3c5 debf
000000e0: 3b2e acbf 0164 2bbf bf5f 9d3f 2b69 74bf
000000f0: 0305 40bf 1840 d6bf 3709 9cbf a206 99bf
00000100: 6c06 27bd 1848 a5bd cce4 ae3d 105a 693c
00000110: 9690 afbd dc12 f7bd 900e 38bd d65b ae3d
00000120: fc00 54bd 38a8 91bc 78da 6cbd 28ca 623d
00000130: dc5a fa3d c0fe 51bb 60ee debd 562a 83bd
00000140: 9ed7 cf3d 560d b7bd 1089 15bc 6447 c9bd
00000150: 1a7b ee3d 8085 853a 20c3 b3bc ccb8 833d
00000160: 42a0 cebd 005c d5ba 3470 c9bd d046 3e3c
00000170: 9696 a9bd 206f d83c 4820 2d3d 78cb 9bbd
00000180: e05a d2bb e2d5 ecbd a8a1 703d 32ed b3bd
00000190: b090 57bd 164a b13d 40d7 8dbc 387e e03d
000001a0: 9429 8c3d 2056 7a3c 8092 2e3c 0415 0c3d
000001b0: 148a 7cbd 644c 773d 4e8e b1bd b003 a8bd
000001c0: a07d ebbb 90fb 46bc 842c f7bd 302a 59bd
000001d0: 005b 653d 2c3d 3a3d d420 f33d 063d a1bd
000001e0: f8fd 85bc 483a cbbc 901e 0a3d fe2d c93d
000001f0: 6061 d8bb e437 54bd 4e53 d53d c8e8 593d
00000200: 5b1e 143e af1f bdbe d28f 50bf 411f f23e
00000210: 8994 053f 80c3 483e 9530 27bd d6d4 6abf
00000220: b309 1dbf fcc3 0c3f 22bd 7d3b 9a2d 823d
00000230: 59a3 80bd 6208 803e 305a c23e a23a aabd
00000240: e979 8b3f 2d5d 973f 37e5 0abe ca9d 1cbf
00000250: 9a1e cd3e e3cb 47bf c1aa a03e d756 d33e
00000260: e4bf 7d3e 293e 8c3e 3c39 e2bd 263c debd
00000270: b031 2f3f 713f 30bf a6b3 423f 566f 3b3e
00000280: 1d98 af3e dd05 8abd 5d88 3abf 8a72 3a3f
00000290: 0634 f13d 01fe f03e a7e1 ad3e f41d 153f
000002a0: a0de 74be 5a8f 8c3e 57dd d8be 4da1 9abe
000002b0: 2f0b 5c3f b8de f4bd 64cd 43bf 22bf 183f
000002c0: 2be5 e73e 2970 91bf 422d 95be 5aca 183f
000002d0: 574e 56bf 51b8 1f3f 7bce ac3d bb9c 7b3e
000002e0: 1494 753e d330 17be fa0f 92bf 9c38 833e
000002f0: a020 d4be e23b 603f 78fe cc3e 589c 483e
00000300: 8268 27c0 1be0 a5bf 6ddb cdbf fcb4 88bf
00000310: 7023 ecbf e7e0 b2bf 7279 3bbf f05a 43bc
00000320: 9682 993d d558 38bf f4c1 0fc0 c8ed b3bf
00000330: 6f50 03c0 050b bbbf 8f27 42bf cd55 c2bf
00000340: 08f3 92bf e042 83bc b0ec 4cbf 7918 fbbe
00000350: d768 99bf 4f75 d73d dd3f 56bf baac debf
00000360: a4d8 9fbf 4013 b5be 4cd9 1cbf 7ca0 06bf
00000370: 599d 52bf b04d 8fbf 3589 6fbf ca3f 54c0
00000380: 878a 41bf 42a8 fe3e d9c1 df3e 0165 91bf
00000390: 2c22 09bf 3c2c 4cbf 649c 76bf ec2a 91bf
000003a0: c3a7 7fbe 1817 bdbd 3732 573f 8c99 e8bf
000003b0: b32f 9abf 7832 8abf 24a2 19be a89f 8abf
000003c0: 4db7 b4bf cb72 dfbf 8d16 5bbd 3cc4 7f3e
000003d0: 7fdb fbbf 548d c93c 81db 82bf ce8b debf
000003e0: 1936 a8bf 6e23 60bf 1b1e 963f 697b 92bf
000003f0: e0b7 89bf a536 f8bf 30f8 c4bf 9dc2 a5bc
