exp1/simple_ddpg_ic3net.pt (torch_old, 160062 bytes, 12 tensors)

weight f4 [64, 9]
00000000: 68d5 1f3e c4ad a13d 1ad6 1a3f 4c7c 5b3f
00000010: f020 7dbf 9d36 84bf 7f47 91bf 1c8a 9cbf
00000020: e67d 90bf d837 0bbd 26c0 b3bd 10fc 3c3d
00000030: 9f83 9a3f c3d3 38bf 99cf 43bf 9c7b 33bf
00000040: 1f75 96bf bc8c 2dbf d88a c73d c7c1 1abd
00000050: 14f9 7dbf 91df 1b3e cc7d 9ebf a3f9 98bf
00000060: 7352 a3bf fb3a 95bf 8f98 98bf 6e9d dd3d
00000070: 4471 3f3c f713 1f3f 4757 693f 7d00 8fbf
00000080: cac1 83bf 119f 96bf 6a6a 9abf 9f6b 88bf
00000090: 1159 33be 698d 003e 1ea0 28bf 073e 36bf
000000a0: 7e7b a4bf 0665 b0bf 62a3 a9bf 7f21 9cbf
000000b0: 9bcb b7bf 2d27 d83b 1542 c83d 5e56 46bc
000000c0: 2582 cc3d 3889 12bf e1f3 cfbe 65f1 d5be
000000d0: 488f 16bf 029c d9be aa57 013d 006a d23d
000000e0: 1c73 a7bd 7dcc a0bf a929 5fbf 4ec6 5cbf
000000f0: 0841 60bf 971a 53bf 364d 6dbf c286 e6bd
00000100: d8e5 a7bd d9d3 85be 92f2 18be f99f 49bf
00000110: b917 44bf aeb4 41bf 263a 42bf eb6e 11bf
00000120: d12b 053c 799e d3bc f320 043e 61b2 0f3c
00000130: 3ed7 f7be b437 c4be 0b4a d8be 054a c1be
00000140: 7d15 f1be 5cd5 333c fcb8 fc3c 64f4 edbc
00000150: 7c19 a5bc e934 133d a5ba 26be aa21 a5be
00000160: 526b 1d3b 4397 3d3e 7469 34bd 357d 0abe
00000170: f5fc bb3d 649d cb3f 2acc 9abe 90d7 a2be
00000180: 2501 8fbe 2a31 bdbe 19c2 5bbe d9e0 14bd
00000190: b47e e6bd 7e7b 033d 70de 943f 3185 8fbf
000001a0: e422 8abf 4c49 88bf bd67 38bf 0b80 81bf
000001b0: 6fa5 07be 32c7 703d 442a 923f 2df9 1bbe
000001c0: f97a 85bf 81b9 8fbf 89ef 98be 3f59 86bf
000001d0: 03d7 86bf c6ac dbba 350f 0bbc 3644 123d
000001e0: 752a 5bbd c364 afbe a1e5 cdbe 9884 d7be
000001f0: cb55 b2be 3e31 90be 7ec1 bf3e 426f 3c3e
00000200: 958b a63e 1405 49bd bef9 1ebf a08b 21bf
00000210: fca8 4fbf 359c 4bbf b486 27bf 9715 2dbd
00000220: 3c03 b03d 3526 803f bdef 05be 5b18 86bf
00000230: 246f 8bbf 0061 74bf 1a1b 83bf b141 8bbf
00000240: 83b0 913d 826e 1f3e d375 0cbf cf52 5ebd
00000250: d721 8fbf 873a 80bf 011c 66bf a40b 7bbf
00000260: 414b 85bf 6c39 71bd fd3d f1bd 70df 6d3d
00000270: bbde b43f 36ba eebe 7c2b fcbe 1a21 e0be
00000280: c970 09bf 66c9 c9be 25b3 293e 03f6 453d
00000290: c588 d43d e9db d7bc 97a8 20bf 5626 0abf
000002a0: b513 e5be 46f9 1fbf f8ae 23bf 555e cb3d
000002b0: bb80 9dbc 15a8 a33d 6599 b1bc 5968 80be
000002c0: 0b25 63be e17c 93be e766 8fbe f650 50be
000002d0: b432 913d 2921 30b9 2811 ba3e c6bc 32be
000002e0: a4d5 8dbf 74b3 62bf 4957 44bf bdc0 8bbf
000002f0: 488d 64bf 4b25 1b3d 1687 ce3d d382 c3bd
00000300: 4aa6 a6bf 4205 07bf ff06 01bf c9d6 09bf
00000310: fca5 f1be f8b1 15bf 3d41 3bbc e780 9c3d
00000320: 3f32 f6bb 8f22 00bf fc77 84bf 5f11 68bf
00000330: 04c8 7dbf af87 42bf 6698 59bf 225f 213d
00000340: 93c8 b03c 9b43 ccbc 99b3 ae3e f598 87bf
00000350: c66a 87be 90d0 69bf a35e 74bf 1f8e 91bf
00000360: 55fe c63c fed9 c23d 0843 a2bd 0d91 91bf
00000370: f9d1 bcbe 2123 b9be 8f65 c5be 35a0 a6be
00000380: ac3f dbbe b3ed 8cbb c505 46bd ff04 303b
00000390: 48c7 f1bb 2948 debc 1209 18bd 388a 4abd
000003a0: 0f99 81bd 7ec6 91bd 86c5 2a3e 63d8 373e
000003b0: f742 63bf 58a7 7d3b f641 43bf d4f3 8ebf
000003c0: 9749 78bf ee7e 94bf 6a8e a2bf a546 babe
000003d0: eeee 9abd fd0d 2ebf 5340 25bf 92dd a9bf
000003e0: 8e31 abbf 7d5c 95bf 91fd 78bf 4bec 7abf
000003f0: 592d 46bd 75ed 373c 37d1 32bd 0512 78bf
0.15608752 0.07894471 0.60482943 0.85736537 -0.98878384 -1.0329167 -1.1349944 -1.2229648
-1.1288421 -0.033988804 -0.08776884 0.046138823 1.2071418 -0.7219812 -0.76488644 -0.7011049
-1.1754493 -0.6779287 0.09743279 -0.037782457 -0.9920819 0.15222003 -1.238214 -1.1951183
-1.2759537 -1.1658624 -1.1921557 0.10821043 0.0116847195 0.6213984 0.911488 -1.1172024
-1.0293515 -1.1767293 -1.2063725 -1.0657843 -0.17514445 0.12553944 -0.6586932 -0.71188396
-1.2850187 -1.378083 -1.3252985 -1.2197722 -1.435901 0.006596467 0.09778229 -0.0121055525
0.099857606 -0.5724063 -0.40615752 -0.41785732 -0.5881238 -0.42501837 0.031577744 0.10274124
-0.08176252 -1.2562405 -0.87172943 -0.8624009 -0.8759923 -0.8246245 -0.9269594 -0.11256172
-0.08198136 -0.2613819 -0.14936283 -0.78759724 -0.765987 -0.7566632 -0.7586998 -0.5680987
0.008128122 -0.025832402 0.12903194 0.008770556 -0.48406404 -0.38323748 -0.4224399 -0.37751785
-0.47086707 0.010976162 0.030849926 -0.029047199 -0.020153753 0.03593913 -0.16282137 -0.32252246
0.0024020267 0.18514733 -0.04404588 -0.13524325 0.09179107 1.5907407 -0.3023389 -0.31805086
-0.2793056 -0.36951572 -0.21460761 -0.036347244 -0.112546355 0.032100193 1.1630383 -1.1212522
-1.0791898 -1.0647368 -0.7203329 -1.0117201 -0.13246702 0.058783717 1.1419148 -0.15231772
-1.0428153 -1.1228486 -0.2987025 -1.0495986 -1.0534366 -0.0016759865 -0.008487512 0.035709582
-0.053507287 -0.34256563 -0.40214255 -0.42093349 -0.3483108 -0.2816257 0.3745231 0.18401816
0.32528368 -0.04907711 -0.62099826 -0.63103676 -0.81117225 -0.7953523 -0.65439916 -0.042256918
0.08594367 1.001166 -0.13079734 -1.0476183 -1.0893292 -0.9546051 -1.0242646 -1.0879422
0.07113745 0.15569499 -0.54867285 -0.05427819 -1.1182202 -1.0017861 -0.8988648 -0.9806464
-1.0413591 -0.058892652 -0.117794015 0.058074415 1.4130472 -0.46626443 -0.49251926 -0.43775254
-0.5368772 -0.39411467 0.16572244 0.04833032 0.10377649 -0.026349979 -0.6275725 -0.53964746
-0.44741598 -0.62489736 -0.63938856 0.09930102 -0.019226423 0.079910435 -0.02167959 -0.2507961
-0.221821 -0.28806213 -0.28008196 -0.20343384 0.07089749 -0.00016797021 0.36341214 -0.17454824
-1.1080823 -0.88555074 -0.76695687 -1.0918194 -0.8927808 0.037877362 0.10084359 -0.09546437
-1.3019497 -0.527424 -0.504013 -0.5384336 -0.4719695 -0.58474684 -0.011429128 0.07641774
-0.007513314 -0.5005273 -1.0349116 -0.90651506 -0.99133325 -0.75988287 -0.84998167 0.039397366
0.021580016 -0.02493458 0.34121397 -1.0593554 -0.2644865 -0.91333866 -0.95456904 -1.1371497
0.024291197 0.09514235 -0.079229414 -1.1372391 -0.36878946 -0.36159614 -0.38554046 -0.32544103
-0.42822015 -0.004300797 -0.048345346 0.0026858447 -0.0073784925 -0.027134018 -0.037118025 -0.049448222
-0.06328022 -0.071179375 0.16676912 0.17953639 -0.88774055 0.003870448 -0.76272523 -1.116816
-0.9698729 -1.1601236 -1.2699711 -0.36382023 -0.075651035 -0.67990094 -0.64551276 -1.3270743
-1.3374498 -1.166885 -0.9726191 -0.98016804 -0.04838309 0.011226048 -0.043656554 -0.96902496

bias f4 [64]
00000000: e30c cabf e36f a0bf 060d bfbf 4101 8fbf
00000010: 8d50 8ebf b00b 80be 9c12 57bf 49b1 37bf
00000020: 3695 05be f0ca b8be 2ae5 26be 8170 9cbf
00000030: b68c 85bf d79e 57bd 0d81 15bf 3af2 dfbf
00000040: 1eec 65bf 8789 23bf 6fe9 a5be ca7a 4dbe
00000050: e0f5 55bf 9429 30bf db61 aabf 3b3d 83bf
00000060: b175 b0be edeb 83bd 4bd1 c9bf 0549 c8bf
00000070: c931 b9bf 90a0 afbe 4c80 9bbf 5b55 b2bf
00000080: 9281 92bf be6f abbf ae63 cbbf 3428 c53c
00000090: 6eb7 2abe dfd9 dcbd 9618 bdbc 31f8 dcbd
000000a0: d878 33bf 38d9 3dbf 844b 85bf 5078 e6bd
000000b0: 602e ebbd 45bb a43d 9c56 abbe 0e2d 6abf
000000c0: ab96 6bbf 36f5 b3bf 4f57 3dbf b595 8ebf
000000d0: cea6 63bf a423 b0be 504f 0fbf d644 16be
000000e0: b320 c4be 3263 b4bf bfb8 aebf 1228 88be
000000f0: b8cc 54bf ad75 02bf 541a bfbe d079 b3bf
-1.5785183 -1.2534145 -1.492585 -1.1172258 -1.1118332 -0.25008917 -0.8401277 -0.7175489
-0.130452 -0.3609233 -0.16298357 -1.2221833 -1.0433567 -0.052641716 -0.5840004 -1.7495797
-0.8981341 -0.63881725 -0.32404658 -0.20066372 -0.835783 -0.68813443 -1.3311113 -1.0253061
-0.3446479 -0.06441484 -1.5766996 -1.5647284 -1.4468318 -0.34302187 -1.2148528 -1.3932298
-1.1445792 -1.3393476 -1.5889795 0.024067022 -0.16671535 -0.10783743 -0.023083013 -0.10789526
-0.7010627 -0.74159575 -1.041367 -0.112534165 -0.11483455 0.08043531 -0.33464515 -0.91475
-0.92026776 -1.4059207 -0.7396135 -1.1139437 -0.889264 -0.34402192 -0.55980396 -0.14674696
-0.38306198 -1.4092772 -1.365013 -0.2659307 -0.83124876 -0.5096081 -0.37324774 -1.4021549

weight f4 [1, 64]
00000000: a722 abbe fa98 08bf 8fa9 99bf a041 92be
00000010: b10c 5bbe f406 42bc 6244 1fbf 4016 4cbd
00000020: 45c4 d339 d8c5 8a3d 84c8 1cbf 71cb 08bf
00000030: e24f bbbe bbe6 b8bc 8aaf bfbd 0f92 92bf
00000040: c9d0 95be 3e54 1dbf 71f6 54bd 170a a3ba
00000050: 578b 44be 93be 14bf d759 2ebf a730 07bc
00000060: 4c5d c9be d0d1 123e a9d9 66be 1e11 47be
00000070: c225 6dbf 9e29 0eba d51f 28bf 169c 5cbf
00000080: f2f1 31bf 51a1 fcbd 3091 15bf f4d1 0a3a
00000090: be2c 80be e521 1ebd 8e0a b83b 61d1 b13a
000000a0: 4801 72bd 0572 17bf 43e2 1abf 2e0a 25bf
000000b0: ce84 393d 8d9c ab37 e7ec a7bc 3fe1 45be
000000c0: b385 c5be 4ce8 44bf 9e93 2fbf 5a4a 50be
000000d0: b7db 20bf f12c 913c 6818 23bf 818f 24bf
000000e0: 8724 493b a88a 43bf 86f1 60bf ee27 5ebe
000000f0: a058 7dbe 775e b6bd ece9 2cbf 61ce 3bbf
-0.33424875 -0.53358424 -1.200487 -0.28565693 -0.2139156 -0.011842478 -0.6221372 -0.049825907
0.00040391288 0.06776017 -0.6124346 -0.53435427 -0.36584383 -0.022570958 -0.09359653 -1.1450824
-0.29260853 -0.6145667 -0.051992837 -0.001243892 -0.19193779 -0.58103293 -0.68105835 -0.008251346
-0.39328992 0.1433785 -0.22543968 -0.19440123 -0.9263574 -0.00054230716 -0.6567357 -0.8617567
-0.69509804 -0.12335456 -0.58424664 0.00052955677 -0.25034136 -0.038606543 0.0056164926 0.0013566428
-0.059083253 -0.59158355 -0.605015 -0.6446866 0.045292668 2.0457688e-05 -0.020498706 -0.19324206
-0.38578567 -0.76916957 -0.6858462 -0.20340863 -0.6283526 0.017721625 -0.63709116 -0.6428147
0.0030691938 -0.7638345 -0.87868536 -0.2169492 -0.24740839 -0.089047365 -0.67544436 -0.73361784

weight f4 [5, 64]
00000000: 1a2d 66bd 2e52 84bd 3215 293e 868b 9bbe
00000010: 1442 84bd 7e66 b53d 91a8 f73d 1c07 363d
00000020: eea9 e0bd beba 73be a23c 3cbc 2e0c 873e
00000030: b266 8dbe e788 75bd b959 93be 8acb 743c
00000040: 62fe e83a d9b1 86bd 85c3 993e 95b9 a3bd
00000050: 9966 d63d 2cd7 403e 403b 89bc d86a 78bd
00000060: 15a8 8cbe da52 3c3e 180e 483c b60d c1bc
00000070: 5293 59bd 67d3 2abd 0aa5 483d 1516 b53d
00000080: cf29 d5bd 285c 88bd c04e 0c3e fe3b 46bd
00000090: 58bc d33d 7b6d 0ebe 9cda f7ba 81b9 443d
000000a0: a6f5 afbd e2b7 b23d 38b0 9abd 4ffd 6dbc
000000b0: 1eb5 d5bd 60a8 b8bd b78c e63b 703b 043d
000000c0: 0a90 473d fdd5 e53c 259a 16be 9ed2 bd3d
000000d0: 508e 193b dd22 833d 6c05 83bc 1f30 24bd
000000e0: aa9b 6abd 1a63 24be 4c14 163d 1535 273d
000000f0: f3e5 74be 6b64 9d3d 0597 3dbe fddb 98bd
00000100: eae5 8b3e f3ba 52bd 8312 903e 606f f4bd
00000110: a8fd 193d 364d d5bb b21c f23c ccd8 f33d
00000120: 8cda a7be bcd5 2fbe 1040 713e 988f 003e
00000130: 535f b73c 8fbc a6bd 6f5f bfbd b3af 703a
00000140: e316 9d3a 5d35 d13e 050a 0e3e e029 a0bc
00000150: 5c23 17bd 5fd6 fabc 43ed 743c 27ff 293b
00000160: e5ae b9be 3735 09bd 9d7e acbc 8d73 e33d
00000170: acd3 b53d 0ca7 213e 43b9 913d c193 c8bd
00000180: 8048 9b3e 5909 bc3c 412e 813e 883b 3dbe
00000190: 81e2 04be 793d f13d adfc 363b 9cbe 0cbe
000001a0: d4a0 58bd 2b7f bc3d 2f4e 113e adee 89bc
000001b0: de18 cabd 5570 99bd 7fe6 72bd 6d97 c23c
000001c0: 21b2 ff3c 83a6 643d 1848 d23b 7316 31bd
000001d0: d1cf 67bc dad5 c2bb c0e4 bfbd dbff a3bd
000001e0: 5945 51bb 25b7 41bc 0256 40be 18c8 b03c
000001f0: 24e7 aabe 59c9 a13d 15cb 943c 3dc0 343d
00000200: 6fd1 9bbe f389 fc3e d5e0 0e3d 06d8 3cbd
00000210: d054 babb 6f68 05bc af06 ed3b e5c1 823d
00000220: e2be e2bc fbc0 2fbd 5103 f43d 1cb8 6d3e
00000230: 5635 d83e 75c7 82bd b5ca 86be fcdd b4bb
00000240: f23b 9f3d d8f5 31be 2ea1 b53d 4e11 4b3e
00000250: 1f7a 233d f659 70be 90fc c6bc 94c6 883e
00000260: e5cb d33e 3a6c 14be 210a a63c 21ec 76bc
00000270: b25f 993d 0230 f6bd e730 babd 1ec7 28bb
00000280: c6a5 583d 1fce 9fbc 657f 53be 87cb f33c
00000290: 5f78 0a3e ae68 893e 5c2c 32bb 18cb b13d
000002a0: b596 7ebd dae1 843d 6698 533d 10d9 44bc
000002b0: d03c 9a3d 14ba 543d 9843 41bd 4614 d13c
000002c0: 7ad5 74bd 4794 bebb 5146 fd3d 3b8c 2c3e
000002d0: 214f 9dbc 280d d53c e44a 983d ebf4 99bd
000002e0: 5848 bdbd 0cbf e6bc d477 393e 9479 483d
000002f0: 2de8 623e 4f01 8c3d 0cd8 bbbd f3f7 633f
00000300: 1218 163f 4ad6 043e 6c7c bbbe 0bc9 6b3d
00000310: df7a 18bc 79b5 d2bc 21e0 7cbe 9228 20be
00000320: 555f 8c3e da06 3d3e 56cb 87bd 02dc c0be
00000330: 358d 013e 0d94 98bd 68f4 6ebe 618b c8bc
00000340: df49 a83d b511 303e c704 bfbc 6605 ea3c
00000350: 4f92 da3d fbdf 1c3e bdcb debd 2c6c 88be
00000360: ad1c 61be 7267 963d fda8 bebd 3497 0bbe
00000370: 4c35 c9bd 4fd8 dc3d eb5e 07bd 7c67 e3bb
00000380: 1155 28be e9bf 7fb9 22b9 1b3d b9ca 713e
00000390: a840 26be 284d 7e3d b14b 3f3b 96a6 1a3e
000003a0: 1a23 83bd 1f0e a83e 4a9d 243d 85de 9dbc
000003b0: 2446 973d 8598 c33d 163f 75bd 788c a83c
000003c0: 6cfb bcbb 593c 3fbd 80b3 13be c28a 83bd
000003d0: 941d 22bc 755a a03c e0a9 703e 16df c2bd
000003e0: 2f5f f6bd 834f 21bd 2712 503e bc5f 3f3d
000003f0: d3ce 96bc 5a06 2fbe adf7 e93d 5c23 61be
-0.056195356 -0.06460987 0.16511992 -0.30379885 -0.06457916 0.088574395 0.12092698 0.044440374
-0.109699115 -0.23801705 -0.011489065 0.2637648 -0.27617413 -0.059945013 -0.2877939 0.014941106
0.0017776007 -0.065768905 0.30031982 -0.07994381 0.10468788 0.18832082 -0.016751885 -0.06064877
-0.27471986 0.1839098 0.012210391 -0.023566108 -0.05311901 -0.041705515 0.04898552 0.088421024
-0.10408365 -0.066582024 0.13701916 -0.048397057 0.10338658 -0.13908951 -0.0018909755 0.048028473
-0.085917756 0.08726479 -0.07553142 -0.0145257255 -0.10434936 -0.0901649 0.0070358175 0.032283247
0.04872135 0.02805614 -0.14707239 0.09268688 0.0023430772 0.06403134 -0.015993796 -0.040084954
-0.05727736 -0.16053429 0.03664045 0.040822107 -0.23915844 0.07685169 -0.1851464 -0.074638344
0.27323848 -0.05144782 0.28139123 -0.119353056 0.03759542 -0.0065094484 0.029554699 0.11906585
-0.32783926 -0.17171377 0.23559594 0.12554777 0.022384321 -0.081414334 -0.093443744 0.00091814547
0.001198497 0.40861025 0.1387101 -0.019551218 -0.036898956 -0.030619798 0.014949146 0.0025939436
-0.36266246 -0.033498015 -0.021056468 0.11106024 0.08878264 0.1578638 0.07115414 -0.09793807
0.3032875 0.022953676 0.252306 -0.1847974 -0.1297703 0.11779303 0.0027921603 -0.13744587
-0.052887753 0.09203943 0.14189981 -0.016837442 -0.09868024 -0.07492129 -0.05930185 0.023753846
0.031212868 0.05582286 0.0064172857 -0.0432343 -0.014148668 -0.0059459032 -0.093698025 -0.08007785
-0.0031932204 -0.01182345 -0.1878281 0.021579787 -0.3337947 0.07899732 0.018163243 0.044128645
-0.30433223 0.49323997 0.034882385 -0.046104454 -0.00568638 -0.008142575 0.0072334628 0.06384639
-0.02767891 -0.04290865 0.11914695 0.23214763 0.42228192 -0.063857 -0.26326528 -0.0055196267
0.077751055 -0.17378938 0.08868633 0.1983082 0.039911386 -0.23471817 -0.024290353 0.26714003
0.41366497 -0.1449441 0.020268502 -0.015070946 0.074889556 -0.120208755 -0.09091359 -0.0025753449
0.05289247 -0.019507466 -0.20654066 0.029760135 0.1352248 0.26837677 -0.0027187085 0.08681315
-0.062155444 0.0648839 0.05165901 -0.012014642 0.0753113 0.05193527 -0.047183603 0.025522362
-0.0597739 -0.005816016 0.123669274 0.16850369 -0.01920277 0.02600725 0.07436159 -0.075174175
-0.09242314 -0.02816727 0.18112117 0.04894407 0.2215888 0.06836187 -0.09172067 0.89050215
0.5863048 0.1297237 -0.36618364 0.057564776 -0.0093066385 -0.025721299 -0.24694873 -0.15640476
0.27416483 0.18459645 -0.0663058 -0.37667853 0.12651522 -0.074501134 -0.23335421 -0.024480524
0.08217215 0.17194255 -0.023317708 0.028567027 0.106724374 0.15319817 -0.10878704 -0.2664503
-0.21983595 0.073439494 -0.09309576 -0.13631898 -0.09824619 0.10783445 -0.033049505 -0.0069398265
-0.164387 -0.00024390187 0.038018353 0.23612489 -0.16235602 0.0620853 0.0029189403 0.1510261
-0.064031795 0.32823274 0.040189065 -0.019271145 0.07386425 0.09550575 -0.059874617 0.020574793
-0.0057672765 -0.04668841 -0.14423943 -0.0642295 -0.009894747 0.019574383 0.23502302 -0.095152065
-0.120298736 -0.03938247 0.20319425 0.04672216 -0.018409168 -0.17092267 0.114241935 -0.21986145

bias f4 [5]
00000000: e518 a0bc 83b5 f3bc ab8b 003d 1802 d83c
00000010: 8009 0bbc
-0.01954312 -0.029749637 0.031383198 0.026368186 -0.008486152

weight f4 [64, 4]
00000000: 37fc 7bbc 5d5d fcbc 9008 5f3c 756c bf3e
00000010: 0e42 a73c 9db8 6a3d b714 3abd a25c 2bbf
00000020: 0ad8 823c e476 13bb ede0 03be 53cd 8a3c
00000030: 22f8 943d 45b6 893b b057 663c e48f 11bc
00000040: b872 61bc 63d5 ebbc 83c5 193c 753d 923e
00000050: 2aec 6e3c bbf4 f03a a609 43bd fccc b43b
00000060: b9f4 5cbc 426c eebc a2b1 143c 5223 963e
00000070: 927f fa3c d591 78bc 3cbc 973a 6f44 813d
00000080: 29c7 033d d877 0abe 6fb3 823a e7f1 2c3c
00000090: 6346 eabc 86c1 283b 0103 563e 0199 f1bc
000000a0: 3045 443c f0a9 863b 91b6 b83d b347 e33d
000000b0: 898b 9c3c 0396 903c 3018 0ebe 4bf3 66be
000000c0: 572a c1ba cbba 90bb 1dcb 993b b536 73b9
000000d0: 5b11 6eba 866a 74ba 2973 e63a 4d34 8fba
000000e0: 77d1 693c 8eaf 0c3c 3b18 973c 4785 843c
000000f0: 9079 0e3d 56df 44ba 8661 79be b94e 0c3d
00000100: 90fc 24bb efaf 4fbc 1b50 7f3c eeaf 623e
00000110: 10a9 9a3b 00ec d63b 8fff c1bb b5af a0bd
00000120: a0ea b7b9 9a34 98b9 ecfe 833c 183d 43bb
00000130: 5606 6abb b7d5 a03a 47a3 7dbb 1674 5dbc
00000140: fc37 213e 8af0 a63d a8b3 2e3d d920 b03d
00000150: 66b8 cbbc 27c0 753c ac52 693e 810d 0ebd
00000160: a79a 50bc 515d 103c ffd9 d7bd 2eab f4bd
00000170: 0392 62bc 5119 a0bc fdf7 0c3c 8b8b 7a3e
00000180: 645c febc 2cba 283a c5c4 a03e 4e4b 2ebd
00000190: 8989 3ebc 6d5b e1bc 0cf3 8a3c 2976 973e
000001a0: 447d cf3a 13be a53c 27a4 8bbc 6614 81be
000001b0: 99f3 eebc 84d0 fd3b 18cc 8d3e d157 12bd
000001c0: 2da7 b23b 2819 f43c cf4d 8b3d 53d4 4abd
000001d0: 787c bd3a 4ada c73a c057 70bc 8db4 263b
000001e0: 8fee 0abc 16c8 b4bb bac7 2abd 1a9a 0bbc
000001f0: 7a52 513c 4b44 173d afa4 b2bc feab d0be
00000200: cbb9 533c fdfd 3bba d2e6 bebd 21ad 553c
00000210: 5f8a 9cbb b962 9d3b dcf6 743e 7ce5 bb3c
00000220: 9713 553c 34da 16ba c9dc c53d 0757 093e
00000230: e9c6 0cba 8e7d 7639 5af9 513a 0e51 eabb
00000240: 113b a2bc 254a b63a 899b 2e3e c006 253c
00000250: 959f 103c 959c 3b3c 2b35 49bc 7b1f 3fbe
00000260: 2caa 63bc fc94 b4bc 28a9 3a3c 27ed a33e
00000270: 73c5 a8ba a95f 833c 328e 41bc 9db8 3cbe
00000280: 8134 84bb fbf1 fc3b 858b 983a 64d8 ac3b
00000290: 2ca0 44bb 72e5 883b 55d5 7c3b 16a0 763d
000002a0: 6247 6eb9 ca16 11b9 d271 bd3a 5c38 c9bb
000002b0: 59d4 a2bc 9586 f4ba a785 c639 a0e4 fdbb
000002c0: 5252 ccbc 0daf 7a3c d210 2bbe e7cd 34be
000002d0: 2975 05bc 8cb2 84bc d72a f63b 2148 3a3e
000002e0: eeb6 193c 04c6 5f3b d852 b1bd 991f d1bc
000002f0: 503c 58bc 2148 bcbc bf93 163c 54d7 9f3e
00000300: a91d 0f3d 2368 a53b 6252 f3bd 6187 6fbd
00000310: 2df9 08bd 3797 0c3c 96d4 993e 3558 21bd
00000320: aefc 423c cf63 89bc fdc5 3ebd 2e61 61be
00000330: 1bb2 38bc 7925 cbbc 4f2c fc3b 937f 793e
00000340: 166b 323a fcde 073c b7ab 9fbb eef6 a8bd
00000350: e876 3abc 6ede a23a 320d e3bb 0323 69bd
00000360: c1ce 21bc 1cd7 133c 248f 74bc 8789 bcbd
00000370: a8d1 6abc 3f65 0dbd 7d29 b53b 71f4 8b3e
00000380: 9c25 02bc 9ebb 063c 56a9 4bbd 0376 0ebd
00000390: b458 bfbc 6a7e d4bb 480d 2a3c c89e 47bd
000003a0: 0350 4b3c c80f e5b7 5edb 4fbd 42eb d6bb
000003b0: ed5f 80bc 3e4d cdbc a070 5b3c 61ea b43e
000003c0: 79d0 3abc bea1 aabc 13f6 bc3d fd08 b9bc
000003d0: 85d8 f1bc 227c 64b9 a0d4 a53e e447 52bd
000003e0: 0df8 44bc 8e76 d33b cf16 a4bb 4e3f 07be
000003f0: 521c 09bd 8f1b 963b 2ed9 b43e 0b71 47bd
-0.015379957 -0.030806238 0.013612881 0.37387434 0.02041724 0.057304967 -0.04542991 -0.6693822
0.015972156 -0.0022501284 -0.12878771 0.01694361 0.0727389 0.0042026364 0.014058992 -0.008884404
-0.013760261 -0.028788274 0.009385469 0.28562513 0.014582673 0.0018383482 -0.047616623 0.0055176
-0.013486081 -0.029104356 0.009075554 0.29323822 0.030578408 -0.015171488 0.0011576484 0.06311881
0.032172356 -0.1352228 0.0009971688 0.010555721 -0.028598016 0.0025750115 0.20899583 -0.029491903
0.011979386 0.0041096136 0.09019197 0.1109766 0.019109504 0.017649656 -0.13876414 -0.22553746
-0.001473735 -0.0044167987 0.0046934024 -0.00023194666 -0.00090815657 -0.00093237346 0.0017581928 -0.0010925621
0.014271132 0.008586777 0.018444171 0.016176833 0.0347839 -0.0007510086 -0.24353608 0.034254763
-0.0025174953 -0.012676223 0.0155830635 0.22137424 0.004719861 0.006558895 -0.0059203575 -0.078460135
-0.0003507929 -0.0002903089 0.016112767 -0.0029791053 -0.0035709343 0.0012270723 -0.0038702057 -0.013516447
0.15744013 0.08151348 0.042651802 0.08600015 -0.024868201 0.014999426 0.22785443 -0.034680847
-0.0127321845 0.008811311 -0.10539626 -0.119467124 -0.013828757 -0.019543322 0.008604047 0.24467294
-0.031049915 0.0006436433 0.31400123 -0.042552285 -0.011629471 -0.027509416 0.016961597 0.29582337
0.0015830179 0.020232236 -0.017046047 -0.25210875 -0.02916889 0.0077458043 0.27694774 -0.03572828
0.005452058 0.029797152 0.0680195 -0.049518894 0.001445665 0.001524755 -0.014669359 0.0025437206
-0.008479728 -0.005517016 -0.04169438 -0.008520627 0.012776012 0.036930364 -0.021807043 -0.4075622
0.012922714 -0.0007171331 -0.09321369 0.013041765 -0.0047772373 0.0048030284 0.23922294 0.022936575
0.013005159 -0.00057545607 0.09661252 0.13412105 -0.0005370216 0.00023507161 0.00080098736 -0.0071507758
-0.019803556 0.0013907595 0.1705152 0.01007241 0.00882711 0.011450906 -0.012280743 -0.18664353
-0.013895553 -0.022043698 0.011392869 0.3201687 -0.0012876227 0.016036825 -0.011813687 -0.184298
-0.0040345793 0.007719276 0.001163826 0.005274819 -0.0030002696 0.0041777426 0.0038579304 0.060211264
-0.00022724041 -0.00013836767 0.0014453477 -0.0061407518 -0.019876646 -0.0018655831 0.00037865082 -0.0077482015
-0.024941597 0.015300524 -0.16705635 -0.1765667 -0.008145609 -0.016198419 0.007512431 0.18191577
0.009381993 0.0034145126 -0.08658379 -0.025527762 -0.013197973 -0.022983612 0.009190499 0.3121897
0.034940396 0.0050478145 -0.11880948 -0.058478717 -0.033440758 0.008580974 0.30045003 -0.03939076
0.011901064 -0.016771225 -0.046575535 -0.22009727 -0.011272932 -0.024798142 0.0076957117 0.24365072
0.0006806118 0.00829291 -0.004872765 -0.08250223 -0.0113808885 0.0012425908 -0.0069290632 -0.056918155
-0.009875954 0.009023454 -0.0149267055 -0.09205919 -0.0143322125 -0.034520384 0.0055286274 0.27334931
-0.007943537 0.008223442 -0.04972204 -0.034780513 -0.023357727 -0.0064847963 0.010379143 -0.04873541
0.012409213 -2.7306276e-05 -0.050746314 -0.0065588066 -0.015670741 -0.025061246 0.013393551 0.35335067
-0.011402243 -0.020829078 0.092266224 -0.022587294 -0.02952219 -0.00021790017 0.32388783 -0.05133809
-0.012022031 0.006453342 -0.005007602 -0.13207743 -0.033474274 0.004580922 0.35321945 -0.04869179

bias f4 [64]
00000000: 1e1b 1dbf 3018 6a3e d5cf 413d 6d62 0cbe
00000010: 938a 04bf 989a 443d 4a0d 08bf 62d9 b3be
00000020: d318 6fbe 4e8e 3fbd c329 86be 7c2c c9be
00000030: 2543 e7bc 37f4 2bbc 09bf d7bd 1ebd 853e
00000040: a5e0 6a3c 1cce c93d ecc3 5dbd f03a 0abd
00000050: b1a7 fdbe ef5a b7be 2fbc 9c3c 1982 9dbe
00000060: 6c06 f5be fa93 8dbd bfcc b43d dbe7 00bf
00000070: 0cde f6be aab7 78bd 8df2 26be 1dc2 c23d
00000080: 6d22 143e c88d 743e 9026 a1be 2569 b9bc
00000090: 8c41 773d f949 9bbc 3e02 ccbe d3f7 db3d
000000a0: dbad debc b34d 52be f202 f4bc 1c84 a3bc
000000b0: f265 bebd 3de4 a7be 460f e5bd e2f8 e7be
000000c0: 73ef f03c 64dc 0bbf 79d7 10bf c218 e2be
000000d0: caad 9a3d e2d9 8a3d 3c37 c23d 4d2e 0fbf
000000e0: 1e87 6cbd e6ff 95bd 7c68 a4bd 8963 f7be
000000f0: 93c7 dcbe 4494 d2be 7d45 743e 70e4 0abf
-0.613695 0.2286079 0.047317345 -0.13709421 -0.5177395 0.047998995 -0.5314528 -0.35126787
-0.23349313 -0.04676657 -0.26203737 -0.3929175 -0.02823026 -0.010495237 -0.10534484 0.26120847
0.014335786 0.09853765 -0.054141924 -0.033747613 -0.49542 -0.35811564 0.019132702 -0.3076332
-0.47856462 -0.0691299 0.08828115 -0.50353783 -0.48216283 -0.06072203 -0.16303463 0.095096804
0.14466257 0.2388221 -0.31474733 -0.022633145 0.060365245 -0.018956171 -0.3984546 0.10740628
-0.02718251 -0.20537452 -0.02978656 -0.019960456 -0.09296788 -0.3279132 -0.11184554 -0.4530707
0.029411053 -0.54633164 -0.56578785 -0.44159514 0.07552679 0.06779839 0.09483191 -0.55930024
-0.057746045 -0.073241994 -0.08027741 -0.48318127 -0.43121013 -0.41128743 0.23854633 -0.5425482

weight_ih f4 [256, 64]
00000000: 8d32 a9bc adc8 3abe e55b 2d3e 8cec 85bc
00000010: 6bf0 90be ea76 693e bde2 f9bd 6058 3f3d
00000020: 6f1b 2cba 4d66 823e 79b8 8dbd f169 563e
00000030: 2458 353e c7d2 893d 8566 283e ab86 473e
00000040: 93b6 933e 7ca0 e1bd a345 6d3e 8c9d 1dbe
00000050: 38e3 adbd f3ff 133d 5e15 9dbd c584 a1bd
00000060: 66e4 8dbd b90e a53e 14d7 38be 6aea 13bd
00000070: 442d 333d 24be 903d f9d4 80bd 7338 0f3b
00000080: 7536 543e 4aeb 9f3e c4c8 233d fc8f db3b
00000090: 537e 8e3e 8fe6 743e 1924 b8bc ffc2 e13d
000000a0: 47a9 113e 2fc5 43bd 60fd 343e ecf5 be3d
000000b0: 365f bdbd 779b d6bd 23d7 a13c f18f 13be
000000c0: 65b4 e13c 1a99 eebd 8aee e23d 12bb 8cbe
000000d0: ff59 f7bd 4c37 e0bd 82cb 4dbe 2173 85bd
000000e0: 40a1 913e c592 613d d09a 14bc 0381 89be
000000f0: c633 ac3d a51b ea3c 3700 bdbb e8d9 24bd
00000100: ce74 f53d 07a4 babd 6893 cebb d87b cdbd
00000110: 188f 2bbe 5f81 2dbe 3a2f 5ebd 442f eebd
00000120: cf49 ed3d 6377 7a3e 2b03 a0bb 268b 0b3d
00000130: 83a8 d13d 4442 d63c 9988 aa3d e9e1 8dbe
00000140: eaaf a63d 6679 da3d 70df 933d 35b8 f23c
00000150: 5453 a4bd d0a7 a53d 8a57 5abe 22d2 85be
00000160: d221 adbd 13e8 cebd be5f e83c 0b10 b3bd
00000170: 2c80 75bd 1db0 843b 1d4e 8ebd 5575 463d
00000180: 8f22 803d 0fde 7c3e 3ca1 71be 1ff5 213d
00000190: c09f bf3e dc36 83bd 4a32 aebd 6888 463d
000001a0: ff70 f63b 57ee 683c 97a6 713c 6a46 e93c
000001b0: 62d3 c5bb 855f 85bd 97ea 933c cf8d 7fbd
000001c0: e76a 1c3d c810 0bbe 5e2b 72bd e348 c1bd
000001d0: 0a73 c2bd 9bc1 6e3d 50d2 cd3d b791 3b3e
000001e0: 2dee bc3c a2f0 303e 5d58 453d 0ab9 093d
000001f0: 8366 243c 2fc8 913c 4f4c 883d 1d3e 6abd
00000200: 448f 323e 8e27 84be 82a4 d63c e0e0 a63d
00000210: 58c6 1cbe 1945 c83d 5366 6dbe 7c88 883d
00000220: 7dd6 e63d a419 113e 244a 143d 1aac 943c
00000230: 05dd 333e 09a0 1fbd b87f 863d 1f06 683d
00000240: f0fe c33e 396c 32be 423a a6bd cc81 6fbc
00000250: f40e 4abd 0ab4 9c3c 7775 34be df2a 1d3c
00000260: 9b22 71bd 4775 a33e 6c50 53be e74d acbc
00000270: e861 c13d ed5e e13c 2833 65bc 5b5b 48be
00000280: b4d5 933c 6656 213d eb48 3cbb f92d 9ebd
00000290: 9b4c cf3d 7c3f b3bd 4369 51bc 0765 47be
000002a0: 5967 913e f131 3d3e d34c 7e3d 13f4 febd
000002b0: e5bf 30be 8d18 2ebc 4e0e 073e eb9a ecbd
000002c0: b06d 3c3e 0407 c93d 2a48 de3d 3607 7ebe
000002d0: 438d 5e3c 0c08 25be e7b1 fbbd 1a52 77bd
000002e0: 0dda b93a 6952 873c f03d 16be 197f 8d3e
000002f0: 521b bebc 51ff 493e 0334 88be 639a 103e
00000300: d7a8 35be 80f4 513a 8fe4 c0bc 6fba 17bd
00000310: 4a1b 6fbc b763 9c3d 2b5a 08ba 30aa 0d3c
00000320: fb7a 24bc f6ea 84bd 8480 bc3d 1488 8b3c
00000330: 0e10 9c3d 8aa9 b7bd 0c7d d7bd c08a 503c
00000340: 6d2e ac3c f867 d2bd 7b1f 6e3c 3ee5 dabd
00000350: da5d d43d 8c17 003e b37d 8bbd e644 0c3e
00000360: 7f20 be3d d8bb 103e cc42 06be 0991 f2bd
00000370: e87d 8cbd f690 28bd 5f7c ecbc 0cf4 06bd
00000380: 59b0 9ebd a58a 18be 5f8d bebd 11f2 d13a
00000390: 549d dd3a 513b be3c 1791 a6bb eede 92bd
000003a0: caea e13d 6146 bcbd 435d 7d3c ae41 aabd
000003b0: 5d22 b2bc 0385 49bd 3cc6 33bc 92de 203e
000003c0: 7f86 83bd 5735 b1bc aa67 21bd bd79 cc3c
000003d0: 83b5 43bc 52a3 37be ff07 a93c c468 f83b
000003e0: 5362 eabd b093 35bd 6217 2dbe b15f 383e
000003f0: f60d 993d a6d5 50bc 96f3 66bb d821 c73c
-0.020653987 -0.18240614 0.16929586 -0.016348146 -0.28308424 0.22799268 -0.1220145 0.04671514
-0.0006565367 0.25468674 -0.06919951 0.20938851 0.17709404 0.06729656 0.16445358 0.19484966
0.2885023 -0.11016938 0.23171096 -0.1539213 -0.08490604 0.036132764 -0.07670091 -0.07886652
-0.06928329 0.32237795 -0.18050796 -0.036112227 0.04374434 0.070675164 -0.06290621 0.0021853715
0.20723899 0.312342 0.039986387 0.006700514 0.27830753 0.23916076 -0.02247815 0.11023521
0.1422473 -0.04779547 0.1767478 0.093242496 -0.09246676 -0.10478871 0.019755905 -0.14410378
0.02755184 -0.116502956 0.11080654 -0.27486473 -0.12077712 -0.10948047 -0.20097163 -0.065161
0.28443336 0.05507161 -0.009070113 -0.2685624 0.084083125 0.028577635 -0.005767848 -0.040246874
0.11985169 -0.09113317 -0.0063041933 -0.10033387 -0.16753805 -0.16943882 -0.054244258 -0.11630109
0.115863435 0.24459605 -0.00488319 0.03406825 0.10237219 0.026154645 0.08326835 -0.27711418
0.08139022 0.10667686 0.07220352 0.029628852 -0.08023706 0.08088648 -0.21322456 -0.2613688
-0.08453716 -0.101028584 0.028365966 -0.08743294 -0.059936687 0.0040493147 -0.06948493 0.04845174
0.062565915 0.24694084 -0.23596662 0.039540406 0.37426567 -0.06406948 -0.085056856 0.04846993
0.0075207944 0.014216981 0.014749191 0.028475959 -0.0060371617 -0.065123595 0.018056197 -0.0623911
0.038187888 -0.1358062 -0.05912339 -0.0943773 -0.09494598 0.058290105 0.100498796 0.18317305
0.02306279 0.17279294 0.048179973 0.033623733 0.010034206 0.01779565 0.0665518 -0.057188142
0.17437464 -0.25811428 0.02620149 0.0814836 -0.15310037 0.09778804 -0.23183565 0.06666657
0.11271379 0.14169937 0.03620352 0.01814847 0.17564781 -0.03897098 0.06567329 0.056646463
0.3828044 -0.17424096 -0.081165805 -0.014618348 -0.049330667 0.019128818 -0.17622934 0.009592741
-0.058870893 0.31925413 -0.20636147 -0.02103324 0.09442502 0.027511084 -0.013989247 -0.195661
0.018046238 0.039389037 -0.0028729986 -0.07723612 0.10122033 -0.08752343 -0.012781444 -0.19472133
0.2839916 0.18476082 0.062084984 -0.12448897 -0.17260702 -0.010625971 0.1318905 -0.11552986
0.18401217 0.09815791 0.10853608 -0.24807438 0.013583484 -0.16116351 -0.122897916 -0.060381033
0.0014179364 0.016518788 -0.14672065 0.2763603 -0.023206387 0.19726302 -0.26602182 0.14121394
-0.17740189 0.00080091506 -0.023546485 -0.03704303 -0.014593909 0.076362066 -0.00052014244 0.008646533
-0.010039086 -0.06490128 0.092042 0.01703266 0.0762025 -0.08967884 -0.10521898 0.012728393
0.021018231 -0.10273737 0.014533873 -0.10688256 0.10369463 0.12508982 -0.068110846 0.13698158
0.09283542 0.14134157 -0.13111418 -0.118440695 -0.06859952 -0.04115387 -0.028867899 -0.032947585
-0.077484794 -0.14896639 -0.09304308 0.0016017576 0.0016907849 0.023221644 -0.005083214 -0.07171427
0.110311106 -0.09193111 0.01546413 -0.08313309 -0.021744901 -0.049199115 -0.010972556 0.15709904
-0.064221375 -0.02163188 -0.039405502 0.024960393 -0.011945131 -0.17933396 0.020633696 0.0075808484
-0.11444535 -0.0443303 -0.16903451 0.18005253 0.07473366 -0.01274625 -0.0035240403 0.02430813

weight_hh f4 [256, 64]
00000000: 408d cebd 10da 9d3d 78cf 7f3d 9084 d4bc
00000010: a898 ad3c a4df c6bd d863 ec3d 00a5 6bbc
00000020: 609d f1bd ae1a 8dbd 9044 93bc 9044 033c
00000030: f087 d53c 4ef7 e5bd 8096 e83d 1ab8 cabd
00000040: 889c 09bd c81d e9bd 9c43 893d 8009 8e3a
00000050: f4b1 f43d 424d e23d 6841 b1bd 0817 bf3c
00000060: f815 ebbc 90c9 893d 48bc 35bd 845f eebd
00000070: 4090 52bd 50d6 433c 00c5 2abc e0aa aabb
00000080: 62cc 9b3d 48b0 843c 484d b5bc d6e6 c8bd
00000090: a08d 413c 3064 6a3d 40e3 7ebd 6eec 96bd
000000a0: 3664 b63d 1200 e5bd d49a 03bd 68b8 bebc
000000b0: d0b7 883d 3c10 d23d 203a d93c 2aaa 923d
000000c0: b2d1 c33d 787c 31bd 0075 6d3b cc82 6a3d
000000d0: 6a75 a8bd e87c db3d c01f d33c c4f1 a9bd
000000e0: 4887 9ebc c05c 123c fc18 c4bd cc2c 24bd
000000f0: fcc9 dabd 00c8 a23c 4c74 55bd 3050 663d
00000100: 4218 e3bd 4823 1a3d 346b 3f3d 0ace 82bd
00000110: 20e3 d2bc ec4a 21bd c0ad 20bd 685f 073d
00000120: 3092 583c eab9 8a3d daff b0bd 8c22 aebd
00000130: 96f8 8bbd 2853 eebd 40e2 673b 809c c43c
00000140: 504d 223d c4a8 c33d b807 5ebd 005e 353b
00000150: 4816 c1bc f0f6 ac3c 0023 5cbb bcc1 083d
00000160: 24f5 693d aec3 c2bd b812 d93d 4052 713c
00000170: 581a 29bd 90db 6bbc 3061 c1bd 5c54 02bd
00000180: 7401 443d bc80 653d b67a e2bd 94ff 1ebd
00000190: 8645 943d 9ea3 b53d 90ed 9c3d 5eee de3d
000001a0: 8c5c 64bd 7809 f2bc 805c 7a3c 0079 4d3a
000001b0: 6ef9 c4bd baf5 c23d 2af5 cbbd 5098 61bc
000001c0: 1a50 8cbd 7ca2 18bd 4859 a03d 6881 fd3c
000001d0: f640 9cbd 20f9 c73d 04f8 8e3d 88f3 2c3d
000001e0: 4034 663d 7c0b a63d f0d6 3b3d 6a29 c43d
000001f0: ced2 ed3d 5c2f 4a3d 5255 95bd a8a1 b2bc
00000200: e44c 54bd 9463 3c3d b0fe 44bc 00fb c4bc
00000210: 3049 203c e0de d83c 00a4 91b9 5a3d a93d
00000220: 84cc f13d 66ba b03d b0af af3d 10bc 5dbd
00000230: 54d6 67bd 6cfd 553d 3ef7 a03d 08f0 b63d
00000240: 005a e0bb 90dc 0bbc 740c a3bd 829b d73d
00000250: b8a2 babc b4b7 b83d 9e14 dcbd 4cd5 d03d
00000260: ea57 ab3d 1c6b 043d 3410 193d c62d febd
00000270: d4ed 93bd 3cba 28bd 8879 dbbc 4059 dd3c
00000280: 001e 97bd 16b1 da3d 38f3 503d ecf9 7ebd
00000290: fa29 cb3d 9895 7cbd 5e6a de3d f234 dbbd
000002a0: 249c bdbd 7895 f8bd 0eba fabd f895 063d
000002b0: 084a 15bd a627 dd3d 842d cfbd 1a32 983d
000002c0: f4b6 e5bd b65b 953d acc4 36bd c68d 95bd
000002d0: f4ce c0bd c8b7 58bd 802e 32bb 78ee 943c
000002e0: 10d6 813d 56f8 87bd d257 96bd 4c19 5e3d
000002f0: f8bb 2ebd 1ec6 bcbd f2c4 98bd 9898 3e3d
00000300: b0b1 503c d02b 04bd 681b afbc b44b 94bd
00000310: 301f 73bd 3665 a5bd 689f 1c3d c816 eebd
00000320: 1025 abbc 823d dd3d 665b fbbd 7c05 0d3d
00000330: 58f2 983d 4caf 2bbd b008 38bd 686d c2bd
00000340: dcc0 943d e099 83bb 102c 4f3d 202a a2bd
00000350: 4644 cebd 2010 cb3c 52c4 8abd e8a8 6ebd
00000360: 1032 2d3d 76f3 b73d 2aa3 bd3d 9cf1 3d3d
00000370: c065 e93d 7002 e73c 40c9 ef3d 0090 3d3c
00000380: 6096 d53c 48ea d13c 98b0 c13c 5a99 853d
00000390: 2694 9b3d 689a a1bc be70 e43d 9c9d 0d3d
000003a0: 2c52 553d e0bd bdbc 10f8 fbbd 90cc ef3c
000003b0: 5cae c4bd 1c7a d0bd 0046 c839 10fd d13d
000003c0: 04c9 273d 64ad 5b3d f810 1bbd 1c15 fd3d
000003d0: e867 853c cc05 7ebd 5ecd eb3d 3cc4 643d
000003e0: 80b2 27bc e8d3 a23c 1a93 b9bd 449f b0bd
000003f0: e487 51bd 5c0e d0bd b8b3 e53d 98b4 dfbd
-0.10085535 0.07707608 0.062453717 -0.025942117 0.021190956 -0.09710625 0.11542481 -0.014382601
-0.11797595 -0.06889854 -0.01797703 0.008011952 0.026065797 -0.1122881 0.113568306 -0.09898396
-0.033596545 -0.113826334 0.067023486 0.0010836571 0.11948004 0.11049892 -0.086550534 0.023326412
-0.028696999 0.06727898 -0.044369012 -0.11639312 -0.0514071 0.011952952 -0.010422945 -0.005208358
0.07607342 0.016197339 -0.022131577 -0.098096535 0.011813551 0.057224452 -0.06222844 -0.07369314
0.089058325 -0.11181654 -0.032130077 -0.023281291 0.066756845 0.10257003 0.026516974 0.071613625
0.095614806 -0.043331593 0.0036233068 0.057253644 -0.0822552 0.10717183 0.025771976 -0.08298066
-0.019351617 0.008933246 -0.09575078 -0.040081784 -0.10683057 0.019870758 -0.052112862 0.056228817
-0.11088611 0.037631303 0.046733096 -0.06386955 -0.025743067 -0.03937809 -0.0392282 0.03304997
0.013218448 0.067737415 -0.0864255 -0.08502683 -0.068345234 -0.116369545 0.0035382658 0.024000406
0.039624512 0.09553674 -0.05420658 0.0027674437 -0.023570195 0.021113843 -0.0033590198 0.033387884
0.05711855 -0.09509979 0.105992734 0.014729083 -0.04128489 -0.0143956095 -0.09442365 -0.031818733
0.04785295 0.056030974 -0.110585615 -0.038817957 0.07239823 0.08869098 0.07662499 0.10885309
-0.055752322 -0.02954553 0.015280843 0.000783816 -0.096178874 0.09519525 -0.09958871 -0.013769224
-0.06851216 -0.037264332 0.07829529 0.030945495 -0.07629578 0.09764314 0.06980899 0.042224437
0.056202173 0.08107659 0.045859277 0.095782116 0.116124734 0.04936157 -0.07291664 -0.0218056
-0.05183114 0.045993403 -0.012023613 -0.024045467 0.009783074 0.026473463 -0.00027778745 0.08263655
0.118065864 0.08629303 0.085784316 -0.05413443 -0.056600884 0.052243635 0.07859658 0.08932501
-0.0068466663 -0.008536473 -0.079613596 0.10527708 -0.022782668 0.090194136 -0.1074612 0.10196933
0.08366378 0.03232871 0.037368968 -0.12411074 -0.072230965 -0.041193232 -0.026791349 0.027020097
-0.07378769 0.10678308 0.0510132 -0.062250063 0.09920116 -0.0616661 0.10860132 -0.10703458
-0.09258297 -0.12137884 -0.12242518 0.032857865 -0.036447555 0.10798578 -0.10116103 0.07431431
-0.11216536 0.07292883 -0.044621155 -0.07302432 -0.09414473 -0.052909642 -0.002718836 0.018180117
0.06339657 -0.06639163 -0.07340969 0.054223344 -0.04265973 -0.09217475 -0.07459439 0.046532243
0.0127376765 -0.032268345 -0.021375373 -0.07241002 -0.059355915 -0.08075945 0.03823796 -0.11625439
-0.020891696 0.10802747 -0.12273292 0.03442906 0.074680984 -0.041915223 -0.04493016 -0.09493524
0.072633475 -0.004016146 0.05057913 -0.07918191 -0.10071616 0.024787962 -0.067757264 -0.05826655
0.04228407 0.08981983 0.09259637 0.046372995 0.113963604 0.028199404 0.11708307 0.011569977
0.026072681 0.02562441 0.023643777 0.0652339 0.075966164 -0.019726947 0.11154316 0.034574136
0.05208032 -0.023161829 -0.123031735 0.029272348 -0.09603569 -0.101795405 0.00038199127 0.10253346
0.040963188 0.053632155 -0.03785798 0.12357542 0.016284898 -0.062017247 0.1151378 0.055851206
-0.010235429 0.019876435 -0.090612605 -0.086241275 -0.051154986 -0.10158989 0.11215919 -0.109231174

bias_ih f4 [256]
00000000: fca4 bf3e b4e0 663d 479a f2bb a255 12be
00000010: a46c 16be 48bc 85be 4a7c 2bbe f4a6 97bd
00000020: 6b05 083e 6fbd f73b 8b96 25bd 4cbf 5ebd
00000030: 42e1 873e f7a6 52be e91f 8c3d 92f0 2bbe
00000040: 08f0 0bbd c8ad 553d 6916 c6bd 3e0c 13bc
00000050: 13b6 11be 0208 f5bc f5b9 5bbe 8b4e ea3c
00000060: ee49 933e a972 d6bd 6d61 1ebe 09d1 6fbd
00000070: a2a7 43be 1cd5 873c 50ee 19be 7314 44bd
00000080: edbb cd3c 4b30 bc3c 6304 bdbd 4faf ca3d
00000090: ea8c 893d 25f7 b63d 1f12 9dbd f762 723d
000000a0: 879b 00be b39c acbd b758 1dbc c91f 07be
000000b0: b936 07be 0ead a8bc b19d 3bbe c5c6 a1bd
000000c0: cc91 17bd c59a b7bd 0f87 713c d789 b0bd
000000d0: d816 95bd bad5 00be b4a2 b93d 7ab7 30be
000000e0: 7fd2 003c 6421 54be d6b7 533d c661 4cbe
000000f0: c605 d33c 164a dfbd bc17 b3bd 24af be3e
00000100: 6060 4b3c 50aa c2bc 9441 0d3d 0838 273d
00000110: 5afe d73d 9eb0 fe3d c40d 96bd a0a1 963d
00000120: 3aa1 d83d 60f8 eabc 90a4 953c 00db a7bd
00000130: 34ab 46bd c8cb a3bd c8e7 08bd 007a 13ba
00000140: 8607 9ebd ba7c 813d 0002 95bd 9834 52bd
00000150: 669d 88bd a891 c13d 306b cbbc 087a cebc
00000160: 38ba 9c3d 30ad 43bd ced1 a33d f017 c43c
00000170: 685b e73c 9a9f a3bd a069 193d e494 c73d
00000180: 1efd e2bd d81d cebc b04b c4bc c0bc 663b
00000190: 600e 2c3d 18f0 c1bd ba14 b53d 3804 38bd
000001a0: d285 b93d fa58 83bd 34f5 40bd ee81 8e3d
000001b0: 841d 9a3d 90c6 0a3c a26b cdbd 385a 1dbd
000001c0: 462c a53d e25c 963d 90fa e4bc 18cb 8abd
000001d0: 3cab b4bd 7c9d 63bd 8c94 70bd d8e7 b1bc
000001e0: b861 aebd 18ba c13c 4207 f6bd 4c5e 70bd
000001f0: f864 d43d 7a37 85bd 007e 56ba 5287 a1bd
00000200: 9a19 bf3d c30d adbd f156 bfbd 0ee9 b5bc
00000210: c4b9 e4bd ac52 4ebb ed7f 503c 1d79 b83d
00000220: 82ed 04be a69f 803d 3c9a b93d c75f a93d
00000230: 4061 133d 425c 15bd a6fc 84bd 8f70 853d
00000240: d925 3f3d 1de1 7a3d a057 cc3d 51ab 113c
00000250: 4f1e e03d 3584 adbc 87d1 5c3d 32e3 3cbd
00000260: 0a9c 83bd 644e 413d 399c 6a3c e0eb 3d3d
00000270: eb31 f5bd ce91 d33c b270 3a3d 176e 83bc
00000280: f99d 94bd ead9 843d d5a4 bc3d 4c84 82bd
00000290: ada6 4fbd 8de4 74bd 2aea 743c ac76 c83d
000002a0: 9cda 0dbd 22ab 583c 3053 843c 6db2 32bd
000002b0: d1b6 5d3d 925b 30bb 0c30 fe3b 5503 223d
000002c0: 9ab6 843d 53d1 b73c b881 3cbc 7252 4cbd
000002d0: 715e 9f3d 011e c2bc 00d9 8bbd 1a81 a1bd
000002e0: e11f a9bd 2e7d 5ebc 9c85 d7bd 88aa 4abd
000002f0: 4624 21bc 506b daba 52ea 0ebb edfb 94bd
00000300: 4714 bb3e 42b7 343e cb68 b53d cac7 283d
00000310: 8e3c 64be 630d 79be fdc0 823c 720c 0fbe
00000320: 9ef3 433e e70e 1cbe 27e3 ce3d 3ad8 9fbc
00000330: b89f 8d3e 2d4d 3bbd 5864 5ebd 6320 b7bd
00000340: ad46 37bd 0333 e73d 9471 993d c2d9 1dbe
00000350: de3c f93c ab8d b03d 5b19 4cbe 809c ba3d
00000360: cf8d a63e 5e04 923c d9c3 3ebe 39da 01bd
00000370: 2eca 7ebd 4a89 743d 8d45 10bd 0800 753c
00000380: cdb6 8f3c 520a 3cbe a179 443c 7b16 f1bd
00000390: c386 08bc 58ec 7d3d ea2d e0bb 9abe 0ebe
000003a0: 207b a4bd a901 4fbe a3c2 93bd f616 46be
000003b0: 7009 eabd b9f2 ccbd 4b91 cdbd d1c2 e9bd
000003c0: 1f0f d1bc b96a 52be 8d68 13be 2b3a 6b3d
000003d0: 761b 64bd ef3d b6bd 5b39 bdbd 8ab6 89bc
000003e0: 10e0 25be f0e8 5cbe 8be8 273d c841 fd3c
000003f0: 1dea 4e3e 4791 4abe b6a7 77bc 80d8 ae3e
0.3743056 0.056366637 -0.007403645 -0.14290479 -0.1468988 -0.2612021 -0.16746631 -0.07404891
0.13283317 0.007560424 -0.040426772 -0.054381654 0.26539046 -0.20571505 0.06842024 -0.16790989
-0.03416446 0.052167684 -0.09672243 -0.008975087 -0.14229612 -0.029911045 -0.21457656 0.028601905
0.2876734 -0.104710884 -0.15466852 -0.05854896 -0.19106916 0.01658111 -0.15032315 -0.047871064
0.025114024 0.022972247 -0.09229352 0.09896719 0.0671633 0.08933858 -0.07669472 0.05917641
-0.12559329 -0.084283255 -0.009603671 -0.13195719 -0.13204469 -0.020590331 -0.18321873 -0.078992404
-0.037004277 -0.08965067 0.014741673 -0.08620041 -0.07279748 -0.1258153 0.09064236 -0.17257491
0.007862686 -0.20715863 0.05168899 -0.19959173 0.025759589 -0.10902803 -0.08744761 0.37242997
0.012413114 -0.023762852 0.03448637 0.04082492 0.105465606 0.12436031 -0.07326844 0.07355046
0.105776265 -0.028682888 0.018266946 -0.08196068 -0.048503116 -0.079978526 -0.03342417 -0.00056257844
-0.07716279 0.06322618 -0.07275772 -0.05131969 -0.06670646 0.0945161 -0.024831384 -0.025204673
0.07652706 -0.047772586 0.079990014 0.023937196 0.028241828 -0.07989426 0.037454247 0.097451955
-0.110834345 -0.025160715 -0.023961872 0.0035207719 0.042005897 -0.094696224 0.08841844 -0.0449259
0.09058727 -0.06413455 -0.047108844 0.06958376 0.07525161 0.008470193 -0.10030295 -0.038416117
0.08065085 0.07341935 -0.027951509 -0.06777018 -0.08821723 -0.05557011 -0.058735415 -0.021716997
-0.08514732 0.023648307 -0.12013103 -0.05868368 0.10370821 -0.06504722 -0.00081822276 -0.078871384
0.09331055 -0.084498905 -0.09342755 -0.022205856 -0.111682445 -0.0031482382 0.012725812 0.090074755
-0.12981227 0.062804505 0.09062621 0.08270221 0.035981417 -0.036464937 -0.06493501 0.065156095
0.046666954 0.06124984 0.09977651 0.008890943 0.10943281 -0.021181205 0.05391076 -0.046115108
-0.064262465 0.0471939 0.014319473 0.046367526 -0.11972412 0.025826361 0.04551763 -0.016043706
-0.072566934 0.06486876 0.09211127 -0.0637289 -0.050696064 -0.059788276 0.014948407 0.0978826
-0.03463231 0.013224395 0.016152948 -0.04362719 0.054129425 -0.002691005 0.0077571925 0.03955396
0.06480141 0.02243868 -0.011505537 -0.049883313 0.07781685 -0.023695948 -0.06828499 -0.07885952
-0.082580335 -0.01357965 -0.10523531 -0.049479038 -0.009835308 -0.0016664062 -0.0021807146 -0.072746135
0.36538908 0.17648032 0.08857878 0.04120616 -0.22288725 -0.24321513 0.015961165 -0.13969591
0.19135901 -0.1524006 0.101019196 -0.019512285 0.27660918 -0.045727897 -0.054294914 -0.08941724
-0.044745136 0.112890266 0.074923664 -0.154151 0.030424532 0.08620771 -0.19931547 0.09111881
0.32530066 0.017824348 -0.18629397 -0.031702254 -0.062204532 0.05970124 -0.03522258 0.014953621
0.01754322 -0.18363312 0.011991889 -0.11771866 -0.008332911 0.061992973 -0.006841411 -0.13939896
-0.08031297 -0.20215477 -0.072148584 -0.19344696 -0.11427581 -0.10007233 -0.10037478 -0.114141114
-0.025519906 -0.20548524 -0.14395352 0.05742852 -0.05569025 -0.08898532 -0.09239455 -0.016810674
-0.16198754 -0.21573234 0.040993255 0.030915156 0.20206495 -0.19781981 -0.015115669 0.3414955

bias_hh f4 [256]
00000000: 9788 583e 16af 133e 53fe 223d 33cf 903a
00000010: 9b72 3abe ec09 81be 153e 38bc f87e 8abd
00000020: 14b6 de3d 3814 23be aa7f 94bd a144 e939
00000030: f614 453e fd75 66bd 7109 8a3d c0cd 13be
00000040: bc7f 3cbd 62b2 e63b 5500 27bd 3f12 b23c
00000050: 532b 06be 422c d13d 3942 8ebe 8113 8abd
00000060: 6445 b53e 606b 613d cd23 2abe b33e 1fbe
00000070: a2ce 20be d823 c43c 7c9b 9cbd eb69 a6ba
00000080: 3ef2 c33b 53ae 39bd 5238 83bd af02 fc3d
00000090: c1a8 1b3c 0f8f f83d 7b6e 52bd 0a9e fdbd
000000a0: 71c2 1fbe b15e c5bd bd5a ffbd 0476 bb3c
000000b0: 8261 463c 65b6 21be 395d 47bd e4a5 01be
000000c0: 790a 68bc d6e4 3abe 3edc ccbd 304e a3bd
000000d0: 8906 0fbe 1c92 34be ea81 54bd 5179 40be
000000e0: c829 11bd 76b0 71bd 50c4 b5bd 68a1 0bbe
000000f0: 3041 c33d 9aea cabd 63b1 643c d1e7 883e
00000100: 60a5 eabc 58d1 04bd 70a0 3cbc 9a2a babd
00000110: 8a9b 81bd 400d 823d be28 c9bd e080 7d3d
00000120: f078 683d 0895 95bd ccbd 07bd f474 653d
00000130: 920b d73d 2433 fe3d e079 c5bc 5e5a b63d
00000140: 404d 36bd 3265 f9bd 4454 fe3d e466 abbd
00000150: 8090 61bb a084 e9bc 0421 d6bd 0009 8f3a
00000160: 9e2d f5bd 904a c1bc 1004 1dbc 2216 e2bd
00000170: 7c61 323d 7450 95bd c881 ee3c be22 d73d
00000180: 2c65 12bd f856 8abc 909b 1c3d 9c70 f93d
00000190: 9853 0f3d b0c3 023d fce8 343d baa3 a53d
000001a0: 38e9 753d 3253 fc3d 9c5b 0bbd 5469 e63d
000001b0: 60a8 5b3d 6ca3 d4bd 4097 2abb 2cc8 6abd
000001c0: 4833 c9bc e477 a93d 7464 45bd 9808 463d
000001d0: 30ac 95bd 8870 423d 403e 0e3d 58cc 95bc
000001e0: c808 b03d b0e5 50bc 886e b7bd 749b a5bd
000001f0: 0ef7 eb3d a8e3 cebd d425 963d 701c c6bd
00000200: c7b1 713d d671 323d 0630 023e a35e c4bd
00000210: 53a4 f83d 54c8 4b3c 1877 54bb e742 d4bd
00000220: 15c1 24bc 3e49 a53c ee95 a9bd d502 c7bd
00000230: 6fac bcbd 4ade 55bd 323d 84bd f46e 84bd
00000240: 4567 38bd 2242 9dbd 1fa7 69bd ff16 13bd
00000250: b943 d5bd 6bef 8f3d 4ef9 473c 060d 533c
00000260: 5ede 2cbd bfaf 4e3d 65cd ac3d 3499 fa3c
00000270: 4bad c33d 9896 433d 68ad aa3d 2c0d a0bd
00000280: ef11 25bb 1fb8 86bd cf18 d5bd 6906 5ebd
00000290: d0dd c2bc b755 1dbd 1c4f 66bd 263a ae3c
000002a0: a22f 68bd 80f0 143c 5067 733d 053c 803c
000002b0: 4c80 c2bd 8c4d 973d 8fd5 1f3d e6e6 52bc
000002c0: 6949 28bc 8710 323d 258f d2bc 5431 95bd
000002d0: a880 66bd 8999 47bd 51a3 953c 96b4 c43d
000002e0: 7dcc 653d 9bc2 84bd b337 75bd 2c19 593b
000002f0: 385c 9abd 55df f3bb 3b43 eb3c 2318 023d
00000300: 72de 983e 0c99 2f3e 5dfe 273d ee19 9a3c
00000310: 3ff9 a3bd c83f 02be d830 de3c 2b58 df3c
00000320: 6962 2c3e 445c f13c 28e3 8abd 5b3a 37bd
00000330: 5487 523e 602f 54be db8d a53d 4137 8cbd
00000340: f517 34be 7bbd adbd 5ee6 d4bd 43c0 363d
00000350: d1ad febd 4165 94bd 7978 10be 1212 1a3d
00000360: 4fe8 283e f6aa af3d fca5 f9bd 5a93 cfbd
00000370: d642 58be 418d 473c be97 57be 789b 0ebe
00000380: 2049 583e 72ff 093d f357 013d 0499 69bd
00000390: 600c 73bd cc32 babc fee5 8bbd fc01 683d
000003a0: b085 6cbe 9279 2bbe fa83 00bc b31e 33be
000003b0: 3ad1 f73c 0acc 8abd 1763 35be d337 16be
000003c0: 35f0 e6bc 0a66 81be ae5b a73d 94a4 803d
000003d0: d390 1fbe 1bd1 07be 8cdf 13bd b457 82be
000003e0: fc82 01be 21e8 30be 60d5 3dbd a243 1bbe
000003f0: bcb2 9a3d 2397 84bd 9e63 903d 8b6f 943e
0.21145855 0.14422259 0.039793324 0.0011048078 -0.18207781 -0.25202882 -0.01124527 -0.067624986
0.108745724 -0.15925682 -0.072509125 0.00044492356 0.19246277 -0.056264866 0.06740082 -0.14433956
-0.046020254 0.007040308 -0.0407718 0.021737216 -0.13102464 0.1021352 -0.277849 -0.06742001
0.35404503 0.05503404 -0.1661522 -0.15551262 -0.15703824 0.023942873 -0.07646844 -0.0012696361
0.0059798053 -0.045332264 -0.064072266 0.12305199 0.009500683 0.12136661 -0.051374894 -0.12383659
-0.15601517 -0.096372016 -0.12468479 0.022883423 0.012108209 -0.15792234 -0.04867289 -0.12660939
-0.014162653 -0.18251356 -0.10002945 -0.079738975 -0.13967337 -0.17633861 -0.05188171 -0.18796279
-0.035440236 -0.059006177 -0.08875334 -0.1363579 0.09533918 -0.09908028 0.013958308 0.26739362
-0.02864331 -0.03242621 -0.011512861 -0.09090157 -0.06328495 0.063501835 -0.09822224 0.061890483
0.05675596 -0.07303816 -0.03313999 0.05601974 0.10500254 0.12412098 -0.024105966 0.08903955
-0.044507265 -0.121775046 0.12418416 -0.08369234 -0.0034418404 -0.028505623 -0.10455516 0.0010912716
-0.119715914 -0.023595124 -0.009583488 -0.11039378 0.04355 -0.07290736 0.029114619 0.105046734
-0.035741016 -0.016887173 0.038234293 0.12179682 0.03499183 0.031924903 0.044167504 0.08087869
0.060036868 0.12320556 -0.034022912 0.112505585 0.05362737 -0.10382733 -0.0026030093 -0.057319805
-0.024560586 0.082748204 -0.048191503 0.04834804 -0.07308233 0.0474706 0.034727335 -0.018285915
0.08595425 -0.012750074 -0.08956629 -0.08086291 0.11521731 -0.10102016 0.07331434 -0.09673393
0.059007432 0.043565594 0.12713632 -0.09588363 0.12140717 0.012437899 -0.0032419618 -0.10364323
-0.0100558 0.020176526 -0.0828055 -0.09717337 -0.092125766 -0.052213944 -0.064569846 -0.06466475
-0.04502036 -0.076786295 -0.057044145 -0.035910603 -0.10413308 0.07028087 0.012205435 0.012881523
-0.042204253 0.050460573 0.084376134 0.030590631 0.095545374 0.04775104 0.08333856 -0.07815012
-0.0025187691 -0.06578087 -0.104051225 -0.054205332 -0.023787409 -0.038411822 -0.05622779 0.021267962
-0.05668605 0.009090543 0.0594247 0.01565362 -0.09497127 0.07387838 0.039022025 -0.012872433
-0.010271409 0.043472793 -0.025703022 -0.07284799 -0.05627504 -0.048730407 0.018266352 0.096047565
0.05610322 -0.064824305 -0.059867572 0.0033126576 -0.075371206 -0.0074423947 0.028718581 0.0317613
0.29857212 0.17148226 0.041014064 0.018811192 -0.08006524 -0.12719643 0.0271229 0.027263721
0.16834415 0.029462941 -0.06781608 -0.044733386 0.20559436 -0.20721197 0.080836974 -0.06846476
-0.17587264 -0.08483406 -0.103955016 0.04461695 -0.124354966 -0.07245875 -0.14108457 0.03761489
0.16494869 0.0857753 -0.12189862 -0.10135527 -0.21119246 0.012179674 -0.21053979 -0.13926494
0.21121645 0.033690877 0.031578016 -0.057030693 -0.059337974 -0.0227293 -0.06830977 0.056642517
-0.23097873 -0.16745594 -0.007843966 -0.1749218 0.030251134 -0.067771986 -0.17713581 -0.14669733
-0.028190712 -0.25273162 0.081717834 0.06281391 -0.1558259 -0.13263361 -0.036101863 -0.25457537
-0.12647623 -0.1727605 -0.04634607 -0.15162519 0.07553622 -0.064741395 0.070502505 0.2899135
