exp1/simple_reinforce_ic3net.pt (torch_old, 158739 bytes, 12 tensors)

weight f4 [64, 4]
00000000: ddfa feba a944 673e f1ef abbe dac5 1cbe
00000010: 850d 773e 4150 45bc 461d 82bd 1dee b3bd
00000020: a2a0 383e db90 c43e ec84 b6be dc5d bc3d
00000030: ed05 c7bd a462 213e b75d a53e eb8f a4bc
00000040: 54f8 c53d f31b 873d 019a d73b 8da0 0cbe
00000050: e01e 183c d683 b83d c605 413d c72e 943d
00000060: 0f9f 18be 486a 393c f899 3b3e d54f 1c3e
00000070: 2672 293d 4689 6bbe c2aa f9bc 2c24 de3d
00000080: fafc af3e cd99 193e 889c 9ebe 425b 0fbe
00000090: 47b4 533d 1ff9 f2bd fbba 97be f03d 11be
000000a0: 55e8 8f3e a2cc ed3d 6359 2abe 97e8 803e
000000b0: 68b1 c13d b710 38be 2e3f 64bd 3cb3 98bb
000000c0: 5093 5e3d 4640 debd f897 b93d 8e9c ebbc
000000d0: 7d99 393e 3e2b 23bd 8c35 0b3e 9a0a 03bd
000000e0: 5ad2 0fbe 8ab9 133c d7e1 123e d286 043e
000000f0: 7801 12bd 958f fe3d d99f 42bd 7cff b83d
00000100: 4aed c83d dfe2 a43c fa79 27bd f104 61be
00000110: 2793 2fbc 707c f33b 6292 7abc a87e f1bd
00000120: a310 b13e f8ed 5d3e c98a 2abe 5625 e7bc
00000130: a167 a1be 719e 2f3e 5777 ae3e 09ab dbbe
00000140: 7b56 53bd 8b8b 153e e320 4b3d ad50 623d
00000150: ce96 e7be 06be c2bd 061f e2be ac61 b6be
00000160: 12a8 b1bd 9a71 153d 741f b53d 59e8 323d
00000170: 25d2 503d fe8c 083e 03ac ae3c cb33 78bb
00000180: fe58 ae3c 944d c13d b966 1b3d 7b1f 323a
00000190: f74b b5be 126c 77be c861 37be 2865 ac3e
000001a0: a58e 393e ac59 953e 38d1 73be 375e 15bd
000001b0: fda3 963d 4a7c d53c c92c 13bd af66 c9bc
000001c0: bf0c 89bd 5164 da3c c810 463e c46a 0bbe
000001d0: b53d 98bd 8969 b83d 73a9 9cbd 0f89 813e
000001e0: 5862 7abc 4c49 1e3c d6c3 5c3d 39b0 933c
000001f0: 60c6 aabd 45f7 46bd 3e51 4abd d953 e03d
00000200: 27df 03be a537 efbd c799 9a3c 33ef 43bd
00000210: 6b8b 0dbd b035 72bd 64b4 fe3c 7c87 403c
00000220: bea1 363d 2d99 78be 64e8 d53b 40fa a83e
00000230: 6d0e 933e 7920 f73d dd1f 54bd 92dd 11be
00000240: 95ce ac3e 748e 903e 77f3 2cbe 539a ddbd
00000250: bc4f aebc d235 f4bc 6b64 77bc 79b9 2b3d
00000260: fc95 aa3d 61db 40be 6709 5abe 1383 883d
00000270: c71a 69bd b2a3 b7be 0162 06bd 0962 32ba
00000280: 5949 233c ccca 06be 8a4e 963d 3c9f 7cbc
00000290: 56c4 a03d b39f 99bd dc7a 073f db18 14be
000002a0: ff93 9e3d a00a 113d 2722 cebc a57d a23d
000002b0: 17ac 16bd b7e4 35bd 5e39 0d3c 2a47 51bc
000002c0: 0bd6 4a3e 512d c53d eb33 b33e 07c5 b7bd
000002d0: 4b89 d5bc 390d 383e 2f6b 743e e1c7 17be
000002e0: 13d2 61be 6ae2 4ebe 9f7d 9ebe f3a6 c53e
000002f0: 4c43 ca3c 3fd1 253c 935a 003d 28ec d73c
00000300: 7c78 cabd d30a 3a3e 85c4 f8ba 8874 d0be
00000310: dd2a 94be cef2 433e 4063 2abd cef7 4ebe
00000320: 0316 7c3e 6b0a 1fbd ff4e 96bd a9e5 4ebd
00000330: 68b2 4fbb 58c5 b5bd 7b50 343c b33a b8bc
00000340: d216 873e e17a 43be 1a30 da3e 3d90 823e
00000350: bc85 cabe d5f4 f03d ec7c cd3d 1a32 73be
00000360: 8e7c 853d c166 91bd 63f6 893d 6cf7 6f3c
00000370: 3f74 883e 6d1d 6e3e 4e26 1ebe 8da8 07bc
00000380: 6b0e 8fbd 1a10 3e3e 08c6 ddbd fc24 a0be
00000390: 24c4 023e db50 e0bc 5b80 44bd 0351 dc3c
000003a0: e01d 153d dbe0 0b3d 22d5 94be 506d 56be
000003b0: 3fb1 f13c 8c05 23bd 7de3 99b9 587b 9d3c
000003c0: 61a9 f63d 55b2 fe3d f221 61be 139f f03b
000003d0: 2b4b d9be 5607 a3be d1f9 a63e 61c7 ad3e
000003e0: 8dc0 563e 3460 a33d 24ab 58be 7913 92be
000003f0: 4682 65bd 1949 c63c 36bf 0d3e d4ae 3ebc
-0.0019453425 0.22584786 -0.33581498 -0.1530985 0.24126251 -0.01204306 -0.0635324 -0.08785651
0.18030027 0.38391766 -0.35648286 0.0919759 -0.09717927 0.15760285 0.3229806 -0.020088157
0.096665055 0.06597128 0.006579638 -0.1373312 0.009284705 0.09009521 0.047124647 0.072354846
-0.14904426 0.011316843 0.18320453 0.15264829 0.041368626 -0.23001584 -0.030476931 0.10846743
0.34372693 0.15000077 -0.309788 -0.13999656 0.051685598 -0.11863922 -0.29634842 -0.14183784
0.28106943 0.11611296 -0.16635661 0.25177452 0.09457666 -0.17975126 -0.055724315 -0.0046600383
0.054339707 -0.10852103 0.09062189 -0.028761175 0.18124957 -0.03983616 0.13594645 -0.031992532
-0.14045087 0.009016404 0.14343964 0.12942055 -0.035645932 0.1242973 -0.047515724 0.09033105
0.09810884 0.020127712 -0.04088781 -0.21974541 -0.010716236 0.0074306056 -0.015293689 -0.11791736
0.34583005 0.21672809 -0.16654505 -0.028216045 -0.31524375 0.17150284 0.34075424 -0.42903927
-0.051596146 0.14604013 0.04959191 0.05525272 -0.45232242 -0.095089 -0.44164294 -0.35621393
-0.08674635 0.036485292 0.0884389 0.043678615 0.05098166 0.13335034 0.021322256 -0.0037872668
0.02128267 0.09438625 0.03793976 0.0006794852 -0.3540952 -0.2416232 -0.17908394 0.33670926
0.18120821 0.29169977 -0.2381028 -0.036466803 0.07355497 0.026060242 -0.035931382 -0.024585096
-0.06691884 0.026659163 0.19342339 -0.13614947 -0.07433645 0.09004504 -0.076495074 0.2529988
-0.015282236 0.00966103 0.0538977 0.018028365 -0.08338618 -0.04857566 -0.049393885 0.10953493
-0.12878095 -0.11680535 0.018872155 -0.04783554 -0.034556787 -0.05913323 0.031091876 0.011751052
0.044587843 -0.24277182 0.0065279473 0.33003426 0.28721943 0.120667405 -0.0517882 -0.14244679
0.3375136 0.28233683 -0.1688975 -0.10820451 -0.021278255 -0.02981082 -0.015099625 0.041924927
0.083293885 -0.18833686 -0.21292649 0.066656254 -0.056910302 -0.35867077 -0.032808308 -0.00068047695
0.009966218 -0.13163298 0.07339199 -0.015418824 0.07849948 -0.07501163 0.52921844 -0.14462607
0.07743072 0.035410523 -0.02516277 0.07934121 -0.03678521 -0.044407573 0.008619634 -0.0127733145
0.19808213 0.09627784 0.35000548 -0.08973127 -0.026066443 0.17973794 0.23869012 -0.14822342
-0.22052793 -0.20203558 -0.30955216 0.38603935 0.024690293 0.010120689 0.03133638 0.026357725
-0.09886262 0.18168192 -0.0018979466 -0.40713906 -0.28938952 0.19135591 -0.04159856 -0.20211717
0.24617772 -0.038828295 -0.07339286 -0.05051199 -0.0031692032 -0.08875531 0.011005516 -0.022488927
0.26384598 -0.19089843 0.42614824 0.2550067 -0.39555156 0.11765448 0.100335926 -0.23749581
0.065178975 -0.07099677 0.06736448 0.014646392 0.2665119 0.23253413 -0.154443 -0.008279932
-0.06985172 0.1856083 -0.10828787 -0.31278217 0.12770134 -0.027382305 -0.04797397 0.026894098
0.036405444 0.034149986 -0.29068857 -0.20940137 0.029503463 -0.03980021 -0.00029351926 0.019223854
0.12044025 0.12436358 -0.21985605 0.007343182 -0.4244016 -0.31841534 0.3261247 0.33941177
0.2097189 0.07977334 -0.21159035 -0.2853048 -0.05603244 0.024204778 0.13842472 -0.011638362

bias f4 [64]
00000000: 6410 fa3e 0c3e 103f f1ee 3fbe 9159 f93e
00000010: 0c0c 183f ac27 0ebf 3a6d 843e 213a f03e
00000020: ba70 3e3f 79b4 303f fc19 6e3e 2f51 2d3f
00000030: 2f38 f3be 9119 313f d45d 3b3e 7ece f1be
00000040: 5a3e 3a3f 7c71 fabe 957e 0e3f e298 a2bd
00000050: 7679 c8be 5d32 b7bd eced aabe 4412 a0be
00000060: 3ce7 4dbe 53d0 8a3d 8ce8 de3e f982 433f
00000070: 8d84 d53d 8ea7 853e fb3f fdbd 6da8 163e
00000080: 9636 dcbe 9b2d c4be ab1b ed3d 31c9 fe3e
00000090: 8afe 0b3f 5963 b6be c65a 073f d307 b03e
000000a0: 33ce 03bd c220 2d3d 51af c2be a3bc b0bd
000000b0: cac9 873e 0782 aa3e c270 9e3d d480 75be
000000c0: d09a 6abe 71c0 453f 69e5 a03e 51d3 15be
000000d0: 2b08 5a3e 303a c03e b7fb 81be 367f 463f
000000e0: 68d9 dd3e d49f b6be 3c65 093f 8b64 4cbe
000000f0: 5a80 293f 0117 f2bd 49c8 6f3e 8e33 7e3d
0.4884063 0.56344676 -0.18743493 0.48701146 0.5939338 -0.55529284 0.25864583 0.4691935
0.7439076 0.6902538 0.232521 0.67702 -0.47503802 0.69179636 0.18297511 -0.47227854
0.7275139 -0.48914707 0.556619 -0.07939316 -0.39155167 -0.08945153 -0.33384645 -0.31263936
-0.2010774 0.06778016 0.43536794 0.76371723 0.10425673 0.26104397 -0.12365719 0.14712687
-0.43010396 -0.38316044 0.11577543 0.49762872 0.5468527 -0.3562267 0.52872884 0.3438097
-0.03217907 0.04226757 -0.3802438 -0.086297296 0.2652114 0.33302328 0.077363506 -0.23974925
-0.22910619 0.7724677 0.31425026 -0.14631392 0.21292178 0.37544394 -0.25387356 0.7753786
0.4332993 -0.35668814 0.53670096 -0.19960229 0.66211474 -0.11820794 0.23416246 0.062060885

weight f4 [1, 64]
00000000: f162 94be 3774 ecbe dc2c 80be 915c 23be
00000010: 9ec9 41be a4e2 03bd e0f5 d83c d18e 5ebe
00000020: cdba 96be 311c b3be ed28 b7be cf1b 95be
00000030: 2176 4a3d ae3e 80be c2df 6c3b e837 3039
00000040: bef3 dfbe 94cc 85bd 8ad4 83be 01b3 b0be
00000050: bf85 da3d 4f99 c3be e5c3 aa3d 6fd3 9b3c
00000060: 78c7 173e 4f55 7abe 72f6 a8be ae0c acbe
00000070: d369 04be 7274 d2be b68a f73d 517c 39bd
00000080: 0aa8 ddbd 7980 a4bb 2f74 6abe 538d b6be
00000090: 2d19 a2be ba49 8a3d 2ac2 44be c691 3ebe
000000a0: 9f19 97bc bb1d 6bbe 9ff5 2c3e ecfa 293d
000000b0: 53da 97be b535 f7bd 7def 73be 6b0d fcbc
000000c0: d9bd 67be 6d1c 96be 62c8 75be 6637 01bd
000000d0: 32e0 86be 72bc 9ebe f319 553b 0de5 8abe
000000e0: 704f 53be babb 483d 26e7 e7be e180 573b
000000f0: a0d4 90be 4cc0 abbe d98f a8be c6e1 4d3d
-0.28981736 -0.46182415 -0.25034225 -0.1595328 -0.18924567 -0.032198563 0.02648443 -0.21734168
-0.29439393 -0.34982446 -0.3577341 -0.2912278 0.049429063 -0.2504782 0.0036144112 0.00016805495
-0.43740648 -0.06533161 -0.25748092 -0.3451157 0.10670041 -0.38202903 0.08338145 0.019021718
0.14822185 -0.24446605 -0.33000523 -0.33603424 -0.12930994 -0.41104466 0.12087004 -0.045284573
-0.108230665 -0.005020198 -0.22895883 -0.35654697 -0.31659833 0.067523435 -0.19214693 -0.18610296
-0.018444834 -0.2296056 0.16890572 0.041499063 -0.29658756 -0.12070791 -0.23821826 -0.030768117
-0.22631015 -0.29318562 -0.24002221 -0.031546973 -0.26342922 -0.31003147 0.0032516688 -0.27127877
-0.20635772 0.049007155 -0.4529354 0.0032883214 -0.2828722 -0.33545148 -0.32922247 0.050264142

weight f4 [5, 64]
00000000: df69 22bd ecba 1b3e de69 febd 5b30 123e
00000010: 76c7 923c 859f dd3d 1fb6 93bd 4c60 523d
00000020: 797e babd e9c4 963d 7ef9 aebc 9eee 65bd
00000030: dfe9 cfbd 18fb 5f3e f02e 05be ecf0 5bbe
00000040: b350 e0bd 6f78 933d 34d4 1c3e 37db a4be
00000050: 11aa 87bd 454e 3c3e 4ebb 51be b53f c23d
00000060: 71c8 e8bd 9b7f fb3d cc57 9d3d c05d 023e
00000070: cef0 e33c 3ef8 86bd 4636 9cbd fc7b d63d
00000080: f9ee f53d 919b 44bd 7764 e3bc d105 873c
00000090: 9621 cb3d 2e26 45bd c96d 86bc 8fcc 25be
000000a0: 732f 303c 53aa 1b3e 4977 9a3e 8300 f9bc
000000b0: db38 133e 3281 1d3e f334 76bd ba66 773e
000000c0: d0bc efbd 73ee 17be 3572 1abd 40e8 8a3c
000000d0: a555 d4bd a974 063d 9f3e aa3b 1e86 cebd
000000e0: 72bf cc3d 99ad 723e bc54 1cbe 124b ba3d
000000f0: 2450 de3d 7da7 4dbd df5a 8bbc 7f26 58bd
00000100: f499 b0bc f85b 81be 419c 793d 815b 543d
00000110: baf3 4bbe f06d febc 2180 813d 32ea 04bd
00000120: bc12 59bd f019 0fbe a6cb 9f3e 8563 f43c
00000130: d05a e53d aa85 2e3d b269 54bd cad2 c2bd
00000140: 51af 013e 9ebe 87bd 517e 703d 8e74 873d
00000150: b324 363e 9d8c 17bd ac07 f53c 414c 89bb
00000160: f8aa d0bd e406 25bd cfa3 fcbd 97d0 fcbd
00000170: 4017 93bd 3146 c7bc dc58 49be bcdb 0bbc
00000180: 3b2d e4bd df6c 173e f1ce d9bc 4ced f83d
00000190: 7611 00be c3cd e13d 4b29 693e 8f95 fb3d
000001a0: 9f41 ecbd c7d3 1c3e 5be7 dfbd a992 073d
000001b0: b3e2 23be df5e 45bd ebeb 8cbd 0ddc bb3d
000001c0: 3d29 493e 88ec f13d b6ec cc3d 203f dc3c
000001d0: 2bcf c43d b6a2 0b3d c9a7 a3bc 44d7 643d
000001e0: a8b2 87bd a4fb 4abd 444a 32be e511 1bbd
000001f0: 87ab 903c 7bac 873e 2839 5c3c 6a7c aa3e
00000200: 9afc bb3c e41d 3b3e 417d 743d 6093 34be
00000210: 5ef6 3f3d a107 39bd c821 533d 1db4 f0bd
00000220: c6c3 a33c 5239 163d 7b76 04be efcb 853b
00000230: e0c9 313d 4f7f e33d e275 bb3d 93c7 193e
00000240: e4fe 27be 82d3 c93d 6046 2a3e cc5c 07be
00000250: ed0b 0cbd 8ff5 853d b1aa a9bd e43b 613e
00000260: 48a8 a3bd eb31 43be eb67 1ebe 68da 60be
00000270: 2666 6d3d 4987 05be 7db2 fa3d 4163 f7ba
00000280: d03d 493e 2bd4 b13c 3eca 70be 7608 043e
00000290: ef0f 503d c036 6cbe 870f 19be 02c5 96be
000002a0: f434 c53d 896d 063e 10cb 2e3c 8042 9cbe
000002b0: c7a2 a33d bf72 abbc 4b02 343e 8d94 eb3d
000002c0: 13b7 94be 8fe6 8e3d b001 633d 3170 4d3d
000002d0: bc17 86bc 3425 42bb 1096 223b 05d0 5f3e
000002e0: 5941 c33e 6ef3 093e 85a6 bd3c 4409 31be
000002f0: 899b d4bd 87b4 7abc 1858 203e 9f95 14be
00000300: 38ea 973d b85b aabd 3d40 79be 0e74 9e3e
00000310: 8aba 5bbe 20ea 74be 7ec2 f7bc daf4 4ebd
00000320: 0321 b53c e2e3 0abe 5443 203e 2a43 c5bc
00000330: 98fc 22bd 9f45 adbd ba88 65be e593 a6bd
00000340: 1f08 73bd 2b5d 20bc 51df 813d 71fa 853d
00000350: e3c7 76bc 21ea bbbd 483e 4f3d 23f3 893c
00000360: 6064 ccbd f9dc 9d3d b799 9bbc f86a cebb
00000370: b6cc 403e 1137 a03a d6d5 2bbe 450b 54be
00000380: a2dc a4bd b582 773d a8fc 973e 39b6 aebc
00000390: 98b8 303d 74d1 f03d e700 833e fd38 503c
000003a0: 086b 27be 6e47 9cbd c74a 113e 4e3f 053e
000003b0: 72f5 22bd 51ea 17bc f24f 05bd 306f 4bbe
000003c0: 31bb 41bd 4985 17bd 1631 1c3e c020 9ebd
000003d0: 8e95 b03d a220 743e 76bf 49bc 37b4 433d
000003e0: 7b58 cebd 0fd2 083d d03e 37be 258b 8fbd
000003f0: f997 25be b3d0 af3d 37d1 36be 8ae8 ef3a
-0.039651748 0.15208024 -0.12422536 0.14276259 0.017917376 0.108214416 -0.07212471 0.051361367
-0.09106154 0.073617764 -0.021359202 -0.056135766 -0.10152029 0.21873128 -0.13006186 -0.21478623
-0.10952892 0.07200705 0.15315324 -0.32198498 -0.066242345 0.18389232 -0.20481607 0.094848074
-0.11366356 0.12280198 0.076827615 0.12731075 0.027824786 -0.06590317 -0.07627539 0.10472867
0.12008471 -0.047999922 -0.027757866 0.016482266 0.099185154 -0.048132114 -0.016409772 -0.16191314
0.0107535 0.15201692 0.30169132 -0.030395752 0.14377157 0.15381315 -0.06010909 0.24160281
-0.11705935 -0.14837055 -0.037706573 0.016956449 -0.10367898 0.0328261 0.0051954533 -0.100841746
0.09997453 0.23699035 -0.15266699 0.0909635 0.10855129 -0.050208557 -0.017011104 -0.052771088
-0.021557786 -0.2526548 0.06094003 0.051845077 -0.19917193 -0.031058282 0.06323267 -0.03244991
-0.052996382 -0.13974738 0.3121006 0.02983261 0.11198962 0.04260794 -0.05185861 -0.09512861
0.12664534 -0.06628154 0.058714215 0.06614028 0.17787437 -0.036999334 0.029910885 -0.0041899984
-0.1018886 -0.040289775 -0.123359315 -0.12344473 -0.07182169 -0.024325462 -0.19662803 -0.0085362755
-0.111414395 0.14787625 -0.026587935 0.12154636 -0.12506661 0.11025574 0.22769658 0.122843854
-0.11535954 0.15315162 -0.109327994 0.03309885 -0.16004448 -0.04818618 -0.06880935 0.09172831
0.19644637 0.11812693 0.100060865 0.02688557 0.09609827 0.03409072 -0.019977467 0.055869356
-0.06625873 -0.04955639 -0.17411143 -0.037858862 0.017659916 0.2649878 0.0134413615 0.33298045
0.022947598 0.18273121 0.059689764 -0.17634344 0.046865813 -0.04517329 0.05154589 -0.11753104
0.019990813 0.03667576 -0.12935822 0.0040831487 0.043405414 0.111082666 0.09153344 0.15017538
-0.16405827 0.09854795 0.16628408 -0.13218993 -0.03419106 0.06540977 -0.0828451 0.21995503
-0.079910815 -0.19062011 -0.15469329 -0.21958315 0.057958744 -0.13039888 0.12241075 -0.0018874184
0.19652486 0.021707615 -0.2351465 0.12893853 0.050796445 -0.2306776 -0.1494733 -0.2944718
0.09629241 0.13127722 0.010668531 -0.30519485 0.07990032 -0.020928739 0.17579 0.11502943
-0.29045925 0.06977569 0.05542153 0.050155822 -0.01636874 -0.0029624226 0.0024808683 0.21856697
0.38135794 0.13471767 0.023150692 -0.17288691 -0.103812285 -0.01530183 0.15658605 -0.14510201
0.074177206 -0.08318275 -0.24340911 0.30947918 -0.21457878 -0.23917437 -0.030244108 -0.050526477
0.022110468 -0.13563493 0.15650684 -0.024079878 -0.039791673 -0.08460545 -0.22415438 -0.081336774
-0.059333917 -0.009787838 0.06341422 0.065419085 -0.015062305 -0.09175516 0.050596505 0.01683957
-0.099800825 0.07708163 -0.018994195 -0.0062993728 0.18828091 0.0012223442 -0.1678079 -0.20707424
-0.08049895 0.060427386 0.2968495 -0.021327125 0.043144792 0.117587 0.25586626 0.0127089
-0.16349423 -0.07630812 0.14188682 0.1301243 -0.039784856 -0.009272174 -0.032546945 -0.19866633
-0.04729766 -0.036992345 0.152531 -0.0772109 0.08622275 0.23840573 -0.012313714 0.04777929
-0.1007547 0.033403452 -0.17895055 -0.070089616 -0.16171254 0.08584728 -0.17853247 0.0018303555

bias f4 [5]
00000000: b7fd 83bd 43b2 db3d 2de9 63bc 6695 383d
00000010: ee50 3fbc
-0.06444877 0.1072736 -0.013910574 0.045064352 -0.01167701

weight f4 [64, 4]
00000000: dd10 72bd 1d2e fabd f6a6 dfbd 7e9e 3c3e
00000010: a1ee 853e 10df 64bd adc3 35be 39f1 08be
00000020: af1e 203e 2af0 3abe 3705 7ebe e864 92bd
00000030: f87e 273d b943 0a3c 0846 4f3e 287f 053e
00000040: a345 9d3c 2893 4abd 9dc0 df3c 0769 b9bd
00000050: 18c7 20be c1ae 00be 2b2c 843e 4145 14be
00000060: 8abe 863d 23e5 b33d 0555 6d3d 9481 04bd
00000070: 1173 163d 60e1 f23d 32f2 cbbd 7fe9 8dbe
00000080: e3e7 653d 290d d5bd 9a44 823e 4934 ae3d
00000090: 2e2c dabd b9b5 35bd f234 db3d 4493 bcbd
000000a0: 4ff8 5c3d 4b27 65bd f82f 38bd eabd 68bc
000000b0: 7cba 163e b534 e3bd 2248 3abd e659 373d
000000c0: 761e 84be 25a5 c3bd 1c9f 733e ed65 eebd
000000d0: 4890 77be 1489 37be 30e9 1d3d f5d7 7abc
000000e0: c073 043e 76ab f93d 1ca8 e3bd ac6b 95bd
000000f0: dce9 a63d 3405 c53d 70ce 4a3e 6025 8ebd
00000100: 84e4 4c3d 5ffd 9dbd 2599 e839 45c3 5b3e
00000110: 1e4a fcbd 4a1f e6bc a712 373e ff16 a0be
00000120: 7a37 633d bb14 cbbd a3ac 05bd 606c 75bc
00000130: b2d9 013d 719f aabd 243b 853e 6445 b43d
00000140: 4d9a debe 78b0 bc3a d859 3b3d c41d 57be
00000150: 4670 ee3d 1e79 98bd 3043 5fbd 9345 20be
00000160: 2807 f03d 8f2f 063c 926a 97be c924 9dbe
00000170: c342 8d3b 9905 b8bc 7c51 403d f0fd 61bb
00000180: 9792 84be 82be 223e e185 21be 38bc 8e3c
00000190: 6895 c3bd a5b8 d5bd cb51 a53c 40eb fd3c
000001a0: 86f3 2abd 0c06 a4bd b8fe 2a3e bf68 7ebc
000001b0: fcb5 a9be d774 2bbd 0ba2 9bba 2bcc 69be
000001c0: a7cd 87bb 9400 083b 4999 583d 87fa df3d
000001d0: 08c1 b93d 9897 8f3e ba66 c53c 489b 65bc
000001e0: 235e 59bc 0f98 33bd 9d2f 923d c362 bb3e
000001f0: 281a 05bc 2919 fd3d af1c cbbe ea13 39be
00000200: e7cd b1be bd6d 47bd baa7 d83d 466b 11be
00000210: bda8 eb3d c642 b13d dae5 2cbe 4ba5 9bbe
00000220: 1f63 58bd 9f10 40bd 6d3e a33d 9c8e 0a3e
00000230: a844 7bbe e33d bc3d 2ae6 2b3e 3841 96bc
00000240: 695f 1fbd 9232 19bd 8df5 593c 2f1d a33c
00000250: 9b9c 00be 49ea 9abd 4c3d c63d 52c3 6d3e
00000260: 8c17 2f3d f9b3 a6bd f9bc 083d 9719 913d
00000270: 27d1 d5bd 2f54 213d 0d68 003e d7bc 2ebd
00000280: 0526 42be 7b30 f53b a112 0ebe 5e10 323e
00000290: 447b 983d e230 c3bd 7155 c83d e130 67bd
000002a0: 9d63 8bbd 264e 653d 4861 3d3e d3af 893e
000002b0: 5bd2 bf3d b1e2 f8bc 763a cf3d 478c 053e
000002c0: 2cb8 bd3d 4bef 09bd 7158 78bb 7210 903c
000002d0: b2d0 61bd 7012 d9bd 5e80 2cbd 3392 b93c
000002e0: e70a d93d 9107 96bd ef81 603e 9dfd b43c
000002f0: 5f59 a9bc 654b eb3c 542f 86b9 77e5 4c3c
00000300: 5d5c 02be be30 5d3c 9109 acbd af27 3ebc
00000310: 3ff4 7c3e bfa2 453d 4f05 58be fcf1 8cbd
00000320: 36b8 10be 3e09 123e e2f5 57be d905 33bd
00000330: 2a82 e2bd 71fa c83d 24bf 063e 8452 f13d
00000340: dcf6 053e 3b53 313e c1e1 a9bd c05e 45be
00000350: 2c56 8c3d ddff 193e d549 e9bd 06e2 1f3e
00000360: 941e 153e a9cd 92bd 4e69 d63d 7751 893c
00000370: e13c db3c 2f90 63bd f5c5 4a3e a400 58be
00000380: 0a5c e2bb dc49 1f3d a91b aa3d 1045 77be
00000390: d0b8 003e c880 ef3c 2844 67bd c940 773d
000003a0: b678 a23a 5a89 203d fcb0 5fbc 61b6 0bbd
000003b0: 25fc 38be 2d4b 773c aea1 cf3d 1426 793d
000003c0: 365a 63be f305 f03c 995a 673e ecac dc3d
000003d0: ca51 e4bd f361 3abe ebe6 e43d 47e1 e4bc
000003e0: a0fa a83d b30c 19be cce5 fa3d 723b 253d
000003f0: 8d63 76be 5279 dbbd 9fb9 a93e 9d8e 07bd
-0.059098113 -0.12215827 -0.10920517 0.18419835 0.26158622 -0.05587679 -0.17750426 -0.13373269
0.15636705 -0.18255678 -0.24806677 -0.071481526 0.04089257 0.008438998 0.20241559 0.13036788
0.019198244 -0.049456745 0.027313525 -0.090532355 -0.15700948 -0.12566663 0.25814947 -0.14479543
0.06579311 0.08783939 0.05794241 -0.032350138 0.03673083 0.11859393 -0.099583045 -0.27717206
0.056129348 -0.10402901 0.25442964 0.08506066 -0.10652958 -0.044362757 0.10703458 -0.09207776
0.053947743 -0.055945676 -0.04496762 -0.014205435 0.14719576 -0.110940374 -0.045478947 0.04476347
-0.2580449 -0.09552983 0.23791164 -0.116405345 -0.24176133 -0.17923385 0.038552463 -0.015310277
0.1293478 0.12190907 -0.11116049 -0.072959274 0.08150074 0.09620133 0.19805312 -0.069407225
0.050022617 -0.07714342 0.0004436459 0.21461208 -0.12318824 -0.028091092 0.17878209 -0.31267545
0.05547283 -0.099160634 -0.032635342 -0.014979452 0.03170175 -0.08331192 0.26021683 0.08802298
-0.43477097 0.0014395854 0.04573998 -0.21007448 0.11642508 -0.07444976 -0.054507434 -0.1565154
0.11720115 0.00819005 -0.29573494 -0.30692127 0.004310937 -0.022463607 0.04695271 -0.0034483634
-0.2589309 0.15892985 -0.15773727 0.017423734 -0.09549981 -0.10435609 0.020180603 0.030995965
-0.04173615 -0.08008966 0.1669873 -0.015527903 -0.33146656 -0.041859474 -0.0011873854 -0.2283179
-0.0041443887 0.0020752298 0.05288056 0.10936456 0.09070021 0.28045344 0.024096835 -0.014014073
-0.013267073 -0.043846186 0.07137988 0.36598787 -0.008123912 0.123583145 -0.3967032 -0.18074003
-0.34727404 -0.04868864 0.10578866 -0.14201078 0.11506794 0.08655314 -0.16884556 -0.30399546
-0.052828904 -0.04689085 0.07970891 0.13530964 -0.24537909 0.091914915 0.1678702 -0.018341646
-0.03890935 -0.037401743 0.013303173 0.019911377 -0.1255974 -0.075642176 0.0967966 0.2321904
0.042747065 -0.08139796 0.033383343 0.07084959 -0.10440283 0.039386924 0.12539692 -0.04266056
-0.18959816 0.007482586 -0.13874294 0.17389056 0.07445386 -0.09530808 0.09781922 -0.0564431
-0.06806109 0.05598273 0.18494141 0.26891956 0.09366294 -0.030381532 0.101185724 0.13041793
0.092636436 -0.033675473 -0.0037894512 0.017585967 -0.055130668 -0.1059922 -0.042114608 0.022652721
0.105977826 -0.07325662 0.21924566 0.022093588 -0.020672498 0.028722474 -0.00025593734 0.012505881
-0.12730546 0.013500391 -0.08400262 -0.011606141 0.24702547 0.04825091 -0.21095775 -0.06882092
-0.14132771 0.14261338 -0.2108989 -0.04370675 -0.11059983 0.09813393 0.13158852 0.11783317
0.1308245 0.17316906 -0.08295012 -0.19274426 0.068523735 0.1503901 -0.113910355 0.15613565
0.14562446 -0.07168133 0.10469304 0.016762478 0.026762428 -0.055557426 0.19802077 -0.21093994
-0.0069079446 0.038888797 0.08306057 -0.24147439 0.125705 0.029236212 -0.056461483 0.06036452
0.0012395594 0.03919349 -0.013653036 -0.034109477 -0.18064936 0.015093607 0.1013826 0.06082733
-0.22202381 0.029299712 0.22593154 0.1077517 -0.111484125 -0.18201427 0.111768566 -0.027939452
0.08250928 -0.1494625 0.122508615 0.040339895 -0.24061413 -0.107164994 0.3314943 -0.03309499

bias f4 [64]
00000000: 195c 4a3e fa50 b23e 035b dabd e87a b33e
00000010: e49b ddbe 30d0 bb3d a803 4cbe 7253 273e
00000020: 78d0 9d3c 0003 523d c41b 94be ef2b 9ebd
00000030: a6b4 053e cd5c b4bb 6157 283c 47c2 043e
00000040: 3e95 e23d f8d1 973e 88b8 8cbe 382d 093e
00000050: e21a b2bd c3e6 323d bbc5 f13e efe6 30be
00000060: a8cc 613d 27f3 bbbe eb83 883c 8ed7 da3d
00000070: 3caa 5dbe 352d 01be c51d 3a3e 0a96 033f
00000080: 34d1 473b 4768 503d be4b ddbe ec69 2f3e
00000090: 7703 d1bd 83de 033e 023d 67be 4cf5 4dbe
000000a0: c37d c0be 5ea7 06be 4e1c 1c3e 12fc d8be
000000b0: d66d 06bf 7c14 90be d3e8 75bc c059 0dbe
000000c0: a1c5 dfbe 9559 913c 05d6 f6bc 687e e63d
000000d0: 1897 84be 126d e4be 9cd1 d0be e8f9 db3e
000000e0: 37f5 80bd 80c6 06bf fa77 25be 3fbd 8b3e
000000f0: 095b 103e df2c 9dbe 38eb 973e 5903 9c3e
0.19761695 0.34827405 -0.1066189 0.35054708 -0.43282998 0.09170568 -0.1992327 0.16340426
0.019264445 0.051272392 -0.28927433 -0.077232234 0.13057193 -0.005504227 0.010274739 0.12964736
0.11063622 0.2965238 -0.27484536 0.13396156 -0.08696534 0.043677103 0.4722117 -0.17275594
0.055126816 -0.36708948 0.016664466 0.10685645 -0.2164697 -0.12614901 0.18175419 0.51400816
0.0030489685 0.050880697 -0.4322185 0.1713025 -0.10205739 0.1287785 -0.22581866 -0.20113105
-0.3759595 -0.13149783 0.15245172 -0.42379814 -0.52511346 -0.28140628 -0.015009123 -0.13803768
-0.43705466 0.017742911 -0.03013135 0.11254579 -0.25896525 -0.44614464 -0.4078492 0.429641
-0.06296771 -0.52646637 -0.16159049 0.2729282 0.14097227 -0.30698296 0.29671645 0.30471304

weight_ih f4 [256, 64]
00000000: e1d9 c23c a8ed dcbd c556 82bc 7487 87bd
00000010: fad0 50bd 744c 763d 565c 3d3b 0050 66bd
00000020: 0791 d43d 5d9e a0bd fc04 443d 06f0 7fbe
00000030: 5a01 353c 8be1 54be e68a a3bd 49e0 dabc
00000040: f378 e8bc 63ed 27bd 3028 68bc fca9 15bd
00000050: 717e 5f3c a45f 80bc e938 843d eb51 bcbd
00000060: 521e d33d 8715 bd3d 1662 b83c 72b6 93bd
00000070: d9c5 1bbe cf91 27bd 8856 08bd 5128 5a3d
00000080: 5ad8 f53c df36 0dbe 0a6b af3d 6e4b ce3d
00000090: e93a eebd 7102 59be 357f f13d 6a0b cc3b
000000a0: 2f86 593d 5120 43bd 3701 3bbe 32b0 c7bd
000000b0: ccce cfbd 5941 d5bc 9ce5 a8bd d09c a63d
000000c0: 81fe 02bd 8e7e 93bd cb48 afbd c514 e5bd
000000d0: d157 edbd 05ec bc3c 1048 053e c875 7dbd
000000e0: 417a 083d c8e4 cbbd fb80 36be 3371 b23d
000000f0: 8212 9dbc ccf6 3bbd 87a9 883c 603b c2bd
00000100: 8aa3 a43b ca3d 24be f0ec 47be 501a 913d
00000110: d542 fcbc 074d a33d b0d5 9c3d 2548 563d
00000120: c0b5 ac3d 1628 aeba 1af2 c3bd d5f8 11be
00000130: 04ee 163e de8e da3d 7a09 f5bd 3630 c2bc
00000140: dc18 173e ed96 903c 403c 43bc d015 453d
00000150: 63a1 2f3d b96f 81be f5d9 01bd 4aa0 37be
00000160: f27f 0a3e 3b8d 593d a4ed 56bc 8158 7b3d
00000170: 2b35 ed3d 3138 d9bd 3810 4c3e 218b dbbd
00000180: 87f3 97bc 5552 29be 9ddd bd3d 60cb 25bd
00000190: 1745 0ebd 29ab 553e 632e 8d3d 6895 ae3d
000001a0: e146 383d 7e7e 1b3d 558b ac3d dc94 973d
000001b0: 9487 1b3e 5a9c 7d3d 24f4 193e 52ee cabd
000001c0: f40f 233c a3e8 14be 8a1a e1bd 500f 513d
000001d0: 6da7 2bbe 1900 0d3b 7c18 93bc 7eca 96bc
000001e0: f454 2abd e8d5 b3bc ab43 ad3d a2aa 493d
000001f0: ca7f 9bbc 34ec d43d bf7f 913d 3f7e 653e
00000200: c682 d1bd 4338 4b3d ae50 37be fb38 773d
00000210: 319c e53d 5c30 0e3e 60cf 963d 6d6a 2f3e
00000220: 9d86 cf3c c196 9c3d 50bb 1fbe ef6f 0bbe
00000230: 41f0 3c3e d44d 5dbb f5b9 0cbe f559 35bd
00000240: 7afc adbd 2def a73c eeb3 a3bd 8be0 be3d
00000250: 0f5d 143e 0781 70bd 1122 2dbe acb4 54be
00000260: 890f 1cbe f4bc 113d 0e89 3c3c 5b5c b63e
00000270: 76c1 10be 2723 e7bc 1467 dfbc c241 25be
00000280: be7e 7d3e 499c b8bd ae19 26bd e6c7 163e
00000290: 7352 95bd 697c 92bc 7368 eabd b939 6ebd
000002a0: 887d 13be 5254 a7bd ac31 98bd 375a e5bd
000002b0: 9de0 26bd 4c40 3a3e 315e 61bd 92ca 99bd
000002c0: d149 963c 9cd5 10bd 37c3 6dbd f0ae f83c
000002d0: c116 23be 4700 74bd 00b7 0f3d bffc 28bd
000002e0: 9230 bcbc 3311 c6bd c31b 15be e97b a2bd
000002f0: 934c c4bb 5538 933d 971b d6bd ad60 5cbd
00000300: a22a a33c 2ee9 84bd 0a85 1e3e 7822 02be
00000310: 8a10 d1bd 0a24 d03d 770b f13d 77eb ac3d
00000320: 3263 3ebe fac4 90bb 36f6 273e 2547 24be
00000330: cbe4 083e dcf8 363e 937c c13c 9152 16bd
00000340: 3b08 833c eb7e a13d a065 113c 7394 fcbd
00000350: 94b8 773e f2ca 853d 7b0b 9ebc 1350 633d
00000360: ae2b a63e e841 353d ef9d 71bd 5c06 223e
00000370: 8510 043d 7991 a43d cdfc d2bb 06ef 813e
00000380: 16aa 5b3e 52ac 95bd f688 60bc 6a19 323e
00000390: 5126 dd3d c25d 9d3d 3896 70bc 8596 52bd
000003a0: 7d9e 0c3e fd13 aebd 7c11 23be 7cd9 133e
000003b0: e602 a13d 1a0b 053e 46cc b0bd 0289 d2bd
000003c0: c003 d4bd 4340 f23d 9926 b23e 704f 49be
000003d0: ffa7 20bd 0921 f6bb 7877 11be 3411 873d
000003e0: 9c74 143e ef40 dd3d 6ec2 20bc b4d8 593d
000003f0: 3dfe 99bc e722 213c 073c 14bd cc8c 373c
0.023785533 -0.10787517 -0.015910516 -0.066176325 -0.050980546 0.060131505 0.0028894148 -0.056228638
0.10379224 -0.078427054 0.047856316 -0.24993905 0.0110476855 -0.20789163 -0.07985477 -0.026718276
-0.028377986 -0.040997874 -0.014169738 -0.036539063 0.013640986 -0.015670605 0.06456167 -0.09195312
0.103085175 0.09232622 0.022507709 -0.07212533 -0.15212192 -0.04091054 -0.033285648 0.053261105
0.030010391 -0.13790463 0.08565338 0.10072981 -0.1163233 -0.21192338 0.11791841 0.0062269466
0.053106483 -0.04763824 -0.18262182 -0.097504035 -0.10146865 -0.026032137 -0.082469195 0.08135378
-0.031980995 -0.07201873 -0.08558806 -0.11185602 -0.11589015 0.023061762 0.13015771 -0.061879903
0.033319715 -0.09955746 -0.1782264 0.08712997 -0.019173864 -0.04588966 0.0166824 -0.09483981
0.005024378 -0.16039196 -0.19523978 0.07085097 -0.030793587 0.07973676 0.07657945 0.052314896
0.084331036 -0.0013287093 -0.095676616 -0.14255078 0.14739233 0.10671781 -0.11964698 -0.02370463
0.14755577 0.017650092 -0.01191622 0.048116505 0.04287852 -0.2528055 -0.031702 -0.17932239
0.1352537 0.053113203 -0.013118181 0.0613637 0.115824066 -0.10606421 0.19928062 -0.10719896
-0.01854874 -0.16535313 0.09270785 -0.040477157 -0.034733858 0.20866074 0.06893613 0.08524591
0.04498947 0.03796243 0.08425013 0.074014395 0.15188438 0.061916687 0.15034539 -0.09908737
0.009952534 -0.14541869 -0.1099139 0.051039994 -0.16763087 0.002151495 -0.017956011 -0.018407103
-0.041584924 -0.021952584 0.08460172 0.049234994 -0.018981833 0.10396615 0.07104444 0.2241144
-0.10230021 0.049614202 -0.1790187 0.060357075 0.11211432 0.13885635 0.073637724 0.17130442
0.025332743 0.076459415 -0.15598798 -0.13616918 0.18451025 -0.0033768313 -0.13742812 -0.044275243
-0.08495422 0.02049979 -0.07993303 0.09320172 0.14488624 -0.0587168 -0.16907527 -0.20772046
-0.15240301 0.03558059 0.011507286 0.35617337 -0.141363 -0.028215004 -0.027270831 -0.16138366
0.2475538 -0.09014184 -0.040551834 0.14724693 -0.072911166 -0.017881589 -0.11445703 -0.058160517
-0.14403355 -0.0817038 -0.07431349 -0.11198848 -0.04074155 0.1818859 -0.05502147 -0.0750934
0.018345745 -0.035359964 -0.0580475 0.030356854 -0.15926649 -0.059570577 0.03508663 -0.041256662
-0.022972379 -0.09671249 -0.14561372 -0.0793379 -0.0059905737 0.07188479 -0.10454481 -0.053803135
0.01991779 -0.06489788 0.15480438 -0.12708461 -0.10208233 0.10163124 0.11769765 0.08443349
-0.18592528 -0.0044180127 0.16402516 -0.16042764 0.13368528 0.1786837 0.023618972 -0.036699835
0.015995136 0.07885536 0.008874327 -0.12333002 0.24191505 0.06532849 -0.019292584 0.055496287
0.324552 0.044252306 -0.058988508 0.15822738 0.032242317 0.08035559 -0.0064388276 0.25377673
0.21451601 -0.07308258 -0.013704529 0.17392507 0.10798324 0.076838985 -0.014684252 -0.051413078
0.13732333 -0.08499906 -0.15924639 0.14438432 0.07861881 0.12992516 -0.08632712 -0.102800384
-0.10352278 0.11828663 0.34795073 -0.19659209 -0.039222714 -0.0075112623 -0.1420573 0.06595078
0.14497608 0.10803401 -0.009811981 0.05318518 -0.018797988 0.0098349815 -0.03619006 0.011203002

weight_hh f4 [256, 64]
00000000: 7856 07bd d03d d93d d412 3e3d 68dc 51bd
00000010: c273 87bd a001 143c 0c54 81bd 487d 9dbc
00000020: d089 6fbd 0cc6 123d 4c62 2dbd ca1a 88bd
00000030: f022 47bc 6090 c3bc 5821 c8bd 2c6d ccbd
00000040: 1e02 f23d c049 3e3c 1a1a b9bd 9422 9dbd
00000050: 783d 483d 08ac 4e3d 7030 94bc 2ca4 8fbd
00000060: 54d2 18bd 3c38 b33d 8068 75bd 909d d7bc
00000070: 0030 5238 002d 9cbd 4cd4 6d3d 125f f13d
00000080: 8058 f5ba a8e6 1fbd dc68 7bbd c82d 97bd
00000090: 4c52 dd3d 3a2c d83d 0057 c0bb 90ce 90bd
000000a0: a02d 74bc 08e3 8b3d 6853 a03d 2c2a 44bd
000000b0: 60d6 a33d 5497 2ebd 0c39 18bd d859 61bd
000000c0: c40a 4d3d 943c 8fbd 9046 21bc d80d 333d
000000d0: 1892 5fbd b272 83bd 7e9a a13d d6ac a03d
000000e0: 800f 383d e61a bebd 9270 b8bd 946b a4bd
000000f0: 647a 653d 0038 41b9 2c52 aebd a442 f73d
00000100: 103e 4ebd 6ca2 5bbd c029 ed3d 1863 913c
00000110: ac87 953d 66fe 893d 74c6 3abd f0cd 623c
00000120: 74f7 07bd 48aa d8bc ae93 f73d 9441 fbbd
00000130: 7ad5 eabd bc0a 8ebd 20e1 833b 42c8 b0bd
00000140: a0e6 7c3c a8ae d53c 686d a33c 20bf 50bc
00000150: 8cd8 973d 389f 5cbd 1c3e 70bd 7cbe 8ebd
00000160: a087 c0bb b046 27bd 8820 863c 2017 febb
00000170: a001 c93b 348b 80bd c8ed 5ebd 7247 fdbd
00000180: c057 b23c d41f 2e3d 60f2 a8bb f0db d0bd
00000190: 842a aa3d 509d 13bc c0fb 45bd 4661 c63d
000001a0: 984b c4bc 9881 c73d 9ed8 84bd 002e 3a3d
000001b0: 8cf9 d73d b815 92bd 006e 453c 2afd c93d
000001c0: ea54 df3d b022 053d 105c 6ebc 30c5 acbc
000001d0: 9632 a3bd 3e9d 90bd b4f1 753d 8062 1ebb
000001e0: 400f c6bd 5cd7 f3bd c432 95bd d0ad fbbc
000001f0: 6c45 1f3d 0c50 babd 1c81 cf3d aa57 c5bd
00000200: 34ea 06bd c4a8 f0bd 9a51 cb3d 4a54 b5bd
00000210: c6fd a6bd 70fb 4e3c fc4a 543d 08a8 ac3d
00000220: a0f0 da3b fcde d13d 80cc c2bc 344b 1e3d
00000230: 680d 82bc 4448 c13d 805f 9c3b 78d6 9bbc
00000240: a061 40bd 543f e7bd 10a0 b53c a0bc 7dbc
00000250: a85a 12bd 4013 ca3d 486d 59bd 7298 e5bd
00000260: 6c28 ef3d bcd8 66bd 0016 f939 ac98 893d
00000270: e67e fdbd 8ca7 1abd 4cf1 44bd 7057 a4bd
00000280: 36e8 c5bd 14f4 893d 3803 ef3c dca0 bfbd
00000290: 1a5a cd3d 949d d9bd f0d2 543c 900e 573c
000002a0: 803b f2bd 9ec8 a0bd 78be a23d 4080 7ebb
000002b0: 2e77 8f3d 0889 9abc d03f 81bc b2f8 d13d
000002c0: 9036 8fbd d853 b9bc f45c 173d c89d 9f3d
000002d0: 409a 13bb 00f2 013c 4e41 ed3d 8c4b a9bd
000002e0: e6f7 f2bd e885 ecbc 507f 3abd befa 86bd
000002f0: 3c04 63bd 80ab f5bc c0a8 5b3b 481f a1bc
00000300: 50c6 283c 00a5 faba 9087 99bd 7480 e43d
00000310: fcb7 a73d f021 4ebc ee7e 893d 721c c2bd
00000320: 70c7 ad3d 22f6 94bd 0ca3 e1bd a0f3 9d3d
00000330: 02d4 a5bd 320c ecbd ec22 a5bd b850 a4bd
00000340: 30d1 7b3d e024 93bd c42d 8d3d 68df fe3c
00000350: 3830 acbd 60f5 f8bd d88f b4bc 8670 e43d
00000360: 706e 99bc 2854 813d e6bc dabd 64c9 12bd
00000370: 1248 b93d f8a5 36bd a00d d1bb 48a6 8cbc
00000380: a297 ebbd a0be eb3b 7cbf 8f3d 40b4 87bb
00000390: 107a fbbc 004f 0abb 2a79 a43d 765d bdbd
000003a0: 2c7b 96bd 8254 a7bd 5864 d73c 40da dfbb
000003b0: 60ee e33c 602e babb f080 303c a47d c6bd
000003c0: c461 e6bd 60f5 fdbd 0627 cfbd f4e1 bd3d
000003d0: 009c 9339 d81a 9cbd c45e cb3d 50cb 313d
000003e0: 2c31 24bd ee37 f63d 885b 3f3d dc05 42bd
000003f0: ccb7 43bd 6892 f73c 42c3 e83d 1026 333c
-0.033041447 0.10607493 0.046404675 -0.051235586 -0.06613876 0.009033591 -0.06314859 -0.019224778
-0.058481038 0.035833403 -0.04233007 -0.066457346 -0.012154326 -0.023872554 -0.09771985 -0.099817604
0.1181681 0.011614263 -0.090381816 -0.07672611 0.048886746 0.05045703 -0.018089503 -0.07013735
-0.03730996 0.0875096 -0.059914112 -0.026320249 5.0112605e-05 -0.076257706 0.05806379 0.11785711
-0.0018718392 -0.03903833 -0.0613793 -0.07381779 0.108067125 0.105553105 -0.005869746 -0.07070649
-0.014903456 0.06830412 0.078284085 -0.04789178 0.07999873 -0.042624786 -0.03716378 -0.055017322
0.050059095 -0.06993976 -0.009843484 0.043714374 -0.054582685 -0.06418361 0.07890795 0.07845466
0.044936657 -0.09282474 -0.09005846 -0.080283314 0.056024924 -0.00018426776 -0.08511767 0.120732576
-0.050352156 -0.053621694 0.11580229 0.017747447 0.07301268 0.06737976 -0.045599416 0.013843045
-0.033194974 -0.026448384 0.120887145 -0.122683674 -0.11466499 -0.06935641 0.0040246397 -0.08631946
0.015435845 0.02608426 0.01994963 -0.01274088 0.0741435 -0.05386278 -0.058652982 -0.06969926
-0.0058755428 -0.040838897 0.016372934 -0.0077542216 0.006134227 -0.06276551 -0.054425985 -0.12367143
0.021770358 0.042510822 -0.0051558465 -0.101982 0.083088905 -0.009009674 -0.04833579 0.09686522
-0.023961827 0.09741515 -0.06486629 0.045454025 0.10545644 -0.07133049 0.012050152 0.0986274
0.10904868 0.032503784 -0.014548317 -0.02109012 -0.07968633 -0.070612416 0.06004496 -0.0024167597
-0.096708775 -0.11906311 -0.072850734 -0.030722529 0.038884565 -0.09097299 0.101320475 -0.09635861
-0.032938197 -0.117509395 0.09927674 -0.088539675 -0.08153872 0.01263319 0.051829323 0.08430487
0.0066815168 0.10247609 -0.023779154 0.038645938 -0.015875533 0.09437612 0.0047721267 -0.019023165
-0.046968102 -0.11291376 0.02217105 -0.015486866 -0.035730988 0.09866953 -0.053082734 -0.11210717
0.11677632 -0.056359038 0.00047509372 0.06718573 -0.123777196 -0.03775744 -0.04808168 -0.0802449
-0.09663431 0.06736007 0.02917634 -0.09356853 0.10026951 -0.10625759 0.012989745 0.013126031
-0.11827755 -0.07850765 0.07946485 -0.0038833767 0.070051536 -0.01886417 -0.015777498 0.10252513
-0.06992829 -0.022622988 0.03695388 0.07793766 -0.002252236 0.007931232 0.115847215 -0.082663625
-0.11863689 -0.028872445 -0.04553157 -0.06590794 -0.05542396 -0.029989004 0.003351733 -0.019668236
0.010301188 -0.001912266 -0.074965596 0.11157313 0.08189389 -0.0125813335 0.06713663 -0.09478082
0.08485305 -0.072735086 -0.11017427 0.077124834 -0.08097078 -0.115257636 -0.080633014 -0.080232084
0.061478794 -0.07184768 0.06893495 0.031112388 -0.084076345 -0.121561766 -0.022041246 0.11154275
-0.018729419 0.0631488 -0.10680561 -0.035836592 0.090469494 -0.044591874 -0.006379798 -0.017169133
-0.11503531 0.007194355 0.070189446 -0.0041413605 -0.030697852 -0.0021104217 0.08030923 -0.09246342
-0.07347712 -0.081704155 0.026292965 -0.0068314373 0.027823627 -0.005681798 0.010772929 -0.09691933
-0.11249116 -0.12400317 -0.10114865 0.09271613 0.00028154254 -0.076223075 0.099301845 0.043406785
-0.040085956 0.120223865 0.04671815 -0.04736887 -0.047782704 0.03022118 0.113653675 0.010934368

bias_ih f4 [256]
00000000: f3db 643c 73da f63d 22c8 163e 41e7 5e3d
00000010: 4c48 0b3d 6e0f dc3d 3c31 b73c c281 d43c
00000020: 57ca 62bd c799 02be 54fb fbbd 0dcf 56bc
00000030: 7490 6d3c 542a 99bc 3ae6 0d3e d0ea 7e3d
00000040: 367d ca3d 8b9b 5e3b 9fee 9fbd 1553 9e3c
00000050: 4e96 3c3d 39f8 26be f8cd 88bd 4ac1 34be
00000060: edd8 c5bd dd15 02bd b4d2 dcbc d50f 5a3d
00000070: 4cb8 42be cfde cfbd 20d3 8b3d cdf8 6e3d
00000080: 62cf 8b3b 7b03 d4bc 02f9 983d c890 c0bc
00000090: 0701 413d 64f1 823d d87e 083c cad5 293e
000000a0: 8a32 8f3d 1d95 85be 87ca e2bd eee9 42bd
000000b0: 0247 933c 6dfe 7f3d a4ea a5bd 258f 57be
000000c0: 31d7 ab3d 3235 0abe 5742 8bbc 5245 eabd
000000d0: 2ac5 51bd ce73 01be 8f94 13be 6a68 a3bd
000000e0: afad 89bd 83c8 51be 623d bcbd 9867 3ebd
000000f0: 6f5e 66bd 8e0a 713c f567 19bd 9993 d9bc
00000100: 4a74 d13d b2fa d9bd 6652 97bd cc3e 143d
00000110: b0d9 88bd 9e62 cd3d 80b5 8ebd a869 e73d
00000120: e8ea 6bbd a87a 10bd 409b d7bb bc76 bfbd
00000130: f24d 86bd 50cd d0bd b82d 14bd 4aa6 cf3d
00000140: 7cab 21bd a80a fcbd 30c5 fe3d e065 3cbd
00000150: 9e5a f03d f8ce 68bd a023 833d f00d 87bd
00000160: a231 b43d 0c0e d9bd daf1 8dbd c023 bbbc
00000170: 2c11 413d aa76 89bd e27c 85bd e059 41bd
00000180: 1c00 0a3d b421 133d b6a2 dabd 8036 94bb
00000190: 24fb 1bbd 5a12 a03d 8ec7 c4bd b2fe dd3d
000001a0: 00bb 093b d653 9b3d 5445 3fbd c823 d93d
000001b0: ecb8 d63d 58f0 d73c 1cdd 2f3d ce67 b03d
000001c0: 28c2 b6bd 5cfa 62bd b850 93bc 2017 293c
000001d0: 30a9 04bd da11 da3d f45c 483d 2667 83bd
000001e0: 1af5 ddbd da59 b6bd fcf8 f1bd dc37 84bd
000001f0: a6cd f5bd 80d4 d9bb f8d8 7dbd 668a b8bd
00000200: 088f bb3d 7616 81bd 1058 15bd b78c 96bd
00000210: 7468 50bc 7fff cf3c dc5a a03c 310e b03d
00000220: 76c7 0dbd 0d98 42bd 5d25 18bc 7296 90bc
00000230: 7398 9b3d 9038 6c3d 29eb 1c3e 11a3 fc3d
00000240: 2e4b 6ebd 4478 943d 2fb9 b9bd 07c2 aa3c
00000250: 1bb1 983d 11a2 15be 6843 67bd 62cf efbc
00000260: c3c4 89bd b6ad 18be 40ca d63c b6fc 72bd
00000270: 2307 093d 8891 e5bc 4b84 743d adbb 9c3c
00000280: 6407 3b3e 788b 953b 9d4b c63c 1cdc 273d
00000290: 3434 83bc 74a0 b9bd 51aa b4bd f813 353d
000002a0: 72a8 e53d 5267 c2bd b1fc 463c fcd8 0abe
000002b0: 9d0a 83bd 5ce5 dabc e28d 743d 5028 cebd
000002c0: 860e dd3d f712 46bd 0cc6 8d3d ff94 003e
000002d0: 6bbb e4bc 26d2 a33d 348a a23d 9fc2 333e
000002e0: a33a a43d 8afc 0bbd fde0 853d d99c dbbd
000002f0: 5cc8 2abe fad9 c33d 4dca eabd 62af d33d
00000300: e183 353d 5ef6 493e e325 303c 0112 f83d
00000310: 6234 403b 513e 063e 1861 4e3d 687f 89bc
00000320: a948 2bbe 46fb 8e3c 1780 41bd 8d80 313d
00000330: 6e93 293d 4733 48bd 7586 163e 54c8 af3d
00000340: 698c e13c 10c3 9dbc 508d 953d 6e05 a8bd
00000350: 0cef 14be abc4 77bd f116 54bd 1e3d 43be
00000360: 2089 3bbd 13e7 c1bd 9721 08be 3d48 12be
00000370: 6e1e 19be 0169 84bd 86e9 043d 5ebc 6f3c
00000380: 5b0c bdbc 3abd 64bd 82f8 3e3d fbd3 05be
00000390: c8c7 7fbd f439 dbbd 8bbe e13c 9be2 0ebd
000003a0: 29fd 1a3d f593 5dbd 24ec 17be d8cb 13bd
000003b0: 5b6d 3a3c 98a3 133d 3b74 c23d 14db 81be
000003c0: f591 b53c 1100 f0bc 2a69 71be ebd4 1cbe
000003d0: a53b 8fbd 505e 89bd c35d 7ebc 4739 95bb
000003e0: c090 d83d 985d 1bbe 617b 3abd 00e0 ff3b
000003f0: b297 b43d d3d5 b63b a60e e1bb 185f c13d
0.013968456 0.12053385 0.14724782 0.05441976 0.034004495 0.107451305 0.022362344 0.02594078
-0.055368748 -0.12753974 -0.123037964 -0.013110888 0.014499772 -0.018696941 0.13857356 0.062235653
0.09887163 0.0033967223 -0.07809185 0.019326726 0.04604178 -0.16305627 -0.066799104 -0.17651859
-0.09660516 -0.03175913 -0.02695594 0.053237755 -0.19015616 -0.10149919 0.06827378 0.058342744
0.0042666653 -0.025880566 0.074693695 -0.023506537 0.04712012 0.06393698 0.008331023 0.1658546
0.069920614 -0.26090327 -0.11073785 -0.047586374 0.017978195 0.0624985 -0.08101395 -0.21050699
0.08390654 -0.13496855 -0.016999407 -0.11439003 -0.05121342 -0.12641832 -0.1441214 -0.079789
-0.06722581 -0.20486645 -0.09191395 -0.046485513 -0.056242403 0.014711989 -0.037452657 -0.026559638
0.102272585 -0.106435195 -0.07388763 0.0361927 -0.066821456 0.10028575 -0.06968212 0.11299449
-0.05759707 -0.035273224 -0.0065797865 -0.09348819 -0.06557836 -0.1019541 -0.036176413 0.10139139
-0.03947018 -0.1230672 0.12439954 -0.045995593 0.11736034 -0.056838006 0.06403279 -0.06594455
0.08798529 -0.10598382 -0.06930895 -0.022844195 0.047135517 -0.067120865 -0.0651796 -0.047204852
0.03369151 0.035920814 -0.10675566 -0.0045230985 -0.038081303 0.07816 -0.096083745 0.10839595
0.0021016002 0.0758435 -0.046696976 0.10602528 0.1048449 0.026359722 0.042935476 0.08613549
-0.08923751 -0.055414543 -0.017982826 0.010320455 -0.032387912 0.10647936 0.048916772 -0.064161584
-0.10837765 -0.089038566 -0.11815068 -0.06455967 -0.12002115 -0.0066476464 -0.061974496 -0.090107724
0.091581404 -0.06303112 -0.036460936 -0.07351058 -0.012720216 0.025390385 0.019574575 0.08596457
-0.03461405 -0.04750829 -0.009286252 -0.017649863 0.07597437 0.05767113 0.15324081 0.1233579
-0.058177166 0.07249501 -0.09068524 0.020844473 0.07455655 -0.14612605 -0.056460768 -0.029273693
-0.067269824 -0.14910015 0.026219487 -0.059323035 0.03345407 -0.028023496 0.059696477 0.01913246
0.18264538 0.004563745 0.024205977 0.040981397 -0.016016103 -0.09063807 -0.08821548 0.044208497
0.11213769 -0.09492363 0.012145207 -0.13559335 -0.06398509 -0.026720695 0.059705622 -0.10066283
0.10793786 -0.04835793 0.0692254 0.12556837 -0.0279214 0.07999067 0.079365164 0.17554711
0.080189966 -0.034176387 0.06537054 -0.10723276 -0.16677994 0.0956306 -0.11464367 0.10336186
0.044315223 0.19722888 0.01075122 0.12112809 0.0029328098 0.1310971 0.050385565 -0.016784385
-0.16726936 0.0174538 -0.047241297 0.043335486 0.041400366 -0.048877027 0.14699729 0.085831314
0.027532773 -0.019258052 0.07302344 -0.08204161 -0.14544314 -0.06049029 -0.05177969 -0.19066283
-0.04578507 -0.09467902 -0.13294064 -0.14285369 -0.14953014 -0.064653404 0.032449268 0.014632313
-0.02307718 -0.055844523 0.046623714 -0.13069145 -0.062446386 -0.10704413 0.027556678 -0.034884077
0.03783909 -0.05409618 -0.14836174 -0.036083072 0.011378611 0.036044687 0.094948255 -0.25362456
0.022164324 -0.029296907 -0.23575273 -0.15315597 -0.06993798 -0.06707442 -0.015525284 -0.004553947
0.10574484 -0.15172422 -0.04552782 0.0078086853 0.08817996 0.005579689 -0.0068682013 0.09441966

bias_hh f4 [256]
00000000: cb1c e7bd da61 773d 212d 503d 8998 313e
00000010: 1f5d 5e3d 75e8 5a3e 9bd1 acbc 8951 d7bc
00000020: 8b3f 1ebd 7e25 d2bd 8120 fd3c 0481 ac3d
00000030: 07cd 253e eb01 b63d 93a4 03bd 52da c43c
00000040: 9c77 143d 2224 83bd 3e24 883d bd3e 11be
00000050: 9e91 edbd 4b1f 13be a7bd 68be 2e54 25be
00000060: f31c 1ebe 4b38 51bd 01d9 0fbe 2187 1dbe
00000070: 7ef9 003c 8cdc bdbd f869 203b 1e2a d2bd
00000080: 50a7 f33c 6258 6cbd c158 343d c5fa c93d
00000090: bfa0 343d 8578 1cbe e037 f7bd 83ec 84bd
000000a0: d8d8 0e3c d150 70be 4622 07be a47e a8bc
000000b0: a985 05be 5c6c af3b 259d 26bd 0ac5 71bd
000000c0: 9b64 b93d 70f8 bbbd 50e2 71bd 96af 26be
000000d0: 266e 703c ff3a 44be 8ec1 4e3c a629 89bd
000000e0: 8820 a1bc 7d0a f4bd 76bf b4bd 66ee 4f3d
000000f0: 4bc9 bbbd 22ce e0bc 13cd 2fbe f230 803d
00000100: 2843 8b3c 545c a83d 5048 95bc 808a edba
00000110: 8827 eb3c 7801 02bd 00cc 1b3b 321a b5bd
00000120: 3437 773d 2e24 ba3d 5ac5 aa3d d091 44bc
00000130: 28e6 e2bd 405b 16bb d8bf d3bd 6882 5bbd
00000140: ea77 83bd ccc8 5cbd e26a e7bd 1e1d d8bd
00000150: 0883 da3c 0826 473d 9002 aabc c056 f1bd
00000160: 780d 5d3d f020 0b3c d8bf 83bd f67e 9e3d
00000170: fa3e da3d 6244 eabd 54b1 6dbd 8a00 d83d
00000180: 6200 8fbd a442 b83d 2e57 ed3d 3ec0 86bd
00000190: 687d b53c 76e9 b63d e0a9 c6bc 806b 203c
000001a0: 30c7 543d 8042 90ba 6095 8fbd fc7c 993d
000001b0: 30dc da3c 184c 5bbd c4c9 4fbd a0fe 0b3d
000001c0: 30aa 403d 2a5b 8d3d c4d0 9abd 706d 0a3d
000001d0: 00de a93c 700e c63d fe2d bdbd d0d4 133d
000001e0: 7eca b7bd 88ea b9bd 68c4 d5bc 602f 62bd
000001f0: 80eb 0ebc 5209 ee3d b67b ff3d f61b b83d
00000200: 16da e3bd 9c3b 0fbe 0fd8 a63a b841 e3bd
00000210: 8a29 743d ae98 33bc 6f90 633d 919b a23d
00000220: f92a 733d 3558 8bbd b120 b23d 7225 c93d
00000230: c8ce 2f3e b471 613d 5a7b bc3d 7072 133e
00000240: 0cf7 9dbd 7e35 f8bc 4d83 b3bd 94a8 3cbd
00000250: cc38 533d 1d1b 04bd ede4 0c3d 64c7 42bd
00000260: 3c9a ae3c dcf1 2dbd d151 a53c 9398 c13c
00000270: 5a54 113d 4991 0b3d 4368 15be 496e a4bc
00000280: a742 fe3b 0e78 e6bd 875a 01be 7963 35bd
00000290: 6912 0bbe 4ee0 40bd 4e52 24bd 8a17 6fbd
000002a0: 3476 233b 1772 523c 418b 0abb 3a44 fabd
000002b0: 2a34 5fbc 752c f63c 606c 73bd 1300 b33d
000002c0: e751 c43b 5e1e 923d 2af3 3f3d f618 16bd
000002d0: 6396 dfbc 57e6 ba3c 7c83 3abd 3bdf a63c
000002e0: 5825 12bd 8014 ec3d 199d 6c3d 779f bebc
000002f0: 52da c0bd 0715 133e b929 083d 7a22 0d3e
00000300: 3a09 03be 3dca 3abd 8e9d b2bd 7b59 cb3d
00000310: 27c6 14be 936f 343e 8f80 b0bc 9000 d7bd
00000320: b91b 8bbe aae5 303d 888e 5dbd 0d29 a23c
00000330: a102 85bd 79e3 1ebb 8a36 c63d 6c35 823d
00000340: a982 c13b 532c 133d 570c 353c eee0 8ebd
00000350: 9ff1 293c 3789 2f3d 2c23 0cbe 7d6d f8bd
00000360: 5d83 f7bd 11a3 c5bd 3f1b 29be b01b aa3b
00000370: 6b59 87bb 41cf fbbd 9765 0c3e f9e4 f7bd
00000380: fca3 e8bd 3a14 7abe 0d73 da3d c466 afbd
00000390: cfa0 a83c c5eb bbbd 4b9d 9ebc 876d bc3d
000003a0: 6318 c6bd 0176 48be 6016 11be 85a3 70bc
000003b0: 47a7 f2bd bbec 883d 4c31 abbd 4a31 0dbd
000003c0: 46ac 413d b381 9dbd 666f 43be 3834 d5bd
000003d0: 3a16 3bbe ba8f 893c 75d3 e4bd 4ec4 473c
000003e0: 0c92 a93d b906 12be 1717 35be bfa0 e5bd
000003f0: efdd 54bd 1503 363d c992 93bc 32f6 b53d
-0.11284789 0.060396053 0.05082429 0.17343344 0.054288026 0.21377738 -0.021096041 -0.026283996
-0.038634818 -0.10261057 0.030899288 0.08423045 0.16191493 0.088870846 -0.032139372 0.024029884
0.03624688 -0.06403376 0.06647538 -0.14184089 -0.1160004 -0.14367406 -0.22728597 -0.16145393
-0.15440731 -0.051079076 -0.14047624 -0.15383579 0.007871984 -0.092705816 0.0024477225 -0.102619395
0.029742867 -0.057701476 0.044029955 0.098622836 0.044098612 -0.1528035 -0.12071204 -0.064904235
0.008718692 -0.23468329 -0.13196668 -0.0205682 -0.13039269 0.0053534936 -0.04067721 -0.0590258
0.09052392 -0.09178245 -0.05905372 -0.16277918 0.014674699 -0.1916313 0.012619389 -0.06697397
-0.019668832 -0.11916063 -0.08825581 0.050764464 -0.09169253 -0.027442042 -0.17168073 0.062593356
0.016999796 0.08220735 -0.018222958 -0.0018122941 0.028705373 -0.031739682 0.0023772717 -0.08842887
0.06035538 0.09088932 0.08338423 -0.011997655 -0.11079055 -0.0022942573 -0.10339326 -0.053591162
-0.06419356 -0.053902432 -0.11299683 -0.10552429 0.026673809 0.048620254 -0.020753175 -0.117841244
0.053967923 0.00849174 -0.06433076 0.077390596 0.10656543 -0.11438824 -0.05803044 0.10546978
-0.06982495 0.08997086 0.11588894 -0.06579636 0.022154525 0.08931248 -0.024250925 0.009791255
0.051947773 -0.0011006147 -0.07010913 0.07494542 0.026716322 -0.053539366 -0.050729528 0.034178376
0.047037303 0.06902154 -0.0755935 0.033795774 0.02073574 0.096707225 -0.09237288 0.036091626
-0.08974169 -0.090779364 -0.02609463 -0.05522096 -0.00872314 0.116228715 0.12474768 0.08989708
-0.11125581 -0.13987583 0.0012729185 -0.11096519 0.059609927 -0.010961695 0.055557664 0.07939828
0.059367154 -0.068039335 0.08697642 0.09821595 0.17168725 0.055040076 0.09203215 0.14399123
-0.07713136 -0.030298945 -0.08765278 -0.046059206 0.051567838 -0.03225242 0.03439801 -0.047553435
0.021313779 -0.042466983 0.020180615 0.023632323 0.035480835 0.0340741 -0.14590554 -0.02007212
0.0077594104 -0.11253367 -0.1263219 -0.044284318 -0.13581242 -0.047088914 -0.040117554 -0.058372058
0.002494228 0.012844584 -0.002114013 -0.122200444 -0.013623277 0.030050496 -0.059429526 0.087402485
0.005991209 0.07134698 0.04686276 -0.0366449 -0.02729339 0.022814913 -0.04553555 0.020370116
-0.035680145 0.115273476 0.057767007 -0.023269398 -0.09416641 0.1436349 0.033242915 0.13782683
-0.12796488 -0.045603026 -0.087214574 0.099291764 -0.14528714 0.17620687 -0.021545677 -0.10498154
-0.27169588 0.043187775 -0.054091007 0.019794965 -0.06494642 -0.002424447 0.09678371 0.06357846
0.0059054685 0.035930943 0.011050305 -0.06976496 0.010372548 0.042855468 -0.13685292 -0.12130258
-0.120856024 -0.09650243 -0.165143 0.005191289 -0.0041305325 -0.1229539 0.13710628 -0.1210422
-0.113594025 -0.24421778 0.106664754 -0.08564523 0.020584492 -0.09175829 -0.019362113 0.09200578
-0.0967262 -0.19576265 -0.14168692 -0.014687424 -0.11848312 0.06685778 -0.08359012 -0.034470834
0.047283433 -0.07690754 -0.19085464 -0.104103506 -0.18270198 0.016792167 -0.11173145 0.012192799
0.08279809 -0.14260377 -0.1768459 -0.112123005 -0.051969465 0.044436533 -0.018014329 0.08884849
