exp1/simple_spread_ddpg_ic3net.pt (torch_old, 167782 bytes, 14 tensors)

weight f4 [64, 23]
0	0x3c905bd3	0.01762191
1	0xbd27904b	-0.040909093
2	0xbdfcd4a3	-0.12345245
3	0x3d47ee65	0.048811335
4	0x3fbccdb8	1.475028
5	0xbff22731	-1.891821
6	0x3d9d3051	0.07675231
7	0xbdf517f2	-0.11967458
8	0xbd2f14c1	-0.0427444
9	0xbcd2709d	-0.025688464
10	0xbd1839a8	-0.03716436
11	0x3d9f3049	0.077728815
12	0xbfdd42da	-1.7286026
13	0x4009ccef	2.1531332
14	0xbd85ed62	-0.06539418
15	0x3d830715	0.06397835
16	0x3dbdb99f	0.0926392
17	0x3e1886ad	0.14895125
18	0xbd137bd2	-0.036006756
19	0xbc86a0e3	-0.016434139
20	0xbd19e2c1	-0.037569765
21	0xbd6d86d0	-0.057989895
22	0xbc9608b9	-0.018314706
23	0xbd96495f	-0.07338213
24	0xbd0b7f7f	-0.034057137
25	0x3e14208a	0.14465538
26	0x3d9a5987	0.07536607
27	0xbb78a9c9	-0.0037942997
28	0xbd5aa348	-0.053378373
29	0x3f7f831d	0.9980944
30	0x3f4b7531	0.79475695
31	0x3cbf4afc	0.023351185
32	0x3d2d9785	0.04238083
33	0x3d7a441f	0.06110012
34	0x3d63ce5f	0.055616733
35	0x3d680def	0.056653913
36	0x3d0a6c8c	0.033794925
37	0xbd1411be	-0.036149733
38	0x3d484cbb	0.0489013
39	0xbd82745e	-0.063698515
40	0xbdbec76f	-0.09315383
41	0xbde26340	-0.11054087
42	0xbe2748e7	-0.16336404
43	0xbcb864a0	-0.02250892
44	0xbdfbdc48	-0.12297875
45	0xbd7d5888	-0.061852008
46	0xbd263467	-0.04057732
47	0xbcd3d1b2	-0.025856826
48	0x3db6086a	0.088883236
49	0x3dd434ce	0.10361634
50	0x3f0413ef	0.51592916
51	0x3f3d94bb	0.7405507
52	0x3ebbe1a9	0.36695603
53	0x3f2a6251	0.6655627
54	0x3ec7c6a5	0.3901874
55	0x3f031e73	0.51218337
56	0xbfb8692f	-1.44071
57	0xbe66747d	-0.22505374
58	0x3f5c2ab3	0.86002654
59	0xbf9f2ec3	-1.2436146
60	0x3c899384	0.016793974
61	0xbcca2427	-0.024675442
62	0x3dd3c737	0.103407316
63	0xbe6237f8	-0.22091663
64	0xbfdb80c8	-1.7148676
65	0xbfda1cbe	-1.7040021
66	0xbfcd8d57	-1.6058758
67	0xbfd59054	-1.668467
68	0xbfd4935e	-1.6607473
69	0x3c7a36db	0.015271868
70	0xbe63dc68	-0.22252047
71	0x3d12058f	0.035649832
72	0x3e10113c	0.14069074
73	0x3c602b8c	0.013682257
74	0x3f945fd0	1.159174
75	0xbc3857b7	-0.011251382
76	0x3f8970f4	1.0737596
77	0xbc66e5e7	-0.014092899
78	0x3f80d3e0	1.0064659
79	0x3d13ffc3	0.036132585
80	0x3e0173af	0.12641786
81	0x3b32fb5b	0.0027310464
82	0xbe969101	-0.29407504
83	0x3cb7c36a	0.022432048
84	0xbd9691cb	-0.073520266
85	0x3e68369a	0.22677079
86	0x3d7bd2ea	0.06148044
87	0xbff56e37	-1.917426
88	0xbfed6fe0	-1.8549767
89	0xbff11638	-1.8834906
90	0xc003307d	-2.0498345
91	0xbfdb13f4	-1.7115464
92	0x3e31278b	0.1730024
93	0xbe4c8923	-0.19974189
94	0x3dcba014	0.09942642
95	0xbda29a86	-0.07939629
96	0xbbe67fde	-0.007034286
97	0xbd20f575	-0.039296586
98	0xbb0e13bb	-0.002167924
99	0x3c0451a6	0.008076107
100	0xbffa4013	-1.9550804
101	0x400b962d	2.181041
102	0xbd762416	-0.060093008
103	0x3df6bdab	0.12047895
104	0xbe175223	-0.14777426
105	0x3e323835	0.17404254
106	0x3d21b473	0.03947873
107	0x3e2459bc	0.16049856
108	0x3d1a2fa7	0.0376431
109	0x39a3cccb	0.00031242365
110	0xbd841981	-0.06450177
111	0x3d791235	0.06080838
112	0xbe1b1ae6	-0.1514698
113	0xbe36f649	-0.17867388
114	0x3db42eab	0.08797964
115	0xbaf18bed	-0.0018428542
116	0x3e6b8ea4	0.23003632
117	0x3eae182a	0.3400281
118	0xbe108c66	-0.14116058
119	0x3f7aad17	0.97920364
120	0xbed8473e	-0.42241853
121	0x3f6db709	0.92857414
122	0xbeeaf459	-0.45889547
123	0x3f7335ac	0.9500377
124	0xbed76b83	-0.42074212
125	0xbf85daa1	-1.0457345
126	0x3de0fa8b	0.10985287
127	0xbfb55ab3	-1.4168304
128	0xbeb30925	-0.34967914
129	0x3c335373	0.010945189
130	0xbda4c63c	-0.08045623
131	0x3c960641	0.018313529
132	0x3be0ecf2	0.0068641836
133	0xbfd84fd5	-1.6899363
134	0xbfdd3861	-1.728283
135	0xbfdedfe1	-1.7412072
136	0xbfdc5b7e	-1.7215421
137	0xbff08c33	-1.8792785
138	0xbd5ec029	-0.054382477
139	0xba5da470	-0.0008454984
140	0x3d59e57d	0.053197373
141	0x3d4d7f90	0.05017048
142	0xbdaf20e4	-0.08551195
143	0xbe0327a0	-0.12808084
144	0xbd6e46fa	-0.058173157
145	0xbdc4d10a	-0.096101835
146	0xbfd109dd	-1.6331135
147	0xbfe1d27a	-1.7642357
148	0xbd358627	-0.04431739
149	0xbda64a34	-0.08119622
150	0x3fef3b8a	1.8690045
151	0x4007985e	2.1186748
152	0x3d86112b	0.06546243
153	0xbcc55efc	-0.024093144
154	0xbd2aaacb	-0.041666787
155	0x3da39392	0.07987131
156	0xbde78cfb	-0.11306187
157	0xbe0492b8	-0.12946594
158	0xbdc04fe8	-0.09390241
159	0xbdcdd3dd	-0.10050175
160	0xbdf55702	-0.11979486
161	0xbe47c546	-0.19508848
162	0x3e4a6eab	0.19768779
163	0xbefc5235	-0.4928147
164	0xbdadd5f4	-0.08488074
165	0x3df05c3b	0.117363416
166	0x3e8febe2	0.28109652
167	0x3d697e92	0.057005472
168	0x3e072058	0.13195932
169	0xbce5cf81	-0.028053047
170	0x3d476dad	0.04868858
171	0x3f9ad847	1.2097253
172	0xbf7a90da	-0.97877276
173	0x3f012b2e	0.5045651
174	0xbeefa4d9	-0.46805456
175	0x3e72e877	0.23721491
176	0x3ce91ca0	0.028456032
177	0xbe188b22	-0.14896825
178	0xbda75e44	-0.081722766
179	0xbff923b8	-1.9464025
180	0xc003fcec	-2.0623121
181	0xbfea953a	-1.832679
182	0xbfea461d	-1.8302647
183	0xbff8c58c	-1.9435287
184	0xbe440c9f	-0.1914544
185	0xbe4457c2	-0.19174102
186	0xbd80ecc2	-0.06295158
187	0xbe0e49f4	-0.13895398
188	0x40061371	2.0949366
189	0x400f2553	2.236653
190	0x3da005ec	0.078136295
191	0x3d985365	0.07437781
192	0x3d33c35b	0.043887477
193	0x3d76c9bd	0.060250986
194	0x3d33eb95	0.04392584
195	0x3d404c0b	0.04694752
196	0x3d7f5909	0.06234077
197	0x3d56056a	0.052251257
198	0xbd352d12	-0.044232436
199	0xbd09b021	-0.033615235
200	0xbb95ec67	-0.0045753005
201	0xbe440c3f	-0.19145297
202	0x3da1fd04	0.07909587
203	0xbdb03650	-0.08604109
204	0x3e4d6200	0.20056915
205	0xbd914f71	-0.0709523
206	0x3e4077ce	0.18795702
207	0xbb113987	-0.0022159533
208	0x3d68467b	0.05670784
209	0xba49cbc1	-0.0007697903
210	0xbd8b1954	-0.0679194
211	0xbabea768	-0.001454574
212	0x3db37e1c	0.08764288
213	0x3d1035ed	0.035207678
214	0x3dbde383	0.0927191
215	0x3d406adb	0.046976905
216	0x40154b58	2.3327236
217	0xbdfe7e01	-0.12426377
218	0xc02e2102	-2.7207646
219	0x3d96ec97	0.07369345
220	0x3cf1591b	0.029461434
221	0x3e154632	0.14577559
222	0xbca33447	-0.019922389
223	0xbd85e4e6	-0.065377995
224	0xbcab66c2	-0.020923022
225	0x3ccc35c2	0.024927977
226	0x3d6b46a3	0.05744041
227	0x3d4a62ce	0.049410634
228	0x3d81d500	0.06339455
229	0x3c19fc55	0.00939854
230	0x3dc9643f	0.098335735
231	0xbe872f99	-0.26403502
232	0x3c8985d6	0.01678745
233	0x3d777b13	0.060420107
234	0x3d2b9a3b	0.041895133
235	0x3daa11ed	0.083042
236	0xbd5a5705	-0.053305645
237	0x3cf67073	0.030082917
238	0xbc18651c	-0.00930145
239	0x3b2f0f8e	0.0026712152
240	0x3e11e5f1	0.14247872
241	0xbe11fd66	-0.1425682
242	0xbf68e25a	-0.90970385
243	0x4012acf7	2.291807
244	0xbd99d479	-0.07511229
245	0xbc90d4ac	-0.017679535
246	0x3d1bda10	0.038049757
247	0xbccdfd5d	-0.025145227
248	0xbe5dd477	-0.2166308
249	0xbe1dedec	-0.15422791
250	0xbe8c43c9	-0.27395466
251	0xbec0c0ce	-0.37647098
252	0xbcb480d8	-0.022034094
253	0xbc5e0e24	-0.013553176
254	0x3cb33b0a	0.021878738
255	0xbb362bfe	-0.0027797217

bias f4 [64]
0	0xbd104bbb	-0.035228472
1	0xbdac9b9c	-0.08428118
2	0xbfe3b630	-1.7789974
3	0xbffbf721	-1.9684793
4	0x3d7577ae	0.05992859
5	0xc00a7f2b	-2.1640117
6	0x3da7505c	0.08169624
7	0xbffef666	-1.9918945
8	0xbe168751	-0.14700057
9	0xbbf620ef	-0.00751125
10	0x3d88b322	0.06674792
11	0xbf87a02f	-1.0595759
12	0xbfc7bf02	-1.5605166
13	0xbd4b4f9e	-0.049636476
14	0xc00f86a1	-2.242592
15	0x3dcc504a	0.099762514
16	0x3a345fbc	0.00068807206
17	0xbdd5eee8	-0.104459584
18	0xbfd486a3	-1.6603588
19	0x3d7f1967	0.062280085
20	0xbde0df8b	-0.109801374
21	0xbfc15928	-1.5105333
22	0xbfe78aec	-1.808927
23	0xbfb6dbfb	-1.4285883
24	0xbf96bbe1	-1.1776086
25	0xbd063b44	-0.032771364
26	0xbdb907d3	-0.090346955
27	0x3dfb4ec9	0.122708865
28	0x3dbdf6ad	0.09275565
29	0xbfef73e0	-1.8707237
30	0xbd879856	-0.06620853
31	0xbfbe90c7	-1.4887933
32	0xbc96ccca	-0.018408198
33	0xbff2b6e1	-1.896206
34	0xbd787f74	-0.060668424
35	0x3d0c83f9	0.034305546
36	0xc00338f1	-2.0503504
37	0xbd4478e9	-0.04796687
38	0x3d0a1e48	0.033720285
39	0x3e027290	0.12739015
40	0xbf2a3ca1	-0.6649876
41	0xbcc30daf	-0.023810236
42	0xbdcdca92	-0.10048403
43	0xbfde638c	-1.7374129
44	0x3df56629	0.11982376
45	0xbfb27503	-1.3941959
46	0x3f73bc4c	0.95209193
47	0x3ceb668d	0.028735423
48	0xbc8c597b	-0.017132511
49	0xbccd97df	-0.025096832
50	0xbdbe1ed4	-0.09283224
51	0xbfa8adb6	-1.3178012
52	0xbf5c5883	-0.8607256
53	0xbd13bd95	-0.03606947
54	0xbfbd91c0	-1.4810104
55	0xc001f607	-2.0306413
56	0xbca439a2	-0.020047013
57	0xbff9b86d	-1.9509407
58	0xbd99e30e	-0.0751401
59	0xbf93a01e	-1.1533239
60	0xc0005e90	-2.0057716
61	0x3c6cdddb	0.014457191
62	0xbb6557a4	-0.0034994865
63	0x3ddf9fdf	0.10919165

weight f4 [1, 64]
0	0xbeeaa4d1	-0.4582887
1	0xbdbd071f	-0.09229874
2	0xbf5bac7b	-0.8581006
3	0x3f4f7784	0.8104174
4	0xbee5aff6	-0.4486081
5	0xbf4f70a4	-0.8103125
6	0xbe8fecb6	-0.28110284
7	0xbf0625a2	-0.52401173
8	0xbed1f414	-0.4100653
9	0xbeb1d106	-0.34729785
10	0x3f3837e4	0.7196028
11	0x3fb62499	1.4229919
12	0xbf37f8fb	-0.7186429
13	0xbe921cf3	-0.28537712
14	0xbf2694ca	-0.65070784
15	0xbea995cd	-0.331221
16	0xbebe8ae2	-0.37215334
17	0xbeede952	-0.46467072
18	0xbf35dc88	-0.7103963
19	0xbedeae10	-0.43492174
20	0xbe47324f	-0.19452785
21	0xbf463c5c	-0.7743585
22	0xbf476e18	-0.77902365
23	0x3fb1b9e8	1.3884859
24	0x3fb5ffa6	1.4218643
25	0xbeb51e77	-0.35374805
26	0xbef5994b	-0.47968516
27	0xbf0afe2f	-0.54294103
28	0x3f61fa43	0.88272494
29	0x3f3ab3b0	0.7293043
30	0xbe463b59	-0.19358577
31	0x3fa42d3b	1.2826303
32	0xbe8961fc	-0.2683257
33	0xbf426081	-0.75928503
34	0xbeb58c20	-0.3545847
35	0x3f39123e	0.7229346
36	0xbf105f13	-0.5639507
37	0xbef6a417	-0.48172066
38	0xbee9dfcb	-0.45678553
39	0xbebee936	-0.372873
40	0x3e688335	0.22706302
41	0x3f024d1b	0.50898904
42	0xbee84f64	-0.4537307
43	0xbf1d54cc	-0.61457515
44	0xbe9afad7	-0.302695
45	0x3f8d488c	1.1037765
46	0xbe277e5d	-0.16356798
47	0xbf194a40	-0.5987892
48	0xbe80f1d7	-0.2518451
49	0xbedcc10d	-0.43116036
50	0xbed9490b	-0.4243854
51	0xbf6bcccb	-0.92109364
52	0x3efe9ede	0.4973058
53	0xbe7c0e64	-0.24614865
54	0x3fc32ba0	1.5247688
55	0x3f374819	0.7159439
56	0xbee2c8ec	-0.44293916
57	0xbf7f136a	-0.99639
58	0xbebeb6f7	-0.37248966
59	0x3fcd3ea2	1.6034739
60	0x3f45b680	0.772316
61	0xbe6e96d2	-0.23299721
62	0xbe85d100	-0.26136017
63	0x3f449c23	0.76800746

weight f4 [5, 64]
0	0xbd4e3149	-0.05033997
1	0xbce7bd6a	-0.028288562
2	0xbc69713e	-0.01424819
3	0xbcabd0fd	-0.020973677
4	0x3dd1f334	0.102514654
5	0x3e09ae49	0.13445391
6	0xbcf250e5	-0.02957959
7	0xbd65f7be	-0.05614447
8	0xbdf4b737	-0.11949008
9	0xbce4d070	-0.027931422
10	0xbc51743b	-0.012784059
11	0x3d795234	0.06086941
12	0xbd040260	-0.032228827
13	0x3d0228be	0.031777136
14	0x3d1bd2d5	0.038042862
15	0xbe2f91ac	-0.17145413
16	0xbca00721	-0.01953465
17	0xbda84c5e	-0.08217691
18	0x3c429345	0.011875932
19	0x3a428d11	0.0007421533
20	0x3d0fdc47	0.035122182
21	0x3d2af3c1	0.041736368
22	0xbd5f3992	-0.054498263
23	0xbc5f355a	-0.01362356
24	0xbd0c2601	-0.03421593
25	0x3ad4c077	0.0016231675
26	0xbe1a5927	-0.15073071
27	0x3d92967d	0.071576096
28	0xbb3ad624	-0.0028508985
29	0x3d5b517c	0.053544506
30	0x3e3a0a9d	0.18168111
31	0xbd163490	-0.03667122
32	0x3c1d5383	0.00960243
33	0x3c9665ce	0.018359091
34	0xbd5e7090	-0.054306567
35	0x3ccb2a27	0.024800373
36	0xbdb7fcac	-0.0898374
37	0x3d662d4f	0.056195553
38	0xbd5d296d	-0.053994585
39	0x3c636f6a	0.013881544
40	0x3cdb7fdd	0.026794368
41	0xbcbe4f83	-0.023231274
42	0xbd6828a3	-0.05667938
43	0xbd004aa1	-0.03132117
44	0x3d193712	0.037406035
45	0xbd5d49a1	-0.054025296
46	0xbd83765a	-0.06419058
47	0x3cf9304e	0.030418541
48	0xbca492cc	-0.02008953
49	0x3bfea893	0.0077715605
50	0x3e24d709	0.16097654
51	0xbcddb5c3	-0.02706421
52	0x3b93c07f	0.0045090313
53	0x3d352dc3	0.044233095
54	0x3d810bd0	0.06301081
55	0xbc424181	-0.011856438
56	0x3d175759	0.036948536
57	0x3b42fb38	0.0029751789
58	0x3c39c7a6	0.011339104
59	0x3dd1d484	0.10245612
60	0xbd140d18	-0.0361453
61	0xbd06d57c	-0.03291844
62	0xbd591449	-0.05299786
63	0x3d70c9b0	0.058786094
64	0xbb047749	-0.00202127
65	0xbd3513d2	-0.044208355
66	0x3e71e0dd	0.23620935
67	0x3e2b684e	0.16739008
68	0x3da03dfc	0.078243226
69	0xbd8b9ebb	-0.06817385
70	0xbe585e96	-0.21129832
71	0xbe2a6c30	-0.16642833
72	0xbe5f66c7	-0.2181655
73	0x3cc0711a	0.023491431
74	0x3b20b1ec	0.0024520112
75	0x3dff17e4	0.12455729
76	0x3d7f691a	0.062356092
77	0xbcc56c7d	-0.024099583
78	0x3dc3706e	0.09542929
79	0xbd114e6d	-0.035475183
80	0xbe53deeb	-0.20690505
81	0x3cc16109	0.02360584
82	0x3d8ea003	0.069641136
83	0x3e073c5c	0.13206619
84	0xbc4cb949	-0.012495347
85	0xbe9d96d8	-0.30779147
86	0x3d81abff	0.06331634
87	0xbd65c679	-0.05609748
88	0xbdca2e4a	-0.0987211
89	0x3e091f39	0.13390817
90	0xbbc507c5	-0.006012889
91	0x3e8afe22	0.27147013
92	0xbe0d5f66	-0.13805923
93	0x3e170e87	0.14751635
94	0x3e8bb0a3	0.272832
95	0xbe8a3eaf	-0.2700095
96	0xbde9a828	-0.114090264
97	0x3e46035a	0.19337216
98	0x3d82e180	0.06390667
99	0x3ed39542	0.41324812
100	0x3d8cb945	0.06871275
101	0xbd8a8568	-0.067637265
102	0xbe04cc3a	-0.12968531
103	0xbe13809e	-0.14404532
104	0xbe4de3b8	-0.20106399
105	0x3c4a8fc2	0.012363376
106	0xbe92e00f	-0.28686568
107	0xbd4fb7af	-0.050712284
108	0xbd18fd62	-0.03735102
109	0xbe87062c	-0.26371896
110	0xbef6ec02	-0.48226935
111	0xbddf9583	-0.10917189
112	0xbcefb335	-0.029260257
113	0xb9854301	-0.0002541766
114	0xbd9ce32c	-0.07660517
115	0xbe1f70f6	-0.15570435
116	0xbdd48485	-0.103768386
117	0xbd5b4761	-0.05353487
118	0x3e306858	0.17227304
119	0x3d533491	0.051563803
120	0x3dfdf67d	0.124005295
121	0x3da5846b	0.08081897
122	0xbd24c6ab	-0.040228527
123	0x3e258e4c	0.16167563
124	0xbc533a2f	-0.01289229
125	0x3eef12d2	0.46694046
126	0xbd16ccc2	-0.036816366
127	0x3d8d3145	0.06894163
128	0xbd4a1245	-0.04933383
129	0x3c6c07d3	0.014406162
130	0xbe1f3d95	-0.15550835
131	0xbe498dbd	-0.19682975
132	0x3d91d1f9	0.07120127
133	0x3e391bb3	0.18076973
134	0x3e0a69ff	0.13516997
135	0x3d1e0b51	0.03858501
136	0x3cecd277	0.028908951
137	0xbe1e8dde	-0.15483806
138	0xbd807d87	-0.062739424
139	0xbd457de4	-0.04821576
140	0xbd375f54	-0.044768646
141	0xbc24bb0d	-0.010054362
142	0x3cdaa8ee	0.02669188
143	0xbdcc6528	-0.099802315
144	0x3e7d47a4	0.2473436
145	0x3cb35af8	0.021893963
146	0xbd7fb2bc	-0.062426314
147	0xbd5e7aea	-0.05431644
148	0xbc83a1a0	-0.01606828
149	0x3e6340f6	0.2219275
150	0xbd5fa80f	-0.054603633
151	0x3e090c3a	0.1338357
152	0x3c7f4cca	0.015582273
153	0xbe862efd	-0.26207724
154	0x3df5316c	0.11972317
155	0xbe38dbff	-0.18052672
156	0xbd135c8e	-0.03597694
157	0x3e199b5f	0.15000676
158	0x3b0ea44d	0.0021765411
159	0x3e4b1b1e	0.19834563
160	0x3d236d80	0.03989935
161	0xbe4bb5d1	-0.19893576
162	0xbe725ae7	-0.23667489
163	0xbe6274d9	-0.22114886
164	0x3d9050b2	0.070466414
165	0xbcbeaa67	-0.023274614
166	0xbca41582	-0.020029787
167	0x3e434e7f	0.19072913
168	0x3e6acc59	0.22929515
169	0xbbca4d41	-0.00617376
170	0x3e4851f3	0.19562511
171	0xbd4eaf6f	-0.050460275
172	0x3c98ec5c	0.018667392
173	0x3e4750dd	0.1946444
174	0x3ec80294	0.39064467
175	0x3e28fb53	0.16502123
176	0x3e358a73	0.17728595
177	0x3d9eed7a	0.07760139
178	0x3de9e641	0.114208706
179	0x3ce6cb70	0.028173178
180	0x3d84c446	0.06482749
181	0xbc9775d2	-0.018488798
182	0xbc44683e	-0.011987744
183	0xbe3488f2	-0.17630365
184	0xbe13c4f1	-0.14430596
185	0xbdc5c7f2	-0.09657277
186	0x3be398ef	0.0069457213
187	0xbdbc4a32	-0.09193839
188	0x3cb0e4fc	0.021593563
189	0xbf043d6b	-0.51656216
190	0xbc7e4a65	-0.015520667
191	0xbde8dcc9	-0.113702364
192	0xbc91a5b5	-0.01777921
193	0x3e3029fb	0.17203514
194	0x3cf056d0	0.02933827
195	0x3d9aef4a	0.07565172
196	0x3d768140	0.060181856
197	0xbdf98f22	-0.121855035
198	0x3e12a5b7	0.14321028
199	0xbdeaa050	-0.114563584
200	0xbe1b197e	-0.15146443
201	0xbd37bdf4	-0.044858888
202	0xbe7dcb9f	-0.24784707
203	0xbe884e38	-0.26622176
204	0xbdd382aa	-0.103276566
205	0x3ac4a1f6	0.0015001881
206	0x3dd1c1f0	0.10242069
207	0xbe944fb2	-0.28967053
208	0x3e107e59	0.14110698
209	0x3d11d129	0.03559986
210	0x3dc81696	0.09769933
211	0xbe469276	-0.19391808
212	0x3cf7dee7	0.030257655
213	0xbe27a5f5	-0.16371901
214	0xbda8bb16	-0.08238809
215	0x3e27f43b	0.1640176
216	0x3da713e8	0.08158094
217	0x3db41764	0.08793524
218	0x3e74b024	0.23895317
219	0x3e4cf0e1	0.20013763
220	0xbe00ccaa	-0.12578073
221	0x3d3d5c5b	0.046230655
222	0x3defcefb	0.117094
223	0xbd9b5fcf	-0.075866334
224	0x3dc27ca7	0.09496432
225	0xba0ec9cc	-0.000544694
226	0xbf196734	-0.599231
227	0x3eca35f0	0.39494276
228	0xbd3bc3f8	-0.045841187
229	0x3cd5042c	0.026002966
230	0x3e51fa26	0.2050558
231	0x3e0f67b7	0.14004408
232	0x3e142a76	0.14469323
233	0x3e15b76e	0.14620754
234	0x3e4c2792	0.1993697
235	0xbe1e2b56	-0.15446219
236	0xbd4f9823	-0.0506822
237	0xbd49b5a1	-0.04924548
238	0xbe064319	-0.13111533
239	0x3c31194e	0.010809256
240	0xbdb6fb57	-0.08934658
241	0xbcaf62ad	-0.021409357
242	0x3e45504b	0.1926891
243	0x3cc20fec	0.023689233
244	0x3d10d022	0.03535474
245	0x3c9df0cd	0.019279862
246	0x3b3448ac	0.0027509136
247	0xbcedce06	-0.029028904
248	0xbe1eb720	-0.15499544
249	0x3db65d20	0.08904481
250	0x3d84053b	0.0644631
251	0x3dd852b3	0.105626486
252	0x3e5a82a2	0.21338895
253	0x3d5e4db9	0.05427334
254	0x3e174fb1	0.14776494
255	0x3dae8a6b	0.08522495

bias f4 [5]
0	0xbc5a8310	-0.013336912
1	0xbcda5b3f	-0.026654838
2	0xbc10c983	-0.008837107
3	0xbd253800	-0.04033661
4	0x3c93803f	0.018005488

weight f4 [64, 18]
0	0x3dcc5ea5	0.099789895
1	0xbd777728	-0.06041637
2	0xbb303ff8	-0.0026893597
3	0x3ad79b08	0.0016449401
4	0xbc3186bd	-0.010835347
5	0xbcd7502a	-0.026283342
6	0xbf89d266	-1.0767334
7	0x3f03e726	0.5152458
8	0xbb1874a6	-0.0023262887
9	0xbbde7a88	-0.006789509
10	0xbd825e1b	-0.063656054
11	0x3cb7057a	0.022341479
12	0xbdca2a43	-0.09871342
13	0x3d3f1a6d	0.04665606
14	0xbdfde4db	-0.12397166
15	0x3dc18513	0.0944921
16	0x3cd01568	0.025400832
17	0xbe111510	-0.14168191
18	0x3ce72731	0.02821693
19	0x3d323267	0.0435051
20	0x3cd0a455	0.025468985
21	0x3c9430f8	0.018089756
22	0xba028adc	-0.0004979798
23	0xbc9da08a	-0.01924159
24	0xbe88e0a4	-0.26733887
25	0xbf099921	-0.5374928
26	0xbcb85a07	-0.022503866
27	0x3c3a2795	0.011361976
28	0xbc25b7aa	-0.01011459
29	0xbb8990ae	-0.0041981554
30	0xbb84e015	-0.004055033
31	0xbc6633a9	-0.014050403
32	0x3d4e0a97	0.050303068
33	0xbd41a5df	-0.047277328
34	0xbdd1d892	-0.10246386
35	0xbd9d7ed9	-0.0769021
36	0xbcdc5c89	-0.026899593
37	0x3d93f21f	0.07223915
38	0xba1ddf49	-0.0006022347
39	0xbb5e1413	-0.0033886477
40	0x3c10099a	0.008791352
41	0xbd1407fa	-0.03614042
42	0x3ea8ac6a	0.32944041
43	0xbf15d741	-0.58531576
44	0x3a388a5d	0.00070396607
45	0x3cc0bac5	0.023526559
46	0x3c857b47	0.016294135
47	0xbcb22e55	-0.021750608
48	0x3c88f13c	0.016716592
49	0xbd32f4e2	-0.04369057
50	0x3e2a1a4a	0.16611591
51	0xba01bdbf	-0.0004949234
52	0x3e462b28	0.193524
53	0x3ca7d676	0.020488005
54	0x3cf568dc	0.029957227
55	0x3d5498e5	0.051903624
56	0x3aa793b9	0.0012785114
57	0xbbb00455	-0.00537161
58	0xbc43b08d	-0.011943948
59	0xbc890b4f	-0.016729025
60	0x3c0fe981	0.008783699
61	0x3ce37333	0.027764892
62	0xbe92f7ac	-0.28704584
63	0xbf20f912	-0.6288005
64	0xba467507	-0.0007570539
65	0xbd16d213	-0.036821436
66	0xbc8efb69	-0.017453866
67	0xbcb9f972	-0.022701953
68	0x3d8a99c1	0.067676075
69	0xbda893a7	-0.082312874
70	0x39dcf7a8	0.00042146188
71	0x3d3ea55e	0.046544425
72	0x3d1650b2	0.03669805
73	0x3cc4c7be	0.024021026
74	0x3bf2e57b	0.00741261
75	0xbd327ce2	-0.04357613
76	0xbda6cbbd	-0.08144329
77	0x3c8cf1e7	0.017205192
78	0xbcb580f9	-0.022156226
79	0x3c9139e6	0.017727803
80	0xbef83c63	-0.4848357
81	0x3cee1772	0.029063914
82	0x3c7e7971	0.015531884
83	0xbd162860	-0.0366596
84	0x3ca0037c	0.019532911
85	0xbbae793d	-0.0053245113
86	0xbcdc5627	-0.02689655
87	0xbca9a78a	-0.020709772
88	0xbd8e3c4e	-0.06945096
89	0xbe574feb	-0.2102658
90	0xbc57db30	-0.013174817
91	0x3da80d72	0.082056895
92	0x3c901fa1	0.017593207
93	0xbd751834	-0.059837535
94	0x3e4e3b28	0.20139754
95	0xbeba94a7	-0.36441538
96	0x3e2e639f	0.1703019
97	0xbecc2550	-0.39872217
98	0x3e1de842	0.1542063
99	0xbec794ab	-0.38980612
100	0xbe5d1710	-0.21590829
101	0xbc63fe4c	-0.01391561
102	0xbe91280b	-0.28350863
103	0xbca7b1cf	-0.020470528
104	0xbd14d9a4	-0.03634037
105	0x3e1c8df3	0.15288524
106	0x3dcdb6e0	0.10044646
107	0xbd739518	-0.05946836
108	0x3c1ecf84	0.00969303
109	0xbb7c97cc	-0.0038542626
110	0xbd4bf30b	-0.04979233
111	0xbcb99671	-0.022654744
112	0xbd4e5148	-0.050370485
113	0x3e69eb20	0.228436
114	0xbd4a5ff5	-0.049407918
115	0x3e6b8e2a	0.2300345
116	0xbdaaf10c	-0.08346757
117	0x3e335299	0.17511977
118	0x3d6707fc	0.0564041
119	0xbead3d83	-0.33835992
120	0x3c37d663	0.011220547
121	0xbe816d93	-0.2527891
122	0x3d759c15	0.059963305
123	0x3c78e7cd	0.015191984
124	0x3c0d2565	0.008614873
125	0x3da1bfc5	0.07897905
126	0x3dd69bb8	0.1047892
127	0x3b84cb9d	0.004052593
128	0xbd2a26a4	-0.041540757
129	0x3b9fb6e2	0.0048740963
130	0xbd2bc542	-0.041936167
131	0x3d6f0af6	0.058360063
132	0xbd099260	-0.03358686
133	0x3c89e740	0.016833901
134	0xbd69ac1a	-0.057048894
135	0x3d4532d8	0.04814419
136	0xbf8df429	-1.1090137
137	0xbe6f0292	-0.23340824
138	0x3e294d58	0.1653341
139	0xbd8c3f5e	-0.06848024
140	0x3d820efb	0.063505135
141	0x3cc1c909	0.023655431
142	0xbd04af65	-0.03239383
143	0x3c2e706b	0.01064692
144	0xbd040c1f	-0.032238122
145	0x3de886ce	0.11353837
146	0xbc531bf8	-0.012885086
147	0xbc851dfe	-0.016249653
148	0x3cb968bb	0.022632947
149	0xbcd1c3ca	-0.025606055
150	0x39abd5aa	0.00032774854
151	0xbcd92434	-0.02650652
152	0x3d19a5d0	0.037511647
153	0xbca5796c	-0.0201995
154	0x3e6e69d6	0.2328256
155	0xbf78dfba	-0.9721638
156	0xbd9386ad	-0.07203422
157	0x3d4eb343	0.050463926
158	0x3d96d022	0.07363917
159	0xbcf18458	-0.029482052
160	0xbe208f69	-0.15679707
161	0x3e8009b3	0.250074
162	0xbd43f11e	-0.04783737
163	0x3b85a8e1	0.00407897
164	0xbc3405b0	-0.010987684
165	0x3c605a21	0.013693363
166	0xbd3150fc	-0.043290123
167	0xbcc195f3	-0.023631072
168	0x3be4e0ae	0.0069847917
169	0x3ba4569e	0.0050152084
170	0x3f0b5ad7	0.54435486
171	0xbd3f5a3c	-0.046716914
172	0x3c873755	0.016505877
173	0xba65e082	-0.0008769111
174	0x3d03e260	0.03219831
175	0x39aff0e6	0.00033558084
176	0xbd5f9d57	-0.05459341
177	0xbc01a637	-0.007913164
178	0x3dfdfc93	0.1240169
179	0xbdc1edb3	-0.09469166
180	0xbb28c15a	-0.0025750012
181	0xbc167597	-0.009183309
182	0xbddfbd2d	-0.10924754
183	0x3d6d6899	0.05796108
184	0xbe476a67	-0.19474183
185	0x3dba9446	0.09110312
186	0xbe208f12	-0.15679577
187	0x3db015df	0.085979216
188	0xbe35ac56	-0.17741522
189	0x3d86b260	0.06576991
190	0x3ef368f2	0.47541004
191	0x3dedd246	0.11612372
192	0x3cc81fdd	0.024429256
193	0xbe13446d	-0.14381571
194	0x3dfb4b20	0.12270188
195	0xbdebb85b	-0.115097724
196	0x3d5990ba	0.053116538
197	0x3c3d8afa	0.011568779
198	0xbd006f37	-0.031356063
199	0x3c8dfd81	0.017332794
200	0xbdb79c7a	-0.089653924
201	0xbd205627	-0.03914466
202	0xbc15deac	-0.009147327
203	0x3ba6d5d3	0.005091408
204	0xb9b2a5d6	-0.00034074363
205	0x3c52f0bc	0.012874778
206	0xba1e6a90	-0.0006043101
207	0x3c175f8b	0.009239088
208	0x3eb389f3	0.35066184
209	0x3b9185d4	0.0044410024
210	0xbd636165	-0.055512805
211	0xbcda7ec7	-0.02667178
212	0x3d0a10bf	0.033707377
213	0xbe39ceb3	-0.18145256
214	0x3cedc8da	0.029026438
215	0xbe872cf5	-0.26401487
216	0xbd73ac4d	-0.05949049
217	0x3d149a4d	0.036279965
218	0xbbfdb18f	-0.007742114
219	0xbb2cc065	-0.0026359793
220	0x3f36c1dc	0.71389556
221	0xbee6ce4c	-0.45079267
222	0x3cdbd21d	0.026833588
223	0xbc99f593	-0.018793857
224	0x3a849a3d	0.0010116767
225	0x3b180900	0.0023198724
226	0x3c0b85a3	0.008515748
227	0xbc6abe2c	-0.014327567
228	0x3d76771a	0.060172178
229	0xbd192240	-0.03738618
230	0xbd29f95b	-0.04149757
231	0xbe878c2c	-0.2647413
232	0x3e0a4315	0.13502152
233	0x3dc53299	0.09628791
234	0x3d908194	0.07055965
235	0x3d875f75	0.06610004
236	0x3d04998a	0.03237299
237	0x3d3b43d6	0.04571899
238	0xbf3fc62e	-0.74911773
239	0xbf4f89eb	-0.8106982
240	0xbc9b77e2	-0.018978063
241	0xbc9fbb9d	-0.01949864
242	0xbc5f330b	-0.013623009
243	0xbc77a447	-0.01511485
244	0xbcbac309	-0.022798078
245	0xbc9dea70	-0.019276828
246	0xbcc1cbd8	-0.02365677
247	0xbca6194a	-0.02027573
248	0x3e18401b	0.14868204
249	0xbdf4141b	-0.11917897
250	0x3c36b591	0.011151687
251	0x3e24936e	0.16071865
252	0xbd51718c	-0.051133677
253	0x3d51c4e6	0.051213168
254	0xbd1ff130	-0.039048374
255	0x3d09f244	0.033678308

bias f4 [64]
0	0x3dd1f5a0	0.102519274
1	0xbddd5435	-0.10807077
2	0x3d98e962	0.07466389
3	0x3db93082	0.09042455
4	0xbe35eafc	-0.1776542
5	0xbf82f2ec	-1.0230384
6	0xbd82e69a	-0.0639164
7	0x3c19e759	0.0093935365
8	0xbb8287c5	-0.00398347
9	0xbdf33ae9	-0.118764706
10	0xbeadb9cb	-0.3393081
11	0xbdea7a14	-0.11449066
12	0x3d329231	0.04359645
13	0x3df2bd75	0.11852542
14	0x3df05bf1	0.117362864
15	0x3d60d51b	0.054890733
16	0xb93e9bfb	-0.00018177919
17	0xbb37c79a	-0.0028042556
18	0x3dbe9de9	0.09307463
19	0xbded0e97	-0.115750484
20	0x3b4f41c6	0.0031624897
21	0xbea73b5b	-0.32662472
22	0x3d659855	0.05605348
23	0xbe44c5c8	-0.19216073
24	0xbdd058df	-0.10173201
25	0xbf2366e4	-0.63828874
26	0x3bc051eb	0.0058691404
27	0x3dbef188	0.09323412
28	0xbb8274b9	-0.0039811996
29	0x3e23f046	0.16009626
30	0xbde7997b	-0.11308571
31	0xbf1665b1	-0.5874892
32	0x3d8b6fe9	0.068084545
33	0x3dd49d1b	0.10381528
34	0xbe1c6ee0	-0.1527667
35	0xbe01e9ac	-0.12686795
36	0xbc160863	-0.009157273
37	0xbd8358ba	-0.064134076
38	0xbe9e6359	-0.3093517
39	0xbda04cbf	-0.07827138
40	0x3ae2cae6	0.00173029
41	0xbdd885dc	-0.10572407
42	0x3e0794df	0.13240384
43	0x3aa83df4	0.0012835846
44	0x3e0b708e	0.13617155
45	0x3d4e2edb	0.050337654
46	0x3da0d5ed	0.07853303
47	0xbbadaaa7	-0.0052998844
48	0xbc04a6ec	-0.008096438
49	0x3de20398	0.11035842
50	0x3b728f8c	0.003701183
51	0x3dcaba37	0.09898799
52	0xbe4279e8	-0.18991816
53	0x3dcff05d	0.101532675
54	0x3de40593	0.11133876
55	0x3dc39c55	0.09551302
56	0x3e4a98e2	0.19784883
57	0x3b04fd96	0.002029275
58	0xbf0d9c6d	-0.5531681
59	0x3d899885	0.06718544
60	0xbe91c665	-0.28471676
61	0x3e276210	0.16346002
62	0x3d8ef61f	0.069805376
63	0xbf3ae0cd	-0.7299927

weight_ih f4 [256, 64]
0	0xbe08288b	-0.13296716
1	0xbd96af9e	-0.07357715
2	0x3de6bf65	0.11266974
3	0xbe6d1a1c	-0.23154491
4	0xbd3bc68c	-0.045843646
5	0xbdf4a2c5	-0.11945108
6	0xbe2dd458	-0.16975534
7	0x3d0c7eca	0.034300603
8	0xbdfc4b3c	-0.12319037
9	0xbda60a59	-0.081074424
10	0x3dd31c27	0.10308104
11	0xbe0f547e	-0.13997075
12	0xbe138cb9	-0.1440915
13	0x3d8cdb16	0.06877725
14	0xbc8e01e5	-0.017334888
15	0xbdcf97fc	-0.101364106
16	0xbe11e248	-0.14246476
17	0x3d4b6513	0.04965694
18	0xbeaf1836	-0.3419816
19	0xbdac9245	-0.08426336
20	0xbdabfb71	-0.08397568
21	0xbdd4a300	-0.10382652
22	0xbe234089	-0.15942587
23	0x3d31fb22	0.04345239
24	0xbe223fbb	-0.15844624
25	0xbd364320	-0.04449761
26	0xbd26180d	-0.04055028
27	0xbe5480f4	-0.20752317
28	0x3d8fa430	0.07013738
29	0xbe12ea41	-0.14347173
30	0xbe1a2506	-0.15053186
31	0xbe547acd	-0.2074997
32	0x3d0924c5	0.03348233
33	0xbec738f9	-0.38910654
34	0xbdfac0ee	-0.1224383
35	0xbe897328	-0.2684567
36	0xbe00d2f9	-0.1258048
37	0xbce8c8ba	-0.028416026
38	0x3e3f5d3f	0.18687914
39	0xbd97023e	-0.073734745
40	0xbdc77ee2	-0.09740998
41	0x3dcb0fef	0.099151485
42	0x3d6789e1	0.056527976
43	0x3d783957	0.06060156
44	0x3dbe027c	0.092778176
45	0x3d448241	0.047975782
46	0xbe43e916	-0.19131884
47	0xbe0a8a65	-0.13529356
48	0x3dcf1f8f	0.10113441
49	0xbe5e389f	-0.21701287
50	0xbe83ad15	-0.2571799
51	0xbd9f6bb9	-0.07784218
52	0xbe25c2d7	-0.16187607
53	0xbe205c78	-0.15660274
54	0x3dde5995	0.1085693
55	0xbe842fcf	-0.25817725
56	0x3cc83aea	0.024442155
57	0xbd7de87e	-0.0619893
58	0xbdca99e1	-0.09892631
59	0x3e544171	0.20728089
60	0x3dc2d276	0.095127985
61	0xbd3241ad	-0.043519665
62	0xb9b9a1d6	-0.00035406527
63	0xbdab92c6	-0.08377604
64	0xbe8854c6	-0.26627177
65	0xbe86f858	-0.26361346
66	0xbe3be5fb	-0.1834945
67	0xbeba887e	-0.3643226
68	0xbe115477	-0.14192377
69	0xbecca598	-0.39970088
70	0xbe8e3429	-0.2777417
71	0x3dab9154	0.083773285
72	0x3dfa5d3d	0.12224815
73	0xbe3d2c0f	-0.18473838
74	0x3e50460b	0.2033922
75	0xbec7a87e	-0.38995737
76	0x3d5a9adc	0.05337034
77	0xbda8a0ce	-0.08233796
78	0x3d50b806	0.05095675
79	0x3e4c3981	0.19943811
80	0x3e0fa5d0	0.14028096
81	0x3e45fdd5	0.1933511
82	0xbe7ab631	-0.24483563
83	0xbe821145	-0.254038
84	0x3d9552b7	0.07291167
85	0xbcf73185	-0.03017498
86	0xbdbe489d	-0.09291194
87	0xbdd7cd68	-0.10537225
88	0x3c95c113	0.018280542
89	0xbe5af9bf	-0.21384333
90	0xbab78452	-0.0014001227
91	0xbe0db4e8	-0.13838542
92	0x3d5bb4ad	0.053639103
93	0xbdcc2656	-0.099682495
94	0x3d71a16f	0.058991846
95	0x3e0d04f8	0.13771427
96	0xbd3ec647	-0.04657581
97	0xbe1bc776	-0.15212807
98	0xbdb76f12	-0.08956732
99	0x3e912e74	0.28355753
100	0xbe60b8d6	-0.2194551
101	0xbda710f1	-0.08157528
102	0x3ebf50ec	0.37366426
103	0xbdf8404d	-0.121216394
104	0xbe07cd40	-0.1326189
105	0xbda8ad2a	-0.082361534
106	0x3db3cab7	0.08778899
107	0x3df2f329	0.11862785
108	0xbe10c66f	-0.14138196
109	0x3c579ba9	0.013159671
110	0xbe0e4d10	-0.13896585
111	0xbec2ed65	-0.38071743
112	0x3d7033e7	0.058643248
113	0x3d9a211f	0.075258486
114	0xbebf86e2	-0.37407595
115	0xbd569a14	-0.052393034
116	0xbdb5af5f	-0.0887134
117	0xbea236d4	-0.31682456
118	0x3dd46422	0.10370661
119	0x3bd79fb0	0.0065803155
120	0xbd9f40c1	-0.07776023
121	0x3e8a23c9	0.26980427
122	0xbe0a46b4	-0.13503534
123	0xbd384990	-0.04499203
124	0xbca35440	-0.019937634
125	0xbeb28b14	-0.34871733
126	0xbe2c66b0	-0.16836047
127	0xbfb13183	-1.3843235
128	0x3e832daf	0.2562079
129	0xbbaf365d	-0.005347057
130	0x3d88c758	0.06678647
131	0xbe3d355a	-0.18477383
132	0xbd118573	-0.035527658
133	0x3d0ac67d	0.0338807
134	0x3e44bd48	0.1921283
135	0xbe992a20	-0.2991495
136	0x3d0e886d	0.034798075
137	0xbe2d8a10	-0.16947198
138	0x3e862987	0.26203558
139	0xbe1fcc9d	-0.15605398
140	0xbe656649	-0.224023
141	0xbf12f73e	-0.5740851
142	0x3d91f147	0.07126098
143	0xbe9d9bf2	-0.3078304
144	0x3e0bb3a0	0.1364274
145	0x3d6fb139	0.058518622
146	0x3dc1bb17	0.09459513
147	0xbdcd96f9	-0.100385614
148	0x3dae7930	0.085192084
149	0xbc7330b9	-0.014843159
150	0xbd18d6eb	-0.037314337
151	0x3e52fec4	0.20604998
152	0xbe9792f1	-0.29604295
153	0xbd347709	-0.044058833
154	0xbe9a0ef5	-0.30089536
155	0x3e323cc1	0.17405988
156	0xbe32cd73	-0.17461185
157	0x3d4a0cbe	0.04932856
158	0xbe0a45e4	-0.13503224
159	0x3da11f1e	0.07867263
160	0x3e39e219	0.18152656
161	0xbde4e813	-0.11177077
162	0xbe4f6026	-0.20251521
163	0x3e4efa7f	0.20212744
164	0xbe7e2bcc	-0.24821395
165	0x3e0d54ea	0.13801923
166	0xbcadf8f6	-0.021236878
167	0xbda116d4	-0.07865682
168	0xbd052473	-0.032505464
169	0xbe09945d	-0.13435502
170	0x3e3c1579	0.18367566
171	0x3d023d75	0.03179689
172	0xbe727851	-0.2367871
173	0xbe0482b9	-0.12940492
174	0xbdff9d68	-0.12481195
175	0xbd191f2d	-0.037383247
176	0x3e1b0419	0.15138282
177	0xbe9b6b7b	-0.3035544
178	0xbdc0cb79	-0.09413809
179	0xbe5a50b4	-0.21319848
180	0x3d2971bf	0.041368242
181	0x3e2dd8e0	0.16977262
182	0x3da5e603	0.08100512
183	0x3d5c1979	0.05373523
184	0x3e45a525	0.19301279
185	0x3c3407b3	0.010988164
186	0xbf05e87d	-0.52307874
187	0xbe5c22d1	-0.21497656
188	0x3e9156df	0.2838659
189	0x3ea1fc86	0.31637973
190	0xbe018998	-0.12650144
191	0x3e06045c	0.130876
192	0x3e0c46b8	0.13698852
193	0xbdd870b3	-0.10568371
194	0x3db7f8b2	0.08982982
195	0xbf0009ff	-0.5001525
196	0xbe6798a0	-0.22616816
197	0xbe38a1d6	-0.18030486
198	0x3dcd1299	0.10013313
199	0x3ee30ded	0.44346562
200	0x3e3e02dc	0.18555778
201	0xbeb07c35	-0.34469762
202	0x3e0030ff	0.1251869
203	0xbd446e31	-0.04795665
204	0x3d29f0cc	0.041489407
205	0x3c872322	0.016496245
206	0xbd65f703	-0.05614377
207	0xbda67e02	-0.08129503
208	0xbbd76364	-0.0065731276
209	0x3ce1b5b9	0.027552472
210	0xbd263648	-0.04057911
211	0x3dbf2740	0.09333658
212	0xbd563fce	-0.052306943
213	0x3e7ac706	0.24489984
214	0xbe2831e2	-0.16425279
215	0xbdefaaf4	-0.117025286
216	0xbcf1b97c	-0.029507391
217	0x3c719d9a	0.014747048
218	0x3e1f2eb1	0.15545155
219	0xbe049064	-0.12945706
220	0x3e177625	0.14791162
221	0x3e6b4df0	0.2297895
222	0x3d854cf3	0.065088175
223	0x3db57736	0.08860628
224	0xbdd05667	-0.1017273
225	0xbd2e8403	-0.042606365
226	0x3c444712	0.011979835
227	0x3e2e6cfe	0.17033765
228	0x3e42f203	0.19037633
229	0x3db105a8	0.08643657
230	0x3dfc60c0	0.12323141
231	0x3e043ef2	0.12914637
232	0x3c9da880	0.019245386
233	0xbe49b934	-0.19699556
234	0x3c77ec1c	0.015131976
235	0xbd6d2379	-0.057895157
236	0x3d7723fe	0.06033706
237	0xbe07b40a	-0.13252273
238	0x3c4daf29	0.0125539685
239	0x3e07cb0e	0.13261053
240	0xbdaa036b	-0.08301433
241	0x3d181703	0.03713132
242	0x3d32d779	0.043662522
243	0xbe48b36a	-0.19599691
244	0xbbf531f8	-0.0074827634
245	0xbeb333b4	-0.35000384
246	0xbe1a5ce5	-0.15074499
247	0x3d2a3654	0.041555718
248	0xbf071809	-0.5277105
249	0x3e436cb8	0.19084442
250	0xbe26ba18	-0.16281927
251	0xbd1d35ed	-0.038381506
252	0x3e2f1764	0.17098767
253	0x3e47e513	0.19520979
254	0x3db94e27	0.090481095
255	0xbc0b19d4	-0.008490045

weight_hh f4 [256, 64]
0	0x3cbf0920	0.02331978
1	0x3b1197c0	0.0022215694
2	0x3df05316	0.117345974
3	0xbdb7f028	-0.08981353
4	0xbc8bba08	-0.01705648
5	0xbcb450d8	-0.022011206
6	0x3dfb01a0	0.12256169
7	0x3dab91dc	0.0837743
8	0xbde2caca	-0.11073835
9	0xbba86b00	-0.0051397085
10	0xbdebdc54	-0.11516634
11	0xbdca86ee	-0.09889017
12	0x3dc79870	0.09745872
13	0xbd9d2890	-0.07673752
14	0xbd83a456	-0.06427829
15	0x3b497900	0.0030742288
16	0x3d907404	0.07053378
17	0x3da641ea	0.08118041
18	0xbdf7e7c4	-0.12104753
19	0xbdaf006c	-0.08545002
20	0xbc59d860	-0.013296217
21	0xbde7d65a	-0.11320181
22	0x3d9702aa	0.07373555
23	0x3da1fc6c	0.07909474
24	0x3ddde322	0.10834338
25	0xbc05d390	-0.008168116
26	0xbdd94656	-0.10609119
27	0xbda95cd0	-0.08269656
28	0x3c7e10b0	0.015506908
29	0x3d51cb90	0.051219523
30	0x3de509d0	0.11183512
31	0xbdb62968	-0.08894616
32	0x3d00e134	0.03146477
33	0x3bc93920	0.006140843
34	0x3df2dece	0.11858903
35	0xbdb700e0	-0.08935714
36	0xbd1d4328	-0.038394123
37	0xbc14a610	-0.0090727955
38	0xbda90a70	-0.08253944
39	0xbd4c6fb4	-0.049911216
40	0x3d1771c0	0.036973715
41	0x3db35d28	0.087580025
42	0xbddc7190	-0.10763848
43	0xbd5c88d4	-0.053841427
44	0xbd614380	-0.054996014
45	0x3d5c3648	0.053762704
46	0x3deef38e	0.11667548
47	0x3de1f6be	0.110333905
48	0xbcf76460	-0.03019923
49	0x3dd5b556	0.10434978
50	0xbd1502ac	-0.0363795
51	0x3da69484	0.08133796
52	0xbd0a151c	-0.033711538
53	0x3d02e78c	0.0319591
54	0xbde3373c	-0.110945195
55	0xbdfe4582	-0.12415601
56	0xbd8b32b6	-0.06796782
57	0x3ce6d7e0	0.02817911
58	0xbc68f180	-0.014217734
59	0xbd5f5c2c	-0.05453126
60	0x3d2019cc	0.0390871
61	0x3db8cb9e	0.09023212
62	0xba613a00	-0.00085917115
63	0xbdb31b60	-0.08745456
64	0x3ded1c80	0.115777016
65	0x3dab06ca	0.08350904
66	0xbd2dedbc	-0.04246305
67	0x3dd537d4	0.10411039
68	0xbda3646e	-0.0797814
69	0xbd755cd8	-0.059902996
70	0x3d7a5b78	0.061122388
71	0x3dae2012	0.08502211
72	0x3d96a52c	0.07355723
73	0xbde2a946	-0.110674426
74	0x3d40d0b4	0.047074035
75	0x3d7472a4	0.059679642
76	0x3dd4b3f8	0.10385889
77	0xbd19b728	-0.037528187
78	0xbdd159b8	-0.102221906
79	0x3d2c7828	0.042106777
80	0x3de22a5e	0.11043237
81	0x3c80cd78	0.015722975
82	0x3dd1c588	0.10242754
83	0xbda9d1e0	-0.082919836
84	0x3d3ee82c	0.046608135
85	0x3dbfd8b6	0.09367506
86	0x3db6bb64	0.08922461
87	0x3d64dfa8	0.055877358
88	0xbcf193d8	-0.029489443
89	0x3cb4fa20	0.022091925
90	0x3c9b2648	0.018939152
91	0x3d6f5510	0.05843073
92	0xbd912fbe	-0.07089184
93	0xbdcbaab6	-0.0994467
94	0xbde59404	-0.11209872
95	0xbb857d20	-0.004073754
96	0xbd5a4058	-0.05328402
97	0xbdcb27b0	-0.09919679
98	0xbd6ea708	-0.058264762
99	0xbba6ac60	-0.0050864667
100	0xbdf60de0	-0.12014365
101	0x3d970ec8	0.07375866
102	0x3da55c1c	0.08074209
103	0x3dea0486	0.11426644
104	0xbde79a4a	-0.11308725
105	0x3d864b8a	0.06557377
106	0x3de1d862	0.110276
107	0xbdf2401e	-0.11828636
108	0x3db4a248	0.08820015
109	0x3d34835c	0.044070587
110	0x3dd00c2c	0.101585716
111	0xbcc2ad40	-0.023764253
112	0xbd9b2c1e	-0.07576774
113	0xbd3fd400	-0.04683304
114	0xbdc27768	-0.09495431
115	0xbaa3e980	-0.0012505502
116	0x3d467460	0.048450828
117	0xbd782610	-0.060583174
118	0xbd8f9ac2	-0.070119396
119	0x3c8b71f0	0.017022103
120	0x3de4c354	0.111700684
121	0xbde0d06c	-0.10977253
122	0x3daca6d6	0.08430259
123	0x3d7b3ca8	0.061337143
124	0x3d624ef8	0.05525109
125	0xbd06d8b0	-0.032921493
126	0x3d5f5b94	0.054530695
127	0x3db917fa	0.09037776
128	0x3da6f49a	0.08152123
129	0xbd13d52c	-0.03609197
130	0x3947c800	0.00019052625
131	0xbdc455ae	-0.095866546
132	0xbdf100be	-0.1176772
133	0xbb84ae40	-0.0040490925
134	0xbd37da88	-0.044886142
135	0xbd54bfec	-0.051940843
136	0xbdca776a	-0.09886058
137	0x3d799ec4	0.060942426
138	0xba981d00	-0.0011605322
139	0xbd601630	-0.05470866
140	0x3dbfb394	0.09360424
141	0xbdb4c62c	-0.08826861
142	0xbdfe8e82	-0.12429525
143	0xbd93f858	-0.07225102
144	0xbd2e3d58	-0.04253897
145	0x3d567c9c	0.05236493
146	0xbd7dff3c	-0.06201099
147	0xbdd11720	-0.10209489
148	0x3cce1098	0.025154397
149	0xbd27da7c	-0.040979847
150	0xbd5c4e00	-0.053785324
151	0x3d90b3f6	0.07065575
152	0xbd0e8638	-0.03479597
153	0xbd0076ac	-0.031363174
154	0xbc9dd980	-0.019268751
155	0x3d2326c0	0.039831877
156	0xbc941b10	-0.01807931
157	0xbdc1f008	-0.094696105
158	0x3db2ee88	0.087369025
159	0x3cae0490	0.02124241
160	0xbdb8fb08	-0.090322554
161	0x3de328ce	0.11091767
162	0xbbcde040	-0.006282836
163	0xbb1f9c80	-0.0024354756
164	0xbdeee82c	-0.11665377
165	0x3d9f6f86	0.07784943
166	0xbdd77ac4	-0.105214626
167	0x3cb62880	0.022236109
168	0x3d59e3d0	0.053195775
169	0x3d7b12f4	0.061297372
170	0xbc9ba128	-0.018997744
171	0x3cd83b90	0.02639559
172	0xbdc1c95c	-0.094622344
173	0x3d9e79f0	0.077381015
174	0x3c204f80	0.009784579
175	0xbdf5145a	-0.119667724
176	0xbda75e10	-0.08172238
177	0x3d126c30	0.035747707
178	0xbdec5fb0	-0.115416884
179	0xbd10e5a4	-0.035375252
180	0xbd670778	-0.056403607
181	0xbd982060	-0.0742805
182	0x3b9554c0	0.004557222
183	0xbdabb11c	-0.0838339
184	0xbd81e332	-0.06342162
185	0x3cdf5118	0.027260348
186	0xbc4ab990	-0.012373343
187	0x3dd4b722	0.10386492
188	0x3ddbd618	0.107341945
189	0xbd2c4f48	-0.042067796
190	0x3dfa5788	0.122237265
191	0xbd2f58b0	-0.04280919
192	0x3c80add8	0.015707895
193	0x3cacb158	0.021080658
194	0xbcbe7e78	-0.023253664
195	0x3a6f8200	0.0009136498
196	0xbccf9500	-0.025339603
197	0x3df4453c	0.11927268
198	0x3dcda5fc	0.10041425
199	0x3c6cb2c0	0.014446914
200	0xbcd58448	-0.026064053
201	0xbd0d0510	-0.034428656
202	0x3d1a9be8	0.03774634
203	0x3d891a3a	0.066944554
204	0x3d9aa354	0.075506836
205	0x3c4f7950	0.0126632005
206	0x3bb79600	0.005602598
207	0xbdbc57f2	-0.09196462
208	0xbd7ca22c	-0.061678097
209	0xbc9314f0	-0.01795432
210	0x3a32e900	0.0006824881
211	0x3dce5c7e	0.10076235
212	0xbcdd8988	-0.02704312
213	0xbdde280a	-0.108474806
214	0x3d9b67c2	0.075881496
215	0x3dbed3d2	0.09317745
216	0x3d9ea71c	0.07746717
217	0xbdd11858	-0.10209721
218	0xbd1b62a8	-0.037935883
219	0xbc253a90	-0.010084763
220	0xbbf3f440	-0.0074448884
221	0x3a468c00	0.0007573962
222	0xbd8123e4	-0.06305674
223	0x3dc87192	0.09787287
224	0xbdfd42e4	-0.12366274
225	0xbdbbacfc	-0.091638535
226	0xbc9169d8	-0.017750666
227	0xbddf8018	-0.10913104
228	0x3d5912f8	0.052996606
229	0x3ddb8168	0.10718042
230	0xbd8f072e	-0.06983791
231	0xbdce3e78	-0.10070509
232	0x3cca7228	0.024712637
233	0x3d5a3788	0.053275615
234	0xbcdbe6b0	-0.026843399
235	0x3d0bd4d4	0.034138516
236	0x3def473c	0.11683509
237	0x3d669c48	0.056301385
238	0xbdfb693a	-0.1227593
239	0x3d79006c	0.060791418
240	0xbdb75cfc	-0.08953282
241	0x3d88c058	0.06677312
242	0x3dcfa342	0.10138561
243	0xbd807a04	-0.06273273
244	0xbc700ee0	-0.014651984
245	0xbc9f98a0	-0.019481957
246	0x3dd75d14	0.105158
247	0xbd88124c	-0.06644115
248	0x3ccb4f90	0.024818212
249	0x3ce6e138	0.028183565
250	0x3da60fb2	0.081084624
251	0x3ba2c9c0	0.004967898
252	0x391aa800	0.0001474917
253	0xbddda13a	-0.10821767
254	0x3d26cb50	0.040721238
255	0xbdb22060	-0.08697581

bias_ih f4 [256]
0	0xbea39444	-0.31949055
1	0xbd916ec0	-0.07101202
2	0xbdd2a2ea	-0.1028498
3	0xbdc8fa22	-0.09813334
4	0xbf036063	-0.5131895
5	0xbe793efa	-0.2434043
6	0xbdc56095	-0.09637562
7	0xbe8082e5	-0.25099865
8	0xbbd034c3	-0.006353946
9	0xbe22d9db	-0.15903418
10	0xbd676511	-0.05649287
11	0xbd2019e9	-0.03908721
12	0xbe3dd31a	-0.1853756
13	0xbe622aa0	-0.22086573
14	0xbd400169	-0.046876345
15	0xbe3c4e40	-0.18389225
16	0x3d2efd00	0.04272175
17	0xbe880365	-0.2656509
18	0xbf031469	-0.5120302
19	0x3e075f51	0.13219954
20	0xbea619b7	-0.32441494
21	0xbdb8157b	-0.08988472
22	0xbd979b04	-0.07402614
23	0xbd2a4cb2	-0.04157705
24	0xbe8ebbc9	-0.27877644
25	0xbe3471ba	-0.17621508
26	0xbd508bcd	-0.050914574
27	0x3daab6c3	0.0833564
28	0xbdcf12be	-0.10110997
29	0xbd301f7d	-0.04299878
30	0xbe82cdb7	-0.25547573
31	0x3d12e992	0.03586728
32	0xbe37ca05	-0.17948158
33	0x3d9f5eca	0.077817515
34	0x3dba9e5a	0.091122344
35	0xbc88668b	-0.016650459
36	0xbdd2a520	-0.10285401
37	0xbf0dac88	-0.55341387
38	0xbdcdeb4f	-0.10054647
39	0xb92729b0	-0.00015941891
40	0x3dc421e4	0.095767766
41	0xbd631902	-0.05544377
42	0xbdedf7f4	-0.11619559
43	0xbefd72c7	-0.4950163
44	0xbe77c29e	-0.24195334
45	0xbe10df46	-0.14147672
46	0x3d390b00	0.045176506
47	0xbd9f5cf6	-0.07781403
48	0xbe1d34d9	-0.15352191
49	0xbeb3110b	-0.3497394
50	0x3d97f7bf	0.07420301
51	0xbdf9b0b2	-0.12191905
52	0xbe4afe5f	-0.19823597
53	0xbe3a27cd	-0.18179245
54	0xbef2d712	-0.4742971
55	0xbcf44abb	-0.02982079
56	0xbdd4dc81	-0.1039362
57	0xbd15dcfb	-0.036587697
58	0xbe936a23	-0.28791913
59	0xbdc5b650	-0.09653914
60	0xbe3fd3d0	-0.18733144
61	0x3c2f331c	0.010693338
62	0xbe65cc5d	-0.2244124
63	0xbe4c277f	-0.19936942
64	0xbdbd1fe2	-0.09234597
65	0x3d5fd394	0.054645136
66	0x3c01f700	0.007932425
67	0xbc2b1f40	-0.010444462
68	0xbdf5d0d0	-0.120027184
69	0xbde84088	-0.11340433
70	0xbd1d91c0	-0.038469076
71	0xbd1dac7c	-0.038494572
72	0xbdbb7096	-0.091523334
73	0xbd8ae742	-0.0678239
74	0xbdd827da	-0.10554476
75	0x3d38d38c	0.04512362
76	0x3d3f4180	0.046693325
77	0xbd627308	-0.055285484
78	0xbdc97cd4	-0.09838262
79	0x3d22f874	0.039787725
80	0xbaa00300	-0.0012207925
81	0xbd2fcf14	-0.042922094
82	0x3d8a49c2	0.067523494
83	0x3c14de10	0.009086147
84	0xbd76cf28	-0.060256153
85	0xbd2ac1ec	-0.041688845
86	0xbd13d030	-0.036087215
87	0xbd15e7b8	-0.036597937
88	0xbd7c7c14	-0.061641768
89	0x3d892428	0.066963494
90	0xbc9eddb8	-0.019392833
91	0x3d872f26	0.0660079
92	0x3c263810	0.010145202
93	0xbdfa2904	-0.12214854
94	0x3de8ecf2	0.11373319
95	0x3d97118c	0.07376394
96	0xbd01c660	-0.031683326
97	0xbca6bf30	-0.020354837
98	0x3d71e034	0.059051707
99	0xbdb333fa	-0.08750148
100	0x3dcce08c	0.100037664
101	0x3dbf6836	0.093460485
102	0xbb92bcc0	-0.004478067
103	0xbc1cd660	-0.009572595
104	0xbdcd5dd6	-0.100276634
105	0x3d8daad4	0.069173485
106	0xbca1bcb8	-0.019743308
107	0x3d0501f8	0.03247258
108	0x3cec7098	0.028862283
109	0x3c82afa8	0.0159529
110	0x3d1774fc	0.0369768
111	0xbda1e00c	-0.07904062
112	0xbc926a30	-0.0178729
113	0xbd7d8e34	-0.061903194
114	0xbd1276ec	-0.035757944
115	0x3c9a17b0	0.018810123
116	0xbc8bd088	-0.017067209
117	0xbdcefd7e	-0.101069435
118	0xbd83f384	-0.06442931
119	0x3d60d350	0.054889023
120	0x3c1ce7c0	0.009576738
121	0x3d5710f4	0.052506402
122	0x3c3efec0	0.011657417
123	0x3d80961e	0.062786326
124	0xbdf56ddc	-0.11983845
125	0x3db838f8	0.08995241
126	0xbd42b4c0	-0.047535658
127	0x3d9ab4b6	0.07553999
128	0x3cad72c5	0.02117289
129	0x3d51b981	0.0512023
130	0xbd71c54e	-0.059026055
131	0xbd93b121	-0.07211519
132	0x3d919fd5	0.07110564
133	0x3d92367b	0.071392976
134	0x3d177993	0.036981177
135	0x3e31b960	0.17355871
136	0x3e416d6f	0.18889402
137	0x3cbaad7d	0.022787804
138	0xbddfdad2	-0.109304085
139	0x3d598136	0.05310174
140	0xbe0454b5	-0.12922938
141	0xbdbca556	-0.09211223
142	0x3d3ba26e	0.045809202
143	0x3c7d6075	0.015464892
144	0xbd07db23	-0.03316797
145	0xbd7cf412	-0.0617562
146	0x3cc5be10	0.02413848
147	0xbc9f173f	-0.019420264
148	0x3d497371	0.04918236
149	0xbda8024f	-0.08203565
150	0x3d08bf2d	0.033385444
151	0x3d517c9c	0.051144227
152	0x3e0a8517	0.13527332
153	0xbdd92044	-0.10601857
154	0x3cd5df77	0.026107533
155	0x3da5dbb3	0.08098545
156	0xbd9cdc63	-0.07659223
157	0x3db7961b	0.08964177
158	0xb797cd4b	-1.80962e-05
159	0xbdffe66a	-0.1249512
160	0x3de7d870	0.11320579
161	0xbd4709c8	-0.048593313
162	0xbd9b53ce	-0.07584344
163	0x3ce5eb99	0.028066443
164	0xbdaaaa7c	-0.083332986
165	0x3d0827f4	0.033241227
166	0x3d4a5747	0.04939964
167	0x3dd4351d	0.10361693
168	0xbc329a18	-0.010900997
169	0xbdbd2226	-0.09235029
170	0x3dfa2c38	0.12215465
171	0x3ded0e57	0.11575001
172	0xbd8ed500	-0.0697422
173	0x3c2b2ee5	0.010448192
174	0xbd891598	-0.06693572
175	0x3e099de8	0.13439143
176	0xbd4be831	-0.04978198
177	0xbe2bd7ae	-0.16781494
178	0x3da84b18	0.08217448
179	0xbd81f8a1	-0.0634625
180	0xbcfe9aa5	-0.0310796
181	0x3d9a0a86	0.075215384
182	0xbca10594	-0.01965598
183	0x3d981ccc	0.074273676
184	0xbd84eb83	-0.06490233
185	0x3db101ec	0.08642945
186	0x3cd88bfa	0.026433934
187	0x3dda1b6c	0.106497616
188	0xbd4fb500	-0.050709724
189	0x3d0a2389	0.033725295
190	0xbdccee29	-0.10006363
191	0xbd800e33	-0.06252708
192	0xbdad0aee	-0.0844935
193	0xbd0e8290	-0.034792483
194	0x3c5499eb	0.01297615
195	0xbd8303b9	-0.063971944
196	0xbebb8c6e	-0.36630577
197	0xbe7c0f73	-0.24615268
198	0xbdce888e	-0.100846395
199	0xbe86b48b	-0.26309618
200	0xbedc0304	-0.4297105
201	0xbe96875e	-0.29400152
202	0xbda6f62b	-0.081524216
203	0xbd5379d7	-0.051629867
204	0xbe430b64	-0.19047314
205	0xbe8cc233	-0.27491912
206	0xbe2ba9be	-0.1676397
207	0xbe1e26e4	-0.15444523
208	0x3da33e0f	0.07970821
209	0xbebdb5ab	-0.37052664
210	0xbee90434	-0.4551102
211	0xbda53f91	-0.08068765
212	0xbe986799	-0.2976654
213	0xbdd02da3	-0.101649545
214	0xbdcc4825	-0.09974698
215	0x3dd54c92	0.10414995
216	0xbd8a6540	-0.06757593
217	0x3d2afba3	0.041743886
218	0x3a2bd58a	0.0006554952
219	0xbc01679e	-0.007898239
220	0xbd85aa85	-0.06526665
221	0xbe862905	-0.2620317
222	0xbde85f51	-0.11346305
223	0xbe394172	-0.18091372
224	0xbd53e56d	-0.05173247
225	0xbc1a009d	-0.00939956
226	0x3cb9c00d	0.022674585
227	0x3df6fb18	0.12059611
228	0xbe1e3b9d	-0.15452428
229	0xbf0987ea	-0.53723013
230	0x3d363548	0.044484407
231	0xbdf0f855	-0.117661156
232	0x3db93b65	0.09044532
233	0xbe6fc941	-0.23416616
234	0x3c267b5f	0.01016125
235	0xbedf975e	-0.43670171
236	0xbd860135	-0.06543199
237	0xbdfbadc9	-0.12289006
238	0x3d8a7985	0.06761459
239	0xbcd1099e	-0.025517281
240	0xbdc95819	-0.098312564
241	0xbe84d8b3	-0.25946578
242	0x3c622253	0.013802129
243	0xbe2c2f19	-0.16814841
244	0xbe27adbe	-0.16374871
245	0xbe59c0b5	-0.21264918
246	0xbe8cd137	-0.27503368
247	0xbd5485f4	-0.05188556
248	0xbbfd99c1	-0.007739276
249	0xbe02d569	-0.12776722
250	0xbe97ea2a	-0.2967084
251	0xbe1151f5	-0.1419142
252	0xbe94d344	-0.29067433
253	0x3cedbf32	0.029021833
254	0xbe492283	-0.19642071
255	0xbe166a52	-0.14688995
