model_save/simple_spread_maddpg/model.pt (torch_old, 138438 bytes, 66 tensors)

value_dict.layer_1.0.weight f4 [32, 69]
00000000: 7241 013d f5e8 a03c bdab 9b3e 4812 b03d
00000010: 17a2 a43c 09bb d7bd 875c 273e f2e4 da3e
00000020: ce98 ae3e 8c13 c3bd 93e6 3abe 5d25 e0be
00000030: 7ce1 58bb 9e86 033f 375d dfbd e717 a03d
00000040: fbf5 f0bd b0b1 7d3d b893 20be 37ff e9be
00000050: c1e4 0dbe e5f5 87bf 3e79 d63d 699e 9e3e
00000060: 0015 bd3e fac8 423f 4982 203f e9e7 013f
00000070: 89de ec3d addb de3e b05f 0abd 7dab 8d3f
00000080: eb9c 813d f7ff ebbd 2239 f03c a8d1 16bb
00000090: 3b9d 11bb 0dd3 dc3e 46d1 47be 044c 793f
000000a0: d52c eb3c a5dc 8dbf 239f 773d 23b1 35bf
000000b0: 7ac9 0f3e 5ded 8bbe 0dd2 fd3d 557e 30bf
000000c0: 9de6 c3bd 9995 94bf 47aa a8bd 6f3c 08bd
000000d0: 4b68 533d 7fa0 de3c b857 33bd fa84 a5bb
000000e0: d665 8bbd c46a 76bd 5ac4 7e3d e97b e73c
000000f0: 2813 a9bd d1ab 293e d2f1 97be 20b5 a83e
00000100: 3118 253e 741d da3d 01c8 483e 20d4 ea3e
00000110: 02f4 81be 4aa3 073f 4db1 973e ae31 2a3f
00000120: f458 2a3e 8d23 46bf 5fab 1b3d 4d8f f4bf
00000130: 89ab e8bf 4f8d 48bf aa97 0cbf edbd 4dbf
00000140: 83d7 0cbf e7c6 56bf 4598 bcbe 3adc 763d
00000150: bb26 77bd 73b7 fdbd 1795 98bd 226c 07be
00000160: f73e a7bd a90b 00bf 6ff0 f1bd 2757 893e
00000170: 37ea 4a3d 312d 0ec0 57ff 9cbf 7f6c b93d
00000180: 33ba 9c3e 38fb 553f 205b b43e 17ea 0d3d
00000190: f5ca 27be 671b 4ebd 9f6c c93d b3cf 00be
000001a0: 3feb f2bd 85e3 863d 8b11 23be 02ae 8fbe
000001b0: 54ed 87bd 01d6 e83e 8b4d 593e 29fe 35c0
000001c0: c83b aabf dfa3 b73e 46a3 6b3e 9d0d 4c3f
000001d0: d3e0 e93c da8b e23d 3bba 033e 120e ee3d
000001e0: cc1c 0abd 255e 363d d2f7 e1bd 50b8 bc3c
000001f0: 298e 0c3f d20a 91be b444 b23e e545 febd
00000200: f0da b13c fd56 b43b d4e6 083e 16b6 e03b
00000210: e969 a03d 0b7b bb3d 7afd f8bd c472 633d
00000220: 3a67 3c3c ecc4 ba3d 6d1d 58be c339 1c3f
00000230: 23c2 84bc f09d 7b3f 5db0 fc3e 3b0c 5abf
00000240: 9758 b73e 42e4 fabe 5754 c73e 2d83 70bf
00000250: efc2 b73e b8f1 8dbf cd8e 123e d3a4 0bbf
00000260: b39f 0fbe ff76 f23c adbd 5ebd b8ce 693e
00000270: 2d25 153e c748 1abf da08 253e 0fb1 63bf
00000280: 5e98 1dbd 7376 493f a5a4 86be fb91 8c3f
00000290: c10b 18be a209 4d3f fece bebe dbd7 9d3f
000002a0: 6e7e 9cbe 46e1 1d3f eeeb bd3c 2b97 92bd
000002b0: a77e 893e f105 223e 10b6 77bd dee8 9e3b
000002c0: 3ffc 96bc 4cf0 18be 81f3 59be 0ec3 d9bc
000002d0: 5ad0 4abe a9f9 af3d 5d94 1abd bd3c ac3d
000002e0: 7ca3 82bd fae3 b53e 4b8e b03e 106d 03bf
000002f0: dd27 66be 1a45 5b3d 4fd6 153d 76b8 bcbc
00000300: 7a68 fc3c fffd 3fbe 5683 1e3e 6511 e03e
00000310: 7db4 c6be 341b 27bd 8404 293e e41f 6bbe
00000320: 78a6 f8be 7826 ea3e 7494 9c3d 351b dabc
00000330: f87b 7b3d 1558 71bd 79da b1ba 8ef9 233e
00000340: 8f11 b9be 0a6d 8e3a fdac 74be 455b f8bd
00000350: 7730 563e d7e1 cebf d584 8a40 17a2 833e
00000360: d38b 0e3d 70bc b03b 77ae 543e 5b75 3fbd
00000370: 281b aa3e d497 1f3d f575 edbb eaf1 333d
00000380: ed41 0fbc 99f4 003e d5a0 c5be 4dea 383e
00000390: 54b3 0fbe 885c 51bd bb71 af3e 98f0 bbbf
000003a0: b787 8f40 2053 8bbe e152 743e f0c9 fa3d
000003b0: d79a 6abe 4729 3cbd 3b53 423f bc9e 423d
000003c0: 610d b9bd ad4f 513e d221 20bd 8008 84bc
000003d0: db3b 813d fb10 89be fc77 033f 33cd d93d
000003e0: eda3 0cbf f1d9 ffbe 2cbc 5a40 1e33 913d
000003f0: 06b5 c4bd 3314 11bd 3ab6 f0be feb7 57bd
0.031556554 0.019642333 0.30404463 0.08597237 0.020096822 -0.10533721 0.1634389 0.42752796
0.34100956 -0.09525213 -0.1825202 -0.43778506 -0.0033093384 0.51377285 -0.10906451 0.07817059
-0.11765667 0.061937034 -0.1568135 -0.45702526 -0.13856794 -1.0621916 0.10472344 0.30980232
0.36930084 0.76087916 0.626988 0.5074449 0.11565883 0.43526974 -0.03378266 1.1067959
0.06328758 -0.11523431 0.029324118 -0.0023013148 -0.002221896 0.4312977 -0.19513425 0.97381616
0.028707901 -1.108296 0.0604545 -0.70973414 0.14041701 -0.2732953 0.1239358 -0.6894277
-0.0956547 -1.1608154 -0.08235603 -0.03326076 0.051613133 0.02717614 -0.043784827 -0.0050512524
-0.06806533 -0.060160413 0.062198974 0.028257327 -0.08255607 0.16569449 -0.29676682 0.32950687
0.1612251 0.10650149 0.19607545 0.45864964 -0.25381476 0.52983534 0.29627457 0.66482055
0.16635495 -0.77397996 0.03800523 -1.9106232 -1.8177348 -0.7834062 -0.5491892 -0.8036793
-0.55016345 -0.8389725 -0.36834922 0.06026862 -0.06033967 -0.12388506 -0.07450312 -0.13224843
-0.081663065 -0.5001779 -0.11813437 0.26824304 0.04953977 -2.2215083 -1.2265424 0.09053897
0.3061081 0.83586454 0.35225773 0.034647074 -0.16386016 -0.0503191 0.09835171 -0.12579231
-0.11861276 0.06586365 -0.15924661 -0.28062445 -0.066370636 0.45475772 0.21220987 -2.8436377
-1.3299494 0.3586721 0.23011503 0.7970827 0.028549587 0.11061831 0.1286401 0.116237774
-0.03371887 0.044523377 -0.11033596 0.023037106 0.5490442 -0.28328568 0.3481804 -0.12415675
0.021710843 0.005503534 0.13369304 0.006857644 0.07832701 0.09154328 -0.12157722 0.05552937
0.0114992205 0.09119591 -0.21104975 0.6102564 -0.016205853 0.9828787 0.49353305 -0.8517491
0.35809776 -0.49002272 0.38931534 -0.9395016 0.3589091 -1.1089392 0.14312287 -0.54548377
-0.14025764 0.029597757 -0.054380108 0.22832763 0.14564963 -0.602673 0.16116658 -0.88942045
-0.038475387 0.78696364 -0.2629749 1.098205 -0.14848234 0.80092824 -0.37267298 1.2331499
-0.30565208 0.61671865 0.02318379 -0.07157739 0.2685444 0.15822579 -0.060476363 0.0048495373
-0.018430827 -0.14935416 -0.21284296 -0.026582267 -0.19806042 0.08592541 -0.037739147 0.084100224
-0.063788384 0.35525495 0.3448356 -0.5133829 -0.22476144 0.053532697 0.036581334 -0.023037177
0.030811537 -0.18749236 0.15479788 0.4376327 -0.38809577 -0.040797427 0.16505629 -0.22961384
-0.48564506 0.45732474 0.07645503 -0.026624301 0.061397523 -0.058921892 -0.0013569138 0.16013166
-0.3614621 0.0010866236 -0.23894115 -0.12126783 0.20916925 -1.6162671 4.328715 0.25709602
0.034801316 0.0053935573 0.20769678 -0.04674278 0.33223844 0.038963154 -0.0072467276 0.04393188
-0.008743745 0.12593307 -0.38599268 0.18058129 -0.14033252 -0.051113635 0.34266457 -1.4682798
4.4853168 -0.27211857 0.23859741 0.12245548 -0.22910629 -0.045937803 0.7590825 0.047514662
-0.09035755 0.2044055 -0.039094754 -0.016117334 0.06310245 -0.26770768 0.51354957 0.10634842
-0.5493763 -0.49970964 3.417735 0.07089828 -0.0960484 -0.035419654 -0.47014028 -0.052665703

value_dict.layer_1.0.bias f4 [32]
00000000: 20fc 33bd 789f 253e 7a3f eebd 443d b1bd
00000010: de13 acbd f535 6fbd 4cec 6440 df4b 6bbd
00000020: 0204 8b40 08bc 15be bf70 92bd 4e7e 64bb
00000030: d055 2ebd 6236 34bd 4a3a 06be ba43 7e3d
00000040: 5cac e1bd 444f 24be ecc1 92bd 71fd debd
00000050: 48b5 d5bd a2ec 4440 a751 85c0 d654 45bd
00000060: 726f afbd cab4 8abd 3a61 0dbe 7843 efbc
00000070: 6649 a1bd 5b76 f4bc 5806 6ebd 1c9c c5bd
-0.043941617 0.16174114 -0.11633201 -0.086542636 -0.08402227 -0.058401067 3.5769224 -0.057445403
4.344239 -0.1462251 -0.07150411 -0.0034865323 -0.042562306 -0.043997176 -0.13108173 0.062076308
-0.11019203 -0.16045862 -0.07165894 -0.10888184 -0.10434967 3.076943 -4.1662173 -0.04817661
-0.085661784 -0.06772764 -0.1380662 -0.029206976 -0.07875328 -0.029841593 -0.05811152 -0.09648916

value_dict.layer_1.1.weight f4 [32, 69]
00000000: c69b 393d c929 843c 0e4a 043f 64d0 02be
00000010: 17be c2be f255 0dbe 13fd a9be a83a 08bf
00000020: 62bd 0340 dcc3 453f 80e6 b2be 1618 e3bd
00000030: c719 00be c7fa 98bd 2c23 293e b77d ec3c
00000040: 91a0 3e3d a31f 903b 24cd 3fbf 9604 98be
00000050: 0ec6 58bf c6c7 27be 6338 a83f 57db ad3d
00000060: 9115 103f cb92 4d3f df0b a240 aec2 fa3f
00000070: bd29 023f 805c b93d f6ef fc3e 7e2a 8e3e
00000080: f7a1 a2bd 3761 f2bc ab1f bc3c c0d7 3bbd
00000090: 0ae6 b53c 8083 88bc 4093 c83e f394 7d3e
000000a0: bdce 56bf 92fa e93c 55be 6dbe 6f8a 86be
000000b0: 7b60 0840 a6a8 4a3f f739 f33d 78b3 72bb
000000c0: 23d7 e8be f11e adbd 0f69 d9bd 0327 e13c
000000d0: c460 1bbe 20ec 45be f2d0 cb3d d4d2 743d
000000e0: e291 163b dee7 463d c7e4 583d f9f8 32bb
000000f0: 7a71 00bf 1e41 db3e 1766 51be 7858 533e
00000100: fa80 19bd 2f8a e33c ac3d 30bd 5bd0 77bd
00000110: 7fe2 43bd 94a2 47bf 1470 83be ecbb 4dbf
00000120: 81e5 c1be 5c34 043f 27a8 a83e 8e61 453f
00000130: 041e bc3e e720 8d40 a51d b43f d05b 283f
00000140: 7733 9c3e 3965 473f cedd c23e e5b7 d6bc
00000150: de0e 0d3e 3675 4a3d 0842 44bd 619d 703d
00000160: 686a 053c 340f 0f3e cb99 7c3e 53fa cebe
00000170: d453 22be ad71 2dbe d3d8 a33d 2b25 0840
00000180: e98e 773f 9168 3ebf 808d e7be 8e56 5d3d
00000190: 93f2 a6bd 4b66 413e af74 d53d 4d23 8f3d
000001a0: 8f3b d0bb 8e21 693d 78b6 073d 10c1 2c3f
000001b0: cd28 6f3e 7553 5d3b 8cdc 9ebd e206 03bf
000001c0: 0fa7 adbe c82c 4640 0cf7 cc3f 6dcc 59bf
000001d0: e456 d6be a169 3abd fa05 ddbd 72a6 933d
000001e0: 3dee 5ebd d309 3b3b 62e9 eb3d 65b7 293c
000001f0: 0d5d 0dbf b363 023f 3c85 49be 749e 353e
00000200: 4e16 ddbd 31c7 a63c e133 ffbb 77ae b2bd
00000210: d423 87bd 559a 0abd e683 6f3c 348e 343c
00000220: 9545 1b3c a6e0 93bc 75a9 9f3b 6b77 04bd
00000230: 1f15 813e bd7a 9b3e 53a2 eb3f 3dae 8f3f
00000240: 0000 1ebe 1bdc e5bd a371 92be b32e babc
00000250: 7151 1abf 6492 c5be 1513 31bc 050e cf3d
00000260: cf38 363d d284 f03c bb63 7abd 9fb7 b63d
00000270: a40b 0fbf 3861 fabe 2ca1 e0be 1534 adbe
00000280: 3f5b 8240 918b 5040 c3ff 1b3f 04bd 5b3e
00000290: 3bed f03e e44e 823e 2d74 0b3f 88c3 d33e
000002a0: 7d56 013f d22b 8a3e 5444 a93d 76c3 83bc
000002b0: b223 1b3e d5ae fa3c 22ef aabd 066c 0ebd
000002c0: e713 6d3e 8430 853d aeb4 dd3f 2ad6 973f
000002d0: 939f 0bbe 06dc 0c3c 98ea 61be 2605 40be
000002e0: abcb aebc 681b c2bb e442 0bbf cf28 09bf
000002f0: 6a92 4cbe a2bd 813d 8a8b 4e3d 273d 3cbe
00000300: 029f cd3d dcff ffbc 1037 783d 8cd0 00bd
00000310: e5c1 d5bc ae37 16bc c824 e4be f432 d23e
00000320: 654c 93be 5f2e 8f3e 5594 13bd f5b6 1abd
00000330: faec 6ebd 51ad 48bd 6906 cbbd 7714 213f
00000340: a1fd bf3e 95d8 753f 3041 0b3f ae16 71bf
00000350: 3d32 bfbe 5a10 41bf 8ecf c1be 4331 55bf
00000360: 8bf9 c4be 6a66 f7be 47e8 cf3d 01e5 cabf
00000370: f45f 87bf 5d71 d23d 937b 863b 4387 4cbd
00000380: e095 923d 4992 c43d f68f 493c 9d18 f83d
00000390: 9be8 1ebe 1bad 8f3c b99a bd3d 270a f23d
000003a0: 2c19 bd3d 780a c1bd 0e4b d9bd cedd a93e
000003b0: 74cc 66be 4c42 f4be ea94 2fbd e3b8 80bc
000003c0: 1428 23bd 632c ebbd f150 8cbd 39a3 3abf
000003d0: 4b18 e1be f932 92bf 6cc7 e8be 1b5d 7b3f
000003e0: 5257 c13e 8196 4e3f 1328 a83e 5196 803f
000003f0: 9d12 eb3e 2e27 b43f 637a 603f cb34 bc3e
0.045314573 0.016133206 0.516755 -0.12774807 -0.38035652 -0.13802317 -0.33200893 -0.532145
2.058434 0.7725198 -0.34941483 -0.110885784 -0.12509833 -0.07469707 0.16517323 0.02886854
0.046539847 0.0043983026 -0.74922395 -0.29691 -0.8467721 -0.16384801 1.3142208 0.084891014
0.5628291 0.80302113 5.063949 1.9590662 0.5084494 0.09050846 0.49401826 0.27766794
-0.079410486 -0.029587371 0.02296432 -0.045860052 0.022204418 -0.016664267 0.39174843 0.24763851
-0.8390921 0.028561864 -0.23217137 -0.2627749 2.1308887 0.7916359 0.1187629 -0.0037033241
-0.45476636 -0.08453167 -0.106157415 0.027484423 -0.15173632 -0.19328356 0.099519625 0.059771374
0.0022975137 0.04856097 0.052952554 -0.0027309044 -0.5017315 0.42823118 -0.204491 0.20639217
-0.037476517 0.027775852 -0.043027565 -0.060501438 -0.047823425 -0.7798245 -0.25671446 -0.8036487
-0.3787041 0.51642394 0.3294079 0.7710198 0.3674165 4.4102664 1.4071547 0.65765095
0.30508015 0.7788883 0.3805985 -0.026210735 0.13775203 0.049428187 -0.047914535 0.05874384
0.008143045 0.13970643 0.24668042 -0.40425357 -0.1585229 -0.16937895 0.0800034 2.1272686
0.9670244 -0.74378306 -0.45225143 0.054037623 -0.08151736 0.18886678 0.10422646 0.06989155
-0.006354756 0.056916766 0.033133 0.6748209 0.23355408 0.0033771668 -0.0775691 -0.5118238
-0.33916518 3.0964832 1.6012893 -0.85077554 -0.41863167 -0.04551089 -0.107921556 0.07209481
-0.05442642 0.0028539791 0.115191236 0.010358666 -0.5522011 0.5093338 -0.19679731 0.17736226
-0.1079527 0.020358654 -0.007788167 -0.08724683 -0.065986305 -0.03383859 0.014618849 0.011020232
0.009477039 -0.018051457 0.004872496 -0.03234045 0.25211427 0.3036708 1.8408912 1.1225048
-0.15429688 -0.112236224 -0.28602323 -0.022727346 -0.6028052 -0.3858825 -0.010807772 0.10110096
0.04448777 0.029360209 -0.061130267 0.08921742 -0.5587714 -0.48902297 -0.43872964 -0.33828798
4.0736384 3.2585185 0.60937136 0.21458822 0.47055992 0.25450814 0.54474145 0.41360116
0.50522596 0.26986557 0.08264986 -0.016084414 0.15150335 0.030600945 -0.08346392 -0.034770988
0.23152123 0.06503394 1.7320764 1.1862233 -0.13635091 0.00859738 -0.22062147 -0.18751964
-0.02133735 -0.0059236772 -0.5439894 -0.53577894 -0.19977728 0.06334998 0.050426044 -0.18382703
0.10040094 -0.031249933 0.060599387 -0.031448886 -0.026093433 -0.0091685485 -0.44559312 0.410545
-0.28769222 0.27965066 -0.036030132 -0.037772138 -0.058331467 -0.048993412 -0.09913332 0.6292185
0.3749819 0.960336 0.54396343 -0.9417523 -0.37343016 -0.75415576 -0.37853664 -0.8327829
-0.38471636 -0.48320323 0.10151725 -1.5851136 -1.0576158 0.102755286 0.0041040867 -0.049933683
0.07157493 0.09598214 0.012302389 0.121140696 -0.1551842 0.017538598 0.09258027 0.11818343
0.09233317 -0.09425825 -0.10610019 0.33177036 -0.2253893 -0.4770683 -0.042866625 -0.01571316
-0.039833143 -0.114830755 -0.06851376 -0.7290531 -0.43963847 -1.1421806 -0.45464647 0.9818894
0.37761933 0.806984 0.32843074 1.0045873 0.45912638 1.4074457 0.8768675 0.36759028

value_dict.layer_1.1.bias f4 [32]
00000000: 66d8 76bd b23e 09be 7fc6 c6bd b71f 1fbe
00000010: c5c7 8140 e352 8dbc faae 23be 4d15 99bd
00000020: b0b7 3ebe 06c3 f7bd 910b 6f40 e8f6 a0bd
00000030: 56c7 4fbd d23a d640 60d7 69bd 95aa cdbd
00000040: 86bc acbd c5e3 5c40 701d f1bc 74ee fe3d
00000050: 37cb 78bd 0af5 a33d 8b75 97bb 9872 f2bd
00000060: e5f5 2a3d edcf febd 5245 4abd 7ec6 19be
00000070: a16d acbc 58cd 6dbd b37f 8c3d 406c e53b
-0.060264967 -0.13402823 -0.09705829 -0.15539442 4.055636 -0.017251438 -0.15984717 -0.07474766
-0.18624759 -0.12097745 3.735081 -0.07859594 -0.05072721 6.69468 -0.057090163 -0.100423016
-0.084343955 3.451402 -0.029432982 0.12447825 -0.060740676 0.08005722 -0.0046221665 -0.11838263
0.04173841 -0.124420024 -0.049382515 -0.15017125 -0.021048369 -0.05805716 0.06860294 0.00700143

value_dict.layer_1.2.weight f4 [32, 69]
00000000: 5d7b c2bd 46e7 9abd 2286 b7bd 3c16 143f
00000010: c4a5 d0be 7a1f 9040 2ede d8bd 3c70 25bf
00000020: 512b 603e b58f 4abf 85f6 f13d 21f6 8ebf
00000030: aa4c 423d 1cd5 dc3b df5b e53d 2f5f 143d
00000040: 8091 a63d e6a0 963d 91c8 233e 4ebe 81bf
00000050: adfb 583e 806a 8cbf 7f1c bfbf e1ed d240
00000060: 280f c33d 6af8 af3f 857e 0cbe 63b1 9d3f
00000070: ae07 fbbb 340f 973f aa9a 82bd a341 8e3f
00000080: 1f30 223e 187f 843d 9073 4dbc 9ff8 c4bd
00000090: 200e 5cbd e6c3 e8bb ca13 0fbc 5c07 f03e
000000a0: 9f46 88be a935 7640 9b66 c23d 74ea 23bf
000000b0: 0d64 883d b8a3 04bf 3016 0fbd c89a 063e
000000c0: 19da 093c 4968 96bf 8afe d5bd 8d91 03bd
000000d0: 13f0 143e f183 40bd ec2f 65bc 5f1b 20be
000000e0: 0101 88bd cfde eebc 8a81 0abe 703e 0dbe
000000f0: 3bbd 32bd aa08 8ebe f2b0 69bf c620 403f
00000100: 140a 0abe 65ef 1dbd 99da d2bd cedd a7bd
00000110: 6003 5fbe 8c38 6a3e 3714 333f 68ec 1dbd
00000120: 92bf 9a3e b628 eebe 9c3d 01bf 695a f1bc
00000130: 792d e1be 5a48 21c0 afaf adc0 6d4a a83d
00000140: 0e1a 13be 7f7e 6dbe 6934 74bf 0e1a 13be
00000150: ba33 6c3c cbc9 db3d da7e 5a3e 9352 7c3e
00000160: b5a2 ca3e 3a45 a2bd 234c d63e 6dc6 92be
00000170: 2087 a8be 0790 1b3c 5817 4fbe f26c dfbf
00000180: fce8 d0c0 29c5 6ebe 1d1b 8b3b 4424 03bf
00000190: 4c48 e1be c65d 0ebe 62a4 2d3e 69c9 cc3c
000001a0: 05b6 f23b e6c3 3cbd 1e4d 913d 90fa d4bd
000001b0: 82a9 34bf 9e00 07be 6972 1f3f 2e36 353d
000001c0: 605d 253f ff8f c8bf c114 90c0 622c 8a3e
000001d0: 04c1 163f cae1 de3e d9a9 133f 3b1c 0bbe
000001e0: 85a6 ae3d c438 b0bd eb0f bb3d 24cd ac3d
000001f0: e751 693e 452f 1ebe c1e9 0c3f 5bb4 fabe
00000200: 4388 ab3d 82f8 1d3e ab19 51be 1a83 0e3f
00000210: f70c e7be a84b 5c3d 5fde c8bd 55d5 6e3d
00000220: 1792 b0bc 691a bcbd 0b12 c33d 24fc eb3c
00000230: 0800 3fbd 057b 7cbe c985 8d3b e3ed 1b3e
00000240: 8be0 49be f48b 15c0 d82b bbbc f1c8 8f3e
00000250: 615f adbd 74a2 063e ebf4 883d 05ae 443f
00000260: 1545 5abd e735 a03d 4bd2 e2bc 4a24 c0bd
00000270: 349c 75bd 9f1f c2bb 64c2 0c3d 0107 b6be
00000280: d3ca 4bbe e53f 413e d469 d9bd 6100 09c0
00000290: 7a86 7a3e 7ef4 583e d49f 55bd 2af6 1ebd
000002a0: c410 1c3e 631d 413f 671e 04be 3a59 7abe
000002b0: 5b4d 5d3e 1883 233d fcca 003e 24a8 363f
000002c0: b1f5 a43d c95b 123f 1a8b f6bc a093 0fbf
000002d0: fdac 82bf 6d86 b6c0 683f 5fbe 19eb 14bf
000002e0: de10 ccbd 051d 33bf 789a 62bd 8fbd 32bf
000002f0: f39c 123e 4ff6 1bbd 6fb3 9e3b 4e43 03bd
00000300: 2848 88bc 947d c73c d168 c53b d1d9 0e3d
00000310: fb4a f4bc 1b31 a03c b160 1e3c f1d2 283b
00000320: 1a0a 3d3c 185d 203d 21d4 87bc a58e 8c3d
00000330: d505 edbd 20bd 073f 529a 11bf 7f7c 593c
00000340: 2874 c2be 8ea3 4a3b 929c 34bf 5ca4 efbd
00000350: 1f88 7740 2602 a5bc cfcc 8c3e 022c 3a3e
00000360: 5215 ba3e e3c8 b1bd 6169 253d 37d4 2ebe
00000370: 24b9 403f e366 1d3c f347 b93c 74b3 c6bb
00000380: c8ce 693d cdd6 0b3e 9c27 cabe 440c 43be
00000390: 2f6b 84be 4c6b 203f e3d4 a940 44f5 3ebe
000003a0: 8337 7bbd da0c ac3b 99e2 693e a5fc 2dbe
000003b0: ad0d 84bd 63da b43d 5f90 003f 3e75 0cbd
000003c0: 8621 33be ff59 61bc 749a 26bd 3b4a f73d
000003d0: 8bf4 e53d 8489 3b3d b488 0d3f c6f0 523e
000003e0: 9406 9940 c416 893d 357d 0abf 7ae0 553e
000003f0: 57a2 58bf 4303 c0bd 7e8a 58bf 7cf6 dbbd
-0.09496186 -0.07563643 -0.08961131 0.57846427 -0.4075147 4.5038424 -0.105892524 -0.6462438
0.21891524 -0.7912553 0.11814598 -1.1168863 0.047436394 0.006739272 0.11199164 0.036223587
0.08133221 0.07354908 0.15994479 -1.0136201 0.21189757 -1.0970001 -1.4930571 6.591538
0.09524375 1.3747685 -0.13720138 1.2319759 -0.0076608276 1.1801515 -0.06377156 1.1113781
0.15838669 0.06469554 -0.012539759 -0.09617733 -0.05372441 -0.007103431 -0.008732745 0.46880615
-0.2661638 3.8470252 0.09492227 -0.6402962 0.06659708 -0.51812315 -0.03493327 0.13144982
0.008413815 -1.1750575 -0.1044894 -0.03212123 0.14544706 -0.04700083 -0.013988476 -0.15635441
-0.066408165 -0.029158978 -0.13525978 -0.1379335 -0.043637495 -0.27740985 -0.9128562 0.7505001
-0.13480407 -0.038558383 -0.102956004 -0.08196603 -0.21778631 0.22873133 0.6995272 -0.038555533
0.30224282 -0.46515435 -0.50484633 -0.029462056 -0.43980005 -2.520041 -5.4276958 0.082173206
-0.14365408 -0.23192786 -0.9539247 -0.14365408 0.014416629 0.10731848 0.21337453 0.24640875
0.3957726 -0.0792336 0.41854963 -0.28667012 -0.32915592 0.009494788 -0.20223749 -1.7455122
-6.5284405 -0.23317398 0.0042451755 -0.5122721 -0.4400047 -0.13902959 0.16957238 0.024998384
0.0074069523 -0.04608526 0.07094787 -0.103993535 -0.7057115 -0.13183829 0.6228395 0.044241123
0.64595604 -1.5668944 -4.5025334 0.26986986 0.5888827 0.43531638 0.5768104 -0.13584988
0.08527855 -0.08604577 0.091338955 0.08437565 0.2278515 -0.1544772 0.5504418 -0.48965725
0.08375599 0.1542683 -0.20419948 0.55668795 -0.4512708 0.05378309 -0.09808039 0.058308918
-0.021554036 -0.09184725 0.09524926 0.028806753 -0.04663089 -0.24656303 0.004318927 0.15227465
-0.19714563 -2.336667 -0.022848055 0.28082994 -0.08465458 0.13147908 0.066873394 0.7682803
-0.053288538 0.07822781 -0.027688166 -0.093819216 -0.05996342 -0.0059241797 0.034365073 -0.3555222
-0.1990159 0.1887203 -0.10615888 -2.1406481 0.24465361 0.21187016 -0.052154377 -0.03880898
0.1524077 0.75435466 -0.12902223 -0.244481 0.2161154 0.039919943 0.12577432 0.7135031
0.080546744 0.57171303 -0.030095626 -0.5608463 -1.0209042 -5.7039094 -0.21801531 -0.5817123
-0.09964155 -0.69966155 -0.055323094 -0.69820493 0.14317684 -0.038076695 0.0048431675 -0.03204661
-0.01663597 0.024351873 0.006024458 0.034875695 -0.02982091 0.019554665 0.009666608 0.0025760497
0.011538053 0.03915128 -0.016580643 0.06863145 -0.11573378 0.53022957 -0.568761 0.013274311
-0.37979245 0.003092024 -0.7055141 -0.11701271 3.8676832 -0.020142626 0.27500007 0.1818085
0.3634439 -0.08680894 0.0403837 -0.17073141 0.752825 0.00960705 0.022617316 -0.006063873
0.057081968 0.13656159 -0.39483345 -0.19047648 -0.25863025 0.6266372 5.307237 -0.18648249
-0.061332237 0.0052505555 0.22840346 -0.16990907 -0.06447921 0.088307165 0.5022029 -0.0342915
-0.17493257 -0.013754367 -0.04067464 0.12074705 0.112282835 0.045785442 0.5528672 0.2059966
4.782053 0.06693795 -0.540973 0.20886412 -0.8462271 -0.09375622 -0.8458632 -0.107403725

value_dict.layer_1.2.bias f4 [32]
00000000: e5ec 8bbe 5868 603d f637 6fbd 8546 b53e
00000010: f83a 033d ddbc 3b3d 951b 9cbd b944 1cbe
00000020: fdfb d63b 644e 9cbd ac72 9d3d 84ce 283d
00000030: d1e3 433c 253f 063e 1f90 aa3d 7556 f9bc
00000040: 59ac 2fbd 3eba 7f3b 39cf 893d 960e 9ebd
00000050: 2b9e c93c d299 763d fa69 50be d9a2 683d
00000060: 9b81 34be 1a6c 363c 16b7 473d 6c97 e8bb
00000070: ad30 d93c eeb6 10be 9419 813d f610 13bd
-0.27329174 0.05478701 -0.058402978 0.35405365 0.03203866 0.04583441 -0.07622448 -0.1526059
0.006560801 -0.07632139 0.076878875 0.041212574 0.011956171 0.13110025 0.0832827 -0.030436734
-0.042888973 0.003902092 0.06728978 -0.07717626 0.024611553 0.06020529 -0.20352927 0.05679593
-0.17627566 0.011134172 0.04875859 -0.007098129 0.026512468 -0.14132282 0.06303707 -0.035904847

value_dict.layer_2.0.weight f4 [32, 32]
00000000: 97a3 c63d 1e03 27be a8fb a2bd 5b3f 6ebe
00000010: 049f 32be f799 d23c f1ea 5cbe 8faa 76be
00000020: c81d abbd cd8e 00be a3c4 a5bd 0c82 263d
00000030: d817 5ebe 5b46 bebe d619 55bb 5184 81be
00000040: 337c 8cbd b4b7 6f3b 807e 04be 7047 7dbe
00000050: f6a3 26be 9702 f0bd dcbd 6cbd 8cf7 26be
00000060: e961 ee3b 1356 243e 8b65 78be 337a 52bc
00000070: e638 25be 9d89 1fbe d499 2bbe 3330 923d
00000080: 64db 233f 93be c33d 36df abbe 7cc3 13bd
00000090: 597a b63f 2a54 2bc0 09e1 883f 335c d93d
000000a0: 7fd1 94bf 539a ee3d 8bbc 893f 7142 2ebc
000000b0: da20 ccbd a61d 27c0 e3ec 643d 022e 9abf
000000c0: e263 b3bc 15f1 29c0 a527 943f e4cc e3bd
000000d0: 812c 8cbd 68b9 633f df18 f7be ff8b 0ebe
000000e0: baa8 c9be cf30 cb3c 9bc1 54be be21 163e
000000f0: 47be 73bd 91cc 62bd a91b 8bbc 96c3 c33f
00000100: cbb1 2cc0 bbb8 42bb 5d8d 26bf 9fe6 0f3d
00000110: 75cd a9bd becc e5bb 0c43 15bd 6a2e b33d
00000120: cc0f 31bf 5fb2 48be c315 103d d3ab 3c3f
00000130: fafb 1540 c9c4 35bd f37e 1440 c3b9 2940
00000140: 9a95 9fbd 6a50 7b3d cdd0 f3bb 3840 d73e
00000150: 1144 e13e 0d48 4e3f 59e3 07c0 4a2c 28be
00000160: 5611 0fbf 1fe7 3ec0 c96b 5bc0 225b ea3d
00000170: 50a5 b9bd 08a3 a0bc b486 2b3e 9520 b0bb
00000180: 4336 b2bf df54 4c3e 4f6c acbf 5a15 93bf
00000190: e05a 2c3c fff9 a83e bfdd 94bf 11f7 f23d
000001a0: 84c8 a7bf 6960 2bbf b434 21bd c260 53bf
000001b0: 1242 ac3e 06f6 c3be b6d3 c43e a56d b8bd
000001c0: fe23 b5be 5014 22bf ff0a ff3d 8308 093f
000001d0: 57db 303f 97ab 2fbf a24a 583e 9b4c 62bf
000001e0: 33e2 9cbf e8b6 45be a631 70bf f1e3 973e
000001f0: 2223 5bbe e214 bebf 4f62 45bf 65b1 bcbf
00000200: 6769 453f 70da 1bbc 91e2 b63d bfde 3e3b
00000210: 36e4 333d 9d30 d1bc fb1c 2e3f 0a99 46bd
00000220: 4bf9 d4bf a620 f63d 78a9 b6bb 20fe 0140
00000230: 7c8e c0bf c145 cdbc 8367 bdbf 763b 30bf
00000240: 7d75 20bd f36f 363c a5ee 53bc 6227 d93f
00000250: d075 c13f c9bc 9c3f facd ad3f bc51 123d
00000260: 4485 083e 8fec 37be 3e7b 07be b8dd 50bc
00000270: 5e59 723c c680 7ebc d91a 8b3c 1c1a ae3c
00000280: b5b0 bb3e f54d 2ebf 20f5 7fbf 3f03 9e3f
00000290: 86c8 fd3f f701 0bc0 630d 8ec0 78bc f3be
000002a0: 0cb4 1c40 58a2 a63e f266 43c0 717b 2a3f
000002b0: a4b8 cb3d dc0b 08c0 8e20 2a3e 1b6a a7bf
000002c0: f410 7ebf 1d0b b9bf 1c36 0fc0 fa9f 833c
000002d0: 58ca 003e 46fc 0340 65a2 30bf 743b f93e
000002e0: 1900 75bf df03 40bd edb5 6fbe 71df febe
000002f0: c4ad 43be d2dd adbe 8cc1 4ebd d427 0940
00000300: bb5c 4c39 9866 23bd 865f 67be f6e4 a43b
00000310: 405d 913f 54ba 543f a1e4 86c0 5531 323c
00000320: 00e0 0440 258e e53d f111 3bc0 b0cc 093e
00000330: 41f4 27bd 3aa8 263f 1023 803c 9a21 e1be
00000340: b3fc 0abe 0ad0 603f d4c6 2ac0 43ae 23be
00000350: 17f9 203e a65e 0040 344c c2be 32a4 bfbd
00000360: 43ab abbe 8ca5 893c 3f5c d7bd d68a 303d
00000370: 0718 10bd 240b c7bd 20d9 963d 38b4 983f
00000380: 8a68 b53f dade 7cbf 28d4 6bbf d917 d5bf
00000390: 1d08 73be 7837 5dbe 8dfc 1dc0 e5b8 3240
000003a0: d7af 1b40 6dab fe3e 6a4d afbe 10c0 e4bd
000003b0: 45a1 85be ffdc cabe a7e3 c9bd 36a7 e9bf
000003c0: 6c64 0a40 e2f3 cebe 8bc7 abbe bc74 0f3e
000003d0: 7221 a0be 3c2f 4fc0 e9a3 14bf 1a64 92bf
000003e0: 82aa 01bf 662d 9ebd 8bad 28be 1944 c5bf
000003f0: c52d 393f 5c65 753f cbde 26bf d7be 1cbe
0.09699171 -0.16309783 -0.07958156 -0.23266356 -0.17443472 0.025708182 -0.21573998 -0.240885
-0.0835529 -0.12554474 -0.08094146 0.040651366 -0.21688783 -0.37163052 -0.003251662 -0.25296262
-0.068596266 0.0036578001 -0.12938881 -0.24734282 -0.16273484 -0.11719244 -0.05779825 -0.16305369
0.0072748554 0.1604846 -0.24257486 -0.012846517 -0.16134986 -0.15579839 -0.167579 0.071380995
0.6400664 0.095578335 -0.33568734 -0.0360751 1.4256088 -2.677012 1.0693675 0.10613289
-1.1626433 0.11650529 1.0760664 -0.010635958 -0.099672034 -2.6111846 0.055889975 -1.204529
-0.021898214 -2.6553395 1.1574599 -0.11123064 -0.06844426 0.8895478 -0.48261163 -0.13920592
-0.3938654 0.024803547 -0.2077698 0.14661309 -0.059507634 -0.05537087 -0.016980963 1.5294063
-2.6983516 -0.0029712159 -0.65059453 0.035132047 -0.08291141 -0.0070129326 -0.036440894 0.08749087
-0.6916473 -0.19599293 0.035177004 0.7369968 2.3435044 -0.044377122 2.3202484 2.651963
-0.07792206 0.061355986 -0.0074406625 0.42041183 0.43997243 0.8057869 -2.1232512 -0.16423145
-0.5588583 -2.9828565 -3.4284537 0.114431635 -0.09064734 -0.01960899 0.16750604 -0.005374978
-1.3922809 0.19954251 -1.3470553 -1.1490891 0.010519713 0.33003232 -1.1630172 0.118635304
-1.3108068 -0.66943985 -0.039356902 -0.82569516 0.33644158 -0.38273638 0.38442773 -0.09005288
-0.35379022 -0.63312244 0.12453269 0.5352861 0.69084686 -0.686212 0.2112222 -0.8839814
-1.225653 -0.19308054 -0.9382576 0.29666093 -0.21400121 -1.4850123 -0.7710313 -1.4741637
0.77113956 -0.009512529 0.08929933 0.0029124466 0.04391881 -0.025535876 0.6801297 -0.048485793
-1.6638578 0.12017946 -0.0055744015 2.0311356 -1.5043483 -0.025057675 -1.4797214 -0.6884073
-0.039174546 0.011135089 -0.012935315 1.6965144 1.5114079 1.2245113 1.3578484 0.03572248
0.13332087 -0.17961334 -0.13230607 -0.012748174 0.014791815 -0.015533632 0.016980575 0.021252684
0.36658254 -0.68087703 -0.99983406 1.2344741 1.982682 -2.171995 -4.439134 -0.47604728
2.4484892 0.32545733 -3.0531583 0.66594607 0.09947327 -2.1257238 0.16613981 -1.3079256
-0.9924462 -1.4456517 -2.2376776 0.016067494 0.12577188 2.0622725 -0.68997794 0.48678172
-0.95703274 -0.04687869 -0.23409243 -0.49779847 -0.19109255 -0.33958298 -0.05047755 2.143056
0.00019489501 -0.039892763 -0.22595033 0.005032177 1.1356583 0.83096814 -4.215409 0.0108760195
2.0761719 0.112087525 -2.92297 0.13456988 -0.041004423 0.65100443 0.01564172 -0.43970948
-0.1357296 0.8781744 -2.6683855 -0.15984444 0.1572002 2.005777 -0.37948763 -0.0935749
-0.335291 0.016802572 -0.105156414 0.043101154 -0.035179164 -0.09718922 0.07365632 1.1929998
1.4172528 -0.98777544 -0.921206 -1.6647903 -0.23733564 -0.21603191 -2.4685395 2.792535
2.4326074 0.49740162 -0.3423875 -0.111694455 -0.260996 -0.39621732 -0.09857874 -1.8254154
2.1623793 -0.40420443 -0.33550677 0.14009374 -0.31275517 -3.237258 -0.5806261 -1.1436799
-0.506508 -0.07723503 -0.16472451 -1.5411407 0.72335464 0.9585779 -0.65183705 -0.15307175

value_dict.layer_2.0.bias f4 [32]
00000000: feef 833c 7940 c5bf 4cca a740 478d 1fc0
00000010: e215 c440 8a43 52bf e346 243f 9e82 c241
00000020: 4394 94c0 11ad 99bf d8b6 9f41 4242 1d41
00000030: f858 0c3b 07af 943d ae08 183f 23b9 bcc0
00000040: 7f26 10c0 20d3 f6bf 75d6 2141 8a27 3941
00000050: d15a 80c0 3c06 73c0 968d 6241 f4b0 7e3e
00000060: 21eb a0bc 9357 e63f f118 02c0 90f4 9cbe
00000070: d635 13bd de93 b540 b4c0 fe40 a1b0 ab40
0.016105648 -1.54103 5.2434444 -2.492998 6.1276712 -0.82134306 0.64170665 24.313778
-4.6430984 -1.2005941 19.96428 9.828676 0.0021415334 0.07259946 0.59388244 -5.8975997
-2.2523496 -1.928318 10.114858 11.572153 -4.011086 -3.7972555 14.159567 0.2487219
-0.019643368 1.7995476 -2.0327723 -0.30655336 -0.035940014 5.6743 7.9610233 5.365311

value_dict.layer_2.1.weight f4 [32, 32]
00000000: b0bb 173d 8ae9 0e3d 5c7e e63b ecf3 bbbd
00000010: 2040 2f40 6575 2bc0 6c47 a53d 38fd 933e
00000020: faed e33d 2a6f ec3d 040d 0ebe 6a41 8ebd
00000030: 6684 1d40 b05f 4a3e de2d 87bf d572 d23d
00000040: 2e05 96bf b6a1 51c0 2d07 a73d 82d4 babf
00000050: a1f5 4fbf a81f 0d40 4261 be3d df09 9fbd
00000060: cb18 2340 66d4 1d40 0d35 9fbf 5830 053e
00000070: 2fb3 e3bf 8d78 7bbd dbc6 acbe abc0 22c0
00000080: 60ca 193e 8c06 21bf 33d7 71bd ebca 2ec1
00000090: 96ce f540 01e2 413d 3062 f8bd 7892 8e3d
000000a0: 5187 64be 93ca 8e3e abb8 70c0 6ccd 83be
000000b0: 81a3 25be 3ae8 db3f 69e0 c73e 208b 2ec1
000000c0: 02ee 47bf ba84 94c0 c850 423d 4a31 f4bd
000000d0: 1a45 eebf 5985 b03d 1590 76be e134 013e
000000e0: 86eb cc3e d42f edbe dd1a d73f ed2d 233f
000000f0: 6fdf edbc e087 a33e 391d 9e3d 0872 fd3e
00000100: 766e 86bd e6aa 943d b50f 29c0 056f 23bf
00000110: 2706 90bf dda1 03bd 0e6f 3bc0 9961 01c0
00000120: cd1b 813f 4ad3 b7bd 9354 d93d 820f 8d3d
00000130: 02d9 443e a6ec d1be 706b cbbe ab3c d8be
00000140: 9142 97be 99a9 d33f be33 48bd 7f6d cdbe
00000150: 8fdf c73e b8da c03d ef3f 903f 8ebd 1840
00000160: a8bd 133e 3a41 4b3d 21f8 0bbf be07 033e
00000170: 6dd9 3dbc 43b3 1740 5fa2 b0be 22c2 2cbd
00000180: c952 df3b 4ce2 2fbd 4403 dd3c 33de e5bd
00000190: 2125 5f3f 2c96 70bd 6b98 403d 3587 8d3d
000001a0: fa1b ac3d cec5 9a3f 109d bb3e 8f8a d6bd
000001b0: 3f7f 7b3f e869 36bf cd4c d2be cafe 253c
000001c0: 26da e6be bca9 b33f 0a32 a13c ff37 16bf
000001d0: 796b 9bbe b447 533f 774c f83d 8980 743f
000001e0: f52f 7b3f ab2b 6e3f 7854 09bf d428 9a3f
000001f0: 6389 2ebf e5ea 6d3f cb1d 55bd a47b 4abd
00000200: 4538 2abe b4fe dbbd ae75 3e3d 14e0 6ebe
00000210: b4de 8dbd 4d2d ccbd d56a 86bb 87d0 55bd
00000220: f4d7 1dbe ec53 63bd 3713 a0bd 95aa b2bd
00000230: 321e 2fbd 51ef 31be 3aec 30be 84ca d0bd
00000240: 870f e5bd e55d 07be 2590 eabd 4cf7 91be
00000250: f480 81be fd20 083d 1161 c6bd 6eed 0abe
00000260: 7458 0b3d 87ca 34be e94a 00be d3e3 213d
00000270: b4db 0e3d 0c05 a2bc d100 2dbe ff7f dcbd
00000280: f831 ce3f 64aa 0fc0 ae2b 8cbd af52 03bf
00000290: 83ea 37c0 d1ad b6bc 1753 7fbd d836 7b3f
000002a0: 8481 0dbc 3183 243f 5049 0a40 cde4 0cc0
000002b0: e79e be3c ba84 2fbd a7c4 a6bd ddea d9be
000002c0: 6f35 80bc 5e0e 0b3e 363e de3f 1811 d3bd
000002d0: 0581 0d3f 23c5 c8bd c0c5 863d 4d6c da3b
000002e0: 382d 0fbe 9486 98bd 8961 f8be b087 353f
000002f0: 474c d13d 00f9 73bc 2c7e acbf c79d bf3a
00000300: d4cb 0bbe d5e3 9dbe 0adb 5dbe 9e4e 9abd
00000310: 116d 7cbc 2fec 36be f20d 50be e0f5 6939
00000320: 84b4 67bc 8844 a2bd d23a 31be 634e 3ebd
00000330: 852c d4bd 757a 01be 43c1 fcbc b266 12be
00000340: a6c0 41be 39b3 46bd 2367 55bd ec16 57be
00000350: e507 9ebe 572e 283c 18fe 4cbe 460c 213d
00000360: fe78 2f3d 1c72 d7bd 73f7 9c3d 37bf e23a
00000370: a3d8 09be 33b1 a6be deb9 9cbd ccd4 f73c
00000380: c5c5 a6be 8bfe 2dbe b73a 92be 86dd 87bd
00000390: 92c8 2dbf 22ce 06bf 1568 33bf abaf e3bd
000003a0: bb3b 8c3d d64d 72be e1ed f9be e94a d23d
000003b0: 0752 8ebe eebd 05bf 83ca 55be 4583 7bbe
000003c0: aa1a 7dbe aa28 4cbe c749 12bf f27a cdbe
000003d0: d206 12bf 5bba 16be 45b7 a5be 10ea e5be
000003e0: ba7e 1b3e ebbc 88be a36d 3ebc 8308 91be
000003f0: 6920 1fbf 8c91 fabe a008 e1be a78b f8be
0.037044227 0.03489069 0.007034106 -0.09177384 2.7382889 -2.6790402 0.08070263 0.28904128
0.11129375 0.1154464 -0.13872153 -0.069460705 2.461206 0.19763064 -1.0560873 0.10275809
-1.1720331 -3.275495 0.081556655 -1.4596102 -0.81234175 2.2050571 0.09295894 -0.07765555
2.5483882 2.4660888 -1.2438065 0.13006723 -1.7789057 -0.061394263 -0.33745465 -2.5430095
0.15018606 -0.62900615 -0.05904312 -10.9245405 7.681468 0.047334675 -0.12128103 0.069615304
-0.22317244 0.27888927 -3.7612712 -0.25742662 -0.16175653 1.7180245 0.390384 -10.908966
-0.78097546 -4.641202 0.04744032 -0.11923464 -1.8614838 0.08619184 -0.240784 0.12617828
0.4002344 -0.46325552 1.6805073 0.6374195 -0.029037206 0.31939602 0.077204175 0.4950106
-0.065640375 0.07259159 -2.6415837 -0.6384128 -1.1251878 -0.032136787 -2.9286532 -2.021582
1.0086609 -0.08975847 0.106118344 0.068877235 0.19223407 -0.4100086 -0.39730406 -0.42233786
-0.29542974 1.6536132 -0.04887747 -0.401226 0.3903775 0.09416717 1.1269511 2.3865695
0.14427817 0.04962275 -0.5467549 0.12795922 -0.011587483 2.3703163 -0.3449888 -0.042177327
0.0068152887 -0.042940423 0.026979096 -0.11224022 0.8716603 -0.058736965 0.047020357 0.06910554
0.084037736 1.2091615 0.36643267 -0.10475647 0.9824104 -0.7125535 -0.4107422 0.010131547
-0.4508831 1.4036174 0.01967718 -0.58679193 -0.30355433 0.82531285 0.121239595 0.9550863
0.9812005 0.9303538 -0.53644514 1.204371 -0.68178385 0.92936546 -0.052030366 -0.04943432
-0.16623028 -0.1074194 0.046498947 -0.23327667 -0.06927243 -0.09969578 -0.004102091 -0.05220082
-0.15414411 -0.055499956 -0.07816165 -0.08723942 -0.042753406 -0.17376448 -0.17277613 -0.10194877
-0.11184602 -0.13219412 -0.11453275 -0.28508985 -0.25293696 0.033234585 -0.09686483 -0.13567135
0.034019902 -0.17655383 -0.12528576 0.03952391 0.034877494 -0.019777797 -0.16894843 -0.10766601
1.6108999 -2.2447748 -0.06844269 -0.5129804 -2.8736885 -0.022299679 -0.0623351 0.9813056
-0.008636836 0.6426268 2.1607246 -2.201465 0.02326913 -0.042851187 -0.08142977 -0.42562
-0.01565048 0.135797 1.7362735 -0.10305995 0.55274993 -0.09803226 0.065806866 0.0066657425
-0.13982093 -0.07447544 -0.48511913 0.7091017 0.10219627 -0.014890909 -1.3476005 0.0014619165
-0.13651973 -0.30837885 -0.21665588 -0.07534526 -0.015406863 -0.17863534 -0.2031782 0.00022312207
-0.014142159 -0.079232275 -0.17307594 -0.046461474 -0.10360054 -0.1264437 -0.030853873 -0.14296988
-0.18921146 -0.048510764 -0.052100312 -0.21004838 -0.30865398 0.0102649545 -0.20018804 0.039318345
0.042839997 -0.105198115 0.07664385 0.0017299418 -0.13461547 -0.32557067 -0.07652639 0.030252837
-0.3257276 -0.16991632 -0.2856042 -0.06634049 -0.6788417 -0.52658284 -0.7008069 -0.111174904
0.0684733 -0.23662505 -0.488143 0.10268194 -0.27796957 -0.52242935 -0.20878033 -0.24561794
-0.24717203 -0.19937387 -0.57143825 -0.40132862 -0.57041657 -0.14719526 -0.32366386 -0.44905138
0.15185061 -0.26706633 -0.011622819 -0.28326806 -0.6215883 -0.48939168 -0.43951893 -0.48544046

value_dict.layer_2.1.bias f4 [32]
00000000: 3e8e 1840 5333 76c1 5030 3740 c8d4 9bc0
00000010: d061 3fbe 891b 0641 8151 c83c b2a6 08bf
00000020: f014 d9bf 6d50 c6bd e402 41be 2819 1b40
00000030: c3b2 e03c 87c5 3abd 08a4 7940 8d93 bbbe
00000040: 40ba f4be d97e f8be 1ac1 9d3c 50f0 1f3f
00000050: 1664 debd ceee 5dbe 8afe c23c 3bb0 14be
00000060: 49e8 86be 9ae3 aebe 4f09 b940 ded8 61bf
00000070: b2af 9740 87b2 5140 acb9 4fbd 780a 6bc0
2.3836818 -15.38753 2.8623238 -4.8697243 -0.18689656 8.381722 0.024452927 -0.53379357
-1.6959515 -0.09683309 -0.18848759 2.4234104 0.02742899 -0.045598533 3.9006367 -0.3663601
-0.47798347 -0.48534277 0.019257117 0.6247606 -0.10858934 -0.21673128 0.023803014 -0.14520352
-0.26349095 -0.3415802 5.7823863 -0.8822154 4.740197 3.2765214 -0.05071418 -3.672514

value_dict.layer_2.2.weight f4 [32, 32]
00000000: 8f84 1bbe c3f7 85bd 545a bcbe d345 90be
00000010: 2ef5 06be 2ea1 cabd 4315 ebbd 4f8c 90be
00000020: 2425 c1be ecd5 88be e9b7 26be 224a 95be
00000030: a709 e1be 7b71 a0bd 38da b5be ffcd debe
00000040: 23c7 adbd 82c9 efbe b7e4 67be 7ce3 c1bd
00000050: 4a7d 9ebc a7ee 4ebe 4872 17be f945 783c
00000060: 0e3c edbe de2f 94be bc16 83bd 4c50 a6bd
00000070: eec2 b2bd bcd7 e1be 197d a1be 2c47 a7be
00000080: a8be 8a3f 56df a73a 83a9 853f ac3f 43bf
00000090: ed69 1abe fe73 7cbe f749 153c e9bc 913f
000000a0: c9fa 073f cdaa 873f 9520 f03c dd3c 88be
000000b0: 0e9c 893f 9602 39bd e819 b93e 1d20 95be
000000c0: 829c bebd fe68 61bc 1716 8ebe 6407 983f
000000d0: 0c61 24bd b7c5 52bc d6c5 5d3f 9fa0 133e
000000e0: 4a07 9a3f 3b64 523e 44fa 0dbd a576 f83d
000000f0: 03ac 6dbd 2e52 0a3f bfe6 cc3d c09a ad3e
00000100: d1c1 2240 88bd 173e 7527 35bd ffe3 0dc0
00000110: c4c8 eabd b013 66be fed2 0d3e eced f73d
00000120: 7337 bc3f 57e2 713e eaaa 46be 1859 88be
00000130: 1840 44be 69d4 c4be 4975 2f3f a7aa 4bbf
00000140: 435b 9ebe 5d42 24bd 42c8 1ebf 1a31 813e
00000150: 83b5 4bc0 6697 a63e 9eed fa3f 806f 3b3e
00000160: 32ef 0c3e f03f 3ec0 c03b cbbe c979 823d
00000170: e49f 4bc0 06ea d23f e445 293f cfd8 853e
00000180: 7aa7 0540 979f 2040 de8f a3bf 5d6c 2ac0
00000190: 5243 39c0 ce25 89bf fe03 88c0 a54e c2be
000001a0: c36f 00c0 2bb1 33bd c549 e1bf 606f 1f3f
000001b0: 2259 81bd 4756 6d3f 9ef8 1dc0 81e6 003f
000001c0: 0312 3fc0 f10c 90c1 3237 943e 4b9c 94be
000001d0: 28b2 dabf 97fa a9bf 7bbf a7bf 2704 1f3f
000001e0: 1d87 8bbe 86d1 4b3f 78fc d7c0 f198 e1bf
000001f0: 590c 81bd 19ca 78c0 5368 0fc0 0814 3dbf
00000200: ce00 6ebf 1409 42bf e0dc 353d af9b 1fbf
00000210: bbed eebf 63d4 c43f 5add 71bf 6fa5 41bf
00000220: 4164 a43a de16 9f3e 993e 1cbf b561 673f
00000230: d330 f4bd 17d1 9bbd ab29 c3bf 928c cdbe
00000240: 0d9b 9bbf 0289 79bf 515c 96c1 1a63 43bf
00000250: 9e92 bfbf 605c b93e 8cb4 45c0 b116 12c0
00000260: 8caa 723f 519a 41c0 57f5 733f a9a0 2ac1
00000270: b338 09c0 9431 1cbf 9865 37c0 1cd5 96c0
00000280: f95a c0be 7f0d 05bf 2c8d c8be 7441 fabe
00000290: e785 42bf acca c4be 8f68 8dbe 0f61 0cbf
000002a0: 563e b3bd d8d5 a0bd 3526 d4be 9459 f7bd
000002b0: b7c1 09bf 8726 44be bc13 bfbe 830a bfbe
000002c0: cc5e 56be 8802 e9bd 9c3d cbbd da82 adbd
000002d0: f78c dfbd a83f 48be ec48 a0bd 25b7 e7bd
000002e0: cc9b d1be 5e3f 4bbe 47c0 b9be 9acd d1be
000002f0: dd17 22bf bace 02bf e107 08bf 0c5e 89be
00000300: 3822 563e 77ed 483f 6c60 f4be 0611 24bf
00000310: f853 dcbe 391c 2a3f 91dc d8c0 55c8 143f
00000320: b9b0 f63e 2cb1 823f 3490 02c0 ba43 3c3f
00000330: 680a 593f 039b dd3f 92a6 06c0 e44c 383f
00000340: 2b01 393d d2e0 17bf 9f01 8540 1b7a 243e
00000350: 81a6 5fbe c0aa a4c0 6dfc d63f d7a4 85be
00000360: 114d f33c 631d 39bc ed6a 30c0 b2a6 b03d
00000370: 8748 60bf 6e52 ea3e c7bd bebf 948c 36bf
00000380: 5f5a 803f 4c58 813f 5684 203e d3a6 b53f
00000390: c491 dabf 21c2 c2c0 342b 15c0 f98b 7dbf
000003a0: e883 e8c0 566d d33f 5812 81bf 5a20 52c0
000003b0: 6e98 9bbf 3f3b 273f 482c 76c0 c186 08c2
000003c0: 4b1a 21bf ff39 e3be 0381 6ac2 ce54 aa3e
000003d0: 568a 2ebf b89a 1c3f 4afa fabf 4252 9b3f
000003e0: 9ec6 ce3f 5029 883f 104c 0bc0 ab5e 013f
000003f0: 1382 c7bf a9a2 aabf 3c67 cf3f 17f0 52c0
-0.15187286 -0.065413974 -0.36787665 -0.28178272 -0.13179466 -0.09894024 -0.11478665 -0.28232047
-0.3772365 -0.2672571 -0.16281094 -0.2915812 -0.43952677 -0.07834145 -0.3551805 -0.43516538
-0.08485248 -0.46833426 -0.22645842 -0.09467217 -0.019346852 -0.20208226 -0.14789689 0.0151534015
-0.4633488 -0.2894277 -0.064008206 -0.08120784 -0.08728586 -0.44109905 -0.31540754 -0.32671487
1.0839434 0.0012807648 1.0442356 -0.7626903 -0.1507947 -0.24653623 0.009111873 1.1385776
0.5311704 1.0598999 0.029312411 -0.26608935 1.0750749 -0.04516848 0.36152577 -0.29126063
-0.09307195 -0.013757942 -0.27751228 1.1877255 -0.040131614 -0.012864522 0.8663 0.14416741
1.2033474 0.20546047 -0.0346625 0.12132005 -0.05802537 0.54031646 0.10004949 0.33907127
2.5430796 0.14818394 -0.044227082 -2.2170408 -0.11464074 -0.22468448 0.13850018 0.12105927
1.4704422 0.23621498 -0.19401136 -0.26630473 -0.19165075 -0.38443306 0.6853834 -0.7955727
-0.30929002 -0.04010235 -0.6202432 0.25232774 -3.1829536 0.32537383 1.9603765 0.18304253
0.13763121 -2.9726524 -0.39694023 0.06370885 -3.181634 1.6477668 0.6612227 0.26141974
2.088347 2.5097406 -1.277828 -2.662864 -2.894734 -1.0714662 -4.2504873 -0.37950626
-2.0068214 -0.043870132 -1.7600638 0.6227932 -0.06315829 0.92709774 -2.4682994 0.5035172
-2.9854743 -18.006319 0.2894836 -0.29025492 -1.7085619 -1.3279599 -1.310531 0.6211571
-0.2725152 0.7961658 -6.749569 -1.7624799 -0.06301183 -3.887335 -2.2407424 -0.7385869
-0.9296998 -0.757951 0.044400096 -0.6234693 -1.86663 1.5377315 -0.9447838 -0.75643057
0.0012542085 0.31072134 -0.61033016 0.90383464 -0.11923375 -0.0760824 -1.5247091 -0.4014631
-1.2156693 -0.9747468 -18.795076 -0.7632309 -1.4966619 0.3620329 -3.0891447 -2.282635
0.94791484 -3.0250437 0.95296234 -10.664224 -2.1440856 -0.6101315 -2.8655758 -4.7135143
-0.37569407 -0.5197372 -0.39170206 -0.48878062 -0.7598557 -0.38435876 -0.27618834 -0.548356
-0.08752124 -0.078532875 -0.414354 -0.120776325 -0.5381121 -0.19155322 -0.37319744 -0.37312707
-0.209346 -0.11377436 -0.099238604 -0.084722236 -0.10915559 -0.19555533 -0.07826409 -0.11314229
-0.40939176 -0.19848391 -0.36279508 -0.40977174 -0.6331766 -0.5109669 -0.5313702 -0.26829565
0.20911491 0.7848734 -0.47729814 -0.64088476 -0.43032813 0.66449314 -6.7769246 0.5811818
0.48181704 1.0210319 -2.0400515 0.7354084 0.84781504 1.7312931 -2.1039166 0.71992326
0.04516713 -0.59327424 4.156448 0.16062205 -0.2184086 -5.1458435 1.6795784 -0.26102325
0.029699834 -0.01129851 -2.7565262 0.086255446 -0.8761067 0.45766014 -1.4901665 -0.71308255
1.0027579 1.0105071 0.15675482 1.4191536 -1.7075734 -6.0861974 -2.330762 -0.99041706
-7.266102 1.6517742 -1.0083723 -3.2832246 -1.2155893 0.6532478 -3.8464527 -34.131596
-0.62930745 -0.44380185 -58.625988 0.33267826 -0.68179834 0.6117358 -1.9607632 1.2134478
1.6154363 1.0637608 -2.1765175 0.50535077 -1.558657 -1.333089 1.620338 -3.295904

value_dict.layer_2.2.bias f4 [32]
00000000: 9537 553d b89e 383f 6a13 6e40 0cf1 42c1
00000010: 64aa 07c0 8685 e5be b337 8d3e b3e7 38c1
00000020: fc7e 60c0 3c20 12bf bd27 c1bd f942 1440
00000030: a211 9f3e 95f7 0fbf ad9d 77c0 6c1f b13c
00000040: f29f 59bf 69bf e33f 6b3b a1bb bdae a63f
00000050: 335c d5bd 4223 48c0 a679 d140 1c37 d9bd
00000060: 0198 853c 0321 5bbd 921a 34be a838 2041
00000070: b543 cc3e 397a eebe 39ee ffbf 3ebc 92be
0.05205496 0.72117186 3.719935 -12.183849 -2.1197748 -0.44828433 0.27581558 -11.556567
-3.5077505 -0.57080436 -0.094314076 2.3165877 0.3106814 -0.56237155 -3.8689988 0.021621428
-0.8500968 1.7792789 -0.0049204133 1.3022076 -0.10417976 -3.127152 6.5460997 -0.106062144
0.016307833 -0.05349828 -0.17588261 10.013832 0.39895406 -0.46577623 -1.9994575 -0.28659242

value_dict.value_head.0.weight f4 [1, 32]
00000000: c78b 1bbc d14a f63d ab0e 3d3e f855 8cbe
00000010: 7575 943e 2260 b1bd 8ee0 193e 5721 b9bd
00000020: 8dfd 9fbe a537 083e 28f1 d03d 11cb 83bd
00000030: 031b f0bb 46fb a7bb 6ea6 8e3e 9a1a 013e
00000040: 4ca0 82bd 0ca2 25bf 74c9 b5bd 8204 66bd
00000050: afc9 d4bd 6c0b 7fbd f163 b3bd 8f4d 763e
00000060: ae97 2a3e fb09 3e3e ed88 94bd c874 18bd
00000070: 235a 803c 331b 58bd 9f8d 353e e6c6 67bd
-0.009493775 0.12025989 0.18462627 -0.2740934 0.28995863 -0.08660914 0.15027067 -0.09039562
-0.3124813 0.13302477 0.10202247 -0.06435216 -0.007327439 -0.0051263897 0.2786135 0.12607804
-0.063782305 -0.6470039 -0.08876315 -0.056156643 -0.103900306 -0.062266752 -0.08759297 0.24053024
0.16659424 0.18558495 -0.07252679 -0.037220746 0.01566798 -0.052760314 0.17729805 -0.05658617

value_dict.value_head.1.weight f4 [1, 32]
00000000: 7ab1 2e3e 8282 c5bd 14a5 1b3e 2126 f3be
00000010: 46c8 f53d a00d 4d3e cc60 30bb 8ba9 28be
00000020: 900a 96be af36 8cbe 4177 b53d 76c7 363e
00000030: edae d2bd 2b0c 873c d33f c9bd a810 9dbe
00000040: 7d6e ab3d 96bd 6c3e de68 4bbd 111d 94bd
00000050: 8da4 0c3e 261f 56be 882f a8bd 9b39 fa3c
00000060: 6e8b 76be e117 803e 5c5b 6a3e 4975 61bd
00000070: b8bf 8c3d 1e08 8abd 5d33 7abd 25c4 f0bd
0.1705989 -0.09644033 0.15199691 -0.47490028 0.1200109 0.20024729 -0.0026913164 -0.16470926
-0.29304934 -0.2738547 0.088606365 0.17849526 -0.10287271 0.016485294 -0.09826627 -0.3067677
0.08370683 0.23119196 -0.049660556 -0.072321065 0.13734646 -0.2091032 -0.08212191 0.030545047
-0.24076626 0.25018218 0.22886413 -0.055043492 0.06872505 -0.067398295 -0.06108414 -0.117561616

value_dict.value_head.2.weight f4 [1, 32]
00000000: 0c84 e739 6ac4 7ebe eeec e63d a8ba c8bd
00000010: 22bc 8d3a 59c2 61be 75a1 2abd 028e 02bd
00000020: bbc0 3ebd e75e 963e 253f 5a3c a840 f1bc
00000030: 46be 31bd 686c 6cbd 3609 1dbd cb0a 2d3e
00000040: 6086 23bc 2050 31bd 623a f0bb 59f8 78bd
00000050: 2582 8dbe 0074 27bd 0292 e43d 3cd7 68bd
00000060: 7fa4 4cbd aac9 68bd 7c1e 2cbd 0f76 afbd
00000070: 7be6 3ebd 6ff8 53be 6856 913d 05e1 2c3e
0.00044158136 -0.24879614 0.112756595 -0.09801227 0.0010813514 -0.22046794 -0.041657884 -0.03187371
-0.04657052 0.2936928 0.013320719 -0.029449776 -0.04339435 -0.05772057 -0.038338862 0.16898648
-0.009980768 -0.043289304 -0.0073311785 -0.060783718 -0.27638355 -0.04088211 0.11160661 -0.05684589
-0.049961563 -0.056832947 -0.04202126 -0.0856744 -0.046606522 -0.20700239 0.07096559 0.16882713

action_dict.action_head.0.weight f4 [5, 32]
00000000: 24a4 a23c 75e3 3dbe f7e7 113c 03a0 053e
00000010: aa92 2a3e 2f72 b3bc 4ea0 c7be a6a2 e1bd
00000020: 0109 2abd 981f 47bc bf8c a73e 16ec db3b
00000030: 0a4c f03e ec97 503b 9046 c03c 96ea 85bc
00000040: e087 9abe 4719 c7bd fa2a d43d 766c 653c
00000050: 679c 08be f5eb 173e f1ed 1a3d fa39 fa3d
00000060: 04a5 bc3e ec44 5cba 23e8 353e f6fd 8a3d
00000070: 0409 f5bd 0ea6 f3bd e531 87bd 45b2 423e
00000080: 4321 f63e 562f b7bd ef90 9cbd fa42 243e
00000090: 1e9b 273d 14d0 9cbe c654 423e b394 ad3d
000000a0: 464d 373e b765 863c c4bb 66bd 835f 8fbd
000000b0: a36f a03e 266f cd3b 77ba c63d f586 1f3b
000000c0: d081 03be c663 efbd 4715 983c 1eaa 913b
000000d0: 643e 8bbc d0ed f73d d088 33bd a71d 243e
000000e0: a7c1 833e 52ca 293d 6209 d83d 7ccd ac3e
000000f0: 8039 08be 7fb3 c9bd 9b1f 9ebe 09a3 513e
00000100: 7206 a9be f765 a2be d968 b43d db1d d93d
00000110: ed36 a8be 68c3 5c3e c02a c6bc f733 7d3e
00000120: 37a1 4abb b118 2dbd 2951 073e abfe 333d
00000130: 3dcd 08bd d5ff 073e cea1 23bd 9c3e 20bd
00000140: ae54 4a3e bb22 363e 3789 393e 996e cabb
00000150: 4d33 fdbc f604 dfbd 1352 d23d b68f c93d
00000160: 1b92 03bc 3fe9 47bd d44d a0be 973f aabe
00000170: e659 9c3d ba97 1b3d ea7b 3ebe c11a 313e
00000180: 5fc5 7bbe b5a1 0cbf 8ae2 0c3d 8ab9 743d
00000190: f3c5 5d3e 8b63 083f dc76 0f3f 01fe 853e
000001a0: 0c0c 09bd eace b0bd 0e38 2bbe 7172 1c3e
000001b0: 824b 13bd e4d0 f33d d08a 8d3d 83b5 c2bd
000001c0: 0a1b 0ebd 5991 273e 8e8f 063e b2f3 4f3e
000001d0: b9fa 2d3c 0bd2 1bbe 412e 003d df95 303e
000001e0: b809 903e ed8c 6b3d 09b3 fd3d 7e56 17be
000001f0: a790 b93e f479 fb3e de16 b5bd 3204 863e
00000200: 9da0 013f ed11 ec3e b114 d1bb cb57 533e
00000210: 2b09 8dbd eb0c 16bf 79be 5e3f 24e4 88bd
00000220: 417b 06bb abfe 3f3d 7489 8fbe 8655 003e
00000230: 3e97 86bd 4803 a8bd f92c 88bc 8cfd 873d
00000240: 0763 b83e a52a 973e 7f2e ab3d c5da 4dbd
00000250: 3fa4 073e fa88 4bbe cbb8 203d d8a2 8d3d
00000260: 528b a13e 1890 92bd 4e95 e33e e3f4 6ebd
00000270: 6518 65be 0c30 9d3c 4457 ab3d f87d ea3d
0.019853659 -0.18543799 0.008905402 0.13049321 0.1665751 -0.021905033 -0.3898949 -0.11017351
-0.041512493 -0.012153529 0.32724568 0.0067114932 0.46933013 0.0031828834 0.023471147 -0.01634721
-0.3018179 -0.09721618 0.1035976 0.01400291 -0.13340913 0.14836104 0.037824575 0.122180894
0.36844647 -0.0008402604 0.17764334 0.067867205 -0.1196461 -0.11896907 -0.066013135 0.19013317
0.48072252 -0.089445755 -0.076448314 0.16041175 0.040919416 -0.306275 0.18977651 0.08475628
0.17900571 0.016405923 -0.05633141 -0.07000639 0.31335172 0.0062693534 0.09703534 0.0024341915
-0.12842488 -0.11688952 0.018564833 0.0044453284 -0.016997524 0.12105906 -0.043831646 0.16026936
0.25733683 0.041452713 0.10548665 0.33750522 -0.13303185 -0.09848689 -0.30883488 0.20472349
-0.3301273 -0.31718418 0.088090606 0.106013976 -0.32854405 0.21558917 -0.024190307 0.24726854
-0.0030918845 -0.042259876 0.13214554 0.043944042 -0.033398855 0.13281186 -0.03994923 -0.03912221
0.19758865 0.17786686 0.1811875 -0.006177735 -0.030908251 -0.10889618 0.10269561 0.09841864
-0.00803044 -0.048806425 -0.31309378 -0.3325164 0.07634334 0.037986495 -0.18601957 0.17295362
-0.2458701 -0.54934245 0.034395732 0.059747256 0.21657543 0.5327689 0.5604074 0.26170352
-0.033458754 -0.08633216 -0.16720602 0.15278031 -0.03596068 0.11905077 0.06911242 -0.09507277
-0.034693755 0.1636404 0.131407 0.20307806 0.010618859 -0.15216844 0.03129411 0.17244671
0.28132415 0.057507444 0.12387664 -0.14779088 0.36243173 0.4911648 -0.08842252 0.26175076
0.506357 0.46107426 -0.0063806404 0.20638959 -0.06886514 -0.5861346 0.8700939 -0.06684139
-0.0020520242 0.04687373 -0.28034556 0.12532625 -0.06571816 -0.08203751 -0.016623007 0.06640157
0.36013052 0.29524723 0.08358478 -0.050257463 0.13246249 -0.19876471 0.039238732 0.069158256
0.31551605 -0.0715639 0.44449848 -0.05833901 -0.22372587 0.01918795 0.08366254 0.11449808

action_dict.action_head.0.bias f4 [5]
00000000: 4d6b ab3d 7fa5 3f3d 0fed ae3d 850b 313b
00000010: 8476 a73d
0.083700754 0.04678869 0.08541309 0.0027014923 0.08176902
