model_save/simple_spread_reinforce_independent_ic3net.pt (torch_old, 148305 bytes, 17 tensors)

value_dict.value_body.weight f4 [64, 18]
000000 08 36 13 c0 4a f0 04 c0 e2 ca 3d 3e cf 9b 29 be
       -2.3001728 -2.077166 0.18534425 -0.16563343
000010 07 f2 fb bd a6 d6 f8 3e 0b 40 10 3d 4b ab 91 bd
       -0.123020224 0.48601264 0.035217326 -0.0711275
000020 31 a9 ca 3e b4 0c 41 bc 56 bf 1d 3f 80 7a 40 be
       0.39582208 -0.011782814 0.6162008 -0.1879673
000030 8d e0 4b be 1d 70 c5 3b 95 cc 97 3d ea 58 42 3e
       -0.19909878 0.006025328 0.07412068 0.1897923
000040 72 ed 5b 3d 94 da a5 3c 90 d8 96 3e d2 c3 9f be
       0.053693242 0.020245828 0.294621 -0.31204087
000050 35 ed 9d be 49 dc 7c bd 5e 05 52 be 78 88 f3 bc
       -0.30845037 -0.061733518 -0.2050986 -0.02972816
000060 ef 57 4b 3f c2 94 2e 3e a0 ce 08 bf 7b a6 16 3f
       0.7943105 0.17048934 -0.53440285 0.5884778
000070 73 06 0d be 40 a0 05 bf 01 22 b8 3d 1f 75 6a be
       -0.13771991 -0.5219765 0.08990861 -0.2289624
000080 03 db 5e 3e 9a a2 60 3e cc 1f c9 bc 6f 55 9a bc
       0.21763234 0.21937028 -0.024551295 -0.018839566
000090 45 59 e5 3f fd e5 9e 3f d3 c3 31 bf c0 c3 eb bd
       1.7917868 1.2413937 -0.6943943 -0.11511946
0000a0 04 d7 c7 be 2d 6b 3c bd e1 bd d4 be 7f a0 b4 be
       -0.3903123 -0.04600065 -0.41551116 -0.352787
0000b0 d6 9c d3 be f5 86 89 be 03 75 4a bf 32 8b 8b bd
       -0.41330594 -0.26860777 -0.79084796 -0.06813659
0000c0 da 51 a7 be 79 65 f1 3e 88 3a 49 3d 53 db ee bc
       -0.32679635 0.4714773 0.049128085 -0.029157316
0000d0 01 8a 26 be 3d 95 ea bc 0f 5b 05 bf 0a e1 0d 40
       -0.16263582 -0.028635615 -0.5209207 2.2168603
0000e0 e8 4e f3 be 57 21 d0 3f b5 03 94 3e 94 c1 d9 be
       -0.47521138 1.6260175 0.28909078 -0.425305
0000f0 75 eb db 3d f9 04 d8 bf 50 f8 69 bd d9 6b b5 bf
       0.10738269 -1.6876518 -0.057121575 -1.4173537
000100 5d 65 03 bf 46 81 ed 3f 5c 87 dc 3d 7c 59 f9 3f
       -0.51326543 1.8555076 0.10768005 1.9480433
000110 2a e9 d3 bd 3a 5c 67 bc 9c 57 22 3e fb 66 ff bd
       -0.10347207 -0.01412111 0.15853733 -0.12470814
000120 44 86 c3 3e 90 3e 6a be c4 95 8a bd 7e a8 b4 be
       0.38188374 -0.22875428 -0.06766847 -0.352848
000130 37 ea 1e 3f 4e 1d 10 bf c6 f6 07 c0 84 81 c8 3f
       0.62076133 -0.56294715 -2.1244369 1.5664525
000140 af 3e 8f be ca 44 a5 3e 1a c9 e2 bd 07 0b 51 be
       -0.2797751 0.32279044 -0.11073513 -0.20414363
000150 46 2a a5 3f 8b 70 72 3e 47 7f 7a 3d 0c 2f 22 bc
       1.2903526 0.23675744 0.061156537 -0.009898912
000160 7e fc af bc 87 77 6d 3e a3 ff 43 3e 91 94 15 bd
       -0.021482702 0.23190127 0.19140486 -0.036518637
000170 a2 78 b7 3f da 78 3e 3f 92 cd 02 c0 07 a1 15 c0
       1.4333689 0.74403155 -2.043797 -2.3379533
000180 9d 1c 79 bf 96 86 a9 3f c1 8e 17 bf 2b c6 11 bf
       -0.97309285 1.3244197 -0.592022 -0.56943005
000190 bb 05 0f 40 23 aa 1f 3f c6 00 6e 3f e6 8a 08 3f
       2.2347248 0.62368983 0.9296993 0.5333694
0001a0 e0 1f 21 be f8 66 a6 bd 8d ad d1 3d 6e 67 2d 3c
       -0.15734816 -0.081251085 0.1023818 0.010583742
0001b0 99 52 02 3f c0 84 00 bd 3d a8 a7 3e da 29 3e bd
       0.50907284 -0.0313766 0.32745543 -0.04642663
0001c0 23 1b ad c0 d6 eb a4 bf 4f b4 e9 3f ba c2 6b 3f
       -5.4095626 -1.2884471 1.8258151 0.92094004
0001d0 49 f0 68 3f fe 28 2f 3f 49 39 68 bf 9f 34 1e bf
       0.90991646 0.68421924 -0.9071241 -0.61799043
0001e0 19 86 f5 bf 93 bb 93 bf c5 e7 a9 bd fb 77 9e 3d
       -1.9181548 -1.1541618 -0.0829616 0.07737728
0001f0 1f 6c 31 3d bf b5 81 bb cd cc 2f bf 9f cd 3a be
       0.043316003 -0.0039584334 -0.68671876 -0.182425
000200 e5 d7 5f 3d ac 06 87 be 0c 35 8f 3d 38 9b da 3e
       0.054649252 -0.26372278 0.0699254 0.42696548
000210 17 be 65 bd a6 8b a6 be 63 84 dc 3d da 78 20 3f
       -0.056089487 -0.32528418 0.10767438 0.62684405
000220 73 2d 1c 3e 41 cf a0 be 00 8e 06 bf ef 73 79 3f
       0.15251713 -0.31408122 -0.52560425 0.97442526
000230 a0 c8 03 be 8f bc f5 bd 42 6d 7b bc 3b ce 70 bc
       -0.12869501 -0.11998855 -0.015345873 -0.014697607
000240 01 cb 23 bf 84 f8 9e 3e ba 1f a1 3e 53 41 2e bf
       -0.63981634 0.31048977 0.31469518 -0.68068427
000250 2f c7 d0 be 42 21 72 3d f7 be 0a bf 6a a8 3b be
       -0.40776965 0.05911375 -0.5419764 -0.18325964
000260 d9 0c 78 3e 6e 15 cd 3d 96 60 d8 3d f5 34 b0 bd
       0.24223651 0.10013853 0.10565297 -0.08603851
000270 f6 e5 fd be 48 f3 13 3f b0 12 e1 bc 0a a5 a5 3d
       -0.4958951 0.5779309 -0.027474731 0.08088119
000280 96 5b a0 bc 55 f2 e0 bd 46 28 6c 3e 80 48 16 bf
       -0.019574922 -0.10983721 0.23062238 -0.58704376
000290 05 23 d1 3a 21 fb 88 bf 3a ed 50 3f 71 f4 0a 3d
       0.0015955871 -1.0701638 0.8161198 0.033924524
0002a0 e4 9a 86 3f fe 4c 84 bf 37 d8 11 3e 7a fb 55 3f
       1.0516019 -1.0335996 0.14242636 0.8358685
0002b0 34 24 4e bf 99 b2 76 3e 6d f7 27 bf 10 4f 9a be
       -0.8052399 0.24091567 -0.65611917 -0.30138445
0002c0 8f d2 8f bd 6a 02 a6 3d 0a 62 a5 3d 99 e6 8f be
       -0.07022583 0.08105929 0.0807534 -0.2810562
0002d0 ff 8d 56 bf 38 1b dc be 1e 2e 03 3f d6 39 90 3d
       -0.8381042 -0.42989516 0.51242244 0.07042281
0002e0 58 2a bd bf a1 f2 85 3f 0a cc b5 3e 1b d5 67 3e
       -1.4778547 1.046467 0.35507232 0.22639887
0002f0 f0 0f cd 3e ba c8 0a be 3d ac a6 bd f5 69 7d bf
       0.40051222 -0.13553134 -0.081383206 -0.989898
000300 1f 0f 86 bf ad 56 db bf fe a4 0d bd 42 10 78 3e
       -1.0473365 -1.7135826 -0.034581177 0.24224952
000310 5f 12 47 be d5 20 2a 3d 88 9f 06 be 8e 48 3b 3e
       -0.19440602 0.041535217 -0.13146794 0.18289396
000320 78 d4 91 3c 20 36 23 3e a5 ca 70 bf bb 68 ea be
       0.017801508 0.15938616 -0.9405921 -0.45783028
000330 34 ff d3 3f 0b 24 1f 3f c5 08 4f bf 9e d7 fb be
       1.6562257 0.6216437 -0.80872756 -0.4918794
000340 5b 58 7f 3f ef 98 44 3e 7f 92 8b 3f 07 39 21 3f
       0.99744195 0.19198965 1.0904082 0.6297764
000350 1c c7 ab 3d d3 4d 1e be 00 31 6a 3d 7b 3f d2 bd
       0.083875865 -0.15459375 0.057175636 -0.10266014
000360 a5 ed 01 3e 71 a2 87 3e e5 44 f8 3e e4 41 f9 bc
       0.1268831 0.2649112 0.48490062 -0.030426927
000370 a4 13 33 40 b5 4a 06 40 63 0f f2 bf 4e 37 c4 bf
       2.7980738 2.0983098 -1.8910946 -1.5329378
000380 88 e2 d6 bf e5 74 ce bf 94 ab 00 40 16 5c c6 3f
       -1.6787882 -1.6129423 2.0104723 1.5496852
000390 ab 68 1f c0 70 b4 ff bf aa 6a ad bd c2 f4 f3 3d
       -2.4907634 -1.997694 -0.0846761 0.11911918
0003a0 61 6b 9a bc ea db 87 bc 23 46 13 40 f2 3f 25 3f
       -0.01885003 -0.016584355 2.3011558 0.645507
0003b0 d7 89 11 40 b5 46 d6 3f f6 05 03 c0 8a db 3d bf
       2.274038 1.6740328 -2.0472388 -0.74163115
0003c0 32 6b 00 c0 bb 3c 33 bf be 95 f8 bf 79 af bf bd
       -2.0065427 -0.7001454 -1.9420698 -0.09359641
0003d0 94 27 25 40 19 91 65 3f 3d 7f 5d 40 1f 01 bb 3f
       2.5805407 0.89674526 3.460891 1.4609717
0003e0 a9 a6 00 bd 1a 89 af bc 5b b4 8d 3c 6f d6 c0 bd
       -0.03140894 -0.02142768 0.017297914 -0.094159
0003f0 ff 73 fc 3e bb 49 52 bf b0 fe 43 bf fe 65 fb be
       0.49307248 -0.82143754 -0.765605 -0.4910125

value_dict.value_body.bias f4 [64]
000000 21 9c 7a 40 e0 8a ab bf 12 3f 84 40 f9 43 b1 bf
       3.9157794 -1.3401756 4.132699 -1.3848869
000010 2a db d6 3f 1c fa 0d 40 cf d7 1a be fc 22 7e 40
       1.6785634 2.2183905 -0.15121387 3.9708853
000020 9f 35 8b 40 cb 97 49 3e bb ee 45 40 dd 9a dc bd
       4.3502955 0.1968681 3.092696 -0.10771725
000030 42 0e a4 be d2 1d 0a be 97 2a 6d 40 0e cb 23 bd
       -0.32042128 -0.13487938 3.7057245 -0.03998857
000040 da ad 8c 40 d7 0c 7d 40 d3 d3 8e 40 84 9d 53 40
       4.396222 3.9539087 4.4633574 3.306489
000050 9e 49 8b 40 97 09 01 3f 30 8c af 3f fb b0 8c 40
       4.3527365 0.5040526 1.3714657 4.396604
000060 2a 61 33 be 49 a4 67 40 b9 c0 8f bf 3e 60 2b c0
       -0.17517534 3.6194022 -1.1230689 -2.6777492
000070 af d2 18 40 bb d9 fe be a7 b8 76 40 28 a5 34 be
       2.387859 -0.4977549 3.8550203 -0.17641127
000080 15 97 47 40 cd b0 3a 40 9f 50 69 be 3b 07 41 40
       3.1185963 2.917041 -0.22784661 3.0160663
000090 5c 90 11 40 b0 0a 7d bc df 23 8a 40 98 0c 1e bc
       2.274436 -0.015444443 4.316879 -0.009646557
0000a0 2e e0 57 40 5e 7c 9c be 22 e7 7c 40 84 88 9a bf
       3.3730578 -0.30563635 3.9516072 -1.2072911
0000b0 c2 28 a4 3f 5a 74 a5 be 82 2f 37 be 11 34 9e bd
       1.2824938 -0.32315332 -0.17889217 -0.07724775
0000c0 01 fd fb 3d 8e c4 3e 40 66 c6 4b c0 d2 7b b0 3d
       0.12304116 2.9807467 -3.1839843 0.08617367
0000d0 e6 de 63 bf 3d 96 63 40 84 e8 e3 bc d9 5f 07 40
       -0.8901199 3.5560448 -0.027820833 2.115225
0000e0 e0 69 6e 40 80 2f a0 bc 62 e9 1c 40 44 6d 13 40
       3.725212 -0.0195539 2.4517446 2.303544
0000f0 fb 0e b7 bd e6 9d 4b 40 d6 7f f2 3f 5d 9a a7 3d
       -0.08938404 3.1815124 1.8945262 0.08183739

value_dict.value_head.weight f4 [1, 64]
000000 45 a9 48 bf a8 11 4d 3c 14 84 42 bf d3 cd 9c bd
       -0.78383285 0.012516417 -0.75982785 -0.07656445
000010 44 aa 80 be 67 89 00 bf 33 48 0b bf e4 c8 5a bf
       -0.25129902 -0.5020966 -0.5440704 -0.85462785
000020 38 db 80 bf 8f c8 a9 3d b2 ed 7d 3c 12 6b 80 be
       -1.00669 0.08290207 0.0154985655 -0.25081688
000030 d7 47 f2 bf 14 24 cd be 73 bf a8 bf b3 1a d5 be
       -1.8928174 -0.40066588 -1.3183426 -0.41621932
000040 54 6e b9 bf bd 58 9c be aa e8 b0 bf 02 4b fa be
       -1.4486794 -0.30536452 -1.3821003 -0.4888535
000050 66 5e b2 bf ff d7 24 be 7e 35 7c be 40 1b 96 bf
       -1.3935058 -0.16098021 -0.2462978 -1.1727066
000060 3c 06 b7 bf 56 30 b1 be d3 cf 20 be 2e 25 08 bf
       -1.4298778 -0.3460719 -0.15704279 -0.5318173
000070 5f 3c 66 3d ed 21 5a bf e1 3a 6f bf 71 56 17 bf
       0.056209918 -0.85208017 -0.9344922 -0.59116274
000080 ea 16 f4 be 38 e8 42 bf f9 29 aa 3f 1d 64 42 bf
       -0.47673732 -0.7613559 1.3294059 -0.7593401
000090 9c 9d cd bd 26 17 91 3f 00 8a 74 bf 42 98 5c c0
       -0.10039827 1.1335189 -0.9552307 -3.446793
0000a0 9f 18 46 bf 5f 97 33 3f d6 59 3f bf f0 ca 7c be
       -0.7738132 0.7015285 -0.74746454 -0.2468679
0000b0 68 c8 de bc f8 01 96 3f 16 f5 32 c0 3f c3 90 bf
       -0.02719517 1.1719351 -2.7962089 -1.1309584
0000c0 8d ab 49 c0 21 e1 85 bf d1 6a 07 c0 4b ea 56 3f
       -3.1510956 -1.0459329 -2.1158946 0.8395125
0000d0 70 56 8a be be 03 3f bf 95 ce 85 c0 b8 6d 00 bf
       -0.27019072 -0.74615085 -4.1814675 -0.5016742
0000e0 cc c1 22 bf 2b 64 f0 bf 95 47 b7 3d 91 25 49 bf
       -0.6357696 -1.8780569 0.089492 -0.78572947
0000f0 24 b4 14 bf 9a cc 79 bf 1e 3b a6 bf 3e 0c da bf
       -0.5808737 -0.9757782 -1.2986791 -1.7034986

action_dict.action_head.weight f4 [5, 64]
000000 75 af c2 bd 2c b6 83 bd ee de e5 3e a6 57 99 bb
       -0.09506122 -0.06431231 0.44896644 -0.004679638
000010 92 c8 17 3d a3 07 e8 3d df 25 58 bd 25 2f 4f 3e
       0.037056513 0.113295816 -0.05277049 0.20232828
000020 79 8f 97 3c cd 08 ad bd 06 d0 e8 bd 35 fb 37 3c
       0.01850103 -0.08448944 -0.11367802 0.011229326
000030 31 25 94 3d 92 78 a9 3d 03 89 03 bd 58 96 40 3c
       0.07233656 0.0827495 -0.032113086 0.011754595
000040 b7 da 89 3d ee ce 72 bb ea 9d 86 3d 86 37 a7 bc
       0.0673117 -0.003704961 0.065730885 -0.020412218
000050 ad 19 a4 bc 38 7e a2 bd 92 d4 82 bb fc aa 0c 3e
       -0.020031774 -0.079342306 -0.0039926255 0.137371
000060 f1 87 18 3f da 90 22 3e c5 06 3b be f6 b6 f7 bd
       0.5958243 0.15875569 -0.18264301 -0.12095444
000070 e2 ee 24 3e cc ab 4a be d7 73 08 3d 90 44 1f 3e
       0.16106752 -0.19792098 0.0333136 0.15553498
000080 bf 51 9e 3c ff a7 82 be ff 05 2a 3d 67 60 f5 bd
       0.019326089 -0.25518796 0.041509625 -0.11981278
000090 a0 b7 6e bd ce d5 54 3d 58 52 31 bd 17 16 e1 3b
       -0.058280587 0.051961713 -0.04329142 0.0068690884
0000a0 17 f2 d0 bd 97 bc 7e 3d d0 57 52 be ab e9 a9 bd
       -0.10202425 0.062191572 -0.2054131 -0.08296522
0000b0 6c 12 15 3e 44 58 82 bc aa 64 dc bd 22 aa 67 3d
       0.14557809 -0.015911229 -0.10761388 0.056558736
0000c0 51 cc d2 3e 46 66 bf 3c c2 e3 f2 bd d1 56 b0 bd
       0.41171506 0.023364197 -0.118598476 -0.08610309
0000d0 57 90 0d bd b8 74 3e bb 77 84 1b be bd 89 02 3e
       -0.03456148 -0.002906127 -0.1518725 0.12747855
0000e0 8a 47 05 3e 3a 3e d2 bd 97 66 b4 bd c6 59 0c 3d
       0.13015571 -0.10265775 -0.0880863 0.034265302
0000f0 35 7d a4 bc ad 9d d0 3d ee 73 88 bd 53 a3 72 3e
       -0.020079235 0.10186324 -0.06662737 0.23695116
000100 ee b1 9a bd 2c 4d 65 be ec ae b2 bd bb 1c 03 3f
       -0.07553469 -0.2239272 -0.0872477 0.51215714
000110 1b 8e 6d be 0d f2 25 bd 5d 58 c3 3e fa ff ae 3e
       -0.2319874 -0.04051404 0.38153353 0.3417967
000120 bc d4 f5 be 22 48 ca be b0 ee 99 bd d6 2b 43 be
       -0.48013866 -0.39508158 -0.07516229 -0.19059691
000130 6d 13 81 be 44 ba 79 3d 28 42 af 3e 0c 0a 2c 3f
       -0.25210133 0.060968652 0.3423016 0.6720283
000140 eb fb 7a be 1f bb 12 3f f6 91 2d be cb f4 dd be
       -0.24510162 0.57316774 -0.16950211 -0.43350825
000150 4f 77 28 3f 63 7e ea be 15 d1 c0 3d f6 1c c9 3e
       0.6580705 -0.4579955 0.09414879 0.39279908
000160 48 8e 57 bf b2 05 b8 3d d0 18 ae 3c 5a 76 a3 be
       -0.8420148 0.08985461 0.021252066 -0.31926233
000170 7e a3 5e be 9a 8b aa be 8d e3 97 3d 55 99 10 bf
       -0.21742055 -0.33309633 0.07416449 -0.56483966
000180 d9 ea 7f 3e 80 d7 ac 3e 7e 3a 6a be f0 90 79 be
       0.24991931 0.33758163 -0.22873875 -0.24371696
000190 7d 84 c2 3c 27 42 d7 be 6e 4a b5 bd a3 84 fc 3a
       0.023744816 -0.42042658 -0.08852087 0.0019265603
0001a0 6a 56 87 bd da fb bd be 40 64 13 bf 55 d4 ca be
       -0.06608279 -0.3710621 -0.57574844 -0.3961512
0001b0 3f 3a f1 be f2 93 de 3e 0c bf 40 bf cb f7 d2 3e
       -0.4711475 0.43472248 -0.75291514 0.41204676
0001c0 1d 2c ce be 4d 87 e6 3d e2 8c 74 3f 27 5f 52 3f
       -0.4026803 0.11256275 0.9552747 0.8217644
0001d0 78 b7 1c 3e f2 7a 5d 3c d6 41 cc 3e 84 de 5d 3c
       0.15304363 0.013518082 0.3989398 0.013541821
0001e0 2c 71 5a 3e 60 aa 0e bf f2 14 3d be c9 1e 40 be
       0.21332234 -0.5572872 -0.18465021 -0.18761744
0001f0 7e ef c7 3e 64 dc 5d 3d e7 35 88 3e b5 c8 d8 bc
       0.39049906 0.05416526 0.26603624 -0.026462892
000200 22 b6 99 3d 48 9e 79 3d 1e f7 a3 be 24 25 4a bf
       0.07505442 0.060941964 -0.32024473 -0.7896292
000210 f2 78 b2 3e f9 46 44 3e dd 1a cb be 1b 25 8a be
       0.348579 0.19167699 -0.39668933 -0.26981434
000220 c8 da 10 3f 8b 78 53 3e c6 b4 44 be a9 a6 12 3e
       0.56583834 0.20651452 -0.19209585 0.14321388
000230 71 18 c2 3d d5 4b 86 3d 89 be 82 be 5a d3 06 bf
       0.09477318 0.065574326 -0.25535992 -0.52666247
000240 57 35 8d 3e e2 b9 2b bf a4 58 bd 3b bf 7e c6 3e
       0.27579758 -0.6708051 0.005778389 0.38768575
000250 c4 f5 d0 be 18 c6 ca 3e 81 67 37 3d c9 6e 43 be
       -0.40812504 0.3960426 0.044776443 -0.1908523
000260 83 5a f8 3d ab 16 b8 bd f4 f9 25 3e fe d7 f7 3e
       0.12126639 -0.089886986 0.16208631 0.48406976
000270 30 6f fb bd 24 78 2c 3e c3 21 34 bd 34 8f 0c 3f
       -0.12277067 0.16842705 -0.04397751 0.5490601
000280 31 5d 7f be 2c 37 bd bd ad 4b f8 3d 9f 21 c1 3d
       -0.24937893 -0.09239039 0.12123809 0.09430241
000290 bf df 05 3e 71 ac af 3e 03 c3 d6 3d 82 29 5e be
       0.13073634 0.3431125 0.10486414 -0.21695521
0002a0 ef e1 d4 3d 18 41 d6 3e e4 a8 4d 3f 73 50 61 3e
       0.10394656 0.41846538 0.8033583 0.22003345
0002b0 8d 05 ab 3e df b8 c2 be c9 8e 1d 3f 6a d7 06 be
       0.33402672 -0.3803167 0.61546 -0.13168111
0002c0 dc 60 89 bc 6d d6 79 bd 76 26 6f bf 62 9e 52 bf
       -0.016769819 -0.060995508 -0.9341806 -0.82272923
0002d0 49 d1 3b be 6b fa 9b 3c 82 11 13 bf 3c c8 11 3d
       -0.18341555 0.019040307 -0.5744859 0.03559135
0002e0 dd 1c a7 3e e2 5d 13 3f c8 fe 1b 3e 87 4e 1c 3d
       0.32639208 0.5756513 0.1523391 0.038160827
0002f0 5a 67 be be a0 f5 cf bb 73 9e fa be 38 6f b2 bd
       -0.37188226 -0.0063464195 -0.48949012 -0.087126195
000300 43 ba 2c 3e 65 47 41 3e d4 fe 1a be 15 aa 19 3e
       0.16867928 0.18874891 -0.15136272 0.15006287
000310 81 f5 9c be 00 99 18 3e 38 50 e7 3e 55 6b 83 3e
       -0.30656055 0.14902115 0.4517839 0.25667825
000320 79 f2 c6 bd ae 35 07 3e f7 db c4 3d 68 4b 30 3f
       -0.09714217 0.13204071 0.096122675 0.6886506
000330 37 fa 82 be 98 f5 63 be 1b c0 63 3e 74 08 45 3d
       -0.25581524 -0.22261655 0.22241251 0.048103765
000340 f6 85 bf be 69 2e 73 be 39 2c 04 be 3b 01 db be
       -0.37406892 -0.23748173 -0.12907495 -0.42774376
000350 04 22 cc 3e 7a 4e 22 3f 4a 65 6a be 15 1c 95 be
       0.39869702 0.63400996 -0.22890201 -0.29122987
000360 57 ff 72 3d 29 01 16 be fd 99 00 be 26 64 3c bc
       0.059325542 -0.1464888 -0.12558742 -0.011498487
000370 1b 97 3c 3e 02 63 78 be 9b 96 2e 3f 9f f5 bc 3e
       0.18417017 -0.24256518 0.68198556 0.36906144
000380 b4 6e 24 bd 0c 77 c9 bd c5 ce 6f be 87 0a bc be
       -0.040144637 -0.098371595 -0.2341872 -0.36726782
000390 e8 84 a7 3d 45 80 db 3e 3d 98 76 3e 9d 15 a0 3c
       0.08179647 0.428713 0.24081512 0.019541556
0003a0 1a 97 08 bf 81 b6 47 3f 60 4d 1d bf 5c 4e 94 be
       -0.5335556 0.78012854 -0.6144619 -0.28966033
0003b0 3a a5 dc 3e 86 8a 02 bf 53 41 01 bf ff 2b d5 be
       0.43094808 -0.5099262 -0.504903 -0.4163513
0003c0 de 5b 0c 3f 6c 60 c6 3e ec 9e 1c 3e b8 23 21 3f
       0.5482768 0.3874544 0.15294999 0.6294513
0003d0 19 5e 46 be 40 96 fb be 10 f8 c4 3d 50 07 4f be
       -0.19371833 -0.4913807 0.09617627 -0.20217633
0003e0 3a ae 71 3e 30 a0 46 bd ec a9 91 3e f2 23 2e 3f
       0.23601618 -0.04849261 0.28449953 0.680236
0003f0 c1 66 90 3e 6a d8 44 be 08 cd 93 3e 78 f7 86 3d
       0.28203395 -0.1922318 0.28867364 0.0659017

action_dict.action_head.bias f4 [5]
000000 54 38 48 3e b0 f7 d7 bc 9b 04 c8 3d 6c 52 57 3d
       0.19552737 -0.026363224 0.097665034 0.052568838
000010 bd 35 67 bd
       -0.056447733

action_dict.encoder.weight f4 [64, 18]
000000 af ae fc 3e 84 48 19 bf 23 d5 a3 3d 34 21 ae be
       0.49352023 -0.59876275 0.07999637 -0.34009707
000010 8a 61 c0 be 88 ae ae bc fc 16 80 3e fb 03 f8 3e
       -0.37574416 -0.021323457 0.25017536 0.48440537
000020 69 3a 55 bf 9d b8 04 3d 01 6b ee bd 71 86 61 3e
       -0.8329225 0.032402623 -0.11641503 0.22023942
000030 96 51 69 be de c1 fd 3e 7c f2 c5 bb 46 44 12 bd
       -0.22785029 0.4956197 -0.0060408693 -0.035709642
000040 e0 e4 4c 3d cb 4b 2d bd 20 0b e7 be 7d 6d bb 3d
       0.05002296 -0.04230861 -0.45125675 0.091517426
000050 24 46 23 be e3 56 95 3d 31 d3 fa bd 96 0f 12 3d
       -0.15944725 0.07291963 -0.12247313 0.035659395
000060 26 68 68 40 7c 3c 9c bf 3d 7c 37 be 5a e3 e2 3d
       3.6313567 -1.2205958 -0.17918487 0.1107852
000070 cf 3c 16 3e b7 46 8c 3d 58 94 cf 3d 2b cd 7f bd
       0.14671634 0.06849425 0.10135716 -0.062451523
000080 e7 19 07 be 83 4f 0a bc d5 ac 37 bd 2c 30 8d 3d
       -0.13193475 -0.008441809 -0.04484256 0.06893954
000090 80 a0 0c bd 1c 58 f4 bd 6b 24 ab be 85 bc 75 3e
       -0.034332752 -0.11930868 -0.33426222 0.23997696
0000a0 49 18 53 be e8 85 21 3d d8 d5 1a be bc 23 1a 3f
       -0.20614733 0.039434344 -0.15120637 0.60210776
0000b0 d7 fa 5c bf 1b 96 e7 3e c7 4f 91 3f 91 76 6e 3d
       -0.8632025 0.4523171 1.1352471 0.058218542
0000c0 5f 5d 15 bf 28 33 97 bf db d2 8a bd e9 44 b5 3d
       -0.583456 -1.1812487 -0.06778499 0.08851034
0000d0 ad fb 28 3d 48 f2 ef bd df 3c 41 be 24 bd fd 3e
       0.04125564 -0.11716133 -0.18870877 0.49558365
0000e0 62 6c 99 3e 0b ae 2f 3f 67 24 1a 3e ed ea 89 3e
       0.29965502 0.68624943 0.15052949 0.26937047
0000f0 62 ac 33 3e 06 3f 06 3d 56 cc d0 3c fa 04 86 be
       0.17546228 0.032774948 0.02548806 -0.26175672
000100 3e d5 10 be 55 ee 7a be 1d a6 89 bd a4 77 38 be
       -0.14143845 -0.24504979 -0.06721137 -0.1801439
000110 57 76 53 3d e0 fb b1 bc 94 ec 81 3d 88 bc fb 3d
       0.05162653 -0.021726549 0.06343952 0.12291819
000120 f4 4e 1b 3e 87 78 17 3e 79 54 14 3e 7a ba 1e 3e
       0.15166837 0.14792071 0.14485349 0.15500823
000130 1e a4 b0 3e 07 4c 28 3e bc 56 bd bd f0 73 db bc
       0.3450021 0.16435252 -0.09245059 -0.026788682
000140 a8 ad e8 bf 86 83 8b bf 11 d7 64 3f dd 4e 00 3f
       -1.8177996 -1.0899513 0.89390665 0.50120336
000150 86 1e 86 3f 45 33 d8 3e 7f be 0b bd 64 81 3d be
       1.0478065 0.42226616 -0.034117218 -0.1850639
000160 f1 46 b8 3c 34 dd 21 3d a2 33 0e be 7b bd fb 3e
       0.022494765 0.039517596 -0.13886884 0.49168
000170 cc 70 1a be 3e 45 0a be e5 a7 38 3f 50 38 0e 3f
       -0.15082091 -0.13502976 0.72131187 0.55554676
000180 71 34 58 3f 4d 5a 34 3f 31 65 93 bf 92 ad ee bf
       0.8445502 0.7045029 -1.1515256 -1.864672
000190 7e fa 21 bf fd 33 41 bf 74 3d 2a bf 45 3b 49 bf
       -0.63272846 -0.7546995 -0.6650002 -0.78606063
0001a0 dc bc 1e bc 65 89 b5 3d d9 8f 17 be d3 a4 f7 3c
       -0.009688582 0.088640966 -0.14800967 0.030229961
0001b0 c9 a2 13 3f d9 ee 73 3e 9a 66 00 3e 9d 36 b9 3e
       0.57670265 0.23821582 0.1253914 0.3617448
0001c0 f9 d5 6a be 70 81 4d be 92 c1 b0 bd 02 95 be be
       -0.22933187 -0.20068908 -0.086306706 -0.3722306
0001d0 f1 03 37 bf e5 76 a1 be 32 38 19 3f 26 46 7b 3d
       -0.7149039 -0.31536022 0.5985137 0.061346196
0001e0 ce 2d 27 bf 1b b1 72 bf 84 ae a5 ba 21 5f 12 3d
       -0.6530427 -0.9480149 -0.0012640511 0.035735253
0001f0 c7 45 87 bd 3c 95 31 bc ac d2 08 3e e7 33 61 3e
       -0.06605106 -0.010838803 0.13361615 0.21992455
000200 5f 39 b6 bd ad e5 c6 3e 91 a3 39 3e ad d1 82 3d
       -0.088976614 0.38847104 0.18128802 0.06387649
000210 a3 9b 33 bf 29 16 ba bf 20 8a 43 3d d4 cd 88 3d
       -0.7015936 -1.4538013 0.04773915 0.066798836
000220 14 b3 20 3f b7 18 61 3f db d6 52 3c 99 cb 82 3f
       0.6277325 0.87928337 0.012868608 1.0218383
000230 bb 4a 90 3c d7 82 1f bd a6 fa 8a bd f1 d2 b8 bc
       0.01761376 -0.038943138 -0.06786089 -0.022561522
000240 1a 60 bf be 6c 97 05 3f aa 9d 22 3d ce 95 df bd
       -0.37378007 0.52184176 0.03970114 -0.10917245
000250 2c 4b 83 3e 66 01 c8 be fd 60 21 3e 69 4e 46 bf
       0.2564329 -0.39063567 0.15759654 -0.77463394
000260 77 2c 94 3d 86 c3 f4 be 6c 24 24 be 92 45 f8 3e
       0.072350435 -0.47805423 -0.16029519 0.48490578
000270 5a 38 ae 3f 66 3c b3 bf 24 d0 23 be 44 49 cc 3d
       1.3610947 -1.4002807 -0.15997368 0.09974912
000280 30 9b 9d bd bc 39 c1 bd 8b 95 98 be 7b 74 a4 3e
       -0.07695615 -0.0943484 -0.29801592 0.32120118
000290 7b c1 81 3d 38 39 93 3e 26 8b ad 3e c6 05 d4 be
       0.063357316 0.28754592 0.33895224 -0.41410655
0002a0 1a 40 23 3d 09 eb 9b be 33 62 95 3e ae db 8e be
       0.039856054 -0.30452755 0.29176483 -0.27901977
0002b0 06 0f 6a 3f 87 a3 00 c0 3a 88 8e 3c b2 41 a0 3e
       0.91429174 -2.009981 0.017398942 0.31300122
0002c0 47 42 4f 3e b7 96 ce 3d c7 76 ad 3d 54 09 2b 3e
       0.20240127 0.1008734 0.084699206 0.16702777
0002d0 cc 4d 54 bd 55 57 d4 bd 35 fa 88 3d 09 18 f5 3c
       -0.051832005 -0.1036822 0.06688348 0.029918687
0002e0 ba e5 f3 3e dd 89 3a 3e 53 4e ad 3e 03 78 89 3c
       0.47636205 0.18216653 0.3384882 0.016780859
0002f0 2c cf 3d 3e 75 9e c1 3d 27 f1 b7 be 5f 08 98 3a
       0.18536061 0.094540514 -0.35926172 0.0011599174
000300 f4 4a 2e c0 44 18 ed be 4b 55 dd 3a 7e a9 46 bd
       -2.7233248 -0.46307576 0.0016886381 -0.048501484
000310 20 f3 b6 3d d8 b5 f2 3c 2a 2e b0 be 83 62 ad 3e
       0.08933091 0.029627725 -0.3441022 0.3386422
000320 cd 3e 6c 3d 60 f0 a8 3d ec db 2e 3d 22 76 f8 bd
       0.05767708 0.08248973 0.042690203 -0.12131907
000330 89 21 a1 bd ac 77 01 be f3 8c 20 bd 53 82 cd bd
       -0.078677244 -0.12643307 -0.03919692 -0.10034623
000340 c7 90 3a 3f f4 27 e7 3f b7 7b 42 bf b2 fa a0 bf
       0.7287716 1.8059068 -0.75970024 -1.2576506
000350 d6 69 84 bc 17 8c 47 bd 6d 79 49 be 55 f9 3e bb
       -0.016163748 -0.048717584 -0.19675227 -0.0029140313
000360 75 9a a4 be 57 81 67 3f 59 7e a2 bd da 94 9a 3e
       -0.3214909 0.9043173 -0.07934255 0.3019169
000370 6f 1a 90 3e 13 85 2f bf 4d 67 2c 3f 63 b4 78 bf
       0.28145167 -0.6856243 0.67345124 -0.9715025
000380 39 61 d4 3e e5 00 89 bf 14 39 7b be ff 05 52 3f
       0.41480425 -1.0703398 -0.24533492 0.820404
000390 02 10 08 bf 00 c9 38 3f ef 7c 64 bd 8b 72 ea bd
       -0.53149426 0.721817 -0.05578321 -0.114476286
0003a0 65 8d 5c 3c bd 8b fe bc 2b a0 52 bf d6 18 a7 bc
       0.013461445 -0.031072492 -0.82275647 -0.020397585
0003b0 db 4f 96 bd 32 46 e7 3d ea 5d 42 3f a0 3f 70 3e
       -0.0733945 0.112926856 0.7592455 0.23461771
0003c0 13 b2 9f 3d e9 b9 5e bd ce 66 a5 3e 6f 90 a1 3e
       0.07797637 -0.054376516 0.32304996 0.31555507
0003d0 64 d6 91 be 07 7e 70 be b5 35 db 3f 88 bd fc 3e
       -0.2848388 -0.23485576 1.7125765 0.4936335
0003e0 4e 78 0a 3e 75 cc 0a bd 43 a5 ce bc ae b2 38 3d
       0.13522455 -0.03388639 -0.025225287 0.045092277
0003f0 0c 23 b4 be ef 4c 7a be 42 2d 51 bf c7 6d 8d be
       -0.3518299 -0.2444341 -0.8170968 -0.27622816

action_dict.encoder.bias f4 [64]
000000 d0 53 bf bf 74 7d 15 3f cd 10 95 bf 81 ec 0e c0
       -1.4947453 0.5839455 -1.1645752 -2.233185
000010 d1 16 af bf 4f 14 8e be 41 24 4d bf 89 03 ce bf
       -1.3678838 -0.2774987 -0.80133444 -1.6094829
000020 fa a0 03 bf 1b 1c 1f bf a8 1f d1 3e 81 00 2b bf
       -0.51417506 -0.6215226 0.40844464 -0.66797644
000030 29 19 83 bc d8 df 34 bf e9 ad 81 bf 85 b0 d1 bf
       -0.016003208 -0.7065406 -1.0131198 -1.6381994
000040 c1 8a 81 be 55 3c 8b be 8a 5a df be a2 a0 ed bf
       -0.25301173 -0.27194467 -0.43623763 -1.8564646
000050 d3 79 d3 bc 44 6c 70 be b3 f3 7d 3e 13 4b 64 3c
       -0.025814926 -0.234788 0.24799995 0.013933915
000060 35 eb cc bf 9f 65 d4 be 02 e7 52 3f df c0 c2 be
       -1.600928 -0.4148378 0.8238374 -0.38037774
000070 c1 79 c4 bf 9b c5 6c bf 2d 5a 3b bf be c2 e1 bf
       -1.5349656 -0.9248902 -0.7318447 -1.7637556
000080 76 df 6c 3f 0d f6 b8 bf 34 db 8e 3e 4e f5 45 3f
       0.92528474 -1.4450089 0.27901614 0.7732743
000090 66 fd 80 be 3a 94 e9 be 8a c5 e8 3a e5 5e da bf
       -0.25193328 -0.456209 0.0017759067 -1.706021
0000a0 6f ab 8c bf ea 82 b6 bc a1 55 8e be 9f 7f fe bf
       -1.0989817 -0.022279222 -0.27799705 -1.9882697
0000b0 e9 38 38 3f 55 2b e3 bf ff ae 3a 3f db 36 0e bf
       0.7196184 -1.7747599 0.7292327 -0.5555245
0000c0 7b 86 f0 bf 82 db 34 bf 1e 23 b4 be 6d a7 37 bf
       -1.879104 -0.7064744 -0.35183042 -0.71739846
0000d0 d8 f1 8b 3e b3 17 c1 bf 10 59 b2 3e 2c e4 1b bf
       0.2733295 -1.5085357 0.34833574 -0.6089504
0000e0 87 b2 c1 bf 95 d1 5e bf fd fd 35 3f 84 bc b5 bf
       -1.5132607 -0.87038547 0.7109068 -1.4198155
0000f0 0d 28 ad bf 8c 95 a4 be 86 d9 22 be 1c b8 12 bf
       -1.3527848 -0.32145345 -0.15903291 -0.5731218

action_dict.f_module.weight_ih f4 [256, 64]
000000 ab 37 5f bf 91 62 c7 be e2 84 60 bf 9a ff cd be
       -0.8719432 -0.38942388 -0.87702763 -0.4023407
000010 2a 0b a1 be 40 f2 99 be 87 0c d7 3d f6 c5 e2 be
       -0.3145383 -0.30067635 0.10500436 -0.44291657
000020 61 76 ab bd 88 fb e7 be 6f f4 19 bf 5a 0a c9 3e
       -0.08372188 -0.4530909 -0.601386 0.3926571
000030 1d cb 13 bf a4 b1 48 bf 08 21 03 bf d7 39 40 3e
       -0.577318 -0.7839606 -0.51222277 0.18772064
000040 48 b0 3b bf 84 77 62 3e 0a 36 58 be a4 3c 16 bf
       -0.7331586 0.22115904 -0.21114364 -0.5868628
000050 59 90 37 be 2a f2 4c bf a8 37 7e bf fb 0e b2 bf
       -0.17926158 -0.80057013 -0.99303675 -1.3910822
000060 d5 3b 68 3e 95 cf 82 bd 0e 87 6f bf c2 28 2f 3e
       0.22679074 -0.063872494 -0.9356545 0.17105392
000070 1a b3 b3 3b 97 60 0a be a5 69 8f bf 91 fb 31 bf
       0.005483997 -0.13513409 -1.1204115 -0.69524485
000080 45 44 41 be da 59 c3 3d ef 73 58 bf f4 50 49 bf
       -0.18873699 0.09538622 -0.845519 -0.7863915
000090 c9 d8 c8 3e 49 b4 07 3d 89 53 09 3e 75 9d 7b bf
       0.39227894 0.033130918 0.13410772 -0.98287135
0000a0 3a a1 3e bb a7 0d ed be 75 e3 61 bf 2a 13 14 be
       -0.0029087798 -0.46299478 -0.88237697 -0.14460436
0000b0 c4 40 31 bf 9c 19 07 bf 34 fc ee 3c 17 0e 83 bf
       -0.6923945 -0.5277345 0.029172994 -1.0238675
0000c0 d6 24 09 3d fa 56 35 be e0 2a b5 be 01 d4 4e bf
       0.033482395 -0.1770896 -0.35384274 -0.8079224
0000d0 8d f8 1a bf 9d 17 30 3d 10 42 ce be d0 78 16 bf
       -0.6053551 0.04299127 -0.40284777 -0.58778095
0000e0 38 ee 55 bf 01 4d 31 be 45 80 b7 be 89 70 ec be
       -0.8356662 -0.17314531 -0.3584005 -0.46179608
0000f0 d3 47 f5 be ad 33 86 3d e0 b3 88 be 41 23 d2 be
       -0.4790636 0.06552825 -0.26699734 -0.41042522
000100 5b 5d 2c bf 30 61 eb be 8f b6 6c 3e af 42 4b 3e
       -0.6732995 -0.45972586 0.23116516 0.19849657
000110 3b be 32 bf d7 f3 c5 3e bf 14 00 bf 98 33 b2 bf
       -0.6982152 0.38662598 -0.50031656 -1.3921995
000120 81 7d 62 3e 94 98 fc be 60 58 02 3e b2 0d ac bd
       0.22118188 -0.49335158 0.12729025 -0.0840105
000130 3b 00 40 be 6c e2 65 bf 75 1d 0f 3c 29 64 73 bd
       -0.18750088 -0.8979862 0.00873505 -0.059421692
000140 6f 87 df be f5 26 37 be 0a 27 b3 3e 63 d3 86 be
       -0.43658015 -0.17885955 0.34990722 -0.2633315
000150 a8 7f c6 be c4 e9 0c bf 0e 18 55 bf 97 ba 29 3e
       -0.3876927 -0.550442 -0.8323983 0.16575085
000160 6a 8c 69 bd ed 0b eb 3c e2 28 94 be fa ce 53 be
       -0.057018675 0.02869221 -0.2893744 -0.20684424
000170 ce 09 17 be b5 da ae be 07 5b 7c 3e ef 5a 09 be
       -0.14749834 -0.34151235 0.24644099 -0.13413595
000180 f9 14 23 bf ff 0e 20 be 81 81 b3 be c7 7d f4 be
       -0.63703877 -0.1563072 -0.3505974 -0.4775221
000190 a4 cf 38 bf e6 19 02 bd 4f 4f 57 bf 1b 49 8d bf
       -0.72191834 -0.03176298 -0.8410539 -1.1037935
0001a0 a6 ee a5 be 42 8c ea be 2a 3d 57 bf 56 16 1d 3f
       -0.32408637 -0.45810133 -0.84077704 0.61362207
0001b0 d3 f9 ae bf ce cc 00 3e bd ad 1a be 40 2c e9 be
       -1.366999 0.12578127 -0.15105338 -0.45541573
0001c0 5f 7d 0f be f8 8f d9 3d ab ec 2d bf 3d b6 90 be
       -0.14012669 0.10623163 -0.6793925 -0.28264037
0001d0 25 90 c1 3e c8 92 c1 be 45 ab a0 be 3d ce 37 bf
       0.37805286 -0.37807298 -0.31380668 -0.7179907
0001e0 2c 26 0c 3e 59 4b 27 be db c5 49 bf 38 3e 7e be
       0.13686436 -0.16337337 -0.7881753 -0.24828422
0001f0 30 ec 98 be 69 d2 99 be 6e 5c 3b be a0 a6 f7 be
       -0.29867697 -0.30043343 -0.18296978 -0.48369312
000200 f3 3c fb 3e 41 5f c1 be df 39 2a bf c4 41 11 bf
       0.49069938 -0.37767985 -0.66494554 -0.56740975
000210 c4 e6 03 3c c6 7d aa bf 0e af 98 bf 7e b6 b6 3f
       0.008050624 -1.3319633 -1.1928422 1.4274442
000220 cd b6 e7 bf 73 62 99 bf a1 0b 7e c0 ee 76 23 bf
       -1.8102661 -1.1983169 -3.9694598 -0.6385335
000230 f9 50 c1 bf 3a 5e 8a be 34 22 77 bf 60 31 b7 3e
       -1.5102836 -0.27025014 -0.96536565 0.35779858
000240 dc c3 7d 3e 38 af 29 3f 26 1d 27 3e 77 9d 24 3d
       0.24781746 0.6628299 0.16319713 0.040189233
000250 8e 18 1c 3f db bf c0 bf 64 1f 3c 3e 66 97 b5 bd
       0.6097497 -1.505855 0.1837135 -0.088667676
000260 d5 e8 24 3f 64 e6 9b 3d f9 af 2c 3f e6 15 78 bf
       0.64417773 0.07612303 0.6745601 -0.96908414
000270 81 21 20 be b3 97 e8 be ac 61 7d bf d4 63 86 bf
       -0.1563778 -0.45428237 -0.9897716 -1.0499215
000280 20 40 4f bf 75 3f 0b 3f 28 c5 f0 bf b4 88 44 bf
       -0.8095722 0.543937 -1.8810167 -0.7677109
000290 6d dc 0b 3f ba 17 a6 bd 7a eb d0 3e fc b7 51 3f
       0.5463322 -0.08109994 0.40804654 0.8192136
0002a0 ce b3 f6 bc 22 60 77 bf db b0 e0 bf 83 2e f1 be
       -0.030115034 -0.9663106 -1.7553972 -0.47105798
0002b0 5c 55 2f 3f b8 f7 b4 bd 78 df 33 bc 6c b0 71 bf
       0.68489623 -0.08836311 -0.010978572 -0.94409823
0002c0 bb a1 b9 be 50 8d 83 be da b7 0d 3e 11 f9 70 be
       -0.36256203 -0.2569375 0.13839665 -0.23532511
0002d0 6c c4 8f bf 47 ee 37 bd f8 57 7c 3e ff 58 87 3e
       -1.1231818 -0.044904973 0.24642932 0.26435086
0002e0 da b6 5f bf e4 97 2a be 52 f6 45 be 24 1a 80 bf
       -0.87388384 -0.16659504 -0.19332245 -1.0007977
0002f0 0c ab 68 bf 2f b6 ad 3f 51 1b 97 be f4 2e de bd
       -0.90885997 1.3571223 -0.29513028 -0.10848799
000300 f0 68 b9 3d db 02 20 3e 04 90 47 bf 2d 7c f8 3e
       0.09053218 0.1562609 -0.77954125 0.4853224
000310 99 ad 46 3f 7e 6e 13 c0 60 cb 11 bf a2 25 a5 3e
       0.7760864 -2.303619 -0.5695095 0.32255274
000320 3f b6 b2 be 54 69 73 3f 9c 62 8b bd 12 04 9c bf
       -0.34904668 0.9508259 -0.068059176 -1.2188742
000330 44 78 39 bd 64 de 6b be 06 e3 87 be b2 cd 84 bf
       -0.04528071 -0.23034054 -0.26540393 -1.0375273
000340 63 f6 73 bf a2 4f 39 3f d4 71 f2 3e 98 58 df be
       -0.9529783 0.72387135 0.4735247 -0.4362228
000350 3d a5 6d 3f 73 03 40 be f2 37 15 40 8a e8 0d c0
       0.9283026 -0.18751316 2.3315396 -2.217318
000360 95 6f 73 bf e1 46 90 be ac bf 8c be 77 c3 84 3f
       -0.95092136 -0.28179076 -0.27489984 1.0372151
000370 81 df f3 3e 0d 6b d1 3e 54 ef 1c 3f 05 de 80 bf
       0.47631457 0.40901986 0.61302686 -1.0067755
000380 43 41 e6 3b 1c 85 41 3f a3 65 b7 3f 27 1a 46 c0
       0.007026823 0.75593734 1.4327892 -3.0953462
000390 33 05 07 c0 37 a1 a9 3d 88 3a 52 3e 99 f8 b5 3f
       -2.1096923 0.082827024 0.2053014 1.4216491
0003a0 8e 44 09 be 1e 0f 5f bf eb 6d 0b 3f d0 09 bd bf
       -0.13405058 -0.8713244 0.54464597 -1.476862
0003b0 92 b1 0e c0 8f a0 b6 be 78 cd 26 3d c6 de 71 3f
       -2.229588 -0.3566937 0.040723294 0.9448055
0003c0 66 e5 4b bf 4f bf 4b be 25 68 4b 3e 12 dd a6 bf
       -0.7964691 -0.19897197 0.19863947 -1.3036215
0003d0 e3 e5 a5 be c1 37 b7 3f 26 87 8d 3f 2e 6a e4 bd
       -0.32401952 1.431389 1.1056869 -0.11153065
0003e0 35 8f 4f bf 1f ce 1c bf f7 9d da be 8f ea fc be
       -0.8107789 -0.61252016 -0.42698643 -0.49397704
0003f0 81 8b 04 40 ff 1b a8 3f 45 5a 2c 3f 6d 40 3a bf
       2.0710146 1.3133544 0.6732524 -0.72754556

action_dict.f_module.weight_hh f4 [256, 64]
000000 a4 c7 e4 bd f4 f1 d8 bd f0 d5 16 3c f0 0c 8d 3c
       -0.11170891 -0.10593024 0.00920628 0.017218083
000010 28 b2 22 bd 20 95 c9 3d e8 96 8b bd a6 c4 8f bd
       -0.039720684 0.098428965 -0.068158925 -0.070199296
000020 b8 fb ec 3c 9e ee 83 bd 8c e2 eb 3d 62 1c ed 3d
       0.028928623 -0.06441997 0.1151782 0.11577679
000030 40 af 53 bd f0 f2 28 bc 5c 41 08 3d f8 f1 a0 bd
       -0.051680803 -0.010311827 0.033265457 -0.07858652
000040 80 83 a5 3a e8 b8 04 bd 70 eb 63 bc 2c d8 3c 3d
       0.0012627691 -0.032402903 -0.013911113 0.046104595
000050 06 62 f2 bd d0 13 ce bc 34 d7 04 bd 88 69 3f 3d
       -0.11835103 -0.025155932 -0.032431796 0.0467315
000060 8e c0 a3 bd d0 bc 75 3c 70 87 01 3c 04 0b eb 3d
       -0.07995711 0.01499863 0.007905826 0.114767104
000070 40 28 05 3d 84 42 72 bd 92 0c d0 3d e0 4a 7a bc
       0.03250909 -0.059145465 0.101586476 -0.015276641
000080 68 cc 48 3d 4a dd d2 bd fc 2c bc bd 24 2a 56 3d
       0.049023062 -0.10296114 -0.091882676 0.052286282
000090 50 4f 95 3d 06 2a 86 3d 70 6f 72 bd c0 0c 74 3d
       0.07290518 0.06550984 -0.059188306 0.05958247
0000a0 06 51 8f 3d ba 89 94 3d ae a0 93 bd 20 f3 c8 3d
       0.06997876 0.07252832 -0.072083816 0.098119974
0000b0 a8 b6 b9 3d 00 d9 a7 3d 98 8a 80 bd 20 7a a2 3c
       0.09068042 0.08195686 -0.06276435 0.019833624
0000c0 5a 87 ec 3d 48 39 22 bd 7a 20 cb 3d 18 67 a6 3d
       0.11549254 -0.03960541 0.09918304 0.08125132
0000d0 20 34 91 bb 64 ef 91 bd 6c cd 8a 3d 68 d8 df 3c
       -0.0044312626 -0.07125738 0.06777462 0.02732487
0000e0 a8 50 bc 3c a0 74 90 bb 66 d9 e4 bd 08 42 b9 bc
       0.022987679 -0.004408434 -0.11174278 -0.022614494
0000f0 14 a5 46 3d f4 8c e1 3d ac 09 d0 bd 5a 88 c4 bd
       0.048497275 0.11013213 -0.10158095 -0.095963195
000100 ae 3b f3 bd aa 56 aa 3d 20 ea 33 3d cc 8b 33 3d
       -0.11876617 0.08317311 0.04392445 0.043834493
000110 e0 74 18 bd 9c cf 6f bd ec 74 3d bd 0c 80 0c 3d
       -0.037220836 -0.0585476 -0.046254084 0.034301803
000120 9c 4e fd 3d 80 da 89 3d a2 5c f0 bd 00 fa 1a 3a
       0.12368509 0.06731129 -0.11736418 0.00059118867
000130 d4 06 1f bd 10 af 49 3c ca c5 fb 3d 50 83 66 3c
       -0.03882487 0.012309805 0.12293585 0.014069393
000140 f8 30 bb bc 70 ea f2 bc 60 b0 f1 bc 5c 19 1c 3d
       -0.022850499 -0.029652804 -0.029503047 0.038110122
000150 2a 15 c3 3d 2e 2a f4 3d ee c5 e8 bd 6c 8b 3a bd
       0.09525521 0.11922108 -0.11365877 -0.04554312
000160 8c a7 0f 3d e8 33 ea bc a2 bd f1 bd 90 55 59 3d
       0.035071895 -0.028589204 -0.11803748 0.053060114
000170 ec ed 1b 3d 08 86 ca bc e4 f0 0e 3d e4 8e 09 bd
       0.038068697 -0.024722114 0.0348977 -0.033583537
000180 b6 04 b9 3d ba 38 d9 3d b8 6b 8c 3d 38 b1 55 bd
       0.09034102 0.10606523 0.06856483 -0.052170962
000190 c0 b2 4a bd 56 15 aa bd 4a a7 94 3d e8 fb ba 3c
       -0.049486876 -0.08304851 0.0725847 0.022825196
0001a0 4c 6f ef bd a0 8d 90 3d b4 58 4e bd cc d7 9a bd
       -0.1169115 0.07058263 -0.050377563 -0.07560691
0001b0 52 43 e0 bd e6 26 8c bd 5a 65 bc 3d 08 5f eb 3c
       -0.1095034 -0.06843357 0.09199019 0.028731838
0001c0 4c cf ed 3d c8 8d 83 3d 88 09 8e 3d 80 1a f1 bd
       0.11611804 0.06423527 0.06935412 -0.117726326
0001d0 74 98 3e 3d a4 b2 99 bd 2a 21 fb 3d 02 15 82 3d
       0.04653211 -0.07504776 0.12262185 0.06351663
0001e0 6c c8 f7 bd 32 d7 b8 bd 3c 6c ca 3d 6c 1d 1e bd
       -0.12098774 -0.0902542 0.09883925 -0.038602278
0001f0 c2 35 d9 3d 00 84 b9 3d 2c b9 26 3d 90 d6 e6 bc
       0.106059566 0.0905838 0.040703937 -0.028178483
000200 90 c8 04 bd 76 3e 8e 3d 1c 23 8d 3d 58 f4 af 3c
       -0.032417834 0.06945507 0.06891462 0.021478817
000210 5c bd 9e bd 44 d6 1e 3d c0 56 d7 3b cc 12 44 3d
       -0.07750961 0.03877856 0.0065716207 0.04786949
000220 ac 93 bf bd d4 2e 8a bd 38 f6 fb bc 94 a9 1f bd
       -0.09354338 -0.06747213 -0.030757055 -0.03898008
000230 c0 bb 2d bb c8 db d2 3c 0a ee a9 bd f8 fc 88 bd
       -0.0026509613 0.025739565 -0.082973555 -0.06688875
000240 54 53 99 3d 00 d7 19 3c 34 c4 b5 3d a6 93 82 bd
       0.07486597 0.009389639 0.088753134 -0.06375818
000250 90 5e 59 3d 98 5f 00 bd f4 4c bc 3d f4 20 dd 3d
       0.053068697 -0.031341165 0.09194365 0.10797301
000260 d2 b8 e8 3d 38 7c 45 bd 04 63 1d bd e2 14 ce bd
       0.11363377 -0.048214167 -0.038424507 -0.10062577
000270 98 64 50 3d 10 73 5e 3c 70 54 d9 3c d2 85 ed 3d
       0.050877184 0.013577238 0.02652952 0.1159779
000280 34 19 35 bd 04 99 06 bd 96 cf c2 3d 48 dc c4 bd
       -0.04421349 -0.03286077 0.0951225 -0.09612328
000290 92 f3 a3 bd c0 71 dc bc fc f4 55 bd b8 09 fb bc
       -0.08005442 -0.026909709 -0.05223559 -0.030644283
0002a0 04 aa 8e 3d 88 3e 95 3c 8c 05 ce 3d 24 c7 b8 3d
       0.06966022 0.018218294 0.10059652 0.09022358
0002b0 f0 bd cd bd 90 09 3c 3c e6 34 f4 3d fe 0b e9 3d
       -0.10045993 0.011476889 0.11924152 0.113792405
0002c0 0a 37 91 bd e4 f2 88 3d e0 13 11 bc e6 b7 ce bd
       -0.07090576 0.06686953 -0.008854836 -0.100936696
0002d0 fa 83 a9 3d 44 6f df bd d8 bc 8b bd e0 cc 7d 3c
       0.08277126 -0.10909894 -0.068231285 0.015490741
0002e0 f6 c6 b1 3d 1c 3c 77 bd 38 89 9a bc c8 ea 6e 3d
       0.08680527 -0.06036006 -0.01886426 0.058329374
0002f0 e8 cb d3 bc c0 d6 c5 bb 5e 54 ca bd 9c 0b b3 bd
       -0.025854066 -0.006037563 -0.09879373 -0.08742449
000300 04 bb b1 bd 28 93 17 bd a6 a3 f3 bd c0 37 25 bc
       -0.086782485 -0.037005574 -0.11896448 -0.010084093
000310 4c 98 30 3d aa 2f f1 bd 72 15 b6 3d e0 72 4e bd
       0.04311399 -0.11776669 0.08890809 -0.050402522
000320 66 62 98 bd 4c 1e 51 3d f8 c3 58 3d 66 91 a7 3d
       -0.07440643 0.051054284 0.052921265 0.081820294
000330 40 2f 4a 3c 1a 68 c7 3d 20 d5 48 bd 82 11 e3 3d
       0.012340367 0.09736653 -0.049031377 0.11087324
000340 a0 11 fa 3d b8 ff d8 3d ac aa 3d bd f0 bf 4b 3d
       0.12210393 0.105956495 -0.046305344 0.049743593
000350 b0 89 fa 3d 8c d6 7f bd 98 a4 29 3d e8 2f 88 3d
       0.12233293 -0.062460467 0.041416734 0.066497624
000360 3c cf 4e 3d e4 3b 18 3d 68 7b a1 bc 30 1e 20 bd
       0.050490603 0.03716649 -0.019712165 -0.03909129
000370 a8 69 73 3d 18 f1 00 3d a2 51 85 bd 22 c9 85 3d
       0.059426934 0.031479925 -0.06509711 0.06532504
000380 32 ec ef 3d 70 28 e2 bd 6c 4c 1d 3d b6 64 9b bd
       0.117149726 -0.11042869 0.03840296 -0.075875685
000390 28 93 a7 bd 42 53 ba bd 60 22 c9 bc c6 2f 95 3d
       -0.08182365 -0.090979114 -0.024552524 0.07284503
0003a0 e4 06 53 bd 7c 35 75 3d 80 69 91 3a 7a 24 e2 3d
       -0.051520243 0.05986546 0.0011094064 0.110421136
0003b0 9c c1 0d 3d da 73 94 bd f4 00 4b 3d 32 c2 8d 3d
       0.03460847 -0.072486594 0.049561456 0.069218054
0003c0 10 11 0b 3d 7a a1 8f bd 8a 9b a9 bd e0 52 77 3d
       0.03395182 -0.07013221 -0.0828162 0.06038177
0003d0 9a e6 c1 bd 10 a1 65 3d 9c 3d 49 bd 54 a8 f2 bd
       -0.09467812 0.056061804 -0.04913102 -0.11848512
0003e0 80 fd 25 bd 10 b7 47 bd c0 03 01 3b c6 f3 94 3d
       -0.04052496 -0.048758566 0.0019686073 0.072730586
0003f0 80 de b3 bd 82 f9 b9 bd a6 0f be bd 78 7e 7c 3d
       -0.08782673 -0.09080793 -0.092803285 0.061644047

action_dict.f_module.bias_ih f4 [256]
000000 e0 20 a2 bf 92 0c 5b bf 17 2d b2 be 6c d5 85 be
       -1.2666283 -0.85566056 -0.34800026 -0.2613939
000010 fc d7 96 bf 4f 61 d8 bf d2 2c ad bf 34 77 32 bf
       -1.1784663 -1.6904696 -1.3529303 -0.6971314
000020 7d 40 74 bf 27 ba 3e bf b0 65 43 bf 9d 2e a7 3e
       -0.954109 -0.74502796 -0.7632704 0.3265275
000030 18 ca 22 bf dc e1 e9 bb 84 21 54 be 73 af 36 3c
       -0.6358962 -0.0071375202 -0.2071591 0.011150229
000040 50 aa 72 be c4 4d 87 bf c7 84 1c bf 3b cf c1 bd
       -0.23697782 -1.0570607 -0.611401 -0.09463354
000050 ff 4d 44 bf 98 9d 22 bf 41 6e b5 be 05 d3 a1 be
       -0.7668151 -0.6352172 -0.3543568 -0.31606308
000060 c3 3d 9c bf 90 d1 c9 be 00 39 c5 3c e8 49 3f bf
       -1.2206348 -0.39417696 0.024075031 -0.74722147
000070 8a e5 da be e3 3d 02 bf a1 43 04 3f 43 98 11 be
       -0.4275325 -0.5087568 0.51665694 -0.1421824
000080 6e b2 94 bd f6 55 0b be 84 10 df be 5e dc 52 bf
       -0.07260595 -0.1360701 -0.43567288 -0.82367504
000090 aa 8b b6 be 73 1f 27 be 3a aa 98 bf b2 0f 0f bf
       -0.3565343 -0.1632059 -1.1926949 -0.55883324
0000a0 a0 89 e5 bd 13 e3 e6 be cc 48 c6 be e5 42 8c bf
       -0.112078905 -0.4509512 -0.38727415 -1.0957915
0000b0 68 77 17 bf 76 7f 55 bf c0 e2 50 bf 32 a1 7a bf
       -0.59166574 -0.83397615 -0.81595993 -0.97902215
0000c0 41 44 12 bf 09 f2 07 be 6a 99 32 be 78 4c 69 bf
       -0.571354 -0.13275923 -0.17441335 -0.9113231
0000d0 6a 04 03 bf 2b a6 6c bf 7c 22 5e bf 67 0b c4 bc
       -0.5117861 -0.9244105 -0.8677137 -0.023931218
0000e0 6a 05 6a bf 9e a6 5b be 32 b0 a6 bf 2e e9 cf 3e
       -0.9141451 -0.21450278 -1.302252 0.4060759
0000f0 cb 15 a6 be ee 71 6e bf 5a 4b e4 bd 5c bc 08 bf
       -0.32438502 -0.9314259 -0.11147185 -0.53412414
000100 e0 36 28 bc 90 0b e0 bc 40 ba 12 bd 88 f6 d3 3c
       -0.0102669895 -0.027349263 -0.035822153 0.025874391
000110 a0 c6 d6 bc 68 98 86 3c 82 ac 95 3d 40 b0 d6 3c
       -0.026217759 0.016430095 0.07308294 0.02620709
000120 04 1a a8 bd 68 ba b0 bd ca ec 84 bd d8 39 2a 3d
       -0.08208087 -0.08629304 -0.064904764 0.04155907
000130 fc 76 5f 3d b8 05 23 bd 38 b4 f7 bc 76 1d ff bd
       0.05455683 -0.039800376 -0.030237302 -0.12456791
000140 0c 9c 9a 3d 98 45 fc 3d e2 af 92 3d 14 8c fd 3d
       0.07549295 0.123179615 0.07162453 0.123802334
000150 02 8f d8 bd ba cf f0 3d d0 2a 45 bc 50 c8 ff 3d
       -0.105741516 0.11758371 -0.012034133 0.124893785
000160 1c f8 98 3d 00 8d 40 3d 48 55 9e 3c 54 89 19 bd
       0.07469198 0.047009468 0.019327775 -0.037484482
000170 e4 74 22 bd 58 bb 52 3d 1a 7d ce bd 5c 14 e6 bd
       -0.039662257 0.051448196 -0.10082455 -0.11234352
000180 de 9b c6 bd f0 23 5b bd 44 82 55 3d 20 17 6a bc
       -0.09697698 -0.05350107 0.052126184 -0.01428774
000190 aa 46 8a 3d 78 ba 7d bd 90 5a c0 3d fe f3 99 bd
       0.06751759 -0.06194541 0.093922734 -0.07517241
0001a0 f6 5a bd bd 94 5e a0 bd f0 76 1b bc 0a 9d 87 bd
       -0.09245865 -0.07830539 -0.009488806 -0.0662175
0001b0 e2 e3 e2 bd dc ec 6c bd 08 20 d3 bd 18 94 cb bd
       -0.110786214 -0.057843074 -0.10308844 -0.09940356
0001c0 70 72 a6 3d 00 b7 51 bd 00 bf a2 ba c8 33 3c bd
       0.08127296 -0.051199913 -0.0012416542 -0.04594782
0001d0 9a 7a be bd a0 9d c8 bb 60 43 48 3c 2a 68 80 3d
       -0.09300728 -0.006122306 0.012223095 0.06269868
0001e0 16 89 fb 3d 20 ef 73 bd 8a e9 85 3d e0 53 87 3d
       0.122820064 -0.05955422 0.06538685 0.06607795
0001f0 b6 a7 ca bd 4a 34 b1 bd 70 26 b9 3d 00 44 fa 3d
       -0.098952696 -0.086525515 0.090405345 0.12220001
000200 18 b9 bb be 76 18 fd 3d 99 f3 04 be 63 bc d5 3e
       -0.36664653 0.12358181 -0.1298355 0.4174529
000210 a0 76 ef 3e cc 04 b0 3e d0 47 a5 bf 68 9a 76 be
       0.4677019 0.3437866 -1.291254 -0.24082339
000220 81 72 b5 3f 2a d0 89 3e fc 7c ad 3d 4e 71 fd 3e
       1.4175569 0.2691663 0.084711045 0.49500507
000230 32 82 8f 3e e5 70 e3 bd 91 84 48 be e9 83 bf be
       0.2802902 -0.11105517 -0.1958182 -0.37405327
000240 d9 32 4e bc e5 4c b7 3a e1 e7 80 3e c2 de 0a be
       -0.012585365 0.0013984708 0.2517691 -0.13561538
000250 66 8a e3 3d 3e cb 12 bf 7a 68 27 3e f7 1f c3 3f
       0.11110382 -0.5734137 0.16348448 1.524413
000260 5b c3 af be b6 c5 f6 bb 15 c4 74 3d 06 2d 87 bf
       -0.34328732 -0.007530893 0.05975731 -1.0560615
000270 89 a3 b4 be 25 87 2e bd dc 92 2e 3f 73 ad 9a 3e
       -0.35281017 -0.042609353 0.6819284 0.30210456
000280 a2 7b 0a 3e 14 2a c2 be 1a 9f f2 3e e8 cc 84 3f
       0.13523725 -0.37922728 0.4738701 1.0375032
000290 1d a9 e9 3c a3 37 16 3f 6f 47 d9 3e c3 9a b3 3e
       0.028523022 0.58678645 0.42437312 0.3507901
0002a0 41 5f e0 3d 1c ba 61 3e 25 99 91 3c ba aa c4 3c
       0.10955668 0.22043651 0.01777322 0.02400719
0002b0 c0 d1 fb be d2 4a 02 bf 5d 96 08 be 7e 51 dc bf
       -0.49183464 -0.50895417 -0.13338609 -1.721237
0002c0 d5 da be 3d 35 9b f6 3c 55 48 d8 be f6 8f a8 be
       0.09319083 0.030103305 -0.42242685 -0.32922333
0002d0 3d 2f 21 be 2a 28 81 3e 43 01 77 be 0c 7e 00 3e
       -0.15740676 0.25225955 -0.24121575 0.12548083
0002e0 38 27 07 be e3 89 4f 3f be 25 f1 3d ac 64 eb be
       -0.13198555 0.81069773 0.11774777 -0.45975244
0002f0 60 2d 85 3e f5 c5 ff be 91 53 37 bf f3 4b 57 bd
       0.2601118 -0.49955717 -0.7161189 -0.052562665
000300 c9 e6 15 bf 60 63 7d bf d6 b2 85 bf bb e3 c1 be
       -0.58555275 -0.9897976 -1.0445201 -0.37869057
000310 e3 6d 95 bf 2f bc b1 bf 71 10 b4 bf c9 0e f8 be
       -1.167416 -1.3885554 -1.4067518 -0.4844878
000320 1e e0 4d bf c2 c1 6a bf b2 21 26 bf 6a c0 82 bf
       -0.804201 -0.917019 -0.64895165 -1.021497
000330 fa 4d 1f be ca c8 bc be 15 9c 98 be f7 6a 33 bc
       -0.1555709 -0.3687194 -0.2980658 -0.010950795
000340 bb c1 12 bf 9c 43 85 bf 8d df aa be 29 b8 ba bf
       -0.5732686 -1.0411258 -0.3337368 -1.4587451
000350 e4 2d bd be c4 3c 06 bf 2c bc 10 bf cb 31 e6 be
       -0.36949074 -0.5243647 -0.5653713 -0.44959864
000360 a9 76 fc be 75 73 0e bf ed d8 e0 be 3b 78 6f bf
       -0.4930928 -0.55644923 -0.439155 -0.9354283
000370 09 4f 15 bf 61 12 b1 bf 7e 18 03 3e ff e2 67 bf
       -0.58323723 -1.3833734 0.12802312 -0.90580744
000380 d0 a6 2c bf f8 4e c1 be 19 ea 3c bf 4d 0a 74 bf
       -0.67442036 -0.3775556 -0.73794705 -0.9532822
000390 f5 d9 89 bf cf d7 fe 3d fd 8c 48 bf 10 48 5f bf
       -1.076964 0.12443506 -0.7834013 -0.87219334
0003a0 3d cb 9e be 72 d3 c1 be a2 b4 33 bf 5e 00 d2 bf
       -0.31014434 -0.37856632 -0.701975 -1.6406362
0003b0 ad 99 14 bf 96 67 73 bf 06 4f 32 be 94 12 72 bf
       -0.5804699 -0.95079935 -0.17412958 -0.945596
0003c0 44 57 fb 3e f7 f6 2c bf f3 27 66 be f7 e5 c4 bf
       0.49090016 -0.6756434 -0.22476177 -1.538268
0003d0 b8 75 8f bf 46 74 38 bf e6 51 6c bf 97 3b 1b bf
       -1.12078 -0.7205242 -0.9231247 -0.606378
0003e0 7e 77 e5 be c8 99 03 bd e4 7a ee bf 21 5b 71 3d
       -0.44817728 -0.03212908 -1.8631253 0.058924798
0003f0 9d 36 ba bf 05 53 bf bf f6 19 e9 bd cd 1d c8 be
       -1.4547917 -1.494721 -0.11381905 -0.39085236
