model_save/simple_spread_actor_critic_ic3net.pt (torch_old, 148305 bytes, 17 tensors)

value_dict.value_body.weight f4 [64, 18]
0	0x3f7781c6	0.96682394
1	0xbf52ce8a	-0.82346404
2	0xbdc583bf	-0.09644269
3	0x3e8a36b8	0.26994872
4	0x3e1272e7	0.14301644
5	0xbee78f6c	-0.4522661
6	0xbf0e5468	-0.55597544
7	0x3e851e0a	0.2599948
8	0x3fc86f15	1.56589
9	0x3fce7e7c	1.613235
10	0xc003139e	-2.0480723
11	0x3f1c1fae	0.6098584
12	0xc0124960	-2.2857285
13	0x3f96095f	1.172161
14	0xbc50bd73	-0.012740481
15	0xbe13b564	-0.14424664
16	0x3d7fe49f	0.06247389
17	0xbe2c64cd	-0.16835327
18	0xbf20af12	-0.62767136
19	0x3e296a29	0.16544403
20	0xbf967611	-1.1754781
21	0xbfab290b	-1.33719
22	0x3dc33720	0.09531999
23	0xbd87802f	-0.06616246
24	0x3e87cfa7	0.26525614
25	0xbcd10c18	-0.025518462
26	0x40b8759e	5.7643576
27	0x4122f72f	10.185348
28	0x3ee4ddf0	0.44700575
29	0xbdd880f8	-0.10571474
30	0xc0ccd1c7	-6.4006076
31	0xc1337011	-11.21486
32	0xbd8873bd	-0.066627
33	0xbda91e16	-0.082576916
34	0xbd4e6108	-0.050385505
35	0x3e01545b	0.12629835
36	0xc00d41bb	-2.2071369
37	0x4000b93f	2.0113065
38	0xc05113b8	-3.2668285
39	0x404bbde8	3.183466
40	0xbe86f282	-0.26356894
41	0xbe72c513	-0.2370799
42	0x400087e4	2.008294
43	0xbfe8b2f7	-1.8179616
44	0x413c6cc5	11.776555
45	0xc1190c23	-9.565463
46	0xc017f20e	-2.3741488
47	0x404406cb	3.0629146
48	0xc15ac1e5	-13.672338
49	0x413e84a1	11.90738
50	0xbaf126ab	-0.0018398365
51	0x3ddd6c1d	0.108116366
52	0x3a98a5b5	0.0011646064
53	0x3e031f9f	0.12805031
54	0x40057b36	2.0856452
55	0x409c2a65	4.880175
56	0x405dbc8f	3.4646337
57	0x40bed62f	5.9636455
58	0xc093e0e7	-4.621204
59	0xc07eaf09	-3.9794333
60	0xc080d8d0	-4.0264664
61	0xc07e7586	-3.975923
62	0xc05f279e	-3.486793
63	0xc099dd88	-4.8082924
64	0x403d0b1a	2.9538026
65	0x4107745c	8.465908
66	0x40c1386d	6.038138
67	0x40f5d8c8	7.6827126
68	0x3d54d232	0.05195827
69	0xbb0fdc07	-0.0021951215
70	0xbb81e3eb	-0.0039639375
71	0x3c8f2662	0.017474357
72	0x401f2939	2.486891
73	0xc0d8bc14	-6.7729588
74	0x3f7d1c72	0.9887153
75	0xbfd8c26b	-1.6934332
76	0xbeac118b	-0.33607134
77	0x3fa9d3b6	1.3267734
78	0xbf0ab2e4	-0.54179215
79	0x3fbff242	1.4995806
80	0xbe9e63f8	-0.30935645
81	0x3f847fee	1.0351541
82	0x40b22e85	5.5681787
83	0xc09f2606	-4.9733915
84	0xbc5148be	-0.012773691
85	0xc09cbfe7	-4.8984256
86	0xbe1ced7b	-0.15324967
87	0xbe0d701e	-0.138123
88	0xbd03dea9	-0.032194767
89	0x3d5e3be3	0.05425633
90	0x3fad786b	1.3552374
91	0xbfc63abb	-1.5486673
92	0x3e94c2f3	0.29054984
93	0x3e8ff67b	0.28117737
94	0xbec36305	-0.38161483
95	0xbe8b3db4	-0.27195513
96	0xbe13239c	-0.14369053
97	0xbf3ca098	-0.73682547
98	0x4005ee45	2.0926678
99	0x3fec2e16	1.8451564
100	0xc068d818	-3.6381893
101	0x40691e98	3.6424923
102	0xbe66c79d	-0.22537084
103	0x3f5b7f94	0.85741544
104	0x3d71878f	0.05896717
105	0x3b64b963	0.0034900538
106	0xbda108a0	-0.07862973
107	0x3dec0fd3	0.11526456
108	0xc0501322	-3.2511678
109	0x4028e1ab	2.6387737
110	0xbf82ef06	-1.0229194
111	0x40561496	3.3450065
112	0x402c69e9	2.6939642
113	0xbffe3780	-1.9860687
114	0x3f9bcfff	1.217285
115	0xbfad0797	-1.3517941
116	0x3fe5eb7c	1.7962489
117	0xc0146ed9	-2.3192656
118	0xc01dd830	-2.46632
119	0x408c429e	4.383132
120	0xc0a95d19	-5.2926145
121	0x409285e5	4.5788445
122	0x3dc7d3f7	0.09757226
123	0x3ad1dd18	0.0016011326
124	0x3c893ca9	0.016752558
125	0xbd3fa7c2	-0.046790846
126	0x40a9ea60	5.30986
127	0x3f79e0c8	0.97608614
128	0x3f6fe52e	0.93709075
129	0xbfd4f832	-1.6638243
130	0x3edc96c3	0.43083772
131	0xc075cb0a	-3.8405175
132	0xc002bcc0	-2.0427704
133	0xbfbc5a2c	-1.4715018
134	0x3f65208f	0.89502805
135	0x40c3c3d6	6.1176558
136	0x3eda66e2	0.42656618
137	0xc0998cf4	-4.798456
138	0x3f01e728	0.5074334
139	0xc02824a6	-2.6272368
140	0xbd05df3e	-0.032683603
141	0x3e54afc7	0.20770179
142	0x3c7928d0	0.015207484
143	0xbcf83725	-0.030299732
144	0xc026edaa	-2.6082559
145	0x40d92e0a	6.78687
146	0xc0828c42	-4.0796213
147	0x409e4d35	4.9469247
148	0x40794f64	3.8954706
149	0xc062190f	-3.5327795
150	0x40a813d4	5.2524204
151	0xc09108a7	-4.532306
152	0x40905b14	4.511118
153	0xc0803885	-4.0068994
154	0xc066fb0d	-3.609073
155	0x40b246ef	5.571159
156	0xc0968ba5	-4.7045465
157	0x40c35c50	6.1050186
158	0x3e1563c4	0.14588839
159	0xbd2bb217	-0.041917887
160	0x3dcf7c8a	0.10131176
161	0xbd968d3e	-0.073511586
162	0x404c31d5	3.1905415
163	0xc072e98e	-3.795505
164	0xc013df63	-2.3105094
165	0x3f9edf06	1.2411811
166	0x4071766c	3.772853
167	0xc07d15e9	-3.9544623
168	0x401edbb3	2.4821594
169	0xc01570ed	-2.3350174
170	0x40607bf3	3.5075653
171	0xc072f048	-3.7959156
172	0xc017075c	-2.3598242
173	0xc01e1ebc	-2.4706259
174	0xbf82ee22	-1.0228922
175	0xbf48610b	-0.78273076
176	0xbe745aef	-0.23862813
177	0xbdae6aab	-0.08516439
178	0x3e1286c7	0.14309226
179	0xbd17f474	-0.037098363
180	0x3fb8bd92	1.4432852
181	0x4053fcba	3.3123002
182	0x3fd78b71	1.6839429
183	0x412195d9	10.099084
184	0xbf213388	-0.62969255
185	0xc0a31e49	-5.097447
186	0xbec0e4a6	-0.37674445
187	0xc098412e	-4.7579565
188	0xbf1d06b1	-0.61338335
189	0xc0b2eb41	-5.5912175
190	0x3f9fd18b	1.2485822
191	0x4118090c	9.502209
192	0x3fb37b5b	1.402202
193	0x41343668	11.263283
194	0xbcdc413b	-0.026886573
195	0x3e2f8b90	0.17143083
196	0x3de77d77	0.113032274
197	0x3d26dfeb	0.04074089
198	0xbfcb5ea0	-1.5888252
199	0x40b62d23	5.69301
200	0xc00df558	-2.2180996
201	0x40ca62a0	6.324539
202	0x3f64d8b4	0.8939316
203	0xc0c32f8d	-6.0995545
204	0x3fef0671	1.8673841
205	0xc0d0e916	-6.528453
206	0x4007b5d9	2.120474
207	0xc0c767ea	-6.231435
208	0xc000f877	-2.015165
209	0x40ec5bb7	7.3861957
210	0xc036caae	-2.8561206
211	0x4103550f	8.208266
212	0x3b88e8cf	0.0041781436
213	0x3e0482e2	0.12940553
214	0xbd31e440	-0.043430567
215	0x3bcda77a	0.0062760683
216	0x3ed52942	0.4163304
217	0x405ceda9	3.4520056
218	0x3fba9cf3	1.4579147
219	0x4077161d	3.8607247
220	0xbfd69b55	-1.6766154
221	0xbe258617	-0.16164432
222	0xbf62ea61	-0.88638884
223	0xbf8d2e39	-1.1029731
224	0x3f40cc6e	0.75311935
225	0xc024227b	-2.5646045
226	0x40939274	4.6116276
227	0x40ad172a	5.4090776
228	0x3eb5f982	0.35541922
229	0xbf46a0b9	-0.77588993
230	0x3e0857d8	0.1331476
231	0xbd525e73	-0.051359605
232	0xbcd300df	-0.025757251
233	0xbda42159	-0.08014173
234	0x403782da	2.8673615
235	0x3fc1bffa	1.5136712
236	0x4082af5e	4.083907
237	0x40a8926c	5.267874
238	0xc09c3a69	-4.88213
239	0xc09576ba	-4.670743
240	0xc06b7875	-3.679227
241	0xc085e22f	-4.1838603
242	0xc082359a	-4.069043
243	0xc0c53a58	-6.163372
244	0x40b8aa3a	5.7707796
245	0x40d6003f	6.68753
246	0x40be45a0	5.945999
247	0x40e5284d	7.1611695
248	0xbd565fab	-0.05233733
249	0x3e19fcc3	0.15037827
250	0xbdebbfb7	-0.11511176
251	0x3cf4768a	0.02984168
252	0xc095e794	-4.684519
253	0x3fc4e5dc	1.5382648
254	0xbf89354b	-1.0719389
255	0x3ed79bd2	0.4211107

value_dict.value_body.bias f4 [64]
0	0x411bb15d	9.730802
1	0xbed112f4	-0.40834773
2	0xc0227d88	-2.5389118
3	0xc0ebc98b	-7.3683524
4	0xbe231dee	-0.15929386
5	0x411f2786	9.947149
6	0xc10dfddf	-8.87448
7	0xc109ce04	-8.612797
8	0xc1057fa9	-8.343667
9	0xc0a756e5	-5.2293572
10	0xc13a4b84	-11.643436
11	0xc10ddb75	-8.866078
12	0xc10d634e	-8.836744
13	0xc0cb97ed	-6.3622956
14	0xc16e86ea	-14.907938
15	0xc12a2178	-10.633171
16	0x41265258	10.395103
17	0xc0270330	-2.6095695
18	0x413026fb	11.009517
19	0xc1507406	-13.028326
20	0x3e1996ce	0.14998934
21	0xc16dabac	-14.854412
22	0xbe885d20	-0.2663355
23	0xbfde3202	-1.7359011
24	0xbff972cc	-1.9488158
25	0xc13a2fd0	-11.636673
26	0x3eb990c5	0.36243263
27	0x4122c6c3	10.173526
28	0xc12ef5e6	-10.935034
29	0xc114284d	-9.259839
30	0xc155e1c9	-13.367623
31	0x3f25cbe4	0.6476424
32	0xc0f47351	-7.6390767
33	0x411d4b65	9.830907
34	0xc1202b13	-10.010516
35	0x3e8e9ab7	0.27852413
36	0xbe1993d2	-0.14997795
37	0x3e9a4c97	0.30136558
38	0x3f850a2d	1.039373
39	0xc12d4fd8	-10.831993
40	0xbfb661aa	-1.4248555
41	0xc12d5dec	-10.83543
42	0x41022290	8.133438
43	0xbf93e3fb	-1.1553949
44	0xbe844a7b	-0.25838074
45	0xbfc13992	-1.5095694
46	0xc16ba349	-14.727365
47	0xbdd1caf7	-0.102437906
48	0xc1599161	-13.597993
49	0x4122d434	10.176807
50	0xbee1d504	-0.4410783
51	0xc1121de7	-9.1323
52	0x3f021036	0.50805986
53	0xc136f660	-11.43515
54	0xbe4b1544	-0.19832331
55	0x410266e2	8.150118
56	0xc01641a5	-2.3477566
57	0x41067843	8.404361
58	0xbe5b934b	-0.21442907
59	0xbf732032	-0.94971
60	0xc144da0e	-12.303236
61	0x3f6b156b	0.91829556
62	0xc135a51e	-11.352812
63	0x3e0f9e10	0.1402514

value_dict.value_head.weight f4 [1, 64]
0	0xbf208cc8	-0.62714815
1	0xbf96627b	-1.1748804
2	0xbf7ec472	-0.995185
3	0xbf823a97	-1.017413
4	0x3e91972a	0.28435642
5	0xbef66213	-0.481217
6	0x3e48e6db	0.19619314
7	0x3ee59db9	0.44846895
8	0xbf43c6dc	-0.7647531
9	0xbf84f9f8	-1.0388784
10	0xbe850eac	-0.25987756
11	0xbf916291	-1.1358205
12	0x3e9d577f	0.30730817
13	0xbf9da290	-1.2315235
14	0x3f9a2468	1.204236
15	0xbe57fcd1	-0.21092536
16	0xbf2c66bf	-0.6734428
17	0xc03be504	-2.935853
18	0xbf8a0ae8	-1.0784578
19	0xbfa3b77a	-1.2790368
20	0xbf2ee765	-0.6832183
21	0xbf4ba606	-0.79550207
22	0xbf7520af	-0.95752996
23	0x3f45a063	0.77197856
24	0xbf3310a2	-0.69947255
25	0x3e4c803a	0.1997079
26	0xbf5be9f6	-0.8590387
27	0xbf72c812	-0.94836533
28	0xbf9b2a02	-1.2122195
29	0xbebd2b99	-0.36947325
30	0xbf15b3da	-0.58477557
31	0xbfa2e9d2	-1.2727606
32	0xbfdd7eef	-1.7304362
33	0xbe8753b9	-0.26431063
34	0xbf0c46ea	-0.54795706
35	0xbf58daf0	-0.8470907
36	0xbf970029	-1.1796924
37	0x3f413f0e	0.7548684
38	0xbf754aab	-0.9581706
39	0x3e1c3a3e	0.15256593
40	0x3f98d8d6	1.1941173
41	0x3d3084fd	0.043095578
42	0xbf2387bb	-0.63878983
43	0x3f84dbac	1.0379539
44	0xbf8845fb	-1.0646356
45	0x3f1f9467	0.6233582
46	0x3eaf24d8	0.34207797
47	0xbf83a2e5	-1.0284086
48	0xbf1acb8e	-0.6046685
49	0xbf8979e7	-1.0740327
50	0xbf6944a4	-0.9112036
51	0x3f602c96	0.8756803
52	0xbf8dcefa	-1.1078789
53	0x3eef69a9	0.467603
54	0xbf95646f	-1.1671275
55	0xbd1bd074	-0.038040593
56	0xbeb8b2e7	-0.36073992
57	0xbf85a276	-1.0440204
58	0xbf9c1595	-1.2194086
59	0x3fc02358	1.5010786
60	0x3f0adbcc	0.54241633
61	0xbfa304c2	-1.2735827
62	0xbfc4ea5a	-1.5384018
63	0xbfa92d4f	-1.3216952

action_dict.action_head.weight f4 [5, 64]
0	0x3f5befaa	0.85912573
1	0xbd3e02b1	-0.046389285
2	0x3f9c295d	1.2200123
3	0xbd5bac6f	-0.053631242
4	0xbe56b4e2	-0.20967439
5	0xbc4a95d1	-0.012364821
6	0x3f1c35a3	0.61019343
7	0xc083ecdc	-4.1226635
8	0xbe3bc366	-0.18336257
9	0x3e0f1df6	0.13976273
10	0xc02e2e75	-2.7215855
11	0x3dda82eb	0.10669502
12	0xbf168930	-0.5880308
13	0x3e0f7b62	0.1401191
14	0xbd3a7646	-0.04552295
15	0x3f1a8761	0.6036282
16	0x3e7c2df0	0.24626899
17	0x3e4367a1	0.190825
18	0x3e374f4a	0.1790134
19	0x3f57847c	0.8418653
20	0x3bf0f7ec	0.0073537733
21	0x3e17d734	0.14828187
22	0xbdf195bf	-0.1179614
23	0xbf0c6bbf	-0.5485191
24	0xbe4ed612	-0.20198849
25	0xbe971d79	-0.29514673
26	0xbd69e364	-0.057101622
27	0xbfa34bbc	-1.2757487
28	0x3d3a84f1	0.04553694
29	0xc04fbc2c	-3.24586
30	0xbe37099d	-0.17874761
31	0x3c49b34c	0.012310814
32	0x3ffba4e8	1.96597
33	0xbd4516d7	-0.048117485
34	0x3d9c326e	0.07626806
35	0xbdbd57ef	-0.092452876
36	0xbddd7f03	-0.10815241
37	0xc01797de	-2.3686442
38	0xc0883936	-4.2569838
39	0xbf6b0d86	-0.9181751
40	0x3d929062	0.07156445
41	0xbe036356	-0.12830862
42	0xbe5dae9d	-0.21648641
43	0xbfb13f31	-1.384741
44	0x40900fac	4.501913
45	0xbf4fa8f4	-0.81117177
46	0xbf17fb46	-0.5936779
47	0xbdf498d3	-0.119432114
48	0xbf9d29cb	-1.2278379
49	0x408b02e1	4.3441014
50	0x3d9d0d65	0.076685704
51	0xbe37af85	-0.17938049
52	0x3ae674fd	0.0017582473
53	0xbc9b11bb	-0.018929353
54	0x3e0daa7a	0.13834563
55	0xbdb45e4d	-0.08807049
56	0x3ef64d6a	0.48105937
57	0x4079d674	3.9037142
58	0xbd413ca3	-0.04717697
59	0x3e3c0c16	0.18363985
60	0xc020d424	-2.512948
61	0xbd329e86	-0.04360821
62	0xbca9e720	-0.020740092
63	0x406b77fb	3.679198
64	0x3e57e95f	0.21085118
65	0x3da31d13	0.0796453
66	0xbfa52bfa	-1.2904046
67	0x3bdd8ee6	0.0067614196
68	0xbd770b51	-0.060313527
69	0x3e64e41f	0.22352646
70	0xbe80d15b	-0.25159726
71	0xc00a973b	-2.1654804
72	0x3d21c665	0.039495844
73	0xbd8ffe69	-0.07030947
74	0xc07c8d1d	-3.9461129
75	0xbe6c25d6	-0.23061308
76	0x3e5e652c	0.21718282
77	0xbecedc44	-0.40402424
78	0xbe8cfe79	-0.27537897
79	0xbf0e690b	-0.5562903
80	0x3c8aa9eb	0.016926726
81	0x3dc9ea21	0.0985911
82	0x3e46b075	0.1940325
83	0xbe51fb50	-0.20506024
84	0xbee4ff88	-0.44726205
85	0x3d87b273	0.06625833
86	0x3ddba156	0.10724132
87	0x3e894057	0.268069
88	0x3d0120a2	0.03152526
89	0x3f1829b8	0.5943866
90	0x3ebf737c	0.37392795
91	0x4043bc4e	3.0583682
92	0x3f8102f4	1.0079026
93	0x3f274832	0.65344536
94	0x3e483480	0.19551277
95	0xbeebf1d2	-0.46082932
96	0xc00a9457	-2.165304
97	0xbb26f6bd	-0.0025476657
98	0x3ee9565f	0.45573708
99	0xbe89309e	-0.26794904
100	0xbd5662f8	-0.052340478
101	0xbfec2a15	-1.8450342
102	0xbcdb70af	-0.02678713
103	0xbe9edf7b	-0.31029877
104	0x3c12cb04	0.0089595355
105	0x3d42f336	0.047595225
106	0x3e3d8566	0.18507919
107	0xbeb88070	-0.3603549
108	0x4006f78b	2.1088588
109	0xbd120776	-0.035651647
110	0x3f2dbe06	0.6786808
111	0x3f629973	0.88515395
112	0x3f01db69	0.5072542
113	0x3fc6a37d	1.5518643
114	0xbc48acb5	-0.012248208
115	0x3db04953	0.086077355
116	0xbe88f3d1	-0.26748517
117	0xbd62e5e6	-0.05539503
118	0x3e4fc151	0.20288588
119	0x3c5fdbba	0.013663227
120	0xbeca7364	-0.3954116
121	0x401ca2ac	2.4474287
122	0xbd67903d	-0.05653404
123	0x3d182890	0.03714806
124	0x3fcae09c	1.5849795
125	0xbe801b4a	-0.2502082
126	0x3d2c0e67	0.042005923
127	0x4027046e	2.6096454
128	0x3e773368	0.24140704
129	0x3d8b7e31	0.068111785
130	0x3ef22dd8	0.473006
131	0xbd38e3be	-0.045139067
132	0x3eaad061	0.33362105
133	0xbd68b93a	-0.05681727
134	0x3dfe9298	0.12430304
135	0xbfcdcf54	-1.6078897
136	0xbc818b1e	-0.015813407
137	0x3f3e06a9	0.7422891
138	0x400a4b6a	2.160853
139	0x3f5610c2	0.8361932
140	0xbeed878d	-0.4639248
141	0x3edc4db3	0.4302803
142	0xbdc75aa3	-0.097340845
143	0x3fa5d99a	1.2957032
144	0x3cbd48db	0.02310603
145	0x3f153530	0.5828428
146	0xbc66e3a5	-0.014092361
147	0x3ebac898	0.36481166
148	0x3b7f1a7d	0.00389257
149	0xbec3638a	-0.3816188
150	0x3e65cfcc	0.2244255
151	0xbe154d9d	-0.14580388
152	0x3cf1575d	0.029460603
153	0x3e09b248	0.13446915
154	0x3db72db9	0.08944268
155	0xbfd92a2c	-1.6965995
156	0xbf71bc18	-0.94427633
157	0xc01a3bd5	-2.4099019
158	0xbe70acaa	-0.23503366
159	0x3ea29937	0.3175752
160	0x403228fc	2.7837515
161	0x3dfb962f	0.122845046
162	0xbf286d77	-0.6579203
163	0x3f0b37ff	0.5438232
164	0x3d894b70	0.06703842
165	0xbf8258cb	-1.0183347
166	0xbf6497da	-0.8929421
167	0x3f23dbc2	0.640072
168	0x3d8a853e	0.06763695
169	0xbc9d868e	-0.0192292
170	0xbe915379	-0.28383997
171	0x3f0b4614	0.54403806
172	0x400c5b95	2.1930897
173	0x3dc45297	0.09586065
174	0xbf8f9bb5	-1.1219393
175	0xbf5e45d3	-0.86825293
176	0x3d51e846	0.051246904
177	0x3f4f135f	0.8088893
178	0xbc81aafa	-0.015828598
179	0x3e01738f	0.12641738
180	0xbd456e73	-0.048201036
181	0xbd7c25b8	-0.06155941
182	0xbf25a48a	-0.6470419
183	0xbe1425ae	-0.14467499
184	0xbf101cd5	-0.56293994
185	0x3fb98b03	1.4495548
186	0x3d73578e	0.05940967
187	0xbe5c2058	-0.21496713
188	0xc0541b37	-3.314161
189	0xbe01051b	-0.12599604
190	0xbc86a623	-0.016436642
191	0xbf929c81	-1.1454011
192	0xc0268636	-2.6019416
193	0x3dab3b48	0.083609164
194	0xbeb94910	-0.36188555
195	0xbda460b1	-0.08026255
196	0xbdfec042	-0.12439014
197	0xbd1d6b02	-0.03843213
198	0x3d7ccb07	0.06171706
199	0xc000cb0c	-2.012393
200	0x3c8208ee	0.015873399
201	0x3edeac7f	0.4349098
202	0xbfd331ea	-1.6499608
203	0x3dcf7d41	0.10131312
204	0xbe701be2	-0.23448136
205	0x3bf8f64f	0.0075977216
206	0xbe0fb166	-0.14032516
207	0xbed65cab	-0.41867575
208	0x3e3e2386	0.18568239
209	0x3f96bda0	1.1776619
210	0x3ead1704	0.33806622
211	0xbd07ba63	-0.033136737
212	0xbdc452fd	-0.09586141
213	0xbb3c5c93	-0.0028741702
214	0x3e45b181	0.19305994
215	0xbd9cd122	-0.076570764
216	0xbdf0cee0	-0.11758208
217	0xbe8493b4	-0.2589394
218	0x3bf1ccd5	0.007379154
219	0x3fd3551e	1.6510351
220	0x3df060a6	0.11737184
221	0x400928f3	2.1431243
222	0xbdfef9a6	-0.124499604
223	0x3e3d08a9	0.18460335
224	0x4053e3e2	3.3107839
225	0x3d342367	0.043979075
226	0xbf23d073	-0.63989943
227	0xbe5c8057	-0.21533333
228	0xbd075b9f	-0.03304636
229	0xbfe2c34e	-1.7715852
230	0xc05dac3f	-3.463638
231	0x3e3adab8	0.18247497
232	0x3d3e4039	0.046447966
233	0x3d8d7631	0.06907309
234	0x3e847db5	0.25877157
235	0xbfb5133a	-1.4146492
236	0x3fd887f7	1.6916493
237	0x3df7f98b	0.121081434
238	0x3f1240cb	0.57130116
239	0xbf7b9545	-0.9827464
240	0x3ef52835	0.47882238
241	0x3f422538	0.7583804
242	0xbd85521f	-0.06509804
243	0xbecdc69c	-0.4019059
244	0xbe0ce17c	-0.1375789
245	0xbdd48f65	-0.10378913
246	0x3e6dff62	0.23241952
247	0xbe074cb1	-0.13212849
248	0x3e94516d	0.28968373
249	0x401108b4	2.2661562
250	0xbd0c6a52	-0.034281082
251	0xbdc43089	-0.0957957
252	0xbf3e32a9	-0.7429605
253	0x3e930da0	0.28721333
254	0xbd2957de	-0.041343562
255	0x4091c349	4.5550885

action_dict.action_head.bias f4 [5]
0	0x4086c140	4.21109
1	0x3fe73547	1.8063134
2	0x401739dd	2.3629067
3	0x40161578	2.3450603
4	0x4004f67b	2.077544

action_dict.encoder.weight f4 [64, 18]
0	0x3f202e8a	0.6257101
1	0x3f81f86f	1.0153941
2	0xbf8ef68d	-1.1168991
3	0xbff2e3e8	-1.8975801
4	0x4036d1f0	2.8565636
5	0x3fb481fa	1.4102166
6	0x40165e09	2.3494895
7	0x3f250bc3	0.6447107
8	0x3ff11221	1.8833658
9	0x3f3e0fa8	0.7424264
10	0xbed78e75	-0.42100874
11	0x3f88dfbe	1.0693281
12	0xbfd6a1c5	-1.6768118
13	0x3e83ff6d	0.25780812
14	0x3d1988c0	0.03748393
15	0xb9243c16	-0.00015662643
16	0x3c2e51ce	0.010639621
17	0x3d64f6af	0.05589932
18	0x3f8465c7	1.034356
19	0xc052b808	-3.2924824
20	0xbd0a9ce6	-0.033841036
21	0xc04232f1	-3.0343592
22	0x408388a5	4.1104302
23	0x3f13e7f9	0.5777584
24	0x4083b754	4.116129
25	0x3f8fb12e	1.1225946
26	0x4078181e	3.876472
27	0x3f296da4	0.66182923
28	0xc0b0bdf1	-5.523186
29	0xbf2d9d30	-0.67817974
30	0xc0a1dace	-5.0579596
31	0xbf2eeda4	-0.6833136
32	0x3db0f803	0.086410545
33	0xbd432713	-0.047644686
34	0x3d12d380	0.035846233
35	0x3e2e9547	0.17049132
36	0xbf2f9190	-0.68581486
37	0x4079de7b	3.9042041
38	0xbd8b4643	-0.06800511
39	0x40b47fa2	5.64058
40	0x3eb36016	0.35034245
41	0xc0db1f63	-6.8475814
42	0x3fd100e0	1.6328392
43	0xc0ee816f	-7.4533
44	0x3ff23cef	1.8924845
45	0xc0d60d02	-6.689088
46	0xbe2f15d7	-0.17098175
47	0x3ee86fd0	0.45397806
48	0x3f58dc5a	0.8471123
49	0xc06c589a	-3.6929078
50	0x3d22c86b	0.039741915
51	0x3e23aaf4	0.15983182
52	0xbe361aa7	-0.17783605
53	0x3cc7b2d8	0.024377272
54	0x3ffce3d7	1.9757031
55	0x3fb5836a	1.4180729
56	0xbeb93f06	-0.36180896
57	0x3f44b32c	0.76835895
58	0xbba8aaa9	-0.0051472974
59	0xc0a2bc60	-5.085495
60	0x3fce62ce	1.6123903
61	0xc0f9da08	-7.807865
62	0xbf20949c	-0.6272676
63	0xc0d1d643	-6.557405
64	0x40125438	2.2863903
65	0x40bd06d8	5.9070854
66	0x3fd3d093	1.6548027
67	0x40c8418c	6.2580013
68	0xbd31e545	-0.04343154
69	0x3cb9770f	0.02263978
70	0x3e365e2c	0.17809361
71	0xbd835b5e	-0.06413911
72	0x3f887ceb	1.0663122
73	0x4019fb10	2.4059486
74	0x3f9cedf3	1.2260116
75	0x40235edd	2.552665
76	0xc01ddddb	-2.466666
77	0x3e8a316e	0.26990837
78	0xc06e6c8d	-3.7253754
79	0xbd1ece93	-0.038771223
80	0xc0270633	-2.6097534
81	0x3e861924	0.26191056
82	0x3ed5b133	0.41736755
83	0xbfa71452	-1.3053076
84	0x3f21091b	0.6290452
85	0xc0340a35	-2.813123
86	0xbd8d6c56	-0.06905429
87	0xbe0e24d3	-0.13881235
88	0x3dec54ab	0.11539587
89	0x3e14d77a	0.14535323
90	0xc0908d18	-4.5172234
91	0x40d3b2bf	6.6155696
92	0xc023b269	-2.5577643
93	0x40423686	3.0345778
94	0x4088d14a	4.275548
95	0xc02633fb	-2.5969226
96	0x4037129b	2.8605106
97	0xc076b9c6	-3.8550887
98	0x406f17a3	3.7358177
99	0xc07fba2f	-3.9957387
100	0xbf7ef3ac	-0.99590564
101	0x40bbf930	5.8741684
102	0x3f0fb914	0.5614178
103	0x407acfdd	3.918937
104	0x3e25ae11	0.16179682
105	0xbdf00c32	-0.11721076
106	0x3e0e22c6	0.13880453
107	0x3d3bc533	0.04584236
108	0xc0719040	-3.7744293
109	0x406c84c8	3.6956043
110	0x40173e66	2.3631835
111	0x40d40388	6.625431
112	0xbf155520	-0.58333015
113	0xc101181f	-8.068389
114	0xbfecd2e6	-1.8501861
115	0xc10929cb	-8.572703
116	0xbf4ecf1e	-0.80784786
117	0xc0fee590	-7.965523
118	0xc00d8be5	-2.2116635
119	0x3f98b0c8	1.1928949
120	0xbe49a740	-0.19692707
121	0xbf556e37	-0.833713
122	0xbd48aca6	-0.048992775
123	0xbdf38993	-0.118914746
124	0x3d64a1d0	0.05581838
125	0x3b723dfd	0.0036963217
126	0x3fadcb66	1.3577697
127	0x3ff45a7d	1.9090115
128	0x3feeb968	1.8650331
129	0x40120b08	2.2819233
130	0xc09654af	-4.6978374
131	0xc0874c1f	-4.228042
132	0xc077fafc	-3.8746939
133	0xc08b3edd	-4.3514237
134	0xc062639e	-3.5373302
135	0xc045d4d8	-3.091116
136	0x40e62e20	7.1931305
137	0x40ccca1a	6.3996706
138	0x40d67a84	6.7024555
139	0x40afd213	5.494394
140	0xbd6ba1b5	-0.057527263
141	0x3b35c790	0.0027737357
142	0x3d16bc7a	0.03680084
143	0x3ce69083	0.02814508
144	0x3fed90df	1.8559836
145	0x4005ebc2	2.0925145
146	0x4030b11b	2.7608097
147	0x3f8274bd	1.0191876
148	0xc036189c	-2.845252
149	0x3dfaf868	0.12254411
150	0xc06548ce	-3.5825686
151	0x3f88d99a	1.0691407
152	0xc03a2802	-2.908692
153	0xbd914719	-0.07093639
154	0x408236d6	4.069194
155	0xbf39d07a	-0.72583735
156	0x407c6225	3.9434903
157	0xbeb7f1e2	-0.3592673
158	0x3d4840e8	0.048890024
159	0x3df2bef3	0.11852827
160	0xbdcabf7f	-0.09899806
161	0x3d969c98	0.07354087
162	0xc05729bb	-3.361922
163	0x409f3eef	4.9764323
164	0xc07a685f	-3.9126203
165	0x407f0f87	3.9853227
166	0x3fb7a0cc	1.4345946
167	0xc0a50192	-5.1564417
168	0x4071f692	3.7806745
169	0xc0940416	-4.625499
170	0x4092720b	4.5764213
171	0xc09d6a06	-4.9191923
172	0x3fe42938	1.7825079
173	0xbf6f688a	-0.9351889
174	0x3f9047b7	1.1271886
175	0xc034b141	-2.8233187
176	0x3c684f27	0.014179028
177	0xbce88152	-0.028381977
178	0xbc8861f3	-0.016648268
179	0x3d98486c	0.074356884
180	0x405bb6bb	3.433028
181	0x40417dcf	3.0233037
182	0x40853dfd	4.163817
183	0x3fa52b92	1.2903922
184	0xc0b574ee	-5.6705236
185	0xbc17d864	-0.0092679
186	0xc0bc28d4	-5.879984
187	0x3d42204e	0.04739409
188	0xc09d052f	-4.906883
189	0xbe060391	-0.13087298
190	0x406330df	3.5498579
191	0xbf61a73f	-0.8814582
192	0x4043a2c1	3.0568087
193	0xbf237587	-0.6385121
194	0xbccd1bef	-0.025037734
195	0x3dcdb088	0.10043436
196	0xbe2608dd	-0.16214319
197	0x3d8e607f	0.06951999
198	0x405b05e7	3.4222353
199	0xc01cc2c6	-2.449388
200	0xbf9a81a7	-1.2070817
201	0xbe177d42	-0.14793876
202	0x40abfa3e	5.374297
203	0xc078fab3	-3.8903015
204	0x40af45b2	5.4772577
205	0xc0814d4b	-4.040685
206	0x408be107	4.371219
207	0xc07399bc	-3.8062582
208	0xbf9f5635	-1.2448183
209	0x407220a7	3.783243
210	0x3da79b2f	0.08183896
211	0x407f7eab	3.9921062
212	0x3ccbacca	0.024862666
213	0xbd4d874b	-0.050177854
214	0x3d951a92	0.072804585
215	0xbce24acf	-0.027623562
216	0xc0942a56	-4.630168
217	0x40851aaa	4.159505
218	0xc05753c6	-3.3644881
219	0x40551ff2	3.3300748
220	0x409919bb	4.784391
221	0xc07b3db8	-3.925642
222	0x408103f6	4.0317335
223	0xc08d817d	-4.4220567
224	0x408143d0	4.039528
225	0xc0966d12	-4.7008142
226	0x401fb9d9	2.4957182
227	0x3fd8349f	1.6891059
228	0x4025c822	2.5903401
229	0x40169b79	2.3532393
230	0x3dbd1a40	0.092335224
231	0x3dab6263	0.08368375
232	0x3b6e02e5	0.0036317643
233	0xbc0db21f	-0.008648424
234	0x4023ce82	2.5594792
235	0x4063829a	3.5548463
236	0x40474b08	3.1139545
237	0x403bdcd7	2.935354
238	0xbff71451	-1.9303075
239	0xc0825c70	-4.073784
240	0xc01e60a7	-2.4746492
241	0xc0dfae35	-6.9900155
242	0xbfe59eec	-1.7939124
243	0xc0d108f1	-6.5323415
244	0xbf84ad7d	-1.0365444
245	0x404303c0	3.047104
246	0x3dcdce65	0.10049132
247	0x402b010d	2.6719391
248	0xbd0c2a2d	-0.03421991
249	0xbcb84648	-0.02249445
250	0xbd94922c	-0.072544426
251	0xbb92bc47	-0.004478011
252	0xbf36ff8d	-0.7148369
253	0xc0b0fef7	-5.5311236
254	0xbfbfb3d9	-1.497676
255	0xc08f4979	-4.477719

action_dict.encoder.bias f4 [64]
0	0xc07a8e2c	-3.9149275
1	0x4097bfac	4.7421474
2	0xc06c39fb	-3.6910388
3	0x410158f7	8.08422
4	0x3e043771	0.12911774
5	0x4014d6dc	2.325614
6	0x406ad6af	3.6693532
7	0x406b234c	3.6740294
8	0xc06f5db5	-3.7400944
9	0xbd7aeda7	-0.0612618
10	0xc048edaf	-3.139507
11	0x4050681b	3.256354
12	0x3f1c411a	0.6103684
13	0x4080ab48	4.0209084
14	0xc053f3e2	-3.3117604
15	0x3fd1a7f6	1.6379383
16	0x3fc1c536	1.5138309
17	0xc039bdba	-2.902205
18	0xbe27fa83	-0.16404156
19	0x402f3d88	2.7381306
20	0x3f76660b	0.96249455
21	0x400fb79a	2.2455812
22	0xbf878a1a	-1.058902
23	0xc0728d52	-3.7898755
24	0xbe595a15	-0.2122577
25	0xbfa1b28f	-1.2632617
26	0xc067e500	-3.623352
27	0xbf0889c2	-0.533352
28	0x40177e57	2.3670862
29	0xc0c5216c	-6.16033
30	0x3eaafe7b	0.33397278
31	0xc07af950	-3.9214668
32	0xc04fc7cb	-3.2465694
33	0xbf0e0ae1	-0.5548535
34	0xbf930bda	-1.1487992
35	0xbce61470	-0.028085917
36	0xbc35dd15	-0.011100073
37	0x40397d47	2.8982713
38	0xc0144be6	-2.3171325
39	0xbf152731	-0.58262926
40	0x4037c8e7	2.871637
41	0x3e45156e	0.19246456
42	0xc0566284	-3.349763
43	0xbfae5354	-1.361918
44	0x40173938	2.3628674
45	0x4030372d	2.7533677
46	0x3fd7acc4	1.6849599
47	0x40743780	3.8158875
48	0x3f813169	1.0093204
49	0xc06e8807	-3.7270525
50	0xbf7a39a8	-0.97744226
51	0x3f6c7719	0.9236923
52	0x3e0ce4e9	0.13759197
53	0x40071b85	2.1110547
54	0xbfa845ff	-1.3146361
55	0x40286a23	2.631478
56	0xbdc954bd	-0.09830616
57	0xc06a0faf	-3.6572073
58	0x3fb5a903	1.4192203
59	0x3ef4cf84	0.47814572
60	0x405e1fae	3.4706836
61	0xc067fa18	-3.6246395
62	0x4090655d	4.5123734
63	0x4081b93b	4.053861

action_dict.f_module.weight_ih f4 [256, 64]
0	0xbf8dd867	-1.1081666
1	0xbf8baae0	-1.0911522
2	0xbf182d53	-0.5944416
3	0xbe538987	-0.20657931
4	0xbfa2881f	-1.2697791
5	0xbf08f922	-0.53505147
6	0x3f3940fb	0.7236478
7	0xbf984322	-1.1895487
8	0xbfed7e43	-1.8554157
9	0xbeb6a0af	-0.35669467
10	0xbfe41b15	-1.7820765
11	0xbeddf783	-0.433529
12	0x3e8b4d4b	0.27207407
13	0xbe60e4f1	-0.21962334
14	0xbe82681e	-0.2547006
15	0xbf30b558	-0.6902671
16	0xbfc1c530	-1.5138302
17	0xc00f8f8e	-2.243137
18	0xbee49729	-0.44646576
19	0xbec4ca10	-0.3843541
20	0xbff36d8d	-1.9017807
21	0xbe638e3d	-0.22222228
22	0xbe036b3f	-0.1283388
23	0xbf145a22	-0.5795003
24	0xbf083f4d	-0.5322159
25	0xc042453f	-3.0354764
26	0xbe9b077a	-0.30279142
27	0xbfee8bb4	-1.8636384
28	0xbee3f22f	-0.4452071
29	0xbe756d47	-0.23967467
30	0xbf0935da	-0.53597796
31	0xc014e692	-2.326573
32	0xbf97d2a7	-1.1861161
33	0xbf6fa254	-0.9360707
34	0xbfcf766b	-1.6208013
35	0xbf9e172e	-1.2350824
36	0xbf74d29e	-0.95633876
37	0x3ef7b003	0.48376474
38	0xbfd1c20a	-1.6387341
39	0x3f69f612	0.913911
40	0xbe54e9ab	-0.20792262
41	0xbfd4565a	-1.6588852
42	0xbf26e200	-0.651886
43	0xbee16e4d	-0.44029465
44	0x3e872c61	0.26401046
45	0xbc73f602	-0.014890196
46	0xbeb1b755	-0.34710184
47	0xbc52b5e8	-0.012860753
48	0xbef506d4	-0.47856772
49	0xbebfcfa0	-0.37463093
50	0xbe9ec6c6	-0.31011027
51	0xbeea9116	-0.45813817
52	0xbeb4e831	-0.35333398
53	0xbd69f40a	-0.0571175
54	0xbf9a55a9	-1.2057391
55	0xbe41e721	-0.18935825
56	0xbf3e7c69	-0.74408585
57	0xbfb70684	-1.4298863
58	0xbed88c28	-0.4229443
59	0xbf88d05f	-1.068859
60	0xbe818161	-0.2529402
61	0xbd1d4d42	-0.038403757
62	0xbf8fbd7f	-1.1229705
63	0xbf4029b2	-0.7506362
64	0xbec71303	-0.38881692
65	0xbe0e4476	-0.13893303
66	0xbe8d1354	-0.2755381
67	0xbea2fde8	-0.3183434
68	0xbebabfe8	-0.36474538
69	0xbefc71b8	-0.4930551
70	0xbeba1f58	-0.36352038
71	0xbe487b84	-0.19578367
72	0xbec9b0f5	-0.3939282
73	0xbe4ec328	-0.20191634
74	0xbebf577a	-0.37371427
75	0xbe4611df	-0.19342755
76	0xbe9cd200	-0.30628967
77	0xbed680b1	-0.4189506
78	0xbe4408b3	-0.19143943
79	0xbd5896c8	-0.05287817
80	0xbed33237	-0.41249248
81	0xbeb84266	-0.35988158
82	0xbe5e92b5	-0.21735652
83	0xbe0641c8	-0.13111031
84	0xbe6a99ab	-0.22910182
85	0xbe6be74a	-0.23037449
86	0xbe88d5fb	-0.26725754
87	0xbd5d8f7a	-0.054091908
88	0xbeb316b7	-0.34978268
89	0xbeb7634a	-0.3581794
90	0xbe115b8b	-0.14195077
91	0xbeb43536	-0.35196847
92	0xbe828a15	-0.25495973
93	0xbee163ed	-0.4402155
94	0xbebe4b0a	-0.37166625
95	0xbe987ea0	-0.29784107
96	0xbefa1b9e	-0.48849195
97	0xbe5cf663	-0.21578364
98	0xbd58c561	-0.05292261
99	0xbdf678f7	-0.12034791
100	0xbec3eeb6	-0.3826806
101	0xbe4868c1	-0.1957121
102	0xbe9703d5	-0.2949511
103	0xbe3465d9	-0.17616977
104	0xbe27d128	-0.1638838
105	0xbe137d70	-0.1440332
106	0xbdfb563b	-0.122723065
107	0xbecb8d1e	-0.397561
108	0xbe8b2ef0	-0.27184248
109	0xbe396737	-0.1810578
110	0xbe1101f4	-0.14160901
111	0xbef5b607	-0.47990438
112	0xbeda0165	-0.4257919
113	0xbe3320d8	-0.17492998
114	0xbe96e0b7	-0.2946832
115	0xbea04215	-0.31300417
116	0xbe2faa3c	-0.17154783
117	0xbdafe034	-0.08587685
118	0xbeba180a	-0.36346465
119	0xbeeca1e6	-0.4621727
120	0xbe8331e9	-0.25624016
121	0xbf1031bd	-0.56325895
122	0xbf075fc0	-0.5288048
123	0xbe12af9b	-0.143248
124	0xbea18ce8	-0.31552815
125	0xbe911573	-0.28336677
126	0xbe3dbe75	-0.18529685
127	0xbddfe7d0	-0.109328866
128	0x3fcf4c40	1.6195145
129	0xbf9d3152	-1.2280676
130	0x3f4a71ff	0.79080194
131	0x3fa81b0f	1.3133258
132	0xbf27310e	-0.65309227
133	0x4008ad97	2.135595
134	0x4019c843	2.402848
135	0x3fb958a4	1.4480176
136	0x3e1af010	0.15130639
137	0x3d452ef1	0.04814047
138	0x3e990250	0.29884577
139	0xbe855dbb	-0.26048073
140	0x4004c84f	2.0747259
141	0x400af727	2.171335
142	0x3d7c19dc	0.0615481
143	0xbf2da848	-0.678349
144	0x3f446662	0.76718724
145	0xbfc3e00e	-1.5302751
146	0xbf149989	-0.58046776
147	0x3e294917	0.16531788
148	0xbfba567e	-1.4557645
149	0x3f159f30	0.58446026
150	0x3d07a508	0.03311637
151	0xbf027538	-0.5096011
152	0x3fd90c53	1.6956886
153	0xbfb69c58	-1.4266462
154	0x3f571211	0.8401194
155	0xbf95408f	-1.1660327
156	0x3f01111e	0.50416744
157	0x3fa1dcf8	1.2645559
158	0xbd6c43c8	-0.05768183
159	0xbf691ea2	-0.91062367
160	0x3f3e6f43	0.7438852
161	0x3ff5f164	1.9214292
162	0xbf33de0f	-0.7026071
163	0xbf440ecc	-0.7658508
164	0x3ffd63ef	1.9796122
165	0x3fd3072c	1.6486564
166	0xbe9c0487	-0.30472204
167	0x3ed4dbb6	0.41573876
168	0x3eb20cad	0.34775296
169	0xbec95d8a	-0.39329177
170	0x3ffc7b4d	1.9725128
171	0x3ff20cae	1.891012
172	0x3f34b8e2	0.7059461
173	0x3fc63f7d	1.5488125
174	0xbee37723	-0.44426832
175	0x3ea0acb2	0.31381756
176	0x3fe9c14b	1.8262113
177	0x3ed69577	0.41910908
178	0xbf57d012	-0.84301865
179	0xbf4d4389	-0.80181175
180	0xbe7c0a4a	-0.246133
181	0x3fdeb3f5	1.7398669
182	0x3f423e67	0.7587647
183	0x3ff3c503	1.9044498
184	0x3fe61da0	1.7977791
185	0x3d18dcce	0.03731995
186	0x400af970	2.1714745
187	0xbf938973	-1.1526321
188	0x3fb58171	1.4180127
189	0x3e1aa018	0.15100133
190	0x3fdaaa89	1.7083293
191	0xbfbd4ea0	-1.478962
192	0xbe92c9ec	-0.2866968
193	0xbe0ef5e3	-0.13960986
194	0xbdea429a	-0.114384845
195	0xbe204f40	-0.15655231
196	0xbe9defa0	-0.30846882
197	0xbe8c3af7	-0.27388737
198	0xbe8bb0aa	-0.2728322
199	0xbe085999	-0.13315429
200	0xbe96a0bd	-0.2941951
201	0xbd8c0b9a	-0.0683815
202	0xbec635c0	-0.38712883
203	0xbe8af37f	-0.27138898
204	0xbe96a551	-0.29423
205	0xbe80130f	-0.2501454
206	0xbe395cc5	-0.18101795
207	0xbd27c434	-0.0409586
208	0xbe98cb84	-0.2984277
209	0xbf02002f	-0.5078153
210	0xbe12dc3e	-0.14341828
211	0xbe641e71	-0.22277237
212	0x3dafc2dd	0.08582089
213	0xbe50f067	-0.20404206
214	0xbe96a6c0	-0.29424095
215	0xbec4cf66	-0.38439482
216	0xbdd3efbd	-0.10348461
217	0xbe003097	-0.12518536
218	0xbe23ffc7	-0.1601554
219	0xbdbf7725	-0.09348897
220	0xbe4103d2	-0.18849114
221	0xbe6a50dc	-0.22882408
222	0xbeb8b5e8	-0.36076283
223	0xbeb26476	-0.3484227
224	0xbe61e469	-0.22059788
225	0xbe652d9a	-0.22380677
226	0xbdbb6b04	-0.09151271
227	0xbe413ddf	-0.18871258
228	0xbed49194	-0.41517317
229	0xbe88434b	-0.2661384
230	0xbe28e226	-0.16492519
231	0xbe7792e7	-0.24177133
232	0xbc916efc	-0.017753117
233	0xbe4ab84f	-0.1979687
234	0xbddd279e	-0.10798572
235	0xbdd8305d	-0.105560996
236	0xbe4b7683	-0.19869427
237	0xbe7764f1	-0.241596
238	0xbe916284	-0.28395474
239	0xbe072394	-0.13197166
240	0xbe727bbe	-0.23680016
241	0xbea28f62	-0.31750017
242	0xbf075cd7	-0.5287604
243	0xbe681359	-0.2266363
244	0xbebda0db	-0.37036785
245	0xbc9f46e6	-0.019442987
246	0xbe4a5cb7	-0.1976193
247	0xbeb32582	-0.34989554
248	0xbea76a01	-0.32698062
249	0xbe6bb642	-0.23018745
250	0xbf078525	-0.5293754
251	0xbe934bcc	-0.28768766
252	0xbed173c3	-0.40908632
253	0xbeb33b34	-0.35006106
254	0xbea5cfce	-0.32385105
255	0xbdc88614	-0.097911984

action_dict.f_module.weight_hh f4 [256, 64]
0	0xbf8a0e81	-1.0785676
1	0x3e6a1564	0.22859722
2	0xbfc45f63	-1.534161
3	0x3c6fc2fc	0.01463389
4	0x3f162049	0.58643013
5	0x3c9e1832	0.019298647
6	0xbea4e428	-0.3220532
7	0x3fca5d29	1.580968
8	0x3efaebf2	0.49008137
9	0x3dab3461	0.083596
10	0x400c0f3d	2.18843
11	0x3ec30f74	0.38097727
12	0xbc8c65a1	-0.017138304
13	0x3f185f67	0.5952057
14	0x3f120be4	0.57049394
15	0xbe9f3f37	-0.31102917
16	0xbdf30244	-0.118656665
17	0x3aecc09b	0.0018062772
18	0xbef5028e	-0.47853512
19	0xbf4df6a4	-0.8045447
20	0x3ee99224	0.4561931
21	0xbf301dad	-0.6879528
22	0x3e88cffe	0.26721185
23	0x3ee90d3d	0.45517913
24	0xbe8f053c	-0.2793368
25	0x3f4d9551	0.80305964
26	0xbf409949	-0.75233895
27	0x3e86f13c	0.26355922
28	0xbfdff6ba	-1.749717
29	0x3f882505	1.0636297
30	0xbe06d620	-0.1316762
31	0x3edad082	0.42737204
32	0xbfb423d0	-1.4073429
33	0x3e0b183d	0.13583465
34	0xbe3b7952	-0.18307999
35	0x3efdd698	0.49577785
36	0x3e80d003	0.251587
37	0x3f78c33e	0.97172916
38	0x3f808ad4	1.0042367
39	0x3f68940d	0.9085091
40	0x3d88a88c	0.06672773
41	0x3e1f6817	0.15567051
42	0x3e5ffd95	0.21874078
43	0xbe96a7ec	-0.2942499
44	0xbfa099dd	-1.2546955
45	0x3f216e5c	0.6305902
46	0xbf96d475	-1.1783587
47	0xbf2f12f3	-0.6838829
48	0x3ef7fbfc	0.48434436
49	0xbff92163	-1.9463314
50	0x3df239d4	0.11827436
51	0xbed371e5	-0.41297832
52	0x3e7b4e8b	0.2454168
53	0x3dda8a47	0.106709056
54	0xbeed6c95	-0.46371904
55	0xbf3f0e94	-0.7463162
56	0x3da6025a	0.08105917
57	0xbffefaec	-1.9920325
58	0x3e519e00	0.20470428
59	0x3cdfc634	0.02731619
60	0x4008b555	2.1360676
61	0xbd90294e	-0.07039128
62	0xbcbdf0fa	-0.023186196
63	0xbefe9505	-0.49723068
64	0x3d81a7b8	0.06330818
65	0xbdab1815	-0.08354203
66	0xbc68f3c1	-0.014218272
67	0xbe3174d8	-0.17329729
68	0xbdb46bd7	-0.08809631
69	0xbe246787	-0.16055118
70	0xbe2ad876	-0.16684136
71	0x3d19ddbd	0.03756498
72	0x3e610ab8	0.21976745
73	0x3c96da25	0.018414566
74	0x3d831a85	0.064015426
75	0xbdd277cb	-0.10276755
76	0x3ec986ba	0.393606
77	0x3daba8d8	0.08381814
78	0x3e0d593c	0.13803571
79	0xbdff734f	-0.12473165
80	0x3e01a31c	0.12659878
81	0xbe1dcfff	-0.15411375
82	0xbe8149c8	-0.25251603
83	0x3d942286	0.07233147
84	0xbd2836a4	-0.041067734
85	0x3dda548e	0.10660659
86	0x3e7d3f20	0.24731112
87	0x3e9fcd26	0.31211203
88	0xbe047dab	-0.12938564
89	0xbde3196a	-0.11088832
90	0xbe5a9123	-0.21344428
91	0x3ddf9a58	0.109181106
92	0x3e43c1d2	0.19116905
93	0xbe55b38c	-0.20869273
94	0x3d1b25ef	0.037877973
95	0x3e383d22	0.1799207
96	0x3d15e075	0.036591012
97	0xbe071e9b	-0.13195269
98	0xbdcb93a7	-0.09940272
99	0x3dfd598d	0.12370596
100	0xbe4b6c4a	-0.19865528
101	0x3e242e1b	0.16033213
102	0xbde6ed5d	-0.11275742
103	0xbb94e65d	-0.004544063
104	0xbde23e4a	-0.11047037
105	0x3d34bac5	0.04412343
106	0x3e8984d0	0.2685914
107	0xbde650ab	-0.11245855
108	0xbea56ee2	-0.3231116
109	0xbd4657ff	-0.048423763
110	0x3dbb00fa	0.09131046
111	0x3cfcaf85	0.030845413
112	0x3d532b69	0.05155507
113	0xbe4b602f	-0.1986091
114	0x3e0739b7	0.1320561
115	0xbda037b7	-0.07823127
116	0x3e31ea1b	0.1737446
117	0x3da907cc	0.0825344
118	0xbeb24e37	-0.34825298
119	0x3e0811ff	0.13288115
120	0xbe0eed21	-0.13957645
121	0x3e854ac3	0.260336
122	0x3e01bdd3	0.12670068
123	0x3e146e2f	0.14495157
124	0x3e155fb7	0.14587294
125	0xbe187755	-0.14889272
126	0x3e22c42c	0.15895146
127	0xbea2cf0d	-0.31798592
128	0x3f81a6b1	1.0128995
129	0x3a5d168b	0.000843384
130	0x3f0673f6	0.5252069
131	0xbebe3e36	-0.37156838
132	0x3db8df73	0.090269946
133	0xbec869f2	-0.3914333
134	0xbdef2a5c	-0.11678001
135	0xbeb936e1	-0.36174682
136	0x3f2b360e	0.66879356
137	0xbe16784c	-0.14694327
138	0x3e1fde1a	0.15612069
139	0xbe43ca28	-0.19120085
140	0x3d9f5340	0.077795506
141	0x3d97070e	0.073743924
142	0x3ea238b7	0.31683895
143	0xbd9a4463	-0.07532575
144	0x3ece6413	0.40310726
145	0xbe55986a	-0.20858923
146	0xbe041259	-0.12897624
147	0x3d62be91	0.05535752
148	0x3e2ba0f0	0.16760612
149	0x3d6fb3e0	0.05852115
150	0x3dfcc57f	0.12342357
151	0x3deb13d3	0.114783905
152	0xbeae3ade	-0.34029287
153	0x3eaca6ba	0.33720952
154	0xbe922bae	-0.2854895
155	0xbfa81ec2	-1.3134387
156	0xbe9c40e1	-0.3051825
157	0x3fa38a2f	1.2776545
158	0xbe711d95	-0.23546441
159	0x3df79bd4	0.12090269
160	0xbe967a74	-0.293903
161	0xbdc2b4db	-0.09507152
162	0xbc1ddf00	-0.009635687
163	0xbdbb3cb7	-0.0914244
164	0xbe777b81	-0.24168207
165	0x3ff8e9d8	1.9446363
166	0x3e6da2f4	0.23206693
167	0x3f19d636	0.60092485
168	0xbdb39ffa	-0.087707475
169	0xbe1cc4bc	-0.15309423
170	0xbd2ec536	-0.042668544
171	0xbea99f8f	-0.33129546
172	0xbe8ac243	-0.27101335
173	0xbd779b16	-0.060450636
174	0xbf9ddf15	-1.2333704
175	0xbfa8da43	-1.3191608
176	0x3e1f944c	0.15583915
177	0x3ea94717	0.3306205
178	0x3e9f4c08	0.31112695
179	0xbf12f4d2	-0.57404816
180	0x3eeada72	0.45869786
181	0x3e13a241	0.14417364
182	0x3db06fae	0.08615051
183	0xbe88ccb3	-0.26718673
184	0xbe79e9b8	-0.24405563
185	0x3e4815bb	0.1953954
186	0xbe79bde7	-0.24388848
187	0xbb9d2552	-0.0047957087
188	0xbf5dd45d	-0.86652166
189	0xbe2d0d1e	-0.16899535
190	0x3d135aba	0.035975195
191	0xbf001b43	-0.500416
192	0x3f0617e6	0.52380216
193	0xbde641e9	-0.1124304
194	0x3dbebbe2	0.093131796
195	0x3d7d1351	0.061786
196	0xbe0fd8fd	-0.14047618
197	0x3e55ac62	0.2086654
198	0xbe949a75	-0.2902409
199	0xbd03788c	-0.032097384
200	0x3e7d82c1	0.2475691
201	0xbf0b880e	-0.5450448
202	0x3f051b2d	0.5199459
203	0xbce8aadf	-0.02840179
204	0xbd030295	-0.031984884
205	0xbd064ddd	-0.0327891
206	0x3e436d29	0.1908461
207	0x3ed62e99	0.41832426
208	0xbe86f40a	-0.26358062
209	0xbe8b3049	-0.27185276
210	0xbea57574	-0.32316172
211	0xbeb4db99	-0.3532379
212	0x3ea42156	0.32056683
213	0xbcf910ba	-0.030403484
214	0xbd2ec843	-0.042671453
215	0x3ebdc36e	0.37063164
216	0xbe7fff14	-0.24999648
217	0xbe8c31c0	-0.27381706
218	0xbea1dec5	-0.31615272
219	0x3e389e46	0.18029127
220	0xbe148f71	-0.14507844
221	0xbebbac76	-0.36655015
222	0x3e216ffb	0.15765373
223	0xbd246c42	-0.040142305
224	0xbd8d14de	-0.06888746
225	0x3e50fe6c	0.20409554
226	0xbea9ef93	-0.33190593
227	0x3e65d334	0.22443849
228	0x3dd400b3	0.10351696
229	0x3e145c13	0.14488249
230	0x3f16c9e7	0.5890183
231	0xbed53567	-0.41642305
232	0xbe81fe94	-0.2538954
233	0x3e9343ed	0.2876276
234	0xbdfd7156	-0.12375133
235	0x3ea5cebd	0.3238429
236	0x3dda547c	0.10660645
237	0x3e94d3e1	0.290679
238	0x3dc13392	0.094336644
239	0x3f1566bc	0.58359885
240	0x3e763d59	0.2404684
241	0xbe10f22d	-0.14154883
242	0xbce187dd	-0.027530605
243	0x3e848125	0.2587978
244	0x3e623959	0.22092189
245	0xbe0659dc	-0.13120216
246	0xbe9c1e2b	-0.30491766
247	0xbd873781	-0.066023834
248	0xbe85b4d6	-0.2611453
249	0x3e330fb9	0.17486466
250	0x3e895031	0.26818994
251	0x3e885a85	0.2663156
252	0x3e20f0f3	0.15716915
253	0xbe19b905	-0.15011986
254	0x3e555432	0.20832899
255	0xbebd090a	-0.3692096

action_dict.f_module.bias_ih f4 [256]
0	0xbfcfe9d4	-1.6243234
1	0xbe9058f2	-0.2819286
2	0xbeacb724	-0.33733475
3	0xbeb02f0d	-0.34410897
4	0xbe2012e6	-0.15632209
5	0xbe811256	-0.25209302
6	0xbedabe73	-0.42723426
7	0x3f3fd241	0.74930197
8	0xbefd05f1	-0.49418595
9	0xbf17db8c	-0.59319377
10	0xc000754e	-2.0071597
11	0x3e24f963	0.16110758
12	0xbf5d3bd8	-0.8641944
13	0x3cc86ec7	0.024466885
14	0xbf13c4ff	-0.5772247
15	0x3e89eb7d	0.26937476
16	0xbe6dee7f	-0.2323551
17	0xbfb0a0b7	-1.3799046
18	0xbe95745b	-0.29190335
19	0xbf20aa24	-0.62759614
20	0xbf12902a	-0.57251227
21	0xbee32937	-0.44367382
22	0xbecac388	-0.39602304
23	0xbef8b1b4	-0.48573077
24	0xbecffc8a	-0.4062236
25	0xbec0de34	-0.37669528
26	0xbf848aa1	-1.0354806
27	0x3ef94272	0.48683506
28	0x3ee5ba7c	0.4486884
29	0x3f619875	0.88123256
30	0xbe7b75d6	-0.2455667
31	0xbf1f3f23	-0.62205714
32	0xc0c33c0c	-6.10108
33	0xbf1c0a7d	-0.60953504
34	0xbf5afd04	-0.8554232
35	0xbf03786c	-0.51355624
36	0xbf1e7911	-0.6190348
37	0xbe9f8c06	-0.31161517
38	0x3f11c20d	0.56936723
39	0xbe809f22	-0.2512141
40	0xbf21b78b	-0.6317069
41	0xbee5a066	-0.44848937
42	0xbe913ae7	-0.2836525
43	0xbfe8eb34	-1.8196778
44	0x3f106c46	0.5641521
45	0xbf9db4d4	-1.2320809
46	0xbff1b2ad	-1.8882653
47	0x3ea63ff6	0.32470673
48	0x3e38f68d	0.18062802
49	0x3f17c88e	0.592904
50	0xbf165576	-0.58724153
51	0xbef24caa	-0.47324115
52	0xbed221b5	-0.4104134
53	0xbf1e5733	-0.61851805
54	0xbeeb8833	-0.4600235
55	0xbe998cc8	-0.2999022
56	0x3edf512c	0.43616617
57	0x3f220577	0.6328959
58	0xbea9418d	-0.33057824
59	0xbf04d548	-0.5188794
60	0x3edd9141	0.43274882
61	0xbee6dc10	-0.4508977
62	0xbf153799	-0.5828796
63	0xc08b4a6f	-4.352836
64	0xbf033e9e	-0.5126742
65	0xbdaf9937	-0.08574145
66	0x3f86853a	1.0509408
67	0xbe4ac8b7	-0.19803129
68	0xbea89d43	-0.3293248
69	0xbe914350	-0.28371668
70	0xbe191ba5	-0.14951952
71	0x3fb8f648	1.4450159
72	0xbec56334	-0.38552248
73	0xbd862209	-0.065494604
74	0x3f8d21f8	1.1025991
75	0x3efab16b	0.48963484
76	0x3f175a56	0.59122217
77	0xbf34d617	-0.70639175
78	0xbec226e3	-0.37920293
79	0xbec6d61f	-0.38835236
80	0xbdb6121c	-0.08890173
81	0x3f9bd2e2	1.2173731
82	0xbe9bb27f	-0.3040962
83	0x3efd948d	0.49527398
84	0x3e2e2399	0.17005767
85	0xbe06fde0	-0.13182783
86	0xbe7fbb9e	-0.24973914
87	0xbd059d88	-0.032620937
88	0xbe98991c	-0.29804313
89	0xbd8eca6f	-0.06972205
90	0x3e1ba5ca	0.15199962
91	0xbea204cd	-0.31644288
92	0x3e1b8019	0.15185584
93	0xbea4ba5e	-0.32173437
94	0xbd37ccdb	-0.0448731
95	0xbd561554	-0.052266434
96	0xbee0f466	-0.4393646
97	0xbe9c0ced	-0.30478612
98	0xbf0e4974	-0.5558083
99	0xbc5fca30	-0.013659045
100	0xbee72097	-0.45142052
101	0x3c56d0a1	0.013111264
102	0xbe8452ce	-0.25844425
103	0x3ef8981c	0.4855355
104	0xbe18cc7b	-0.14921753
105	0xbe08c9e9	-0.13358273
106	0xbe6cb6e8	-0.23116648
107	0x3f4f6fbc	0.8102987
108	0x3fb16c06	1.3861091
109	0x3eac680e	0.33673137
110	0x3ef1e0ce	0.47241825
111	0x3f07ac7a	0.52997553
112	0xbeb9140b	-0.36148104
113	0x3dfcbbe8	0.12340528
114	0xbea92d9d	-0.33042613
115	0xbe9f8fce	-0.31164402
116	0xbe85707d	-0.26062384
117	0xbe48f5c3	-0.19625
118	0xbf047e3d	-0.51755124
119	0xbe3b1a25	-0.18271692
120	0xbeabcc10	-0.33554125
121	0x3fddc94d	1.7327057
122	0xbea6cc9a	-0.32577974
123	0xbdbb1d64	-0.09136465
124	0xbd867dfc	-0.06566998
125	0xbead305d	-0.3382596
126	0xbe911d9b	-0.283429
127	0x3e2aad2c	0.16667622
128	0x3cb39734	0.021922685
129	0xbd95de54	-0.07317796
130	0xbcd74cfc	-0.026281826
131	0xbe19f4bd	-0.15034766
132	0x3e6ac661	0.22927238
133	0xbe04c5f0	-0.12966132
134	0x3d267966	0.04064312
135	0xbef30e56	-0.47471875
136	0x3d54cbc3	0.051952135
137	0x3f0c5f0d	0.54832536
138	0xbebdafb2	-0.37048107
139	0x3dd303b9	0.103034444
140	0xbe50a2a6	-0.20374545
141	0xbe81bd7b	-0.25339875
142	0xbda3bdfe	-0.079952225
143	0x3c8dfb68	0.017331794
144	0x3e2b2c44	0.16716105
145	0x3e41174e	0.18856546
146	0xbd640399	-0.055667493
147	0x3ec6a40e	0.3879704
148	0xbe542197	-0.20715939
149	0xbe2a1703	-0.16610341
150	0xbd8c1d45	-0.0684152
151	0xbd2ab16f	-0.04167312
152	0x3d1f4b11	0.03888995
153	0xbe6b79f4	-0.2299574
154	0xbd6b7041	-0.0574801
155	0xbf7423ac	-0.9536693
156	0x3e285832	0.16439894
157	0xbe370d63	-0.178762
158	0xbea03b3a	-0.31295186
159	0x3e95bba6	0.29244727
160	0x3f00e1a9	0.5034433
161	0xbdc4fa64	-0.09618071
162	0xbf3ac76a	-0.7296053
163	0x3dd43197	0.10361021
164	0xbe08ab13	-0.1334651
165	0xbf99afe0	-1.2006798
166	0xbf9afa7d	-1.2107693
167	0xbee01459	-0.43765524
168	0xbd764e5f	-0.060133334
169	0xbe47d819	-0.19516028
170	0x3af134d2	0.0018402583
171	0xbea2eaa0	-0.3181963
172	0x3e62721e	0.22113845
173	0xbf0fd874	-0.56189656
174	0xbe651851	-0.22372557
175	0x3e0a0b2c	0.13480824
176	0xbef1e8dc	-0.4724797
177	0x3f0c71fe	0.5486144
178	0xbcdda016	-0.027053874
179	0xbeaa946c	-0.33316362
180	0x3d6c853c	0.05774425
181	0x3d780d79	0.060559724
182	0xbebe0f84	-0.37121212
183	0xbd524282	-0.051332958
184	0xbb9d525c	-0.004801078
185	0x3ede861a	0.43461686
186	0xbddb2706	-0.107008025
187	0xbd5bb30d	-0.053637553
188	0xbf07bc4b	-0.5302169
189	0xbdf25cf0	-0.11834133
190	0x3b2d590a	0.0026450776
191	0x3f2438d6	0.64149225
192	0xbe3d9b7f	-0.18516348
193	0xbf00cf46	-0.50316274
194	0xbfcb3aea	-1.5877354
195	0xbed78f27	-0.42101404
196	0xbf010a87	-0.5040669
197	0xbecaf11a	-0.3963707
198	0xbeca8143	-0.39551744
199	0x3f01818e	0.5058831
200	0xbf3d841e	-0.7402972
201	0x3f046cb9	0.517284
202	0x3f0cf35a	0.55058825
203	0xbf4c552c	-0.7981746
204	0x3e9a6ac4	0.3015958
205	0xbf0f758e	-0.5603875
206	0xbdca8036	-0.098877355
207	0xbfbb796b	-1.4646429
208	0xbeb8a4cf	-0.3606324
209	0x3f2cf179	0.6755596
210	0xbeab2dd8	-0.33433414
211	0x3ec11ff7	0.377197
212	0xbf4f8831	-0.81067187
213	0xbf0c6f5a	-0.5485741
214	0xbf045ad9	-0.5170112
215	0xbf0a614c	-0.54054713
216	0xbee11d13	-0.43967494
217	0xbe59262a	-0.21205965
218	0xbf03ec31	-0.51532274
219	0x3f1eae63	0.61984843
220	0xbf8ff8d8	-1.1247816
221	0x3f8fcc22	1.1234171
222	0xbf00723e	-0.5017432
223	0xbe3947ec	-0.18093842
224	0x3f5f07b7	0.87121147
225	0xbf24c562	-0.6436368
226	0xbeb7ca85	-0.35896698
227	0xbebeff70	-0.37304258
228	0xbf0ad093	-0.5422451
229	0xbec11d9b	-0.377179
230	0x3f0aa0d1	0.54151636
231	0x3efd3214	0.4945227
232	0xbf21ca46	-0.6319927
233	0xbee843e8	-0.45364308
234	0xbe80a366	-0.25124663
235	0x3f583704	0.8445895
236	0x400b2740	2.1742706
237	0xbbf6e919	-0.0075351116
238	0xbf0414f7	-0.5159449
239	0xbf4d32f4	-0.80155873
240	0xbf863da2	-1.0487559
241	0x3f43f626	0.7654747
242	0xbef8cf43	-0.48595628
243	0xbf5cbc4c	-0.8622482
244	0xbea22bcf	-0.31674048
245	0xbecffa80	-0.40620804
246	0xbe42e672	-0.1903322
247	0xbe740325	-0.23829325
248	0xbef2edc9	-0.4744704
249	0x3f23940f	0.63897794
250	0xbf030dff	-0.5119323
251	0xbf00cfc0	-0.50317
252	0xbebd2e5d	-0.36949435
253	0xbec1885a	-0.3779934
254	0xbf15a2bb	-0.5845143
255	0x3f14cdf2	0.5812675
