model_save/simple_spread_reinforce_commnet.pt (torch_old, 65550 bytes, 25 tensors)

value_dict.value_body.weight f4 [64, 18]
000000 c0 8d a8 3f cb a1 97 3d 44 8f e0 3f 13 c2 89 bf
       1.3168259 0.074039064 1.7543721 -1.0762352
000010 9a 59 7d bf 04 e1 98 be dc f9 1f 3e d3 b0 b8 3e
       -0.98964846 -0.29859173 0.15622658 0.36072406
000020 22 67 82 3e f0 9f 5e c0 02 cb 9c c0 34 1c 2c 40
       0.2546931 -3.4785118 -4.899781 2.6892214
000030 55 5f b6 bf 73 80 df bf df f6 25 bd 58 b7 bd 3c
       -1.4247843 -1.7461075 -0.040518638 0.023158714
000040 b3 12 36 3e af f2 02 3d df 1f 24 bf 83 0f ac 3d
       0.1778057 0.031969722 -0.6411113 0.08401396
000050 e6 ae 23 3e d7 da f2 bd df 0d ae 3e 2c fd ee bd
       0.15984687 -0.11858147 0.33994958 -0.116693825
000060 50 49 8c bf 3b e0 e6 bf 32 e5 3a 3d 29 db 04 3f
       -1.0959873 -1.803718 0.045628734 0.5189691
000070 5e 6f cc 3f b1 5a 48 bf 15 89 74 3e ef f9 ac 3e
       1.5971487 -0.78263384 0.23880418 0.33784434
000080 8b 1a 25 bd c6 44 12 3c bb 4f 40 be 6d 82 59 bd
       -0.040308516 0.00892753 -0.18780415 -0.0531029
000090 aa 03 f0 3e bd 5c e3 be aa 51 9c 3d 6f eb 05 bf
       0.46877795 -0.4440669 0.07632764 -0.5231237
0000a0 8d b3 68 3f 02 77 1f bf 25 19 6c 3f 22 7e f1 be
       0.9089897 -0.62290967 0.9222587 -0.47166544
0000b0 97 6d 8a bd 3c 1a 58 3e 42 3a a6 bf c2 5d 8c 3d
       -0.06759184 0.21103758 -1.2986529 0.068538204
0000c0 5b dc 80 bf 14 97 43 be 79 98 29 be 5b 02 79 3e
       -1.0067247 -0.191006 -0.1656207 0.24317305
0000d0 68 52 6d 3d e3 b5 b1 bd d8 1a 37 3d 94 aa 12 3e
       0.057939917 -0.0867727 0.044703335 0.14322883
0000e0 6a 12 14 3f 21 ba ce be 3b 32 e2 3e ae ac 1c bc
       0.578406 -0.4037638 0.44178948 -0.009562654
0000f0 b4 94 6a 3f 5c 7a 99 be 22 a1 6f 3d 95 84 3c 3f
       0.9163315 -0.29976165 0.058503278 0.73639804
000100 7d 8c 35 bf 6e 07 3d be fe c4 ff be a3 bd 36 be
       -0.70917493 -0.18459865 -0.4995498 -0.17845778
000110 e2 00 4d 3d 3a f6 e8 bd 35 3d fa 3d f9 fc 29 bd
       0.05004967 -0.11375089 0.122187056 -0.04150102
000120 8d b2 b5 3b 5f af 0e 3d af 22 8e be d2 78 fd be
       0.0055449666 0.034835216 -0.27760836 -0.4950624
000130 65 86 78 c0 9a 45 06 c0 54 dc 54 40 3c 9a e9 3f
       -3.8832028 -2.0979981 3.3259478 1.8250194
000140 68 21 04 bf 66 b0 e7 be ea 24 24 3f b7 9a 87 3e
       -0.51613474 -0.4525177 0.64118826 0.26485226
000150 be 5a 46 3f 26 62 4f 3e 68 2c 6c 3b 50 41 9d bc
       0.7748221 0.20252284 0.003603721 -0.019196182
000160 a3 04 2f 3d 16 cb 98 3d 95 ee f1 be 8e 3f bf 3e
       0.04272903 0.074606106 -0.47252336 0.37353176
000170 72 8b 98 bd 3e e3 b6 3d 25 12 f6 bf 5d f9 fc 3f
       -0.07448472 0.08930062 -1.9224287 1.97636
000180 1b 33 b0 bf fb ea c0 3f 95 63 79 40 64 5a 89 c0
       -1.3765596 1.507171 3.896703 -4.292284
000190 8d 4b b3 3f d5 2a d8 bf 4d 31 d4 3f 8d 1c ad bf
       1.4007431 -1.6888071 1.6577545 -1.3524338
0001a0 9b de 6e 3c 72 ee 5b bd 1b e3 11 3e c7 b6 f5 3d
       0.0145794405 -0.053694196 0.1424679 0.11997753
0001b0 2d f4 ac be 72 f5 dc be 4b fb 2f bf 1d 6b 79 bf
       -0.3378004 -0.4315601 -0.6874282 -0.97429067
0001c0 44 2c 6f be 30 1b 42 3d d1 d0 76 3f 4d ff e5 3f
       -0.2335673 0.04738921 0.9641238 1.7968537
0001d0 1f 79 c1 3f a2 0f 6e 3f b8 c2 81 bf 6c 92 d1 bf
       1.5115088 0.92992604 -1.0137548 -1.637281
0001e0 f2 b3 64 bf a4 1f 92 bf 5c e5 80 3d 43 e4 89 bd
       -0.89337075 -1.1415906 0.06293747 -0.067329906
0001f0 45 2b 98 ba 99 fc 2a bd 56 99 96 bf ea 92 0d c0
       -0.0011609575 -0.041744802 -1.1765544 -2.212092
000200 7c f6 ea be d5 6c 4e bf 78 a4 7c 3e a3 57 eb 3f
       -0.45891178 -0.80634815 0.24672115 1.838612
000210 bd e3 5e 3f 16 3e e3 3f e5 dc 7b 3f 44 1b f4 3f
       0.8706625 1.7753322 0.98383933 1.9070821
000220 31 91 83 bf b0 74 20 c0 c6 16 4d bf 16 29 e8 bf
       -1.0278684 -2.507122 -0.80112875 -1.8137538
000230 e4 72 4b bd a2 10 7e bb 80 88 3a bc 64 8a 49 3e
       -0.049670115 -0.0038767238 -0.011385083 0.19681698
000240 03 9e 08 be 67 f6 97 bd 38 b6 c9 be b4 d1 7e be
       -0.13341527 -0.074200444 -0.39396834 -0.24884683
000250 ac 1b 90 3f bc ff 01 bf 3f 28 21 3f 80 65 11 be
       1.1258445 -0.50780845 0.62952036 -0.14198875
000260 cf 5a 91 3f 2a 9a e0 3f 83 2b da bf da 53 21 3e
       1.1355838 1.7547047 -1.7044529 0.15754643
000270 a3 e5 19 c0 a4 a7 c2 be ae 93 c2 bd 8d 49 ca bc
       -2.404641 -0.38018525 -0.09500824 -0.024693275
000280 3e bd b7 bd 77 08 69 be 66 2e 3b bf 00 3f f8 3e
       -0.08971642 -0.22757135 -0.73117673 0.48485565
000290 04 04 18 c0 0d 64 b9 3f c0 61 82 3f 5d ce 9f bf
       -2.375245 1.4483658 1.0186081 -1.2484852
0002a0 da 17 17 40 f8 e4 1f bf 55 ee 86 3f ae 4b a6 bf
       2.3608308 -0.62458754 1.0541483 -1.2991846
0002b0 ec e8 f3 bf ff 34 9b 3f 5b c4 d1 bf 3b f0 96 3f
       -1.9055457 1.2125548 -1.6388048 1.1792063
0002c0 11 3f 86 bd d8 a5 6d 3d 53 af 3e bd 2f d6 76 be
       -0.06554998 0.05801949 -0.04655392 -0.24105142
0002d0 12 94 99 3e 69 46 b1 3e bd 27 9a 3f cb 34 72 3f
       0.2999578 0.3462403 1.2043377 0.94611806
0002e0 9b 02 ab bf 52 4a b6 bf 9b 54 69 bf e1 18 4c bb
       -1.336017 -1.4241431 -0.9114472 -0.0031142759
0002f0 54 b6 ba bf 26 26 48 bf bb 1e fd 3f 7f 68 84 3f
       -1.4586892 -0.7818321 1.9775003 1.034439
000300 15 25 ba 3f 43 ed 5f 3f cd 4a 3f 3d 64 5a 4c 3d
       1.4542567 0.8747141 0.046702195 0.04989089
000310 3f 89 e2 bc 32 04 0e be 87 df 77 3d 5f 86 a8 3e
       -0.027653335 -0.13868788 0.060515907 0.32915017
000320 8b b3 f3 3e 81 53 e6 be c2 bc c0 3e 07 e4 4b be
       0.47597918 -0.44985583 0.3764401 -0.19911204
000330 dc f4 3d 3f 67 c7 a9 be 35 0a 71 bd db 32 a2 3e
       0.7420175 -0.33159944 -0.058847625 0.31679425
000340 9d 0b 43 bf 6c c2 18 3f 1c 06 02 bf 71 af a0 bd
       -0.76189595 0.59671664 -0.5079057 -0.07845963
000350 e1 22 13 3d 12 8f e6 bc 3f 37 5b 3e cb 87 f8 bd
       0.035921935 -0.028144393 0.21407793 -0.121352755
000360 9d 46 b7 bb 92 0e a0 3e e1 80 aa ba 46 78 2d bf
       -0.0055931346 0.31261116 -0.001300838 -0.6776165
000370 14 49 fd 3e 62 81 f2 bd 89 fc 67 3f 38 4b b4 be
       0.49469817 -0.11841084 0.90619713 -0.35213637
000380 ab 6b 9c be eb 1e 20 3f 23 c6 97 be 6c 2e 3a be
       -0.30550894 0.6254718 -0.29643354 -0.18181771
000390 f9 cf d7 be d2 02 3d 3e cf 3b a4 bc 58 43 0e be
       -0.42150858 0.18458107 -0.02004805 -0.13892877
0003a0 1d 3f ef 3d fb 6c 22 3e d8 f5 03 3f 16 de c2 be
       0.1168196 0.15861885 0.51547 -0.38060063
0003b0 82 38 f7 3e da d0 d7 be c8 11 0c 40 94 fa f3 bf
       0.482853 -0.4215153 2.1885853 -1.9060845
0003c0 ad 64 8a c0 12 12 26 40 8a 5c 1c 40 9f 21 cc bf
       -4.3247895 2.594853 2.4431481 -1.594776
0003d0 46 3b 0e c0 6f 13 c9 3f fc 5b ea bf 92 8f ce 3f
       -2.2223678 1.5709056 -1.8309321 1.6137564
0003e0 e0 77 6f 3b 19 01 cb 3d 4b eb 45 3c 74 79 90 bd
       0.0036539957 0.09912319 0.012080024 -0.07054415
0003f0 9c 48 f0 be f4 09 dc 3d 40 0a 75 3e 6b 58 01 3e
       -0.46930397 0.10744086 0.23929691 0.12631385

value_dict.value_body.bias f4 [64]
000000 d6 dc 0e bf 24 a3 64 40 d9 67 82 40 da dd 83 40
       -0.5580572 3.5724573 4.0751767 4.1208315
000010 8d e7 db 3d c8 d3 b8 bd ed 0c 10 c0 e1 b1 17 c0
       0.10737524 -0.09024769 -2.250789 -2.3702319
000020 74 74 14 3f e7 20 20 40 36 8c f8 bf 63 40 7d 40
       0.57990193 2.5020082 -1.9417789 3.9570549
000030 5c f6 83 40 64 0a d2 bd c4 ca 86 3e ec 24 34 bf
       4.123823 -0.10255888 0.26326573 -0.7036884
000040 4b d1 80 40 86 a7 17 40 fd 27 d9 be da 7f 43 c0
       4.0255485 2.3695998 -0.4241332 -3.0546784
000050 08 80 e3 be c7 75 5f bf b9 df 33 40 f0 ab 65 40
       -0.44433618 -0.8728909 2.81053 3.5886192
000060 2e 51 49 bf c9 ef 96 40 08 05 f2 3d 15 90 22 3d
       -0.78639495 4.7167706 0.11817366 0.03968819
000070 1b 2a 04 bb 78 52 b0 3f 55 da 71 3e 10 0b 37 c0
       -0.0020166698 1.3775167 0.23618443 -2.8600502
000080 ca 6a 6e bd f3 25 84 40 c3 a8 90 bd 44 b6 81 40
       -0.05820731 4.1296325 -0.07063439 4.053499
000090 7e f4 17 bf 63 90 17 40 a3 f2 39 c0 59 e5 80 40
       -0.5935744 2.3681877 -2.9054344 4.0279965
0000a0 3b 7b 70 40 eb 22 21 bf 86 4f f8 bd f2 bd 33 40
       3.7575214 -0.62943906 -0.12124543 2.8084683
0000b0 48 22 59 40 fd 5f ac be e7 ba 85 40 0f 4f 06 40
       3.3927174 -0.33666983 4.179065 2.0985754
0000c0 29 c1 d8 3d f4 6f 82 40 69 89 6c be e7 ba 89 bf
       0.105837174 4.076166 -0.23099293 -1.0760163
0000d0 97 63 b0 be 11 a6 83 40 f2 09 78 40 74 a1 37 40
       -0.3445098 4.114022 3.875607 2.8692293
0000e0 7c 79 52 40 3d cb 6d 3f 99 37 80 40 26 95 12 40
       3.2886648 0.9288824 4.006787 2.2903533
0000f0 58 b6 81 40 ae dd 6f 40 b2 6b b4 3d 85 da 18 bf
       4.0535088 3.7479053 0.08809604 -0.59708434

value_dict.value_head.weight f4 [1, 64]
000000 1e 39 90 3f d4 5d d1 be 5e 2a 92 bf 04 22 74 bf
       1.1267431 -0.40891898 -1.141918 -0.95364404
000010 a0 c3 b3 bf 89 b5 d8 bf 4a 7f 1a bf a3 30 8d be
       -1.4044075 -1.69304 -0.6035048 -0.2757617
000020 ea a8 ad 3e 29 67 3e bf f2 b4 d0 bf 5f b5 3a bf
       0.33917934 -0.7437616 -1.630522 -0.72933
000030 b9 53 e3 be ce f3 e5 bf c4 15 19 3f 8f 38 ee 3e
       -0.44399813 -1.7965028 0.59798837 0.46527526
000040 c0 6b 7e bf 50 5f 8f bf 6e 3e ff bf 3b ab 2f c0
       -0.99383163 -1.1200962 -1.9940927 -2.744826
000050 c0 a6 2d c0 42 c8 d2 bf e7 c3 19 bf 6c ad 09 bf
       -2.7133026 -1.6467364 -0.6006455 -0.53780246
000060 54 11 57 3f fb 20 9c bf 86 76 ae bf 9d e2 98 bf
       0.84010816 -1.2197565 -1.362992 -1.1944157
000070 35 1e 92 bf 2f ef d9 be 12 9a 8e bf 91 72 62 bf
       -1.1415468 -0.42565295 -1.1140769 -0.88456064
000080 bc d2 b1 be c7 d8 72 bf b0 b5 82 bf 00 8c c4 bf
       -0.3473109 -0.94862026 -1.0211697 -1.5355225
000090 62 d5 e3 bd 0e 12 44 3d b1 5a 35 c0 db a4 d3 bf
       -0.11124684 0.04786878 -2.8336604 -1.6534685
0000a0 d8 0b b5 be eb 28 2a bc b9 d8 d5 bf a3 c1 ea be
       -0.353606 -0.010385732 -1.6706764 -0.45850858
0000b0 09 5d 8e bf 5f 80 13 bf bc 08 85 bf 47 8d 49 bf
       -1.1122142 -0.57617754 -1.039329 -0.787312
0000c0 0c a1 a6 bf 90 18 4d bf f4 52 15 c0 18 b0 87 bf
       -1.3017898 -0.80115604 -2.333188 -1.0600615
0000d0 c4 9a 94 bf 09 2a b8 bf 49 f0 9b bf fa a6 11 bf
       -1.1609731 -1.4387828 -1.2182704 -0.5689541
0000e0 47 22 d7 bd 89 5f 52 bf 61 80 30 bf 12 71 0a c0
       -0.10504585 -0.82177025 -0.6894589 -2.1631513
0000f0 fb a1 45 bf b3 e5 4d be f9 3d 68 bf cd 5e 57 3f
       -0.7720029 -0.20107155 -0.9071956 0.8412903

action_dict.action_head.weight f4 [5, 64]
000000 57 a5 23 3c 17 7d 28 3d 1c 1b 19 3e 49 ed 05 3d
       0.009988151 0.04113492 0.14951748 0.032696996
000010 ad bb 96 3d ff f8 19 3d 15 b2 99 3b d7 fd 4a bd
       0.07360015 0.037590977 0.0046904185 -0.049558487
000020 04 0a 44 3c c6 47 8c 3d 57 4b 94 bd 82 5e 4d 3e
       0.011965279 0.06849627 -0.072409324 0.20055583
000030 bb fd ae bd 71 6c 15 3d 13 dc 9c bd fd 3f 39 3d
       -0.08544489 0.03648037 -0.07659163 0.04522704
000040 40 fd 89 be 46 c6 23 3d 47 a9 88 3d f3 ba 82 bd
       -0.26951027 0.03998401 0.06672912 -0.06383314
000050 fc 19 93 3c 21 9b c8 3d 43 56 a2 3d 96 5d 57 bd
       0.017956726 0.097952135 0.07926609 -0.052579485
000060 45 41 e9 bc 5a 27 f2 bd 88 39 b6 bc bc f9 52 bd
       -0.028473506 -0.11823912 -0.02224423 -0.051507697
000070 e8 18 d7 3a ba 14 44 bd 73 bd da 3d 1d 81 0b bd
       0.0016410621 -0.04787133 0.10680666 -0.03405868
000080 c3 05 09 3e 2f 1f ac ba 0c f2 7f bd d2 ec a1 3d
       0.13381104 -0.0013131852 -0.062486693 0.07906498
000090 1d b7 a4 bc 15 f3 34 bd 35 f8 7d bd c8 33 f4 3d
       -0.020106846 -0.044177134 -0.062004287 0.11923939
0000a0 54 ee 2d be 3f c3 c2 bc d4 b0 db bd af 6b 92 bc
       -0.16985446 -0.023774741 -0.10727087 -0.017873613
0000b0 cc d6 c6 3c f8 05 a4 bd 4a 55 85 3d 5a d1 42 bd
       0.024272345 -0.08008951 0.06510408 -0.047562934
0000c0 22 5e d3 bd 48 1a 34 bd f8 d7 2a bd a1 ee 6d 3d
       -0.10320689 -0.043970376 -0.04170987 0.058088902
0000d0 98 ad a0 bd ec 86 c9 bc 04 0e f5 bc 96 4a f1 3d
       -0.078456104 -0.024600469 -0.02991391 0.11781804
0000e0 81 30 c4 bd cd 19 35 3d 8c 68 e4 3d 9f ac bf 3d
       -0.09579564 0.04421406 0.11152753 0.09359097
0000f0 9a 47 6a 3d 75 2d fd bd 46 cc 46 bd d0 11 a8 bd
       0.05719719 -0.12362186 -0.048534654 -0.082065225
000100 98 53 ea 3d fa f6 1c be f1 98 4d 3e a0 37 fb 3c
       0.114417255 -0.15328589 0.20077874 0.030666173
000110 20 5b a9 bc c7 8c d5 3c 55 8b 4a be 59 b6 e5 bc
       -0.020673335 0.026068104 -0.19779713 -0.028041052
000120 dd 84 a4 3d fa bd b7 3d 94 0b a5 3d 2f 52 36 3e
       0.08033154 0.08971782 0.08058849 0.17804788
000130 98 d7 52 bd df bc 18 bb 06 c8 45 be fc 0e dd 3d
       -0.051475137 -0.0023305935 -0.19314584 0.10793874
000140 82 fd ed 3d 53 77 01 bc 7e 4e af 3d 1f 16 95 bd
       0.116206184 -0.007901984 0.08559893 -0.0727961
000150 97 63 cd 3d 7a 2c 4a 3e de 98 cf bc 2c b6 ce bd
       0.10028761 0.19743529 -0.025341447 -0.1009334
000160 e6 1d 98 bd 17 02 cc 3d fb a8 31 bd 74 fb 04 3e
       -0.07427578 0.09961336 -0.043374043 0.12986547
000170 e4 98 14 be 9c 16 48 be 45 c5 1d 3d bf d1 16 be
       -0.14511448 -0.19539875 0.03851821 -0.1472845
000180 48 c4 23 3e f1 67 cd 3e ca 2e b0 bd 57 7b 3f 3e
       0.15992844 0.40118363 -0.08602674 0.18699394
000190 f0 4c 47 3d b0 38 7d be 78 2f 42 3d e5 e5 0a 3e
       0.048657358 -0.24728656 0.04740855 0.1356426
0001a0 6d f2 cb bd 8f b3 60 3d 8e f8 e2 bd cf 5c 02 3d
       -0.099583484 0.05485874 -0.11082564 0.03182679
0001b0 0f 62 36 3e 9a fd 16 be d7 22 42 bd 71 0e 90 3c
       0.17810844 -0.14745179 -0.047396507 0.017585011
0001c0 1c de 0c bd a0 f8 db bc b7 7b 5d 3d 7c 58 03 3e
       -0.034391508 -0.026851952 0.05407306 0.12826723
0001d0 92 ed 81 be 6f 02 a3 bc 49 fa 09 bb cf 87 d4 bc
       -0.25376564 -0.019898621 -0.0021053723 -0.025943665
0001e0 5a ce 10 3e ab 7b dd bb 43 f8 fe 3d bf 44 58 3e
       0.14141217 -0.006759127 0.12449696 0.21119975
0001f0 ff 47 38 be e7 20 23 be 81 2f 09 3b f0 2b 5d bd
       -0.17996214 -0.1593052 0.0020932856 -0.05399698
000200 da 42 9c bc dc f8 51 3d 07 3f 96 3b 3a 87 df 3c
       -0.019074846 0.05126272 0.00458515 0.02728616
000210 f7 9c ca 3d bb 2a bf 3d a6 81 0a 3c 02 45 f4 bd
       0.0989322 0.09334322 0.008453762 -0.11927225
000220 a6 9c 42 bd b7 8b bf 3c 82 f8 1e bd f5 ad 96 3c
       -0.047512673 0.02338205 -0.038811214 0.018393496
000230 7f 3c 32 be e0 2f e8 3d c3 20 ea 3d f7 b6 81 bb
       -0.1740589 0.113372564 0.1143203 -0.0039585787
000240 88 4f 71 be 95 eb 9c 3d 2b 24 8a 3c f1 09 de bd
       -0.23565495 0.07662121 0.01686295 -0.1084174
000250 ef 54 d2 bc 5e b8 10 bd f7 d5 ba 3d 9d c4 70 bd
       -0.025675265 -0.035332076 0.09122842 -0.058781255
000260 15 9e 2e bd e3 07 a1 be 76 0f 33 3d dd 88 2c be
       -0.042631228 -0.3145133 0.043715917 -0.16849084
000270 a3 5f fb 3d 0f 1e 79 3d 6b 6e f1 3d 5d 31 7e 3d
       0.12274101 0.06081968 0.11788639 0.062058795
000280 5d 4c c1 3c 1a f2 4f be d0 f1 95 3c 93 dc e6 bd
       0.023595983 -0.20307198 0.018303782 -0.1127254
000290 28 05 30 3d f3 19 a6 3d a9 b7 d6 bd 53 34 a7 3d
       0.042973667 0.08110418 -0.10484249 0.08164277
0002a0 5c c7 2d be 9b 1e 06 be a0 44 0b be 2d c3 c8 bd
       -0.16970581 -0.13097613 -0.13600397 -0.09802852
0002b0 67 d1 08 be 71 34 ae 3b 74 f7 95 3e 4c 10 b0 bd
       -0.1336113 0.00531631 0.29290354 -0.085968584
0002c0 d3 f6 cf bd 0d d8 94 3c 35 3e 03 be 91 e3 2b bd
       -0.101545 0.018169427 -0.12816699 -0.04196507
0002d0 f2 bb ef 3b 44 7f d8 3c 70 0f 63 3d a5 c0 8e 3d
       0.007316106 0.026427872 0.055434644 0.06970338
0002e0 2a f4 98 be 74 c4 3b be ca 3d 04 3e cd ae 72 bc
       -0.29873782 -0.1833666 0.12914196 -0.014812184
0002f0 59 8e be 3d cd 0f dd bd 2d 16 ff bd c0 65 7e 3d
       0.093044944 -0.107940294 -0.124554016 0.062108755
000300 a6 f2 33 3e 74 98 ac 3d 01 08 47 3e b1 16 ea bd
       0.17573032 0.084275156 0.19436647 -0.11430109
000310 d6 1d d4 bd b5 02 95 3d aa 09 7b 3d 2a bf c2 3d
       -0.10357253 0.07275907 0.061288513 0.09509118
000320 38 ba 3b 3d 28 2a 2f 3d c0 c5 c2 3d 54 d2 d5 3d
       0.04583189 0.042764813 0.09510374 0.104405075
000330 6d eb 2e 3d 3d 1e f3 bc 88 f7 03 3e 18 72 bb bd
       0.04270499 -0.029677505 0.12887394 -0.09152621
000340 db 82 5c be 9c 6b 21 3d 38 d2 42 3e 3a 27 b2 bd
       -0.21534292 0.039409265 0.19025505 -0.08698888
000350 d9 cf 91 3d ae c8 5d 3e 1b 71 d8 3d e1 f1 31 be
       0.07119722 0.21658584 0.10568448 -0.17377426
000360 39 ef be bc 21 80 08 3d f8 75 cb bd 42 6a 07 be
       -0.02330743 0.03332532 -0.0993461 -0.13224128
000370 82 53 6f bd fc ec c9 bd 52 ad ca bd 20 aa 96 bd
       -0.05842925 -0.09859654 -0.098963395 -0.073566675
000380 91 e1 80 3e a3 be 30 3c 0a 5a d1 3d 09 14 42 bd
       0.25172094 0.010787639 0.10222252 -0.04738239
000390 f9 24 17 3e b7 78 02 be 7c 1a 60 be 99 b4 a4 3d
       0.14760198 -0.12741362 -0.21885103 0.08042259
0003a0 45 10 b8 bd 9b 19 8f 3d 8d 2c 48 bd be 70 fb 3d
       -0.08987478 0.06987306 -0.048870612 0.12277363
0003b0 f5 a2 53 3b 8a 42 f1 bd 4f 82 55 3d 28 d0 f4 bd
       0.0032293175 -0.117802694 0.052126225 -0.11953765
0003c0 b1 33 95 bc 0d 6f 33 be 40 65 e0 bd 6c af 60 bc
       -0.018213125 -0.17522831 -0.10956812 -0.013713699
0003d0 b9 e8 09 bd b3 d0 34 3e a4 bb 12 3d 75 b2 88 3e
       -0.033669207 0.17657737 0.03582348 0.26698652
0003e0 ef 70 1b bd 0e b3 24 be 59 12 a4 3d e1 ed 27 3d
       -0.0379495 -0.16083929 0.08011312 0.040998343
0003f0 4a c6 17 bd 42 e2 01 be 02 41 c3 bb e4 0c b7 bd
       -0.037054338 -0.12683967 -0.0059586773 -0.089380056

action_dict.action_head.bias f4 [5]
000000 d4 aa 45 3e 70 3e 25 be 3a ea af 3e a2 b3 ee 3d
       0.19303447 -0.161371 0.34358388 0.11655356
000010 36 f9 ae bd
       -0.08543627

action_dict.c_module.weight f4 [64, 64]
000000 ac 9f 98 3d 00 6e 08 bb 1b c4 8a bf eb 52 36 be
       0.0745233 -0.0020817518 -1.0841097 -0.17805068
000010 20 e3 8a bf de a3 97 3d 36 24 c0 3d 26 f7 51 bf
       -1.0850563 0.07404302 0.09381907 -0.82017744
000020 5f 18 41 bf 3a ad 76 3f ad 9c e7 3e 91 72 9e 3d
       -0.7542781 0.9635807 0.45236722 0.077366956
000030 2d 9f 3f 3f 1f 11 51 bd 9c d9 95 3d cd 37 62 3e
       0.7485226 -0.05104172 0.07316896 0.22091599
000040 a9 a8 4d be 7a b4 9c bf a3 57 2b 3d 9c 06 81 bf
       -0.2008387 -1.2242577 0.041831624 -1.0080142
000050 7d 51 f6 3e be 1f 17 3f 84 88 3f 3e 2e 33 fa 3e
       0.48109046 0.5903281 0.1870442 0.48867172
000060 6e 0d d9 3d d5 cf 33 bf 95 6e db 3e 61 fa 97 3e
       0.10598265 -0.70239 0.42857805 0.2968321
000070 7e 0a b2 bc 88 46 f3 be 11 56 96 3e ef 9f 90 bf
       -0.021733519 -0.4751475 0.29362538 -1.1298808
000080 ad c1 c0 3f e0 f3 c0 3e a4 44 f8 be 35 1c ae 3e
       1.5059105 0.37686062 -0.4848987 0.34005895
000090 01 35 ea 3e e1 2e a6 3e 4c d9 f7 3d 91 f4 a3 3f
       0.45743564 0.3245764 0.12101993 1.2809011
0000a0 eb 7f 85 be d8 1d 96 3d f4 52 19 bf 09 2e a8 3d
       -0.26074156 0.07329911 -0.598922 0.082119055
0000b0 3d 48 9d bd 71 fb 2f be 2a 2c b1 3e 09 81 9e bf
       -0.07679794 -0.17185761 0.34604007 -1.2383128
0000c0 45 23 ff be 89 95 9c be c0 48 1e 3f ee 94 d7 be
       -0.49831596 -0.30582836 0.6182976 -0.42105812
0000d0 d9 fb 65 be 05 d4 65 bd 9d c6 84 bd d8 59 db bf
       -0.22459354 -0.0561104 -0.06483195 -1.7136793
0000e0 96 37 8b bd cf 77 8e be 94 d2 8e be 36 6f 19 3f
       -0.067977116 -0.27825782 -0.27895033 0.5993532
0000f0 45 ba 63 3e 96 15 94 3f 0e 3c 59 bf c9 33 8b be
       0.22239025 1.1569088 -0.8485726 -0.27187946
000100 e3 73 e4 3c 3c fc 82 bf fe a2 9a 3e 0f ff 01 3f
       0.02788729 -1.0233226 0.30202478 0.50779814
000110 c7 10 68 3d 2d 25 d8 be 93 aa 29 3f 42 d4 49 be
       0.056656625 -0.42215863 0.662759 -0.19709876
000120 78 e7 9c 3e 2b 09 37 bf 8b 79 a2 bb c4 c2 cb 3e
       0.30645347 -0.71498364 -0.0049583367 0.39797032
000130 70 ae 1f bf 6f 5d 04 3f 98 c7 90 bf e0 c6 81 bf
       -0.62375546 0.5170507 -1.1310911 -1.0138817
000140 d8 d7 49 bf 04 6a 9f 3f 68 92 3e be 27 c8 87 3f
       -0.78844976 1.2454228 -0.18610537 1.0607957
000150 9c de a8 3e 37 c2 31 bf 6e f2 c3 3e 6d 14 93 be
       0.32982337 -0.69436973 0.38270897 -0.2872652
000160 1f 88 aa bd 39 8c 81 bf 2d 1e 46 bf 0f 4f 8f 3f
       -0.08326744 -1.0120918 -0.77389795 1.1196002
000170 2f a6 1b 3f 87 ca 24 be 2d 0e 15 be 8e 55 3d bf
       0.6080045 -0.16092883 -0.14556189 -0.7395867
000180 59 af ed be 36 96 39 3f 85 a3 d5 be 0c c2 f6 bd
       -0.46422842 0.7249483 -0.41726318 -0.1204873
000190 2d 73 c9 be 39 2a ee 3e 54 c7 f1 3e 0b 87 3e bf
       -0.39345685 0.46516588 0.47222388 -0.7442481
0001a0 73 b0 80 3f d3 a0 00 3e df ee 2e 3f cc 0b 30 3f
       1.0053848 0.1256135 0.6833324 0.68768
0001b0 8f c8 95 bf 2f 43 af 3e 20 6c a8 3f 51 1e 8a 3e
       -1.1701831 0.34230945 1.3157997 0.26976255
0001c0 99 2e 9e bc 67 07 87 bf 24 f6 8e bf b0 aa 45 be
       -0.019309329 -1.0549134 -1.1168866 -0.19303393
0001d0 da 3c 08 3c 13 99 74 bf 1f 36 8f 3f 79 c6 04 3f
       0.008315289 -0.9554607 1.1188391 0.51865345
0001e0 22 59 95 3f e7 67 27 be eb 43 30 3f a0 4d 5b 3f
       1.1667826 -0.1634823 0.68853635 0.8566532
0001f0 c3 1d 83 be b5 21 ae bf 35 e1 e7 be bb be ab 3e
       -0.25608644 -1.3604037 -0.45289007 0.33543953
000200 b0 94 88 3f 23 8c 4c bf bb 07 c9 bf f0 61 a8 3e
       1.0670376 -0.7990133 -1.5705484 0.3288722
000210 fd 7a 08 c0 f1 91 21 bf e2 95 38 3f 8c f0 87 bf
       -2.1325066 -0.63113314 0.72103703 -1.0620284
000220 b5 3a dc 3e a2 3f c0 be 13 ec 22 3f 2e a0 14 3f
       0.4301354 -0.37548548 0.6364147 0.58056915
000230 15 76 51 3f 8a 75 3d 3f 8b 69 76 bf bd ff a3 3f
       0.81820804 0.74007475 -0.96254796 1.281242
000240 4a 53 6d bf 72 d1 dc be 65 b1 a5 3f 66 30 16 3f
       -0.92705214 -0.43128544 1.2944762 0.586676
000250 c7 be 26 3f d0 be d4 bd d0 4f a4 3f 5a 0f 60 3f
       0.65134853 -0.10387957 1.2836857 0.87523425
000260 53 25 86 3f b5 f8 2a bf b6 cc 39 bf b5 87 e0 3e
       1.048014 -0.66785747 -0.7257799 0.43853536
000270 79 c3 5e 3f 6f 4d 87 3e 91 cf 13 3f 3e 57 8a bf
       0.8701702 0.26426265 0.57738596 -1.0807874
000280 d6 6a bf bd 82 e6 d5 be 45 39 3a bf af 0d ed 3c
       -0.09346549 -0.41777426 -0.72743636 0.028937189
000290 29 71 bd 3e a9 70 8a be bc ff 8a 3e 12 3f 08 bf
       0.37000397 -0.27039078 0.27148235 -0.5322124
0002a0 13 0b 1c bf 8d 03 a3 be 8f 5d c7 3e ed 8a 95 bf
       -0.609544 -0.31838647 0.38938567 -1.1683022
0002b0 67 f2 92 bf b5 d8 6f 3d d1 70 00 bf 48 a3 54 bd
       -1.1480225 0.058556277 -0.50172144 -0.05191353
0002c0 a1 44 a5 3f b1 86 9b 3f f7 4c 81 3e 5d 3b 9d 3f
       1.2911569 1.215048 0.25254032 1.2283741
0002d0 21 bb 65 3f 96 21 e0 bf 18 bf 93 3f 2c 04 00 bf
       0.8973866 -1.751025 1.1542692 -0.50006366
0002e0 50 74 29 bf b1 bf 02 bf 1b 21 cf bf a7 dd 83 3f
       -0.66193104 -0.5107375 -1.6181978 1.0302018
0002f0 95 9b d4 bd 86 47 65 be 83 fd 9f 3c 71 00 5b be
       -0.103812374 -0.22390565 0.019530063 -0.21386887
000300 09 c8 80 bd 13 5e 8e 3f 82 cf a4 bf 09 a0 12 bf
       -0.06288154 1.1122459 -1.2875826 -0.57275444
000310 86 c3 5a bf 18 75 ca bf 6c d1 27 3f 2c 48 90 3f
       -0.85454595 -1.5816984 0.6555393 1.1272025
000320 6b 5b d6 be ae 86 64 be 50 20 11 bf 03 38 1c bf
       -0.4186662 -0.22317001 -0.5668993 -0.6102297
000330 de 5c 8a bf 39 77 85 bd 4d 43 b0 3e f8 8c 92 be
       -1.0809591 -0.065168805 0.34426346 -0.28623176
000340 db ed 0b 40 7d 8d 31 bf fb 5b 99 3f 8f de a4 3e
       2.1863925 -0.6935652 1.1981195 0.3220105
000350 d2 7b 13 c0 9c 33 ce 3e 68 2f 72 bf 92 d0 5d bd
       -2.3044324 0.4027375 -0.94603586 -0.054153986
000360 51 32 06 3f 7d 41 ec 3e f3 f8 a9 3f 32 c4 96 bf
       0.52420527 0.46143714 1.3279098 -1.1778624
000370 41 c5 94 3e ab 6b 86 3f 08 b6 19 3f e0 73 76 be
       0.29056743 1.0501608 0.6004338 -0.2406764
000380 74 0a a6 bf fe 8f 4f 3f 32 82 a6 3e 67 e2 fc 3d
       -1.297194 0.8107909 0.32521206 0.1234787
000390 82 34 68 3e 9e 66 8f bf 52 37 9a 3d d1 d1 c6 3e
       0.2267628 -1.1203191 0.07530083 0.38831952
0003a0 ed fa f7 be 86 09 81 3f 57 a5 ad 3f b1 75 b0 bf
       -0.4843363 1.0081031 1.3566083 -1.3785917
0003b0 c6 bd 0f 3f ee 83 02 be c0 a3 ef be 06 68 07 3e
       0.56148946 -0.1274564 -0.4680462 0.13223276
0003c0 7c e7 d7 be 0a c5 b2 3f 4b ce 46 3f ea d8 64 3e
       -0.42168796 1.3966382 0.7765853 0.22348371
0003d0 c6 9d f2 be 71 6c 5f 3f 67 44 78 be 8c f0 3e 3f
       -0.47385997 0.87274843 -0.24244843 0.74585795
0003e0 07 f8 28 be 5d df 05 be 1c 6c 42 bf ad c2 29 bf
       -0.16500865 -0.13073488 -0.7594621 -0.66312677
0003f0 21 28 42 3f 45 14 27 3e 67 e3 15 bf 27 67 9a bf
       0.7584248 0.16316326 -0.58550113 -1.206273

action_dict.c_module.bias f4 [64]
000000 99 ce 0a bf f5 a5 c7 bd 89 5f a7 3d 25 e5 2f bf
       -0.54221493 -0.09748451 0.08172519 -0.6870902
000010 03 07 7a bf 7b a0 07 bd 55 a4 4f 3f c1 94 41 be
       -0.9766695 -0.03311203 0.81110126 -0.18904401
000020 f7 8e 83 3e 0f 1b 65 be d8 7f 66 be d3 db ff be
       0.2569501 -0.22373603 -0.22509706 -0.499724
000030 b5 9a 40 3d 6e b8 e2 3e 76 6a e4 3d 06 77 87 3d
       0.04702254 0.44281334 0.11153118 0.06614499
000040 0a c2 76 bf 43 d3 88 3e d0 11 8d bd f6 9a e2 3e
       -0.9638983 0.2672368 -0.06888163 0.4425885
000050 16 2d 32 3f 29 e0 68 bd 6d 79 3e 3e 76 16 a0 3e
       0.69600046 -0.0568544 0.18601008 0.31267136
000060 d1 6a 82 be 6b 4b 65 bf 8b 7d 11 bf 44 bf 16 3f
       -0.2547212 -0.89568204 -0.5683219 0.588856
000070 ba f1 f8 3e 9a a7 37 3e 6a bf 1a be df 1e 1f 3d
       0.48621923 0.17935029 -0.15112081 0.0388478
000080 ba a5 7a 3e fc 51 9b bf f7 8c a2 3e a6 df 94 be
       0.24477282 -1.2134395 0.31748173 -0.2907688
000090 b5 0e b7 be 99 2b 48 bd 1a 0b 50 bf aa 9e 27 bf
       -0.35753408 -0.048869703 -0.8126694 -0.6547648
0000a0 64 4e 50 bf 87 d6 76 bd 01 76 98 3e 98 b9 df be
       -0.81369615 -0.060263183 0.2977753 -0.43696284
0000b0 cc e6 3f bf 08 02 94 be 91 92 2d 3f cf 42 8e be
       -0.74961543 -0.289078 0.6780177 -0.27785346
0000c0 b1 de e5 be 48 81 2f bf d4 14 e3 be 55 c4 04 bf
       -0.44896463 -0.6855664 -0.44351828 -0.5186208
0000d0 a2 6f 05 bd 35 ae 9b bf 79 b7 08 3f e3 06 60 bd
       -0.032577164 -1.2162539 0.5340496 -0.054694068
0000e0 ad 9b b1 be e2 09 9f bf 82 46 2e 3f 30 95 89 3e
       -0.34689084 -1.2424891 0.68076336 0.26871634
0000f0 9a 42 0d 3e 48 0f f1 3e d2 12 2c 3e ab e4 e3 bd
       0.13794938 0.4708197 0.16804054 -0.11127599

action_dict.encoder.weight f4 [64, 18]
000000 e4 47 6a 3e 22 92 81 3f 93 34 df 3d e3 7e e0 3f
       0.22878987 1.0122721 0.108986996 1.7538723
000010 bf 7f 02 bf a3 82 f7 bc 9c e8 95 bd f3 2f cd bd
       -0.50976175 -0.03021366 -0.07319757 -0.10018911
000020 6b 85 c0 be ce 47 c2 bd 31 5f 45 3e 05 43 b9 bd
       -0.3760179 -0.09486352 0.19274594 -0.09045986
000030 f3 49 ab 3e ee 7f 6c be c3 3d 3c bd a2 2d 69 3d
       0.33454856 -0.23095676 -0.045957338 0.056928284
000040 08 75 22 3e de 58 45 3d 33 e5 7c 3e be 41 8e 3e
       0.15864956 0.048180453 0.24696808 0.27784532
000050 69 f1 e5 bd 7b e5 10 3e 89 49 e6 3d e9 cf ee bd
       -0.11227686 0.1415004 0.112444945 -0.116607495
000060 7f dd 29 3d bd a3 cd be 20 ec 83 3d c0 2e a3 be
       0.041471 -0.40163985 0.06441522 -0.31871605
000070 f4 0d 2a be 06 13 c9 3e 4c 7e f1 3a 12 66 3b 3e
       -0.16606885 0.39272326 0.001842448 0.18300655
000080 f5 cc 14 3d a0 3a 85 bc f7 af 8e bd 8a 56 e8 bb
       0.036328275 -0.016263306 -0.069671564 -0.0070903944
000090 62 88 50 3e f6 72 6e bf 5c b8 12 bf 1c ff ae bd
       0.20364526 -0.93144166 -0.5731256 -0.08544752
0000a0 34 37 84 bc 98 fc c4 3b 61 7e 04 3f 5e 30 1f 3f
       -0.016139604 0.006011557 0.5175534 0.6218318
0000b0 03 6a 02 3f 2d 92 51 3e 4e 1e 00 3e 30 ec 99 bf
       0.5094301 0.20465918 0.1251156 -1.2025204
0000c0 be f8 f3 3d 4d aa ea 3c de d1 21 3e a9 1c ab 3c
       0.11912678 0.028645659 0.15802714 0.02088769
0000d0 5e 31 b7 bc 55 f3 d3 bd 65 02 a3 3d e7 4f cf be
       -0.022362407 -0.10349146 0.07959441 -0.40490648
0000e0 e2 03 04 bf 9b d4 86 be c8 bc 8d 39 67 7e 1b be
       -0.51568425 -0.2633408 0.0002703427 -0.15184937
0000f0 5e 7e 39 bf 46 e2 1a bf 22 37 c7 be f0 8e c4 be
       -0.72458446 -0.60501516 -0.3890925 -0.38390303
000100 98 ee 57 3f e9 c4 c6 3e 6e c8 b0 3e c4 1e f6 3e
       0.8434844 0.38822106 0.34527916 0.48070347
000110 0c e7 be 3d a0 5a 2d ba e2 46 65 bd c9 ed 99 3c
       0.093214124 -0.00066129304 -0.055975802 0.018790143
000120 97 ac 17 bf 58 ab 7c be 60 d3 86 be 38 db da 3d
       -0.59247726 -0.24674737 -0.2633314 0.10686344
000130 d0 c3 c3 3d f9 8a 99 3f a4 cb d4 bc 21 54 26 bf
       0.09558833 1.1995536 -0.02597601 -0.6497212
000140 a4 6f 87 be 61 9e 2f 3f 8f a9 e3 bd eb ec cf be
       -0.26452363 0.6860104 -0.11116325 -0.40610442
000150 30 a2 94 be a2 cb 55 bf 5b 00 29 bd d5 82 4d bd
       -0.2902999 -0.83513844 -0.041260105 -0.0501736
000160 d7 ba b3 b9 b1 fd 35 3d f2 00 9a 3e 94 1d 94 39
       -0.00034280747 0.044431392 0.30078846 0.00028250797
000170 fc cf 84 bd 85 94 5a 3f 2f 15 d1 bd ec ca 32 bf
       -0.06484982 0.8538287 -0.102091186 -0.69840884
000180 6c 4a c3 bc 5f 70 06 bf b5 fe db 3d a0 e1 8d bf
       -0.023839198 -0.52515215 0.10741941 -1.108448
000190 4b 38 30 bd b4 ae 0d bf 52 61 84 be 5f 74 c4 be
       -0.043022435 -0.553447 -0.258555 -0.38370034
0001a0 cc 82 82 3d 75 72 bd 3d 63 95 45 bd 60 b1 4f 3d
       0.06372604 0.092503466 -0.04823817 0.050706267
0001b0 68 ba 3d 3e 40 9c 14 be 88 5f 9e 3e 73 32 b1 3d
       0.1852814 -0.1451273 0.3093226 0.086522005
0001c0 06 60 8f bc e8 67 26 bd 00 5d b5 3d 15 92 8b be
       -0.017501842 -0.040626436 0.08855629 -0.2725989
0001d0 cd 55 a4 3c df 2c 20 3e 3e 7e 12 bd 5c a9 9d 3d
       0.020060444 0.15642117 -0.035764925 0.07698318
0001e0 85 01 0f 3e 56 12 05 bd 6b 9d 19 be 29 39 84 3e
       0.13965423 -0.03248819 -0.15001456 0.2582486
0001f0 e5 ed ee bd b8 ac 95 bd 3b 27 1a bf 44 56 3b bf
       -0.116664685 -0.07308334 -0.6021611 -0.73178506
000200 7b de 26 3e fb 6f 58 be c3 85 81 3f 40 8e 8a 3f
       0.16295807 -0.21136467 1.0118946 1.0824661
000210 f5 75 2f 3f 22 43 3a 3f d2 00 57 3f 33 20 83 3f
       0.68539363 0.72758687 0.83985627 1.0244201
000220 b3 42 df 3e 8b 16 66 3f 85 28 b5 3e d9 45 45 3f
       0.43605575 0.8987815 0.35382476 0.77059704
000230 b4 d5 2d be 0c d2 b7 3c 5d ad e2 ba 08 8f d0 bc
       -0.16976053 0.022439025 -0.0017294098 -0.025458828
000240 6f 7a 2e 3d 36 f0 bc bd 33 6e 61 3e 36 ea 28 3e
       0.04259723 -0.09225504 0.22014694 0.16495594
000250 1b 8a 21 3f 86 02 88 bf e9 b7 cd 3e 20 06 65 bf
       0.6310136 -1.062577 0.40179375 -0.8946247
000260 e2 bf a3 bf 65 fd 1c 40 2f 8f 8a ba a6 e5 c3 bd
       -1.2792933 2.452966 -0.0010571236 -0.09565286
000270 7e 3f d6 bd 86 d2 de 3d 55 45 5e 39 93 86 57 3d
       -0.10461329 0.10879998 0.00021197398 0.052618574
000280 f5 5c 4e 3e fe d7 1b be 81 21 03 3f db 3d 29 3e
       0.20152648 -0.15219113 0.51223 0.16527502
000290 83 7e df bc b2 93 b7 be c2 88 c3 be b2 f2 c6 be
       -0.027282005 -0.3585487 -0.38190275 -0.38857037
0002a0 8a c7 3c bf b8 9f eb be 1a 7a c1 be a1 8c 39 bf
       -0.7374197 -0.46020293 -0.3778847 -0.7248021
0002b0 f8 20 17 bf c8 b5 f3 be 49 c7 6b bf 02 97 25 bf
       -0.5903468 -0.47599626 -0.9210096 -0.64683545
0002c0 2f c6 85 3c fb 1b cf 3d 25 f9 4e bd 86 f5 26 3e
       0.016329853 0.10112759 -0.05053057 0.16304597
0002d0 0e 88 46 3f c2 f2 4f bf 02 d9 6a be ae 69 7c be
       0.7755135 -0.81229794 -0.22934344 -0.24649689
0002e0 44 3b 38 be 8f ff 98 bd 72 67 04 3e 4a 07 a5 3e
       -0.17991358 -0.07470619 0.12930086 0.32232124
0002f0 aa 05 8f 3c 02 e4 7e bc b1 67 bf be 1c 47 28 bf
       0.017458756 -0.015557291 -0.37383798 -0.65733504
000300 83 ee db 3d 33 fc 3f bf 18 ff 02 3e 0d cf f9 3d
       0.10738852 -0.749942 0.12792623 0.12197695
000310 60 cb 39 3e 28 f8 aa 3d 4d e7 9a 3e 23 d2 d2 3d
       0.18143988 0.08348113 0.30254593 0.10293987
000320 d5 0d c0 3d 6d 0a 83 3e d1 1a dc bc f0 7b 20 bf
       0.09377638 0.25593892 -0.026868256 -0.62689114
000330 13 b3 77 bf ab ac 62 bf a5 45 c8 3e c2 b0 78 3f
       -0.9675762 -0.8854472 0.39115635 0.9714471
000340 fb 1d 23 bd ec f4 73 3f 4c 23 b5 3e 9d c8 4d 3f
       -0.039823513 0.95295596 0.35378492 0.80384237
000350 e5 45 27 bc d7 a5 2a bd 5f e3 5a 3c 83 bc 76 bc
       -0.010209535 -0.041662063 0.013359874 -0.015059593
000360 53 60 d5 3d 80 69 7e 3e 36 c8 17 bd 6f 27 f8 bd
       0.10418763 0.24844933 -0.03705617 -0.12116896
000370 b0 bc b1 be 17 36 e7 3d c8 28 a8 be 33 c7 bc 3e
       -0.3471427 0.11289614 -0.32843614 0.36870727
000380 68 31 f8 3f 0a 1a 17 c0 e0 6a 0b bd 1d c3 63 bd
       1.9390078 -2.3609643 -0.03403747 -0.055605996
000390 ba 94 89 3c 55 00 28 3b 77 9e 63 bd bd 0d bb bd
       0.016794551 0.0025634964 -0.055571046 -0.0913348
0003a0 3b c3 b4 bd cd 21 ff 3c fb c0 e0 3c 9f d4 ea 3d
       -0.088263 0.031144047 0.02743577 0.114663355
0003b0 15 6f 9d 3e da 69 e2 bc ad a1 ff bf ce 5f c5 3e
       0.3074881 -0.027638365 -1.9971215 0.38549656
0003c0 5f 04 46 3f 2c ca e1 bb 58 d2 b0 3e 4f 81 98 be
       0.7735042 -0.006890556 0.3453548 -0.29786155
0003d0 e9 b0 15 3f ee 80 a2 be 86 09 f5 3e d5 52 dc 3d
       0.5847307 -0.3173899 0.47858828 0.107579865
0003e0 28 a1 1b be 37 5b 51 be 15 85 02 3d 75 0b ca 3c
       -0.15198195 -0.20444952 0.0318652 0.024663666
0003f0 0f b7 51 3f 67 5e 44 3f 0a 44 05 3e a4 25 0f 3f
       0.8191995 0.76706547 0.13014236 0.5591681

action_dict.encoder.bias f4 [64]
000000 1e bc fb bf 0d 4f a7 bf 2e ae bc bf 83 94 d9 bf
       -1.9666784 -1.3070999 -1.4740655 -1.6998447
000010 05 ee a0 bf 45 bf aa bf d1 9f 90 bf e0 94 96 be
       -1.2572638 -1.3339621 -1.1298772 -0.29410458
000020 98 0e 2e bf 6a 89 90 bd d7 e6 6a bf 62 46 73 bf
       -0.6799102 -0.0705746 -0.91758484 -0.9502927
000030 58 4a 88 3d 82 e3 ad bf d0 78 92 bf 2d 00 61 be
       0.06654805 -1.3585055 -1.1443119 -0.21972723
000040 02 40 a7 bf 1f c7 c6 bf 08 80 5e 3f bc bd 98 bf
       -1.3066409 -1.5529517 0.8691411 -1.1932902
000050 7c a6 1b 3c 7a ba 84 bf 91 e9 ba be 5f 47 22 bf
       0.009500142 -1.0369408 -0.36506322 -0.63390154
000060 c8 e0 93 bf be b6 1b bf 4d 57 9e bf 59 90 9c bf
       -1.1552973 -0.6082572 -1.2370392 -1.2231551
000070 b8 7d ec bd 77 99 62 3f 0a 07 6e bf 0e 5d af bf
       -0.115474164 0.8851542 -0.9297949 -1.3700273
000080 c2 ba ab bf 50 dd db bf 77 6a a2 bf 4c 10 bf bf
       -1.3416369 -1.7176914 -1.268874 -1.4926848
000090 6e 59 b9 3e 79 a7 d7 be 84 21 90 bf 00 2a aa be
       0.36201042 -0.4211996 -1.1260228 -0.33235168
0000a0 46 92 d8 be db 35 65 3f 3a 91 c3 bf 28 36 94 bf
       -0.42299098 0.895353 -1.5278695 -1.1579027
0000b0 df 8d 9b bf 48 2f a4 bf db 17 9e be 91 f9 5d bf
       -1.2152671 -1.2826929 -0.30877575 -0.86708933
0000c0 f7 d1 b8 bf ba 61 c3 bf 9f 2e d3 bf 24 bb b5 bf
       -1.4439076 -1.5264199 -1.6498603 -1.4197736
0000d0 39 12 05 3f 4f ea b4 bf 0e 11 64 bf 5f bb 7b bf
       0.5198093 -1.4134005 -0.89088523 -0.9833278
0000e0 0c 0c c2 bf 7c ae f1 3d ee 6f a6 bf 65 82 76 bf
       -1.5159926 0.118008584 -1.3002908 -0.96292716
0000f0 ed 0b 60 3f 1c 17 8b bf 95 1e 3d be 50 20 c3 3e
       0.875182 -1.0866427 -0.18468697 0.3811059

action_dict.f_module.weight f4 [64, 64]
000000 17 62 93 bf e0 30 91 be 44 aa 52 3f 2c 22 2b bd
       -1.151431 -0.283576 0.82291055 -0.041780636
000010 ad e6 1a bf c0 16 8f be f7 4e 9d be 9e 58 d2 3f
       -0.60508233 -0.27947044 -0.30724308 1.6433294
000020 e9 a4 ac 3e 42 fa 3b bf 8a 56 24 3f 57 37 6a 3f
       0.33719566 -0.7342874 0.6419455 0.9149069
000030 e1 51 d3 3c 71 74 1a bf 98 7e d1 bc 7a 9d 2e 3f
       0.025795879 -0.60333925 -0.02557306 0.6820904
000040 db 47 6f bf 98 dd 76 3f 21 d0 f3 3e 81 c0 6d be
       -0.9346902 0.96431875 0.47619727 -0.23217966
000050 34 52 95 3d 05 51 8f be 21 93 c4 3e 2d 6a d0 bc
       0.072910696 -0.279915 0.383935 -0.025441254
000060 5a 31 dd be 7f 01 c1 3e 47 d4 ef bf 66 e5 4a 3f
       -0.43201715 0.37696454 -1.8736657 0.79256284
000070 31 bd 1d be 61 61 43 bf 7d 3b 83 bd 42 e9 49 be
       -0.15404202 -0.76320463 -0.06407831 -0.19717887
000080 62 71 ba be da 47 6d 3f 99 b0 82 3e ea 7b a9 3e
       -0.3641463 0.9268776 0.25525358 0.3310235
000090 4d e1 43 bf a0 6b aa 3e 3c 92 d6 be 78 04 54 bd
       -0.76515657 0.33285236 -0.41908443 -0.051762074
0000a0 d7 5d 72 3f 3d 52 91 bf 92 e0 e8 bd 38 f4 0a 3f
       0.9467444 -1.1353222 -0.113709584 0.542789
0000b0 15 48 3b bf 2c a5 31 be dc 0b 3b 3d 32 40 1a bf
       -0.73156863 -0.17348164 0.045665607 -0.60254204
0000c0 f9 16 7f 3f d1 18 19 3e ed 44 0c 3f c5 62 c1 bb
       0.9964443 0.14950873 0.5479267 -0.005901667
0000d0 7a e9 ac 3e f0 1c bc bd 9c a8 65 3e 33 5d 9c 3e
       0.33771878 -0.09185207 0.224276 0.30539855
0000e0 b9 1c 57 3f c2 5e b0 be 51 fd 38 bd 9f 0d fc be
       0.840282 -0.34447294 -0.045163456 -0.49229142
0000f0 4a 3e 4c bf 8f 2c 81 bf 3f fa 1c 40 db c1 cb 3f
       -0.79782546 -1.0091723 2.4527738 1.5918535
000100 c9 da b1 be 28 db b4 bf 2e 19 93 3e a6 21 32 bc
       -0.34737232 -1.4129381 0.28730148 -0.01087228
000110 f0 47 6f 3d f9 07 0e 3f e0 5c 86 bd 6d 42 75 3f
       0.058418214 0.55480915 -0.06560683 0.9580448
000120 95 27 26 3d a7 c7 9a 3e e5 d1 9f be db 53 8e 3e
       0.040565092 0.30230448 -0.31214824 0.27798352
000130 4e cb d4 be 28 e8 23 be 93 bb a2 3d e4 3c 30 3e
       -0.4156136 -0.1600653 0.07945933 0.17210728
000140 24 f3 5f bf 8d 19 b8 be 07 26 71 3f a9 d4 e4 be
       -0.8748038 -0.35956994 0.9419865 -0.44693497
000150 a1 5f 64 be f9 9f da 3e f3 fe 1c 3f c2 7e a1 3f
       -0.22302105 0.42700174 0.6132652 1.2616808
000160 d0 58 b4 3e ad 1f 12 3e 4b 9e de bf 06 b0 27 bd
       0.3522401 0.14269896 -1.7392057 -0.040939353
000170 8f 7b b5 be bc dc af 3e 21 73 88 3e ba de b5 be
       -0.3544583 0.34348094 0.26650336 -0.3552149
000180 15 ac 69 3f df a0 9a bf a7 6f 3a 3f 7c c6 ee bd
       0.912782 -1.2080344 0.7282662 -0.11658952
000190 5c 72 ee bc c7 38 80 3e 01 ac a0 bf f5 02 2e 3e
       -0.029107265 0.25043318 -1.2552491 0.16993316
0001a0 91 35 9f bf b6 d8 ba be aa 5a 5a bf 2b a0 11 c0
       -1.2438222 -0.36493462 -0.8529459 -2.2754009
0001b0 f3 cd e1 bf f3 88 04 be 89 2c a2 3f b0 c5 43 bf
       -1.7640976 -0.12942867 1.2669841 -0.7647352
0001c0 4d 39 0a bf 26 06 d0 be b3 1a f0 3d aa d9 ca be
       -0.53993684 -0.4062969 0.117238425 -0.3961919
0001d0 4d a5 ce be 3b 1c 50 bf ae 9f ba 3e af 09 3a be
       -0.4036049 -0.81293076 0.3644995 -0.18167756
0001e0 53 91 98 bf 7e bc 13 be 20 56 3c be e8 d5 9e 3e
       -1.191935 -0.14427373 -0.18392229 0.31022573
0001f0 f2 be 00 3e 56 b2 47 3e 58 98 f2 3e 6d 09 94 bd
       0.1257284 0.19501624 0.47381854 -0.0722836
000200 1c 58 3b bf 7f 36 cd 3e 01 83 0a 3d 74 2a 3e bc
       -0.7318132 0.4008064 0.03381634 -0.011606801
000210 d1 61 5a 3e 6c 4d 3f 3f 2c 1b 01 bd 03 63 7d 3f
       0.21326376 0.7472751 -0.031520054 0.98979205
000220 1b 1e bb 3d 8a 59 bc be a7 28 19 be 36 25 4c bf
       0.091366015 -0.36787063 -0.14956914 -0.7974428
000230 b0 89 61 bf be 6b 27 3f 24 f4 ce bd 97 44 de 3b
       -0.8810072 0.65398777 -0.1010516 0.006783079
000240 94 29 98 bf c7 fd 34 3f 87 21 db 3d b4 12 4d 3f
       -1.1887689 0.70699733 0.10699754 0.80106664
000250 40 64 b2 be 84 5f 12 3e d9 03 f3 be 16 7c d6 be
       -0.3484211 0.14294249 -0.47463873 -0.41891545
000260 4a 90 50 bf 45 9e 08 40 27 df d0 bf ed d6 37 3f
       -0.8147017 2.13466 -1.6318101 0.71812326
000270 21 d7 14 3e 43 cf 87 3e e9 7d 85 bf 33 cf fe be
       0.1453519 0.26525316 -1.042905 -0.49767455
000280 db ff 35 bf b0 58 d5 3f 85 50 09 be 00 99 1c bf
       -0.7109353 1.666769 -0.13409622 -0.6117096
000290 95 c0 77 be 0d 03 8f be b3 81 15 bf 52 9d 3a be
       -0.24194558 -0.27932015 -0.5840103 -0.18224075
0002a0 a0 c3 d1 3e 61 0b c1 3f 53 0c 67 3e f4 10 11 3f
       0.40969563 1.5081598 0.22563295 0.56666493
0002b0 81 28 4d bf 3d 47 15 3e 08 9f 00 3d ce f4 85 3f
       -0.8013993 0.14577956 0.031401664 1.0465333
0002c0 99 b4 58 3e 90 27 89 3d 38 a5 f3 be 16 48 d9 be
       0.21162643 0.06696999 -0.4758699 -0.4243781
0002d0 36 dd 1f bf b4 7d 94 bd a6 aa 13 3f 5d bf cb bd
       -0.62446916 -0.072505385 0.57682264 -0.09948609
0002e0 e6 0d d6 3f f3 86 b6 bc 7e 4c 6d 3e db 39 d2 3e
       1.6722991 -0.022281146 0.2317371 0.41059765
0002f0 fe 22 42 bf 59 9d 93 3d 15 45 d2 3f a5 ed 9c 3e
       -0.75834644 0.07207746 1.6427332 0.30650058
000300 e5 df bb 3e 2a ae af 3e 19 d5 a2 be c3 22 65 bf
       0.36694255 0.34312564 -0.31803206 -0.8950617
000310 94 f8 38 bd 6e 1f ad 3f 05 88 31 b9 41 54 8c 3f
       -0.045158938 1.3525217 -0.00016930707 1.0963212
000320 49 8e e4 be ce f8 b6 3e 58 38 f1 3e d8 b2 04 3e
       -0.44639805 0.35736698 0.471133 0.12958848
000330 87 bb 0c 3e 2d a6 aa be 9a 71 26 3e c9 53 2f 3d
       0.13743411 -0.33329907 0.16254273 0.042804513
000340 63 fa 34 3f 46 86 9f bd 8f e2 62 bd d4 b8 41 bf
       0.7069456 -0.077892825 -0.055391844 -0.7567265
000350 4f 91 8f 3f c3 a0 84 3e 6f fe dc 3c 7c 23 76 bd
       1.121622 0.259039 0.026976792 -0.060092434
000360 6d bf d3 be 57 17 91 3f 72 c7 8e 3f e2 aa 94 bf
       -0.41356984 1.1335248 1.1154616 -1.1614649
000370 9d bd 22 be 4c 56 81 3e 0a 86 82 3e 39 ff 6b 3f
       -0.15892644 0.25261152 0.2549289 0.92186314
000380 e0 92 c6 be f5 c2 b5 3f 2d 22 c3 3e 71 ca 89 3c
       -0.38783932 1.4200121 0.38112012 0.016820164
000390 c8 bd 4b 3f b1 a8 63 3f e7 89 3a 40 15 52 92 3e
       0.7958646 0.8892928 2.914667 0.2857825
0003a0 f2 e3 82 be 1a f3 9e be 21 1b 19 bf 7d 5d 91 3e
       -0.25564533 -0.31044847 -0.5980702 0.28391638
0003b0 fe ed 10 3f a3 6c 1c bc 0f 8a be bf 6e e8 4e 3e
       0.5661315 -0.009547385 -1.4885882 0.20205852
0003c0 da 0f c8 3d 30 72 34 3b 62 82 ae be e1 cb 88 3e
       0.097686484 0.0027533881 -0.3408385 0.26718047
0003d0 1d 21 b6 bf a9 bd 14 3f cc 7e 05 bf 78 97 81 bf
       -1.4228855 0.581019 -0.521466 -1.012435
0003e0 33 25 26 be 2d 45 fd 3f 6d 8f 2b 3e ea 6c ad be
       -0.16225128 1.9786736 0.16753931 -0.33872157
0003f0 03 dc 58 3f 14 d0 5b bf 8a 07 65 c0 07 73 d5 be
       0.8471071 -0.8586438 -3.5785851 -0.4168932

action_dict.f_module.bias f4 [64]
000000 76 ae 07 bf dd e2 b3 bd af ad f1 3d 82 52 30 bf
       -0.5300058 -0.08783505 0.11800706 -0.68875897
000010 e8 05 8f bf da e5 f6 bc 94 6c 2c 3f e7 1c dc bd
       -1.1173677 -0.030138899 0.6735318 -0.107477
000020 bd 85 8c 3e f3 d1 54 be ae d4 a3 be 93 b8 f1 be
       0.27445784 -0.20783214 -0.319982 -0.4721113
000030 55 96 27 be ba df 9e 3e bf 65 3c 3e 7c 01 85 3d
       -0.16365941 0.31030065 0.18398188 0.06494424
000040 75 b4 67 bf a5 44 7d 3e 01 e7 22 bd 46 20 d6 3e
       -0.9050973 0.24733217 -0.039771084 0.41821498
000050 09 ce 45 3f 7b b1 52 be d4 1a ed 3c 07 91 f2 3e
       0.7726751 -0.20575516 0.028943457 0.47376272
000060 2d 2d 9a be 26 1f 58 bf d3 35 ea be cd 9f 13 3f
       -0.3011259 -0.8442253 -0.4574419 0.5766571
000070 26 58 d6 3e 08 31 1c 3e ba 75 27 be ce 56 52 bd
       0.41864127 0.15253079 -0.16353503 -0.051352315
000080 b2 ac dd 3e 4c bb 87 bf e5 96 80 3e 5d 2f 88 be
       0.4329582 -1.0604033 0.25115123 -0.26598635
000090 eb 71 80 be 2d 67 f6 bd 17 42 53 bf 24 83 e7 be
       -0.25086913 -0.12031398 -0.8252272 -0.4521724
0000a0 5f 77 83 bf dc 75 86 be 6b 2e d0 3e 45 99 d0 be
       -1.0270804 -0.26261795 0.40660414 -0.40741935
0000b0 4a 2c 3c bf cf b1 4c be ba 39 35 3f 33 52 f0 be
       -0.7350508 -0.19989704 0.7079121 -0.46937713
0000c0 0b 40 a6 be a1 46 38 bf 67 79 b7 be 4a c6 24 bf
       -0.32470736 -0.7198277 -0.3583481 -0.64365065
0000d0 8d 68 18 be dc dc 96 bf 4e ee 1c 3f f1 06 e4 bc
       -0.14883633 -1.1786151 0.61301124 -0.027835341
0000e0 1c a9 6c be 89 c8 98 bf 08 f7 39 3f 58 f3 e1 3e
       -0.23111385 -1.1936198 0.72642565 0.4413097
0000f0 75 d8 12 3e 04 3d ae 3e 53 a9 e7 3d b0 0b 00 3d
       0.14340384 0.34030926 0.11311593 0.031261146

action_dict.f_modules.0.weight f4 [64, 64]
000000 17 62 93 bf e0 30 91 be 44 aa 52 3f 2c 22 2b bd
       -1.151431 -0.283576 0.82291055 -0.041780636
000010 ad e6 1a bf c0 16 8f be f7 4e 9d be 9e 58 d2 3f
       -0.60508233 -0.27947044 -0.30724308 1.6433294
000020 e9 a4 ac 3e 42 fa 3b bf 8a 56 24 3f 57 37 6a 3f
       0.33719566 -0.7342874 0.6419455 0.9149069
000030 e1 51 d3 3c 71 74 1a bf 98 7e d1 bc 7a 9d 2e 3f
       0.025795879 -0.60333925 -0.02557306 0.6820904
000040 db 47 6f bf 98 dd 76 3f 21 d0 f3 3e 81 c0 6d be
       -0.9346902 0.96431875 0.47619727 -0.23217966
000050 34 52 95 3d 05 51 8f be 21 93 c4 3e 2d 6a d0 bc
       0.072910696 -0.279915 0.383935 -0.025441254
000060 5a 31 dd be 7f 01 c1 3e 47 d4 ef bf 66 e5 4a 3f
       -0.43201715 0.37696454 -1.8736657 0.79256284
000070 31 bd 1d be 61 61 43 bf 7d 3b 83 bd 42 e9 49 be
       -0.15404202 -0.76320463 -0.06407831 -0.19717887
000080 62 71 ba be da 47 6d 3f 99 b0 82 3e ea 7b a9 3e
       -0.3641463 0.9268776 0.25525358 0.3310235
000090 4d e1 43 bf a0 6b aa 3e 3c 92 d6 be 78 04 54 bd
       -0.76515657 0.33285236 -0.41908443 -0.051762074
0000a0 d7 5d 72 3f 3d 52 91 bf 92 e0 e8 bd 38 f4 0a 3f
       0.9467444 -1.1353222 -0.113709584 0.542789
0000b0 15 48 3b bf 2c a5 31 be dc 0b 3b 3d 32 40 1a bf
       -0.73156863 -0.17348164 0.045665607 -0.60254204
0000c0 f9 16 7f 3f d1 18 19 3e ed 44 0c 3f c5 62 c1 bb
       0.9964443 0.14950873 0.5479267 -0.005901667
0000d0 7a e9 ac 3e f0 1c bc bd 9c a8 65 3e 33 5d 9c 3e
       0.33771878 -0.09185207 0.224276 0.30539855
0000e0 b9 1c 57 3f c2 5e b0 be 51 fd 38 bd 9f 0d fc be
       0.840282 -0.34447294 -0.045163456 -0.49229142
0000f0 4a 3e 4c bf 8f 2c 81 bf 3f fa 1c 40 db c1 cb 3f
       -0.79782546 -1.0091723 2.4527738 1.5918535
000100 c9 da b1 be 28 db b4 bf 2e 19 93 3e a6 21 32 bc
       -0.34737232 -1.4129381 0.28730148 -0.01087228
000110 f0 47 6f 3d f9 07 0e 3f e0 5c 86 bd 6d 42 75 3f
       0.058418214 0.55480915 -0.06560683 0.9580448
000120 95 27 26 3d a7 c7 9a 3e e5 d1 9f be db 53 8e 3e
       0.040565092 0.30230448 -0.31214824 0.27798352
000130 4e cb d4 be 28 e8 23 be 93 bb a2 3d e4 3c 30 3e
       -0.4156136 -0.1600653 0.07945933 0.17210728
000140 24 f3 5f bf 8d 19 b8 be 07 26 71 3f a9 d4 e4 be
       -0.8748038 -0.35956994 0.9419865 -0.44693497
000150 a1 5f 64 be f9 9f da 3e f3 fe 1c 3f c2 7e a1 3f
       -0.22302105 0.42700174 0.6132652 1.2616808
000160 d0 58 b4 3e ad 1f 12 3e 4b 9e de bf 06 b0 27 bd
       0.3522401 0.14269896 -1.7392057 -0.040939353
000170 8f 7b b5 be bc dc af 3e 21 73 88 3e ba de b5 be
       -0.3544583 0.34348094 0.26650336 -0.3552149
000180 15 ac 69 3f df a0 9a bf a7 6f 3a 3f 7c c6 ee bd
       0.912782 -1.2080344 0.7282662 -0.11658952
000190 5c 72 ee bc c7 38 80 3e 01 ac a0 bf f5 02 2e 3e
       -0.029107265 0.25043318 -1.2552491 0.16993316
0001a0 91 35 9f bf b6 d8 ba be aa 5a 5a bf 2b a0 11 c0
       -1.2438222 -0.36493462 -0.8529459 -2.2754009
0001b0 f3 cd e1 bf f3 88 04 be 89 2c a2 3f b0 c5 43 bf
       -1.7640976 -0.12942867 1.2669841 -0.7647352
0001c0 4d 39 0a bf 26 06 d0 be b3 1a f0 3d aa d9 ca be
       -0.53993684 -0.4062969 0.117238425 -0.3961919
0001d0 4d a5 ce be 3b 1c 50 bf ae 9f ba 3e af 09 3a be
       -0.4036049 -0.81293076 0.3644995 -0.18167756
0001e0 53 91 98 bf 7e bc 13 be 20 56 3c be e8 d5 9e 3e
       -1.191935 -0.14427373 -0.18392229 0.31022573
0001f0 f2 be 00 3e 56 b2 47 3e 58 98 f2 3e 6d 09 94 bd
       0.1257284 0.19501624 0.47381854 -0.0722836
000200 1c 58 3b bf 7f 36 cd 3e 01 83 0a 3d 74 2a 3e bc
       -0.7318132 0.4008064 0.03381634 -0.011606801
000210 d1 61 5a 3e 6c 4d 3f 3f 2c 1b 01 bd 03 63 7d 3f
       0.21326376 0.7472751 -0.031520054 0.98979205
000220 1b 1e bb 3d 8a 59 bc be a7 28 19 be 36 25 4c bf
       0.091366015 -0.36787063 -0.14956914 -0.7974428
000230 b0 89 61 bf be 6b 27 3f 24 f4 ce bd 97 44 de 3b
       -0.8810072 0.65398777 -0.1010516 0.006783079
000240 94 29 98 bf c7 fd 34 3f 87 21 db 3d b4 12 4d 3f
       -1.1887689 0.70699733 0.10699754 0.80106664
000250 40 64 b2 be 84 5f 12 3e d9 03 f3 be 16 7c d6 be
       -0.3484211 0.14294249 -0.47463873 -0.41891545
000260 4a 90 50 bf 45 9e 08 40 27 df d0 bf ed d6 37 3f
       -0.8147017 2.13466 -1.6318101 0.71812326
000270 21 d7 14 3e 43 cf 87 3e e9 7d 85 bf 33 cf fe be
       0.1453519 0.26525316 -1.042905 -0.49767455
000280 db ff 35 bf b0 58 d5 3f 85 50 09 be 00 99 1c bf
       -0.7109353 1.666769 -0.13409622 -0.6117096
000290 95 c0 77 be 0d 03 8f be b3 81 15 bf 52 9d 3a be
       -0.24194558 -0.27932015 -0.5840103 -0.18224075
0002a0 a0 c3 d1 3e 61 0b c1 3f 53 0c 67 3e f4 10 11 3f
       0.40969563 1.5081598 0.22563295 0.56666493
0002b0 81 28 4d bf 3d 47 15 3e 08 9f 00 3d ce f4 85 3f
       -0.8013993 0.14577956 0.031401664 1.0465333
0002c0 99 b4 58 3e 90 27 89 3d 38 a5 f3 be 16 48 d9 be
       0.21162643 0.06696999 -0.4758699 -0.4243781
0002d0 36 dd 1f bf b4 7d 94 bd a6 aa 13 3f 5d bf cb bd
       -0.62446916 -0.072505385 0.57682264 -0.09948609
0002e0 e6 0d d6 3f f3 86 b6 bc 7e 4c 6d 3e db 39 d2 3e
       1.6722991 -0.022281146 0.2317371 0.41059765
0002f0 fe 22 42 bf 59 9d 93 3d 15 45 d2 3f a5 ed 9c 3e
       -0.75834644 0.07207746 1.6427332 0.30650058
000300 e5 df bb 3e 2a ae af 3e 19 d5 a2 be c3 22 65 bf
       0.36694255 0.34312564 -0.31803206 -0.8950617
000310 94 f8 38 bd 6e 1f ad 3f 05 88 31 b9 41 54 8c 3f
       -0.045158938 1.3525217 -0.00016930707 1.0963212
000320 49 8e e4 be ce f8 b6 3e 58 38 f1 3e d8 b2 04 3e
       -0.44639805 0.35736698 0.471133 0.12958848
000330 87 bb 0c 3e 2d a6 aa be 9a 71 26 3e c9 53 2f 3d
       0.13743411 -0.33329907 0.16254273 0.042804513
000340 63 fa 34 3f 46 86 9f bd 8f e2 62 bd d4 b8 41 bf
       0.7069456 -0.077892825 -0.055391844 -0.7567265
000350 4f 91 8f 3f c3 a0 84 3e 6f fe dc 3c 7c 23 76 bd
       1.121622 0.259039 0.026976792 -0.060092434
000360 6d bf d3 be 57 17 91 3f 72 c7 8e 3f e2 aa 94 bf
       -0.41356984 1.1335248 1.1154616 -1.1614649
000370 9d bd 22 be 4c 56 81 3e 0a 86 82 3e 39 ff 6b 3f
       -0.15892644 0.25261152 0.2549289 0.92186314
000380 e0 92 c6 be f5 c2 b5 3f 2d 22 c3 3e 71 ca 89 3c
       -0.38783932 1.4200121 0.38112012 0.016820164
000390 c8 bd 4b 3f b1 a8 63 3f e7 89 3a 40 15 52 92 3e
       0.7958646 0.8892928 2.914667 0.2857825
0003a0 f2 e3 82 be 1a f3 9e be 21 1b 19 bf 7d 5d 91 3e
       -0.25564533 -0.31044847 -0.5980702 0.28391638
0003b0 fe ed 10 3f a3 6c 1c bc 0f 8a be bf 6e e8 4e 3e
       0.5661315 -0.009547385 -1.4885882 0.20205852
0003c0 da 0f c8 3d 30 72 34 3b 62 82 ae be e1 cb 88 3e
       0.097686484 0.0027533881 -0.3408385 0.26718047
0003d0 1d 21 b6 bf a9 bd 14 3f cc 7e 05 bf 78 97 81 bf
       -1.4228855 0.581019 -0.521466 -1.012435
0003e0 33 25 26 be 2d 45 fd 3f 6d 8f 2b 3e ea 6c ad be
       -0.16225128 1.9786736 0.16753931 -0.33872157
0003f0 03 dc 58 3f 14 d0 5b bf 8a 07 65 c0 07 73 d5 be
       0.8471071 -0.8586438 -3.5785851 -0.4168932
