model_save/simple_spread_ddpg_maddpg.pt (torch_old, 179640 bytes, 33 tensors)

value_dict.layer_1.0.weight f4 [64, 69]
0.0491449 0.013027552 -0.21534218 -0.061865132 0.1982498 -0.19185022 -1.1682315 0.13335785
0.1386697 0.017189031 0.30441663 -0.16666578 -0.070300184 0.06410584 -0.059956104 0.03592799
0.042449318 -0.053596616 0.18774597 -0.06780942 0.25707912 -0.04632644 -0.38874128 0.0549576
-1.4955554 0.43673283 -0.3641516 0.08116156 -0.3906376 0.012690985 -0.22968058 -0.005445693
-0.009468558 -0.019981762 0.04698753 -0.00848621 -0.0006362144 -0.032514643 -0.035293177 0.10020665
0.2878975 0.13424 -1.0135672 0.13158517 0.22680414 -0.13787916 0.09284997 0.047906846
0.17817616 -0.055049118 0.07551894 -0.09773586 -0.026284216 -0.11129469 -0.073043264 -0.053875875
-0.04856976 -0.011552844 -0.064622626 0.018407097 0.14614064 -0.1250905 -0.029656002 0.0826062
0.06730374 0.053387027 -0.0056608487 -0.0029645734 0.03400309 -0.003425867 -0.018191963 0.024885837
-0.18220599 -0.0048746816 0.29957965 0.11820189 0.15666808 -0.54769874 -1.2190249 0.24784315
0.11653913 -0.0753322 0.2721814 -0.13619381 0.07705805 0.18964227 -0.122368135 0.17231521
0.13036178 0.14689678 0.1897084 -0.22604147 -0.057547864 -0.23322879 -0.106620416 -0.74140865
-1.3047416 -0.24898268 -0.12864445 -0.3144098 0.018386543 -0.013643811 0.03377181 -0.0015320469
0.07632199 -0.02491076 0.2104279 -0.2689602 0.11500976 0.16679142 -0.2707006 0.20780967
-0.004302701 -0.33291587 -1.9501792 0.011807014 -0.027864179 0.066178955 -0.10085511 0.09420613
0.16780032 -0.07912676 0.04485699 -0.094017856 -0.07496727 -0.041724704 -0.07855013 -0.06379163
-0.029081823 0.08110682 -0.16852476 0.027601847 -0.117976904 -0.024285957 -0.085214056 -0.022020899
0.14230794 -0.13713674 0.26997295 -0.0978826 0.48185337 -0.23326343 -0.5581729 0.02863974
-0.4002461 0.06326638 -0.50745827 0.3475247 -0.34277996 0.058824196 -0.5111899 0.24129246
0.015413145 -0.0071826554 0.03573304 0.007299217 0.01456822 -0.01463745 0.17143808 0.0645993
0.02092084 -0.05293827 0.15209165 0.05442797 0.21233441 -0.025731817 0.22795789 -0.07831406
-0.30487105 0.1465126 0.12616217 0.03982039 0.062283874 -0.025795937 -0.3036732 0.15854718
-0.4833211 0.13765092 0.40670028 -0.3131951 0.43826166 -0.261104 0.35673183 -0.4601103
0.34736383 -0.09279855 0.39988726 -0.011288173 0.08353878 -0.03320866 0.0262963 -0.046331923
-0.0070597306 0.20354407 -0.19470817 -0.052686077 0.02474965 -0.041581728 -0.055677447 -0.05427544
-0.027399058 -0.06454925 -0.05551379 -0.26540127 0.21134716 0.06448463 -0.15580782 0.047840822
0.00499852 0.22239718 -0.17260136 0.94999176 -1.2733688 -0.19294827 -0.034042288 -0.09880921
0.07466342 -0.016247194 0.1750694 -0.07990843 0.32228294 -0.014296407 0.16866063 0.08792947
0.0051774844 -0.14595045 0.1769004 -0.07263945 0.06905907 1.2480811 -1.35472 0.18437262
-0.025800811 -0.09565065 0.066628955 0.01057832 -0.2383721 -0.06645227 -0.05140257 0.06981609
-0.27359042 0.025394505 -0.05959776 -0.1424426 0.16571711 -0.11975388 0.18275994 0.84573525
-1.392973 -0.016204521 0.086712226 0.24072403 -0.1291492 0.21583305 -0.19847319 -0.13140683
00000000: 2a4c 493d 8371 553c a982 5cbe 4b66 7dbd
00000010: ff01 4b3e 6274 44be 9c88 95bf f68e 083e
00000020: 6eff 0d3e 03d0 8c3c 7fdc 9b3e 6faa 2abe
00000030: 8bf9 8fbd ec49 833d 8894 75bd 3a29 133d
00000040: 56df 2d3d 2088 5bbd 7b40 403e aadf 8abd
00000050: e09f 833e cbc0 3dbd 1909 c7be 381b 613d
00000060: 5c6e bfbf 729b df3e 1472 babe 0838 a63d
00000070: a701 c8be d9ed 4f3c 6331 6bbe c971 b2bb
00000080: 0322 1bbc cbb0 a3bc ff75 403d bf09 0bbc
00000090: a0c7 26ba 132e 05bd 948f 10bd 2539 cd3d
000000a0: 4d67 933e 3676 093e 92bc 81bf 43be 063e
000000b0: 583f 683e 3230 0dbe 2028 be3d f839 443d
000000c0: d073 363e 2f7b 61bd ada9 9a3d bd29 c8bd
000000d0: ff51 d7bc 78ee e3bd b597 95bd f3ac 5cbd
000000e0: 16f1 46bd 2448 3dbc de58 84bd 7bca 963c
000000f0: e4a5 153e b917 00be 25f1 f2bc 702d a93d
00000100: 8bd6 893d 5bac 5a3d a47e b9bb 4a49 42bb
00000110: d346 0b3d 8384 60bb 5007 95bc 62dd cb3c
00000120: 3594 3abe cbbb 9fbb 8162 993e d513 f23d
00000130: 996d 203e fc35 0cbf 0209 9cbf 98ca 7d3e
00000140: 11ac ee3d c547 9abd 5c5b 8b3e 6476 0bbe
00000150: 9cd0 9d3d 9531 423e 259c fabd 6673 303e
00000160: 8f7d 053e 1c6c 163e eb42 423e 6a77 67be
00000170: 4fb7 6bbd 87d3 6ebe ce5b dabd f5cc 3dbf
00000180: c601 a7bf 51f5 7ebe 5fbb 03be 52fa a0be
00000190: 609f 963c 4b8a 5fbc 4f54 0a3d f7ce c8ba
000001a0: b44e 9c3d a611 ccbc 697a 573e 27b5 89be
000001b0: 3d8a eb3d 5fcb 2a3e 4599 8abe 0fcc 543e
000001c0: acfd 8cbb f373 aabe 799f f9bf 3572 413c
000001d0: 6b43 e4bc d588 873d 208d cebd 25ef c03d
000001e0: d9d3 2b3e 360d a2bd f7bb 373d 6f8c c0bd
000001f0: 7188 99bd 86e7 2abd e4de a0bd 30a5 82bd
00000200: 013d eebc 551b a63d c191 2cbe 451d e23c
00000210: e09d f1bd 58f3 c6bc b584 aebd 2c65 b4bc
00000220: 2cb9 113e 936d 0cbe e539 8a3e ac76 c8bd
00000230: 7cb5 f63e 9cdc 6ebe 6be4 0ebf e39d ea3c
00000240: 0fed ccbe ce91 813d c9e8 01bf c2ee b13e
00000250: db80 afbe a4f1 703d 57dd 02bf 5f15 773e
00000260: 6a87 7c3c 7b5c ebbb cf5c 123d 452e ef3b
00000270: 8baf 6e3c ead1 6fbc 778d 2f3e a34c 843d
00000280: 2e62 ab3c cdd5 58bd eabd 1b3e ddef 5e3d
00000290: 316e 593e 88cb d2bc cb6d 693e 1f63 a0bd
000002a0: 0f18 9cbe 6607 163e a830 013e b51a 233d
000002b0: 601d 7f3d 0052 d3bc 0e7b 9bbe 315a 223e
000002c0: dd75 f7be 5df4 0c3e 053b d03e 1c5b a0be
000002d0: d563 e03e 6caf 85be 8ea5 b63e 9493 ebbe
000002e0: acd9 b13e 2b0d bebd 06be cc3e 07f2 38bc
000002f0: 6116 ab3d ce05 08bd 576b d73c 8bc6 3dbd
00000300: 5055 e7bb db6d 503e 9461 47be 5bcd 57bd
00000310: c7bf ca3c 9a51 2abd 090e 64bd ec4f 5ebd
00000320: fd73 e0bc 6632 84bd 6e62 63bd ade2 87be
00000330: 646b 583e 8510 843d 168c 1fbe bdf4 433d
00000340: a0ca a33b 16bc 633e 69be 30be a932 733f
00000350: c0fd a2bf 3b94 45be ed6f 0bbd 7c5c cabd
00000360: 23e9 983d d618 85bc 6545 333e 08a7 a3bd
00000370: 4502 a53e 7a3b 6abc 5fb5 2c3e 5e14 b43d
00000380: e3a7 a93b 0974 15be 6125 353e fec3 94bd
00000390: d76e 8d3d 1fc1 9f3f 7767 adbf 2dcc 3c3e
000003a0: 395c d3bc 7de4 c3bd c374 883d b150 2d3c
000003b0: d117 74be 2118 88bd 808b 52bd bdfb 8e3d
000003c0: 0b14 8cbe 2308 d03c c81c 74bd 79dc 11be
000003d0: bfb1 293e 8641 f5bd 6c25 3b3e 1b82 583f
000003e0: f04c b2bf 58bf 84bc 2e96 b13d 5c80 763e
000003f0: b03f 04be 5703 5d3e 8e3c 4bbe 838f 06be

value_dict.layer_1.0.bias f4 [64]
-0.055375546 0.024554543 -0.019115288 -0.08911567 0.06345574 0.09936562 -0.025755227 0.07348907
0.026873752 -0.09614956 0.09687077 -0.035765447 -0.01586989 0.044384353 0.056195993 0.07380402
-0.06978552 -0.12800008 0.12716025 -0.10044178 0.06366538 -0.08362771 -0.10769499 0.07546006
-0.05016181 -0.07156263 -0.03995344 0.05267466 -0.03820344 -0.15207897 -0.008985417 -0.38337496
-0.7489067 -0.004948188 0.039027777 0.048129138 0.027689746 0.102160625 -0.005199238 0.057537086
0.057969384 -0.5376836 0.04999699 0.04485793 0.053681903 -0.42166874 -0.040155515 -0.0531302
0.09285073 -0.05226044 -0.07521733 -0.05778826 -0.07679239 -0.04299821 0.6247642 -0.032146446
-0.018767955 0.0038029803 -0.0007364811 -0.09749874 0.09920616 0.11033482 -0.0021089357 0.059084944
00000000: 78d1 62bd 9c26 c93c aa97 9cbc 4782 b6bd
00000010: 15f5 813d 3480 cb3d a0fc d2bc 7081 963d
00000020: 5826 dc3c 0fea c4bd 2f64 c63d ca7e 12bd
00000030: 9201 82bc 5ecc 353d c52d 663d 9026 973d
00000040: b6eb 8ebd 7412 03be 4c36 023e 6cb4 cdbd
00000050: ff62 823d 0145 abbd 318f dcbd ce8a 9a3d
00000060: 7876 4dbd 6e8f 92bd 38a6 23bd 62c1 573d
00000070: 367b 1cbd 97ba 1bbe 9237 13bc b949 c4be
00000080: 59b8 3fbf 6924 a2bb 97db 1f3d 0f23 453d
00000090: 9bd5 e23c 9739 d13d 5f5e aabb 02ac 6b3d
000000a0: 4e71 6d3d a2a5 09bf a5c9 4c3d f3bc 373d
000000b0: 8ee1 5b3d f7e4 d7be 1c7a 24bd 0d9f 59bd
000000c0: 8628 be3d 0b0f 56bd 8b0b 9abd 62b3 6cbd
000000d0: 5445 9dbd e41e 30bd 8cf0 1f3f feab 03bd
000000e0: 41bf 99bc 6c3b 793b 6910 41ba 6bad c7bd
000000f0: 992c cb3d 39f7 e13d 1236 0abb 0e03 723d

value_dict.layer_1.1.weight f4 [64, 69]
0.005817303 0.041848965 -0.07943918 -0.079607695 -1.2365688 0.06611265 0.16440295 0.05414065
0.106115036 -0.034779374 0.030100657 -0.056882888 0.34783146 -0.014358458 -0.13062003 -0.12747823
-0.1063823 -0.20028439 -0.008203538 -0.008106594 -0.23439072 0.10330903 -1.2236763 -0.08917029
0.051760755 -0.018920368 0.21518339 0.06132775 -0.11903572 0.11706873 0.50756514 -0.11239842
0.099490434 -0.029768229 -0.050516993 0.020401035 0.2809878 0.004323043 0.3953139 -0.022727719
-1.2018559 0.063392706 -0.24263874 -0.06075115 -0.3572768 -0.074771516 -0.34018224 0.0048507117
-0.41197762 -0.081317745 0.015366817 -0.14788611 0.0804102 -0.037777904 -0.030592987 -0.0043737753
-0.025084373 -0.042758156 -0.049767625 -0.013573425 -0.008699523 -0.015669918 -0.021245021 -0.012901567
-0.017375195 0.1834668 -0.23849784 -0.045300204 -0.0377208 -0.026004469 -0.02636744 -0.090279885
0.023663828 0.1580463 -0.14473662 0.17692357 -0.27506593 -0.94049895 1.1259013 0.099653125
-0.28166232 0.019419556 0.13134591 -0.12352597 0.028038044 -0.18751323 0.06528578 0.21593419
-0.3221391 0.18978414 -0.25140396 -0.26338503 0.33706507 -0.26350608 0.39962056 -0.90416044
1.8910182 -0.24240485 0.342285 -0.15679125 0.38257635 0.15272759 -0.07285243 -0.19410323
0.07035776 -0.031077808 -0.0036000863 -0.046532393 0.21460758 0.13147554 -0.248564 0.071810216
-0.058415372 -0.6258699 1.2123559 -0.15241517 0.24070905 0.37747347 -0.40608108 -0.26415354
-0.0889064 -0.044372946 -0.01202239 0.011667487 0.0012624516 -0.0039967727 0.014111489 -0.005561688
0.008026114 0.14680155 -0.14147414 -0.21532504 0.20493285 -0.020437554 -0.014467573 -0.020411797
0.02081014 -0.06700975 -0.07727447 0.015222624 0.2250633 -0.14615625 0.30577597 -0.26533067
0.054748155 -0.07073332 0.09463615 -0.18581833 0.06874075 0.27406317 -0.17393729 -0.10351525
-0.24389875 -0.09433126 0.052459277 -0.17808452 -0.049805418 -0.042052284 0.038987126 0.3876096
0.0034423105 -0.29474568 0.006901287 -0.29339153 0.1245421 -0.079654016 -0.0010159379 -0.25225145
-0.16825496 -0.052175667 -0.014103088 -0.09359287 -0.014676923 -0.046188887 0.024351723 0.0031588376
-0.30845183 -0.059656806 0.35331658 -0.22184393 0.10185161 0.18915084 0.22322112 -0.027636217
0.2501747 0.000118667405 0.18201931 0.3183506 -0.13706991 0.035257977 0.09171444 0.06298792
0.046354797 0.034816276 0.044038866 0.058212124 -0.026549753 0.0048753433 -0.07296437 0.0048784357
-0.032095 0.029305685 -0.11889853 -0.0326562 -0.014447135 0.052455384 -0.215349 0.14624149
0.26381245 0.32675117 0.29806423 -0.0026281676 -0.4123998 -0.020257823 -0.2963891 -0.8105337
-1.4277238 -0.01784212 -0.13586016 -0.13615835 -0.2628647 0.039297055 0.04223318 -0.21266651
-0.11010777 0.00285759 -0.033060513 -0.09880823 -0.098654106 0.12534611 0.2509617 -0.060852017
0.05066164 -0.5076362 -0.91771185 0.2305241 0.32684353 -0.017566998 -0.15242223 0.10549601
0.027624369 -0.007465688 -0.10647017 -0.021465074 -0.004822957 -0.1902882 -0.23333591 -0.07643823
0.17423064 0.12838738 0.24535672 -0.5100504 -1.0193369 0.31270996 0.1750259 -0.15498036
00000000: 139f be3b d269 2b3d 02b1 a2bd 5c09 a3bd
00000010: e347 9ebf 1266 873d 3f59 283e 96c2 5d3d
00000020: d752 d93d d174 0ebd a795 f63c 08fe 68bd
00000030: f716 b23e bd3f 6bbc 42c1 05be a789 02be
00000040: f7de d9bd 5a17 4dbe 2268 06bc 85d1 04bc
00000050: 1f04 70be af93 d33d 6da1 9cbf ea9e b6bd
00000060: 1603 543d e3fe 9abc 0959 5c3e cf32 7b3d
00000070: 00c9 f3bd bbc1 ef3d caef 013f 2531 e6bd
00000080: a4c1 cb3d 80dc f3bc e8ea 4ebd 1220 a73c
00000090: a2dd 8f3e 50a8 8d3b 9566 ca3e 7b2f babc
000000a0: 6ad6 99bf 09d4 813d 4a76 78be 33d6 78bd
000000b0: fcec b6be cf21 99bd 5e2c aebe b8f2 9e3b
000000c0: bbee d2be eb89 a6bd 1ac5 7b3c 756f 17be
000000d0: 1aae a43d 01bd 1abd 259e fabc e351 8fbb
000000e0: be7d cdbc 2d23 2fbd 23d9 4bbd 1263 5ebc
000000f0: 7288 0ebc 335e 80bc 0a0a aebc 1861 53bc
00000100: 6d56 8ebc b9de 3b3e c738 74be b58c 39bd
00000110: 2081 1abd 5307 d5bc 8800 d8bc a9e4 b8bd
00000120: a5da c13c e4d6 213e d635 14be 742b 353e
00000130: 71d5 8cbe 8ac4 70bf 891d 903f f016 cc3d
00000140: 0b36 90be c315 9f3c 8b7f 063e 2ffb fcbd
00000150: 0ab0 e53c 7803 40be 8db4 853d da1d 5d3e
00000160: 6bef a4be c656 423e 05b8 80be 67da 86be
00000170: cb93 ac3e 45ea 86be 119b cc3e 0f77 67bf
00000180: e20c f23f fa38 78be fb3f af3e e38d 20be
00000190: 0ce1 c33e 9f64 1c3e a833 95bd ffc2 46be
000001a0: bb17 903d e396 febc 6def 6bbb c098 3ebd
000001b0: 17c2 5b3e 86a1 063e 9087 7ebe 3c11 933d
000001c0: f544 6fbd 0339 20bf 7a2e 9b3f b912 1cbe
000001d0: 6f7c 763e 3444 c13e dce9 cfbe 223f 87be
000001e0: 8f14 b6bd 68c0 35bd 8ff9 44bc fd28 3f3c
000001f0: d978 a53a 5cf7 82bb e033 673c d23e b6bb
00000200: f67f 033c 2553 163e 99de 10be 2b7e 5cbe
00000210: ebd9 513e a86c a7bc 6609 6dbc a436 a7bc
00000220: 077a aa3c 683c 89bd 1442 9ebd 5068 793c
00000230: fe76 663e fca9 15be ab8e 9c3e 6cd9 87be
00000240: 9a3f 603d a2dc 90bd 99d0 c13d 2947 3ebe
00000250: f3c7 8c3d 0252 8c3e 9e1c 32be ceff d3bd
00000260: 98c0 79be bf30 c1bd 8adf 563d ca5b 36be
00000270: c400 4cbd 043f 2cbd f7b0 1f3d c474 c63e
00000280: 6398 613b e8e8 96be 3124 e23b 6a37 96be
00000290: ee0f ff3d a521 a3bd 3829 85ba 1a27 81be
000002a0: 074b 2cbe 27b6 55bd a310 67bc 9ead bfbd
000002b0: 7a77 70bc 8f30 3dbd 447d c73c 8004 4f3b
000002c0: 66ed 9dbe b25a 74bd e9e5 b43e 0e2b 63be
000002d0: 9497 d03d c2b0 413e 1494 643e 5965 e2bc
000002e0: e616 803e 14dd f838 4563 3a3e dafe a23e
000002f0: 0e5c 0cbe ab6a 103d c8d4 bb3d d0ff 803d
00000300: 87de 3d3d 839b 0e3d 1962 343d d66f 6e3d
00000310: de7e d9bc 58c1 9f3b 586e 95bd 49db 9f3b
00000320: 0c76 03bd 7a12 f03c 1381 f3bd 82c2 05bd
00000330: adb3 6cbc 75db 563d 7384 5cbe 54c0 153e
00000340: 6d12 873e ee4b a73e e09b 983e 563d 2cbb
00000350: 1126 d3be bcf3 a5bc 50c0 97be 237f 4fbf
00000360: a7bf b6bf a329 92bc ed1e 0bbe 186d 0bbe
00000370: 3496 86be f3f5 203d b3fc 2c3d 40c5 59be
00000380: 2f80 e1bd 6846 3b3b 766a 07bd f85b cabd
00000390: 2a0b cabd bb5a 003e 0d7e 803e f73f 79bd
000003a0: 9482 4f3d 72f4 01bf 2aef 6abf 820e 6c3e
000003b0: 0958 a73e aae8 8fbc 9314 1cbe 4b0e d83d
000003c0: 804c e23c bba2 f4bb 080d dabd 86d7 afbc
000003d0: e509 9ebb e9da 42be 9cef 6ebe a68b 9cbd
000003e0: 8469 323e fb77 033e cb3e 7b3e aa92 02bf
000003f0: a279 82bf 851b a03e fd39 333e 2cb3 1ebe

value_dict.layer_1.1.bias f4 [64]
0.057655986 0.027157916 -0.12553632 -0.07028034 0.058985326 -0.0026419468 0.07870648 0.054203272
0.0721805 0.05934956 -0.0882222 -0.077921905 -0.07138361 -0.031410336 0.047898747 -0.020703327
-0.024439234 0.05051426 -0.06713781 -0.057520535 0.008184198 0.10590709 -0.07753842 -0.07592474
-0.05901648 0.078040235 -0.035709396 -0.05490183 -0.06174664 0.0755278 0.057267945 0.008002667
-0.08564385 -0.11433226 0.10452563 -0.07666128 -0.18981811 -0.25331515 -0.10315041 0.035909414
-0.0015937291 0.08429867 -0.08950657 0.021656396 -0.087677665 -0.18025693 0.02587764 0.09952136
-0.043535735 -0.09768945 0.034042094 0.06650868 -0.036986087 -0.02865259 0.027547782 -0.102603294
-0.14199266 -0.041514166 0.10680497 0.06457632 -0.013084169 0.06660084 0.010073688 0.003362906
00000000: af28 6c3d 477a de3c 988c 00be 24ef 8fbd
00000010: 999a 713d 8324 2dbb dd30 a13d 4004 5e3d
00000020: 5fd3 933d 8618 733d d7ad b4bd 8595 9fbd
00000030: 9231 92bd 20a8 00bd 7a31 443d 069a a9bc
00000040: ca34 c8bc 0ae8 4e3d 8c7f 89bd a79a 6bbd
00000050: 0417 063c d1e5 d83d 77cc 9ebd 6e7e 9bbd
00000060: 44bb 71bd 8fd3 9f3d 0444 12bd bee0 60bd
00000070: 0bea 7cbd 52ae 9a3d cb91 6a3d 9e1d 033c
00000080: 0b66 afbd 0827 eabd 8911 d63d 9700 9dbd
00000090: ae5f 42be 86b2 81be 8640 d3bd c015 133d
000000a0: ade4 d0ba c8a4 ac3d 384f b7bd c168 b13c
000000b0: 5990 b3bd 4695 38be 58fd d33c dbd1 cb3d
000000c0: 8752 32bd 6811 c8bd b96f 0b3d b435 883d
000000d0: b97e 17bd d6b8 eabc e3ab e13c ad21 d2bd
000000e0: 8666 11be c20a 2abd 90bc da3d 9740 843d
000000f0: fb5e 56bc 0566 883d 1c0c 253c 3364 5c3b

value_dict.layer_1.2.weight f4 [64, 69]
-0.030234484 -0.06353964 -0.23312351 -0.2403768 0.16645238 0.15509188 -0.9962276 -1.4306728
0.020769253 0.246338 0.43201333 0.35791138 -0.04844805 -0.025327941 -0.09666819 0.0867792
-0.039768845 0.14590918 0.15219767 0.30703488 0.21987584 0.20040283 -0.24366747 -0.41347793
-0.82877684 -1.5401105 -0.0054618125 -0.4102864 -0.32719952 -0.48755702 -0.095527336 -0.44754812
-0.047297228 -0.03612734 -0.014223481 0.06680333 -0.0057416563 0.0005249601 -0.10166572 -0.0310853
0.10403769 0.22524951 -0.4562725 -1.1740761 0.00847462 0.14662571 0.016106622 0.044243902
0.12503263 0.32084996 -0.023769028 -0.06866198 0.116039395 0.036919694 0.018716536 0.043249093
0.06922031 0.015217706 0.025566582 0.030617265 0.13657726 -0.09357801 0.24478205 -0.18908082
-0.0567548 -0.10082553 -0.08022609 -0.043718524 -0.07413626 -0.007678917 -0.22441602 -0.1621191
-0.102855295 0.13860527 0.25747997 0.099831775 0.23116186 -0.6832812 1.7199914 0.1659492
0.110296994 0.09916898 0.2798474 -0.16650012 -0.09223269 0.021389237 0.022309424 0.15343854
-0.17631057 0.10288387 0.09266387 -0.10191798 0.11306138 -0.25355178 -0.089477405 -0.81001985
1.8875096 -0.1399899 -0.17100325 -0.4974254 0.19032994 0.10077538 -0.0079791 -0.04561631
-0.039241847 0.024690324 -0.023475815 -0.068186484 0.12485631 0.022599258 -0.24791548 0.16315287
-0.17014448 -0.80050814 1.3076499 -0.10608096 -0.2142808 0.3189815 -0.12283645 -0.10355973
-0.0934396 -0.12341942 0.04523353 0.076788925 0.020783583 0.03795891 -0.12024165 0.20618932
-0.045698985 0.030032141 -0.16655879 -0.1749489 0.036442652 0.022043163 0.0069308532 0.019830866
0.011755236 0.026278442 0.18125902 0.00014457316 0.038159467 0.004131528 -1.8357438 -0.08833505
-0.2562431 0.054115426 -0.033751726 0.066557355 -0.17351867 0.043103464 0.07126287 0.22806413
-0.089669906 -0.014017305 -0.29986966 0.0055629327 -0.0016828461 0.0032462594 -0.18203044 0.04590319
-1.4797572 -0.20116587 0.20663022 -0.07140929 0.14895537 0.14509471 0.29838413 -0.012584236
0.3012896 0.25572592 0.045594968 -0.07209971 0.14207609 0.0028409283 0.17852321 0.06767274
0.1459022 -0.028439444 -1.3583539 -0.2582717 0.008070034 0.10715766 -0.084144115 -0.20387676
-0.20195389 -0.029937943 -0.085181125 0.0736449 0.0012917313 0.026101774 -0.09004948 0.053233046
-0.03360991 0.13449866 -0.15089783 -0.013349372 -0.016172051 0.016292976 0.002005622 0.023239812
-0.0014687005 -0.017975817 -0.024861151 0.09937223 -0.15597463 0.035656504 -0.062268827 -0.09783817
0.06267712 -0.13605681 0.05714006 -0.13514571 -0.20521903 0.3917135 0.219172 -0.10404605
-0.26942334 -0.014178056 -0.05581965 -0.04425282 -0.0128377 -0.025243882 -0.07311734 -0.07495716
-0.09412222 0.033454828 0.043123033 -0.0177476 -0.0025008968 -0.19712542 -0.20339054 0.18193506
0.31770444 0.090905234 -0.33691898 0.07435292 0.12836197 -0.099630296 -0.08257693 -0.13081072
-0.00832187 -0.18689536 0.057400446 -0.050738968 -0.07955823 0.14958447 0.11954538 -0.2389835
0.15580013 0.33426267 0.4889096 -0.1576145 0.0703473 -0.11767109 -0.05614014 -0.11740605
00000000: 4fae f7bc 1221 82bd eeb7 6ebe 5625 76be
00000010: 7e72 2a3e 68d0 1e3e c608 7fbf 4920 b7bf
00000020: 4824 aa3c 0740 7c3e da30 dd3e 2940 b73e
00000030: 7671 46bd 8b7c cfbc f9f9 c5bd 4bb9 b13d
00000040: a8e4 22bd 3769 153e b5d9 1b3e ad33 9d3e
00000050: 2227 613e 6636 4d3e f783 79be 61b3 d3be
00000060: b82a 54bf 5722 c5bf 01f9 b2bb 0f11 d2be
00000070: b286 a7be 13a1 f9be d6a3 c3bd 0725 e5be
00000080: bdba 41bd 43fa 13bd 9a09 69bc 2fd0 883d
00000090: 8124 bcbb 7a9d 093a 1e36 d0bd 99a6 febc
000000a0: b611 d53d cfa7 663e 8d9c e9be 2048 96bf
000000b0: 22d9 0a3c 0d25 163e 09f2 833c 1839 353d
000000c0: 8e08 003e 7246 a43e 44b7 c2bc a79e 8cbd
000000d0: 10a6 ed3d 1b39 173d 6c53 993c f625 313d
000000e0: 61c3 8d3d af53 793c 0271 d13c 0fd1 fa3c
000000f0: e9da 0b3e d4a5 bfbd 25a8 7a3e 679e 41be
00000100: b977 68bd 9e7d cebd 944d a4bd 3212 33bd
00000110: c0d4 97bd 6d9f fbbb 50cd 65be 8d02 26be
00000120: cca5 d2bd 8aee 0d3e 6ad4 833e 9a74 cc3d
00000130: b2b5 6c3e 84eb 2ebf ae28 dc3f 96ee 293e
00000140: 64e3 e13d 1b19 cb3d 2948 8f3e 027f 2abe
00000150: 7ee4 bcbd 7b38 af3c 41c2 b63c fe1e 1d3e
00000160: c28a 34be c7b4 d23d 8ec6 bd3d 60ba d0bd
00000170: ba8c e73d 8ad1 81be ee3f b7bd 765d 4fbf
00000180: ea99 f13f 8359 0fbe 7a1b 2fbe 8bae febe
00000190: dae5 423e 5363 ce3d c5ba 02bc 2bd8 3abd
000001a0: 0fbc 20bd 5d43 ca3c 5a50 c0bc 5ba5 8bbd
000001b0: aab4 ff3d 1422 b93c 8edd 7dbe 8c11 273e
000001c0: 5b3a 2ebe 1aee 4cbf 1261 a73f f940 d9bd
000001d0: 6d6c 5bbe 8b51 a33e ad91 fbbd 2017 d4bd
000001e0: 435d bfbd 52c3 fcbd cb46 393d 8343 9d3d
000001f0: 5542 aa3c cd7a 1b3d 4141 f6bd 4b23 533e
00000200: dc2e 3bbd f705 f63c 638e 2abe ce25 33be
00000210: e444 153d dd93 b43c 361c e33b 5774 a23c
00000220: 0999 403c e345 d73c f79b 393e 9098 1739
00000230: 1a4d 1c3d c561 873b a7f9 eabf 02e9 b4bd
00000240: 4c32 83be 23a8 5d3d 403f 0abd 394f 883d
00000250: e1ae 31be 428d 303d 45f2 913d a589 693e
00000260: dba4 b7bd d7a8 65bc 8488 99be 4349 b63b
00000270: f292 dcba 32bf 543b 3066 3abe fc04 3c3d
00000280: af68 bdbf 6dfe 4dbe df96 533e 093f 92bd
00000290: c287 183e b593 143e cec5 983e 1d2e 4ebc
000002a0: a142 9a3e 82ee 823e cac1 3a3d 03a9 93bd
000002b0: 657c 113e de2e 3a3b cace 363e 0198 8a3d
000002c0: 6367 153e d6f9 e8bc 8ade adbf 303c 84be
000002d0: 2d38 043c 7a75 db3d c053 acbd 12c5 50be
000002e0: 00cd 4ebe 6b40 f5bc 7173 aebd 23d3 963d
000002f0: 4f4f a93a 63d3 d53c dd6b b8bd e50a 5a3d
00000300: 8caa 09bd 04ba 093e f684 1abe 53b7 5abc
00000310: 407b 84bc d978 853c c170 033b 6b61 be3c
00000320: 6981 c0ba 0542 93bc 9da9 cbbc ab83 cb3d
00000330: d0b7 1fbe 8e0c 123d 990d 7fbd 615f c8bd
00000340: dd5c 803d 7a52 0bbe b20b 6a3d a363 0abe
00000350: f024 52be ac8e c83e a06e 603e 1816 d5bd
00000360: dbf1 89be 144b 68bc 25a3 64bd 7242 35bd
00000370: 3755 52bc 42cc cebc 8bbe 95bd 2483 99bd
00000380: 27c3 c0bd ee07 093d c7a1 303d 6a63 91bc
00000390: 16e6 23bb 3fdb 49be 9c45 50be 2f4d 3a3e
000003a0: 28aa a23e 862c ba3d a580 acbe 5846 983d
000003b0: 5271 033e f80a ccbd 181e a9bd 3ff3 05be
000003c0: 7458 08bc 7f61 3fbe bb1c 6b3d aad3 4fbd
000003d0: 6def a2bd ac2c 193e 35d4 f43d 17b8 74be
000003e0: 128a 1f3e 7a24 ab3e 5c52 fa3e b265 21be
000003f0: 3f12 903d 8afd f0bd 34f3 65bd 9572 f0bd

value_dict.layer_1.2.bias f4 [64]
0.020288138 -0.04506696 0.030949978 0.74662083 -0.026594529 -0.038541537 0.07867661 -0.042079333
-0.061174184 0.056668308 -0.1286071 0.012883649 -0.07694824 -0.0063894647 -0.0026695398 0.08261065
-0.07423439 0.04542973 -0.013649015 -0.032742247 0.06041287 -0.042335626 0.5805864 0.07117752
-0.1095186 -0.028226607 0.082036264 -0.092325464 -0.084647946 -0.021605525 -0.060007617 -0.07044438
-0.007900079 -0.08369916 -0.06756508 -0.045480803 0.03012764 0.03882296 0.055743117 -0.11338552
-0.01802492 -0.1453166 0.026214758 0.07254933 -0.013263568 -0.013451201 0.0046623093 -0.012497671
-0.03274616 0.023639522 0.053811245 0.033641577 0.04004102 0.03266688 0.023617685 0.023104575
-0.0032679325 0.011850598 0.03308833 -0.061310466 -0.06652373 -0.019728256 -0.020982882 -0.027684746
00000000: 4f33 a63c 2298 38bd cf8a fd3c 8b22 3f3f
00000010: c5dc d9bc bbdd 1dbd 3421 a13d 615b 2cbd
00000020: c891 7abd 071d 683d 94b1 03be f115 533c
00000030: 0a97 9dbd b75e d1bb 72f3 2ebb c62f a93d
00000040: 3308 98bd 8614 3a3d 1ea0 5fbc bc1c 06bd
00000050: 7c73 773d 1f68 2dbd 4fa1 143f 85c5 913d
00000060: 4a4b e0bd 7c3b e7bc a102 a83d 2215 bdbd
00000070: e75b adbd 12fe b0bc 8cca 75bd 2545 90bd
00000080: 556f 01bc 776a abbd 905f 8abd 144a 3abd
00000090: 3ece f63c d304 1f3d e552 643d ab36 e8bd
000000a0: ffa8 93bc e0cd 14be 55c0 d63c be94 943d
000000b0: 704f 59bc 6d62 5cbc 49c6 983b 08c3 4cbc
000000c0: d620 06bd aca7 c13c 2e69 5c3d c0cb 093d
000000d0: 0d02 243d b5cd 053d e079 c13c ce45 bd3c
000000e0: cf2a 56bb 0329 423c a187 073d af20 7bbd
000000f0: 983d 88bd 279d a1bc 4be4 abbc 1fcb e2bc

value_dict.layer_2.0.weight f4 [64, 64]
0.033790704 -0.2229594 -0.29741782 -0.12961864 -0.2525932 -0.18226402 -0.13229068 -0.13547564
0.25586328 0.10884591 0.08962881 -0.30136737 0.33597934 0.20612802 -0.07117565 -0.03650696
0.2586434 -0.265974 -0.42384875 0.06323701 0.029059013 -0.23745543 -0.30436185 0.101177946
0.32013205 0.09632996 -0.08272091 0.27043492 0.09868051 0.1400124 -0.03561444 -0.285649
-0.1335453 -0.115759425 0.17574458 -0.031717353 0.08407533 0.42949492 -0.3119667 -0.25833327
0.115196645 0.036794834 0.07275168 -0.24696378 0.1548879 0.07888286 -0.0073832995 0.12068371
0.17733471 0.3402026 0.17922497 -0.06440867 0.007998586 0.40056795 0.030224033 0.29299325
0.2699805 0.2479188 -0.019276282 -0.14302969 0.30320245 0.29203174 0.24081907 0.36010644
-0.007366624 -0.020002153 0.06997253 0.0010368753 -0.045162357 -0.012371289 0.10216322 -0.26873395
0.02305365 -0.112336434 0.0026261702 0.10544406 -0.19374955 -0.25019392 -0.012381117 -0.1112054
-0.05654457 -0.32782045 -0.13423766 -0.01823775 -0.19000053 -0.1413946 -0.18010019 0.025998535
0.02874011 -0.0013989483 -0.2493688 -0.1338753 -0.17970411 -0.10107149 -0.15801013 -0.04192043
-0.14345345 -0.00011811005 -0.17163005 -0.0684209 -0.35139677 -0.16252609 -0.124029115 -0.257542
0.022037014 0.097230725 -0.20563897 0.029455924 -0.13252741 -0.053085763 -0.06344826 -0.3033095
0.0775724 -0.11216745 -0.11862415 0.0720917 -0.09377633 -0.026235806 -0.048750065 -0.106271334
-0.17279166 -0.16039611 0.11727717 -0.07780477 -0.00031728484 -0.13417222 -0.05347083 -0.01952076
-0.102345295 -0.08756796 -0.1198772 -0.0504632 -0.096201405 -0.09193876 0.13630323 -0.12422083
-0.019744385 -0.0165587 0.029405441 -0.044323705 -0.08351013 -0.21135855 -0.09440683 -0.15359198
-0.031363897 -0.097543776 -0.030866552 0.10218863 0.04720512 -0.2033593 -0.074144945 -0.05285487
-0.14473248 0.028606962 -0.17675431 0.009172534 -0.06629916 -0.14976755 -0.1178336 -0.017017772
0.08301441 -0.17920427 -0.117336825 -0.029127501 -0.12684429 -0.15976068 -0.16302091 -0.1734646
-0.06972187 0.13991636 -0.20271237 0.11224613 -0.14294085 0.08798398 0.059962805 -0.012155626
-0.12325134 -0.09655658 -0.13550642 -0.084284715 -0.063301645 0.040298004 -0.22458237 0.04895706
-0.058756053 0.049467165 -0.048561774 -0.0064499006 -0.08785852 -0.017184544 -0.33228597 -0.07287424
-0.26869392 -0.19709162 0.020690594 -0.17534468 -0.038506713 -0.029907301 -0.15575589 0.14392155
-0.110980965 -0.14806342 -0.019707525 -0.21875566 0.037423383 -0.28815565 -0.015153328 -0.16872333
-0.03395011 0.080869734 0.011503736 -0.21095721 -0.1407648 0.10484024 0.008272735 -0.026702149
0.04982546 -0.04508198 -0.08340637 -0.11335446 -0.07285443 -0.033498753 0.0023921356 -0.20305787
-0.09422614 -0.1874916 -0.25144395 -0.1512791 -0.16594806 -0.12240632 0.0054675885 -0.16549377
0.0018526689 0.0041213767 -0.0844818 0.05461938 -0.10142666 -0.05461991 -0.18903047 -0.040480677
-0.14847618 -0.05868575 -0.19425386 -0.021319358 -0.07395187 0.14275256 -0.00386857 -0.0065824063
0.016373886 -0.09383786 -0.1329515 -0.013393368 0.050786007 0.14388762 -0.17562011 -0.06937838
00000000: 1f68 0a3d 784f 64be 2647 98be c0ba 04be
00000010: e553 81be 6ba3 3abe 3577 07be 20ba 0abe
00000020: 8300 833e 9bea de3d 4f8f b73d d34c 9abe
00000030: 7c05 ac3e 3913 533e 8ac4 91bd 5288 15bd
00000040: e86c 843e be2d 88be b402 d9be 6882 813d
00000050: 2b0d ee3c 8427 73be 51d5 9bbe 6236 cf3d
00000060: 59e8 a33e a448 c53d 9569 a9bd 7276 8a3e
00000070: 0219 ca3d 695f 0f3e 72e0 11bd 9640 92be
00000080: 19c0 08be 4713 edbd 63f6 333e 0eea 01bd
00000090: b02f ac3d c2e6 db3e 19ba 9fbe 4244 84be
000000a0: 38ec eb3d 2eb6 163d d5fe 943d 13e4 7cbe
000000b0: ef9a 1e3e 568d a13d 9bef f1bb 0529 f73d
000000c0: 3b97 353e 092f ae3e c086 373e b1e8 83bd
000000d0: 800c 033c 3e17 cd3e 6498 f73c 3603 963e
000000e0: e23a 8a3e 6dde 7d3e 4be9 9dbc 6076 12be
000000f0: 5a3d 9b3e 2f85 953e 4699 763e df5f b83e
00000100: b963 f1bb 8edb a3bc c24d 8f3d c3e7 873a
00000110: 2afc 38bd f2b0 4abc f33a d13d 7f97 89be
00000120: 02db bc3c a510 e6bd d31b 2c3b 0ef3 d73d
00000130: 4866 46be 6b19 80be 2bda 4abc a8bf e3bd
00000140: 479b 67bd 15d8 a7be 9975 09be 5567 95bc
00000150: 808f 42be bfc9 10be 2f6c 38be e1fa d43c
00000160: 6170 eb3c ea5c b7ba 895a 7fbe 9b16 09be
00000170: 5b04 38be 92fe cebd 68cd 21be c2b4 2bbd
00000180: 76e5 12be dab1 f7b8 cabf 2fbe 4220 8cbd
00000190: 47ea b3be 3d6d 26be fa02 febd 8cdc 83be
000001a0: f886 b43c e720 c73d 0693 52be 8d4d f13c
000001b0: 44b5 07be 7570 59bd 29f1 81bd 624b 9bbe
000001c0: 47de 9e3d 0cb8 e5bd 38f1 f2bd d0a4 933d
000001d0: ce0d c0bd 79ec d6bc 26ae 47bd c9a4 d9bd
000001e0: 4cf0 30be e13e 24be 032f f03d 1b58 9fbd
000001f0: 4059 a6b9 7164 09be 3b04 5bbd 00ea 9fbc
00000200: 699a d1bd d556 b3bd 2d82 f5bd 80b2 4ebd
00000210: 3e05 c5bd 634a bcbd 1393 0b3e 7e67 febd
00000220: fabe a1bc 1ca6 87bc aee3 f03c c68c 35bd
00000230: 5c07 abbd 606e 58be 5e58 c1bd 3747 1dbe
00000240: 6e77 00bd 08c5 c7bd dadb fcbc 4648 d13d
00000250: 285a 413d 6c3d 50be 4ed9 97bd 597e 58bd
00000260: c034 14be 2659 ea3c 15ff 34be 6548 163c
00000270: dbc7 87bd aa5c 19be be52 f1bd db68 8bbc
00000280: 7603 aa3d 5381 37be 4a4e f0bd cc9c eebc
00000290: 78e3 01be 4e98 23be f4ee 26be b4a0 31be
000002a0: 57ca 8ebd 3c46 0f3e d593 4fbe 4de1 e53d
000002b0: 165f 12be f230 b43d 8f9b 753d 6428 47bc
000002c0: 336b fcbd 75bf c5bd 32c2 0abe 779d acbd
000002d0: 4ba4 81bd 850f 253d ecf8 65be 3387 483d
000002e0: 30aa 70bd 159e 4a3d b6e8 46bd b059 d3bb
000002f0: 2bef b3bd 9ac6 8cbc 6321 aabe 173f 95bd
00000300: 4092 89be 63d2 49be 527f a93c 8e8d 33be
00000310: 37b9 1dbd 2800 f5bc 797e 1fbe 2c60 133e
00000320: fd49 e3bd f09d 17be ad71 a1bc 7c01 60be
00000330: 4349 193d 2389 93be aa45 78bc cfc5 2cbe
00000340: 450f 0bbd 089f a53d 2a7a 3c3c 2b05 58be
00000350: a624 10be 7bb6 d63d 5e8a 073c 77be dabc
00000360: c815 4c3d e2a7 38bd f5d0 aabd 6226 e8bd
00000370: b434 95bd fd35 09bd 60c5 1c3b 67ee 4fbe
00000380: a2f9 c0bd ccfd 3fbe 43bd 80be e9e8 1abe
00000390: 4aee 29be 2ab0 fabd 7529 b33b 3377 29be
000003a0: 41d5 f23a 9d0c 873b cb04 adbd 92b8 5f3d
000003b0: c8b8 cfbd 20b9 5fbd 3491 41be 11cf 25bd
000003c0: 240a 18be 7860 70bd 7cea 46be efa5 aebc
000003d0: 1474 97bd ba2d 123e d687 7dbb 3ab1 d7bb
000003e0: 8722 863c 102e c0bd 7024 08be db6f 5bbc
000003f0: fd04 503d 4757 133e c2d5 33be 4116 8ebd

value_dict.layer_2.0.bias f4 [64]
0.67394984 -0.1964114 -0.118323445 -0.17698123 -0.009844297 0.20584539 0.62267953 -0.14423499
0.30879247 0.0008902478 0.60137373 0.613786 1.6231266 0.39187166 0.27302667 -0.14484973
0.5496895 0.4688564 -0.05006098 -0.032309003 0.5023357 -0.10114387 -0.038431924 -0.20084418
0.73369133 -0.14669128 0.6347775 0.5427326 -0.19595365 -0.19748975 0.6213598 0.6199133
-0.015505375 0.69585556 0.44623145 -0.0053533628 0.519074 0.24561742 0.30515414 -0.16931374
-0.07721225 -0.20577388 0.6321136 0.4537594 0.4489373 -0.09738549 -0.0994194 -0.15099779
0.27953464 -0.44108802 -0.07608941 -0.013363547 -0.07765538 -0.017459666 -0.116709985 -0.39329514
1.4031019 0.261139 0.53551 -0.3272141 0.29004502 -0.0070665195 0.3390225 0.6227084
00000000: fa87 2c3f 1220 49be 9053 f2bd 913a 35be
00000010: f949 21bc 22c9 523e ed67 1f3f 56b2 13be
00000020: 0c1a 9e3e 855f 693a a1f3 193f 1421 1d3f
00000030: 9dc2 cf3f 67a3 c83e 27ca 8b3e 7d53 14be
00000040: 73b8 0c3f f20d f03e be0c 4dbd 7256 04bd
00000050: 1399 003f 8424 cfbd cb6a 1dbd 19aa 4dbe
00000060: 32d3 3b3f 3d36 16be c780 223f 86f0 0a3f
00000070: 13a8 48be c13a 4abe 7011 1f3f a3b2 1e3f
00000080: 420a 7ebc 9723 323f 7378 e43e 436b afbb
00000090: 09e2 043f 2283 7b3e 2a3d 9c3e 9560 2dbe
000000a0: 7521 9ebd 63b6 52be 32d2 213f 2753 e83e
000000b0: 1cdb e53e 0b72 c7bd 669c cbbd 2a9f 1abe
000000c0: 2a1f 8f3e 4ad6 e1be c4d4 9bbd c7f2 5abc
000000d0: c909 9fbd 9307 8fbc a505 efbd fb5d c9be
000000e0: d898 b33f 03b4 853e 2f17 093f 9b88 a7be
000000f0: c880 943e 438e e7bb 5b94 ad3e d169 1f3f

value_dict.layer_2.1.weight f4 [64, 64]
-0.0033731495 -0.123325236 -0.15575695 -0.013752355 -0.09315855 -0.08744575 0.039564338 -0.18264733
-0.1197707 -0.14418872 -0.09188419 -0.28518882 0.11555277 0.07309759 -0.19389738 -0.11772381
-0.056599364 -0.17532657 -0.15693976 -0.16717924 -0.07144084 -0.20593674 -0.16987497 -0.32421944
-0.034546375 -0.068638526 -0.036828186 -0.07487351 -0.044700004 -0.010657924 -0.26825535 -0.16506085
-0.27268866 0.1651016 -0.04666573 -0.09285665 -0.16210139 -0.13672765 0.07422418 -0.060526103
0.20721696 -0.08947709 -0.17254922 -0.048214108 -0.0391987 -0.048538465 0.054952994 -0.115820095
-0.108717375 0.0061111287 -0.11211691 -0.13100629 -0.19575715 -0.107340895 -0.1856077 -0.021523494
-0.10540766 0.072239816 -0.0065632863 -0.18791245 -0.19550665 -0.027140988 -0.016327262 -0.19146475
-0.072987325 -0.005541008 -0.100175545 0.0004708468 -0.079477645 0.028325943 -0.40322474 0.7199895
-0.17358316 0.0036998247 -0.22539522 -0.7114231 -0.1152117 0.6431614 -0.04077322 -0.24220099
0.07448684 -0.03004173 0.026348656 -0.09391998 0.0903778 0.36933172 0.02201317 -0.003842793
0.048952587 -0.8018231 0.028769905 -0.81981176 0.011918759 -0.7563008 0.11066273 -0.7268928
-0.021920245 -0.18790056 -0.042001087 -0.14145648 -0.20123942 -0.14948091 0.045784395 0.6671164
-0.014103746 -0.01620565 0.0743436 -0.007070628 -0.016085988 -0.19324295 0.008964353 -0.03931476
0.04590381 0.7941219 0.055294503 0.54215527 0.8282766 -0.1997095 0.010139347 0.7265038
-0.115697004 0.010754371 0.7599486 -0.021389235 0.014590871 -0.6595549 0.005983234 0.012564529
-0.038622715 -0.15869832 0.13149486 -0.11932919 -0.65113306 0.26414955 0.0073141647 -0.015240317
-0.3829991 0.71475357 -0.1444048 -0.18244499 -2.697697 0.022947181 -0.2714354 -0.10167208
-0.6589154 -0.01771616 0.20551457 0.37523612 -0.2461824 0.048345163 -0.25046697 0.31623778
-1.4913573 0.020585978 0.14884835 -0.07162934 -0.28538284 -0.080089 0.18772225 0.027879361
0.15168276 -0.25789717 0.046110604 -1.1828896 -0.08996441 0.10454926 0.12036432 0.08802509
-0.07529406 -0.56489193 -0.07145859 -0.4249165 0.21751398 -1.1220411 0.7916978 0.048739433
-1.513123 0.016834443 -0.47557476 -0.20843624 0.1421423 -0.118954435 0.16786803 -0.14573082
-0.8841312 0.10923379 0.04291695 0.19075085 0.16264328 -0.38329202 -1.0148143 -0.119207844
-0.04774453 0.222554 -0.14999892 0.034084495 0.33016413 0.09399074 0.35720813 0.13387194
0.018597677 0.08814407 -0.1516035 -0.056776673 -0.057895146 0.12943617 0.19313134 -0.33467233
0.09194118 0.2594079 0.025879353 0.11788024 -0.25768477 0.057345174 -0.07511774 0.10153309
0.21897635 0.23035166 0.3013346 -0.31637487 -0.08790677 -0.14202067 0.045802165 0.13151541
0.20611577 -0.10149805 0.4923238 -0.31656805 -0.05577742 -0.07853076 -0.3080283 0.017870225
-0.12765141 0.08713743 -0.1196584 0.2831411 0.0091549875 0.041291066 -0.02523929 0.0013080701
0.24434799 0.2156122 0.28961197 0.163872 0.11088823 0.07831193 -0.11351071 0.0081659155
-0.05962689 -0.23184289 -0.037039727 0.05035238 0.06586248 0.09321158 -0.043198727 -0.15290818
00000000: 0f10 5dbb f191 fcbd c07e 1fbe 8f51 61bc
00000010: e9c9 bebd c216 b3bd 370e 223d e707 3bbe
00000020: 574a f5bd 35a6 13be c72d bcbd 4504 92be
00000030: eea6 ec3d 30b4 953d 098d 46be 2e19 f1bd
00000040: bcd4 67bd cf88 33be d1b4 20be 0931 2bbe
00000050: 934f 92bd 15e1 52be b4f3 2dbe 1700 a6be
00000060: 8080 0dbd 5b92 8cbd 27d9 16bd 4857 99bd
00000070: 5a17 37bd 939e 2ebc c458 89be b605 29be
00000080: d99d 8bbe 6510 293e 9124 3fbd a12b bebd
00000090: e8fd 25be 5502 0cbe d902 983d 38ea 77bd
000000a0: af30 543e c43f b7bd beb0 30be 287c 45bd
000000b0: d18e 20bd 45d0 46bd 6416 613d 1633 edbd
000000c0: 37a7 debd dd3f c83b 8d9d e5bd 8326 06be
000000d0: 9074 48be 8bd5 dbbd f20f 3ebe 0a52 b0bc
000000e0: f9df d7bd 78f2 933d d610 d7bb 1f6c 40be
000000f0: e532 48be c756 debc c0c0 85bc 560f 44be
00000100: 617a 95bd 5891 b5bb d628 cdbd fddb f639
00000110: 2dc5 a2bd cf0b e83c 7973 cebe 3b51 383f
00000120: c9bf 31be c278 723b 01ce 66be d31f 36bf
00000130: 1df4 ebbd 3aa6 243f d201 27bd 8903 78be
00000140: 8e8c 983d 131a f6bc 23d9 d73c 1e59 c0bd
00000150: ff17 b93d 0c19 bd3e f754 b43c 5ed7 7bbb
00000160: 8282 483d 4744 4dbf ddae eb3c 2fdf 51bf
00000170: e646 433c ee9c 41bf 24a3 e23d a615 3abf
00000180: 1692 b3bc 0169 40be 5509 2cbd f8d9 10be
00000190: b511 4ebe 8611 19be 6b88 3b3d 24c8 2a3f
000001a0: 6613 67bc b6c1 84bc 7541 983d bab0 e7bb
000001b0: c3c6 83bc 7be1 45be 39df 123c 8408 21bd
000001c0: a205 3c3d 934b 4b3f 7d7c 623d b0ca 0a3f
000001d0: ef09 543f a680 4cbe 811f 263c 27fc 393f
000001e0: 8df2 ecbd 1a33 303c fe8b 423f 7a38 afbc
000001f0: 8c0e 6f3c 97d8 28bf 010f c43b 74db 4d3c
00000200: da32 1ebd d081 22be 97a6 063e dd62 f4bd
00000210: a8b0 26bf 9c3e 873e a9ab ef3b 86b2 79bc
00000220: 7518 c4be 17fa 363f dade 13be dcd2 3abe
00000230: 11a7 2cc0 bafb bb3c 95f9 8abe 7439 d0bd
00000240: aeae 28bf 7b21 91bc 6972 523e f31e c03e
00000250: 3d17 7cbe 9405 463d 353d 80be ebe9 a13e
00000260: cce4 bebf eda3 a83c b46b 183e 67b2 92bd
00000270: b31d 92be b405 a4bd 433a 403e 4263 e43c
00000280: ba52 1b3e 190b 84be 79de 3c3d ed68 97bf
00000290: 433f b8bd ec1d d63d 9281 f63d 8046 b43d
000002a0: c633 9abd c29c 10bf e258 92bd a88e d9be
000002b0: fcbb 5e3e 0b9f 8fbf b5ac 4a3f 00a3 473d
000002c0: 04ae c1bf 63e8 893c 897e f3be 4f70 55be
000002d0: c08d 113e 629e f3bd 99e5 2b3e 763a 15be
000002e0: 6c56 62bf f7b5 df3d afc9 2f3d 3154 433e
000002f0: f68b 263e da3e c4be 6fe5 81bf 3e23 f4bd
00000300: c58f 43bd 32e5 633e 5199 19be 2f9c 0b3d
00000310: 460b a93e 387e c03d fce3 b63e ba15 093e
00000320: 285a 983c e184 b43d f33d 1bbe a88e 68bd
00000330: 7623 6dbd ea8a 043e 39c4 453e 2c5a abbe
00000340: a84b bc3d 1dd1 843e f000 d43c 326b f13d
00000350: 42ef 83be c6e2 6a3d 54d7 99bd 95f0 cf3d
00000360: 563b 603e 4ee1 6b3e 8748 9a3e e3fb a1be
00000370: 7708 b4bd de6d 11be 0d9b 3b3d faab 063e
00000380: 0310 533e 36de cfbd dd11 fc3e 3515 a2be
00000390: dd76 64bd bcd4 a0bd e3b5 9dbe 9464 923c
000003a0: 0db7 02be 1c75 b23d 770f f5bd dff7 903e
000003b0: cdfe 153c d220 293d a1c2 cebc 8d73 ab3a
000003c0: 5c36 7a3e 72c9 5c3e 0548 943e 10ce 273e
000003d0: 5e19 e33d 0162 a03d 4e78 e8bd 55ca 053c
000003e0: 533b 74bd 3968 6dbe f8b6 17bd 4c3e 4e3d
000003f0: e8e2 863d b6e5 be3d 26f1 30bd f693 1cbe

value_dict.layer_2.1.bias f4 [64]
-0.20337413 -0.46290153 0.25197273 0.80520964 -0.32167777 -0.09823121 0.026332293 -0.037276447
0.75532323 2.0562272 0.51419234 -0.15751585 0.28460655 0.74439746 0.97013974 0.77627975
2.7194 -0.39803404 -0.19002143 0.95857316 0.6542138 -0.15121979 0.97929406 0.48883
-0.13078092 0.26990256 0.70240426 -0.21208727 0.21757244 0.014974834 -0.057997126 3.4075785
0.21006307 -0.7402078 -0.040499035 0.83481485 -0.20316362 -0.042440277 -0.04027585 -0.011608431
-0.43778512 -0.19539084 0.95446604 -0.12501255 0.5172133 -0.19117168 -0.059695613 -0.388196
0.14352255 0.02801121 0.35941738 0.61757946 0.57753664 0.45421368 0.40354532 -0.44431812
-0.15352425 0.8829681 0.44326133 0.83270234 0.38320652 0.66432905 0.9008332 0.5441527
00000000: 4f41 50be 6e01 edbe 9202 813e 3822 4e3f
00000010: f3b2 a4be 722d c9bd d2b6 d73c 30af 18bd
00000020: dd5c 413f 3a99 0340 1ca2 033f d64b 21be
00000030: f3b7 913e d590 3e3f 145b 783f 45ba 463f
00000040: a60a 2e40 1ecb cbbe fa94 42be 0d65 753f
00000050: 8e7a 273f 5cd9 1abe 04b3 7a3f ed47 fa3e
00000060: 6feb 05be ab30 8a3e c4d0 333f 682d 59be
00000070: 4fcb 5e3e 0259 753c 658e 6dbd c415 5a40
00000080: c61a 573e 427e 3dbf 51e2 25bd 6db6 553f
00000090: 200a 50be dbd5 2dbd 4af8 24bd 4a31 3ebc
000000a0: 5f25 e0be 8914 48be e357 743f 4a03 00be
000000b0: 1768 043f 82c2 43be 6383 74bd a0c1 c6be
000000c0: 93f7 123e c477 e53c 8e05 b83e b019 1e3f
000000d0: 71d9 133f b28e e83e 7e9d ce3e aa7d e3be
000000e0: 7635 1dbe 330a 623f 26f3 e23e fb2b 553f
000000f0: a533 c43e 7811 2a3f 019d 663f 974d 0b3f

value_dict.layer_2.2.weight f4 [64, 64]
-0.114154935 -0.10035841 -0.014584279 -0.15447588 -0.10737618 0.015502404 -0.25329784 -0.052854206
-0.0539484 -0.051948868 -0.0996108 -0.115472265 -0.12069598 -0.13458577 -0.0010870885 -0.061112728
-0.14952213 0.021119546 -0.1831983 -0.21539614 -0.16975886 -0.1520014 -0.046316538 -0.01648811
-0.117661886 0.074700706 -0.03596656 -0.05124304 -0.05325083 -0.12354099 -0.007368391 -0.30710834
0.0005997161 -0.10405565 -0.16511172 -0.11462604 -0.11468807 -0.004860653 -0.014600013 -0.09415985
-0.19834706 -0.21367507 -0.12642893 -0.045361985 -0.057733577 -0.13241948 -0.13465431 -0.034795217
-0.017065099 -0.16228199 -0.16229537 -0.0324224 0.012351475 -0.011514286 -0.2864258 -0.1354538
-0.080173105 0.06353649 -0.050658785 0.06354423 -0.050816312 -0.09384727 -0.015449615 0.061943017
-0.11548505 -0.22146824 0.061820388 0.10856532 -0.13279973 -0.11848829 -0.21947686 -0.078753054
-0.15964879 -0.1320641 -0.049429033 -0.15491118 -0.08975534 0.025741966 0.005520852 -0.00923102
-0.1503427 -0.2155036 -0.13963068 -0.07625561 0.0728067 -0.16949767 -0.02394357 -0.00032105835
-0.03496438 -0.042776886 0.091656275 0.0059641446 -0.10896208 -0.111657284 -0.3799459 -0.3469766
-0.03977549 -0.0071415766 -0.09644775 -0.22110014 -0.13052772 -0.16452637 -0.16332695 -0.2286493
-0.13657342 -0.116646744 -0.17036188 -0.0807105 -0.2631179 -0.1844404 -0.15613337 0.048748817
-0.30688652 -0.21786629 -0.3272644 -0.028964076 -0.08749809 0.012771674 -0.102649175 -0.0102542825
-0.054692723 -0.12486706 0.019267404 -0.049966365 -0.04023331 -0.010759481 0.08674978 -0.03464668
-0.08574709 -0.13761838 0.05330565 -0.20437987 -0.12484807 -0.033258386 -0.04580237 0.03540734
-0.069411874 -0.107661985 -0.059358366 -0.08122072 -0.31069043 0.047749083 -0.01263902 -0.2705419
-0.003148032 0.020006148 -0.12610194 -0.31394973 0.13742228 -0.028890459 -0.35233673 -0.18432446
-0.21090227 -0.04601157 -0.047941357 -0.12168251 0.116341196 -0.045578543 -0.25317892 -0.14240259
-0.15671125 0.03152923 -0.05439373 -0.06577111 -0.011299222 0.069178246 -0.0565646 -0.03783335
-0.047885768 -0.1564632 0.035516728 -0.09282835 -0.11393482 -0.20702247 -0.13599786 -0.2033349
-0.12862523 0.009010096 -0.21929806 -0.32460827 -0.11918921 -0.19578362 -0.23244092 0.022433227
0.15356094 -0.11932975 -0.27864128 0.01303761 0.050223447 -0.16190937 0.05718577 -0.12945785
0.026125329 0.3432698 0.63296986 0.43666983 -0.26936024 -1.9546938 0.17521927 -0.08754985
-0.108617075 -0.6983634 0.3197979 -0.45055142 0.029723104 -0.075185366 0.6591057 0.021469176
0.12928699 0.18516934 -0.14983675 -0.05740825 -0.005600217 -1.8226376 0.31018358 -0.48636916
-0.2194052 0.33927318 0.118885875 -0.03533537 0.08394077 -0.20584317 -0.22747137 -0.3306525
-0.3449685 0.0035908462 -0.019066036 -0.54548514 0.3027348 -0.076588094 0.2973909 -0.15430483
0.49481553 -0.08860516 0.14536099 -0.034826893 -0.2687117 -0.11225758 -0.009949746 0.15766832
-0.29325414 0.13092577 0.33068743 0.38201326 -0.023093307 0.054407015 0.3486735 -0.22787146
-0.39801264 0.19327104 0.073644534 -0.4244338 -0.34819585 0.011103222 -0.31650355 -0.1363988
00000000: 10ca e9bd b688 cdbd e6f2 6ebc ed2e 1ebe
00000010: 0be8 dbbd ccfd 7d3c 41b0 81be a77d 58bd
00000020: fff8 5cbd 56c8 54bd bf00 ccbd b97c ecbd
00000030: 742f f7bd dad0 09be a37c 8eba 5751 7abd
00000040: 541c 19be e602 ad3c 5698 3bbe ce90 5cbe
00000050: 44d5 2dbe 41a6 1bbe 69b6 3dbd 1312 87bc
00000060: b7f8 f0bd affc 983d ac51 13bd 39e4 51bd
00000070: 8b1d 5abd 0f03 fdbd 8b72 f1bb 4e3d 9dbe
00000080: 4436 1d3a 211b d5bd 0c13 29be 0fc1 eabd
00000090: 94e1 eabd 1d46 9fbb e534 6fbc e1d6 c0bd
000000a0: 7e1b 4bbe a3cd 5abe 9676 01be 7dcd 39bd
000000b0: 0b7a 6cbd f998 07be d2e2 09be 6e85 0ebd
000000c0: 1bcc 8bbc 402d 26be c230 26be 5acd 04bd
000000d0: d75d 4a3c 6aa6 3cbc 67a6 92be 67b4 0abe
000000e0: cc31 a4bd 6b1f 823d 967f 4fbd 7a23 823d
000000f0: c424 50bd ff32 c0bd 6220 7dbc f6b7 7d3d
00000100: 6d83 ecbd 92c8 62be 6037 7d3d 7f57 de3d
00000110: a7fc 07be fda9 f2bd 8bbe 60be 4849 a1bd
00000120: f97a 23be d03b 07be 1976 4abd 09a1 1ebe
00000130: a6d1 b7bd d1e0 d23c 43e8 b43b b43d 17bc
00000140: 70f3 19be faac 5cbe 58fb 0ebe e72b 9cbd
00000150: ae1b 953d cc90 2dbe 4e25 c4bc b953 a8b9
00000160: cf36 0fbd d136 2fbd 49b6 bb3d df6e c33b
00000170: 8327 dfbd 93ac e4bd 4588 c2be eba6 b1be
00000180: a0eb 22bd e303 eabb 6686 c5bd 1368 62be
00000190: 0fa9 05be 9a79 28be 2e3f 27be 0b23 6abe
000001a0: e7d9 0bbe 7de4 eebd 5873 2ebe 8c4b a5bd
000001b0: 64b7 86be f2dd 3cbe 6de1 1fbe d7ac 473d
000001c0: 3b20 9dbe 5718 5fbe 338f a7be 1246 edbc
000001d0: 3332 b3bd 4940 513c bb39 d2bd 9401 28bc
000001e0: 7a05 60bd 4dba ffbd add6 9d3c 88a9 4cbd
000001f0: afcb 24bd 8948 30bc dea9 b13d ade9 0dbd
00000200: 2c9c afbd d5eb 0cbe 0657 5a3d f548 51be
00000210: 58b0 ffbd f239 08bd 449b 3bbd 4907 113d
00000220: d027 8ebd e37d dcbd c221 73bd 0d57 a6bd
00000230: d112 9fbe 8b94 433d e413 4fbc 7884 8abe
00000240: 364f 4ebb efe3 a33c de20 01be 05be a0be
00000250: 6db8 0c3e afab ecbc 7b65 b4be 8dbf 3cbe
00000260: c4f6 57be a176 3cbd 285e 44bd ae34 f9bd
00000270: 4b44 ee3d 91b0 3abd aba0 81be fcd1 11be
00000280: ea78 20be cb24 013d f6cb 5ebd 01b3 86bd
00000290: 5f20 39bc 53ad 8d3d 48b0 67bd 25f7 1abd
000002a0: de23 44bd e437 20be fd79 113d ca1c bebd
000002b0: a956 e9bd b3fd 53be 0643 0bbe 0637 50be
000002c0: 55b6 03be 159f 133c ac8f 60be 0e33 a6be
000002d0: 7919 f4bd 807b 48be fe04 6ebe e3c5 b73c
000002e0: 143f 1d3e 2863 f4bd 12aa 8ebe b39b 553c
000002f0: 1ab7 4d3d 92cb 25be a03b 6a3d 9990 04be
00000300: c904 d63c 0fc1 af3e 500a 223f 3093 df3e
00000310: 96e9 89be 6833 fabf ae6c 333e 564d b3bd
00000320: a172 debd f2c7 32bf 8dbc a33e adae e6be
00000330: de7d f33c c9fa 99bd 27bb 283f 20e0 af3c
00000340: cf63 043e 089d 3d3e ce6e 19be ea24 6bbd
00000350: 0682 b7bb 304c e9bf 62d0 9e3e 6105 f9be
00000360: c2ab 60be 37b5 ad3e 707a f33d d2bb 10bd
00000370: 23e9 ab3d 8dc8 52be 41ee 68be 494b a9be
00000380: b69f b0be 6754 6b3b 6030 9cbc eaa4 0bbf
00000390: 0e00 9b3e 38da 9cbd 9f43 983e 1602 1ebe
000003a0: 7658 fd3e 9f76 b5bd 83d9 143e a5a6 0ebd
000003b0: 9494 89be 4de7 e5bd 4204 23bc ce73 213e
000003c0: 6825 96be 6811 063e dd4f a93e 3e97 c33e
000003d0: 2d2e bdbc e4d9 5e3d 5585 b23e 2357 69be
000003e0: 50c8 cbbe d8e8 453e f2d2 963d 634f d9be
000003f0: ba46 b2be 4aea 353c c10c a2be 21ac 0bbe

value_dict.layer_2.2.bias f4 [64]
-0.1660412 -0.12978551 -0.090326704 0.65820915 0.3713473 0.21657749 -0.055896185 0.05611469
-0.11923396 0.61021084 0.49299458 -0.06460381 0.013842912 -0.19225548 -0.112262405 0.6662859
0.44396374 -0.20546053 -0.079062454 0.27569735 -0.089780726 1.0929966 0.27776977 0.35289598
-0.11590048 0.47165254 -0.02586401 -0.15904978 -0.006215585 0.032680474 0.03855097 0.015450837
0.4976442 -0.105103984 -0.041935936 -0.0057717725 0.046369262 0.52432054 -0.16896176 -0.15864937
-0.20160328 0.018122697 -0.063980155 -0.2042705 -0.12607767 -0.10274083 -0.19367905 -0.089630514
-0.024459358 0.44371107 0.61762756 -0.1809876 0.30376264 0.024039198 0.13323253 -0.13956319
-0.12714767 0.21592972 0.69933236 0.60478085 0.22782892 -0.18488964 -0.14999147 -0.1632697
00000000: b406 2abe 7ee6 04be 35fd b8bd 6580 283f
00000010: 3c21 be3e 7dc6 5d3e 66f3 64bd 84d8 653d
00000020: ef30 f4bd c736 1c3f c969 fc3e 014f 84bd
00000030: 62cd 623c 9fde 44be d5e9 e5bd b691 2a3f
00000040: 374f e33e 3f64 52be 7feb a1bd 3428 8d3e
00000050: f5de b7bd 50e7 8b3f d737 8e3e c8ae b43e
00000060: 3b5d edbd 717c f13e c3e0 d3bc f2dd 22be
00000070: 1bac cbbb f6db 053d 9fe7 1d3d 8225 7d3c
00000080: 38cb fe3e c240 d7bd 04c5 2bbd 2321 bdbb
00000090: b2ed 3d3d df39 063f 5004 2dbe fb74 22be
000000a0: 1771 4ebe 0d76 943c 0708 83bd 492c 51be
000000b0: 811a 01be c969 d2bd cd53 46be 3490 b7bd
000000c0: fe5e c8bc 192e e33e d71c 1e3f d054 39be
000000d0: c786 9b3e daed c43c 1c6e 083e a7e9 0ebe
000000e0: 0033 02be ae1c 5d3e 7207 333f ebd2 1a3f
000000f0: fc4b 693e b653 3dbe 5d97 19be 2c30 27be

value_dict.value_head.0.weight f4 [1, 64]
-0.2962045 -0.048125885 0.09482839 0.010346106 -0.0733763 -0.101667345 -0.07816222 0.0213096
-0.22504446 -0.06872353 -0.15637724 -0.26201516 -0.3523943 -0.10206942 -0.1341743 0.15575999
-0.038045246 -0.037894737 0.0582523 -0.08759934 -0.09550055 0.6688364 -0.035012383 -0.020802615
-0.06467801 -0.06555336 -0.045526188 -0.1510493 -0.07003288 -0.061853427 -0.22962146 -0.35779044
-0.056588616 -0.20261897 -0.12848577 -0.16803057 -0.079980664 -0.172461 -0.07096573 0.004183784
0.018579299 -0.09478226 -0.050862666 -0.1686353 -0.07425427 0.35768774 -0.08418684 0.011750175
-0.121905446 0.5526326 0.015278875 -0.1033217 0.0042161597 0.02320964 0.0027592885 -0.14167537
-0.2906996 -0.14145286 -0.29870096 -0.21209612 -0.07338284 -0.021307122 -0.12988408 -0.26263964
00000000: 1ea8 97be a61f 45bd 6335 c23d b782 293c
00000010: 5046 96bd f836 d0bd 8413 a0bd 7891 ae3c
00000020: 0e72 66be ecbe 8cbd 5b21 20be da26 86be
00000030: 076d b4be c609 d1bd fd64 09be 8c7f 1f3e
00000040: 55d5 1bbd 8337 1bbd f799 6e3d 4867 b3bd
00000050: cb95 c3bd dd38 2b3f 2569 0fbd 3f6a aabc
00000060: e875 84bd d740 86bd ab79 3abd abac 1abe
00000070: 666d 8fbd 055a 7dbd e321 6bbe 4f30 b7be
00000080: 77c9 67bd 597b 4fbe c691 03be 3510 2cbe
00000090: e7cc a3bd 9e99 30be 7b56 91bd 2018 893b
000000a0: 9d33 983c 341d c2bd 5f55 50bd bbae 2cbe
000000b0: 9f12 98bd d922 b73e 266a acbd ce83 403c
000000c0: 90a9 f9bd 5479 0d3f 3f54 7a3c 549a d3bd
000000d0: b627 8a3b 2522 be3c 2ed5 343b 5913 11be
000000e0: 94d6 94be 05d9 10be 55ef 98be ba2f 59be
000000f0: be49 96bd 468c aebc 5500 05be b478 86be

value_dict.value_head.1.weight f4 [1, 64]
-0.05603827 0.45172235 -0.13672255 -0.110849984 0.35696664 -0.004190325 -0.06070116 -0.08034115
-0.086059 -0.5554791 -0.029556463 0.035110697 -0.027155047 -0.027499385 -0.21241108 -0.069528386
-0.43161333 0.4276434 0.05117087 -0.17125542 -0.09363465 -0.008952601 -0.18823123 -0.030264294
-0.0082322275 -0.044464916 -0.031867962 0.00866703 -0.073786706 -0.073864534 -0.097471975 -0.45478207
-0.07700488 0.30795696 -0.040251885 -0.16053574 0.0959949 -0.06458629 -0.0494288 -0.049089506
0.42519668 -0.03879776 -0.1967547 0.012665694 -0.029758051 -0.06432921 0.20629054 0.57588756
0.41231704 -0.036956076 -0.04976073 -0.042199735 -0.041378167 -0.047950104 -0.1700389 0.41472876
-0.034320544 -0.05423451 -0.025192648 -0.17361592 -0.035402454 -0.039250605 -0.10661435 0.044537388
00000000: 6388 65bd 2748 e73e ff00 0cbe 5105 e3bd
00000010: 55c4 b63e fe4e 89bb c8a1 78bd e789 a4bd
00000020: b33f b0bd e133 0ebf 6520 f2bc 3cd0 0f3d
00000030: 4374 debc 6446 e1bc 4a82 59be e664 8ebd
00000040: 6cfc dcbe 13f4 da3e 8c98 513d 955d 2fbe
00000050: 86c3 bfbd eead 12bc b0bf 40be d3ec f7bc
00000060: 77e0 06bc d820 36bd fb87 02bd 2900 0e3c
00000070: 7c1d 97bd 4a46 97bd 639f c7bd 32d9 e8be
00000080: bcb4 9dbd 89ac 9d3e 29df 24bd 7b63 24be
00000090: f998 c43d d145 84bd da75 4abd 1412 49bd
000000a0: 61b3 d93e 66ea 1ebd 107a 49be c583 4f3c
000000b0: 28c7 f3bc 08bf 83bd d43d 533e 5e6d 133f
000000c0: 381b d33e 415f 17bd e8d1 4bbd a1d9 2cbd
000000d0: 277c 29bd 5467 44bd ad1e 2ebe 5457 d43e
000000e0: b393 0cbd 0125 5ebd d060 cebc 5fc8 31be
000000f0: 2a02 11bd 3ec5 20bd a058 dabd d66c 363d
