model_save/simple_spread_reinforce_independent_commnet.pt (torch_old, 65550 bytes, 25 tensors)

value_dict.value_body.weight f4 [64, 18]
0	0x3e6650ff	0.22491835
1	0x3e849d35	0.2590119
2	0xbd672a5d	-0.056436885
3	0x3fba12c0	1.4536972
4	0xbf61a72b	-0.88145703
5	0xbf125f70	-0.57176876
6	0xbf20c547	-0.6280102
7	0xbf903240	-1.1265335
8	0x3f4bcce8	0.7960954
9	0x40900a85	4.501284
10	0x3f428c07	0.75994915
11	0x3f96b1c9	1.1773006
12	0xbf7cba4a	-0.98721755
13	0xc08ae18a	-4.3400316
14	0x3dfd8d0a	0.12380417
15	0xbbf6dcbd	-0.0075336383
16	0x3d9fd2af	0.078038566
17	0xbd369e75	-0.04458471
18	0x3f81090d	1.0080887
19	0x3c3d6637	0.011560014
20	0x3fa671dc	1.3003497
21	0xbf0906f6	-0.53526247
22	0xbfaf9a7d	-1.3719021
23	0xbecb4c6d	-0.39706746
24	0xc0062034	-2.0957155
25	0x3eb6497d	0.35602942
26	0xbedf37d3	-0.43597278
27	0xbef7cc62	-0.4839812
28	0x3ff6b354	1.9273477
29	0x3f085805	0.5325931
30	0x3ff3aa18	1.9036283
31	0x3e59978d	0.21249218
32	0xbd5df2bf	-0.05418658
33	0xba18feb3	-0.0005836293
34	0x3c8e6977	0.017384274
35	0x3e19a2ff	0.15003584
36	0xc019bddf	-2.4022138
37	0x3ead2191	0.33814672
38	0xc06c2b4e	-3.690143
39	0x3fa4f9f7	1.2888783
40	0x3fb376a8	1.4020586
41	0xbfbd30e1	-1.4780542
42	0x3ebc69ff	0.3679962
43	0x3e11d587	0.1424161
44	0x3fd1b2bb	1.6382669
45	0x3f29f998	0.66396475
46	0x40a76e6c	5.232229
47	0x400bda90	2.185215
48	0x40988507	4.7662387
49	0x3fc4d7ae	1.537832
50	0xbe58a95d	-0.21158357
51	0x3dc766d1	0.097364075
52	0xbd302924	-0.043007985
53	0x3e3ee8a6	0.18643436
54	0x3e89a3bf	0.2688274
55	0x3f7e9b2a	0.9945551
56	0xbe25c838	-0.16189659
57	0x401c61f2	2.443478
58	0xbeddd14b	-0.4332374
59	0xbf12c73d	-0.57335263
60	0xbfaaffa1	-1.3359262
61	0xc025b7ac	-2.5893354
62	0x3f4fbafc	0.8114469
63	0xc02a52f1	-2.6613123
64	0x3f7b19f2	0.98086464
65	0x4032e9ab	2.795512
66	0xbec6ca15	-0.3882605
67	0x400b87e7	2.1801698
68	0x3da9886e	0.08277975
69	0x3e1f4a71	0.15555741
70	0xbd8ca3cd	-0.0686718
71	0xbd6543af	-0.05597275
72	0x3e3ea9ca	0.18619457
73	0xbf3cfdc5	-0.7382472
74	0xbe3e8293	-0.18604498
75	0xbf5ee999	-0.8707519
76	0xbff3c003	-1.9042972
77	0x40c22149	6.066563
78	0x3f855605	1.0416876
79	0xbfb546f8	-1.4162283
80	0x3f4e66bb	0.80625504
81	0xbf9e714f	-1.2378329
82	0xbf4f52bf	-0.80985636
83	0x3f8a2861	1.0793573
84	0xbf2370ba	-0.6384388
85	0x3f4fb519	0.8113571
86	0xbdf993db	-0.12186404
87	0xbd9cab83	-0.07649901
88	0xbe34d760	-0.17660284
89	0x3c868003	0.016418463
90	0x3ea686d9	0.32524756
91	0x3e256fd4	0.1615594
92	0x3f7cb0a4	0.9870703
93	0x3ece514c	0.402964
94	0x3df5840a	0.11988075
95	0x3e35541d	0.17707868
96	0x3f8d78e9	1.1052524
97	0xbf045a64	-0.51700425
98	0xbf7049d1	-0.93862635
99	0x3f7ac887	0.9796223
100	0x4006bf3a	2.1054215
101	0x400fc358	2.2462978
102	0xbff35d88	-1.9012918
103	0xc03bc3f7	-2.9338357
104	0xbe9ead72	-0.30991703
105	0xbd183811	-0.037162844
106	0xbdcc4298	-0.09973639
107	0x3cfd3b5d	0.030912096
108	0xbe46922e	-0.193917
109	0x3e0899d9	0.13339938
110	0xbf0157c7	-0.5052456
111	0x3f14dabb	0.58146256
112	0xbef9fbbe	-0.48824877
113	0xbea58f8e	-0.32336086
114	0x3fbcae34	1.4740663
115	0x3f5492ef	0.830367
116	0x3df1a907	0.117998175
117	0xbe880422	-0.26565653
118	0x3e0a5eb2	0.13512686
119	0xbf6f214f	-0.934102
120	0x3e514acb	0.20438688
121	0xbf7a627d	-0.9780653
122	0xbdb21824	-0.08696011
123	0xbd63adc0	-0.055585623
124	0xbe0e8b08	-0.13920224
125	0x3da92140	0.08258295
126	0x3e040d0b	0.128956
127	0xb96da912	-0.00022665065
128	0x3dc5a561	0.09650684
129	0xbe4b0590	-0.1982634
130	0x3e36d8e8	0.1785618
131	0xbe8aa018	-0.27075267
132	0x3f382297	0.7192778
133	0xbeb73b2b	-0.3578733
134	0xbf3bc17d	-0.73342115
135	0x3c42dd63	0.011893603
136	0xbefe54e6	-0.49674147
137	0x3d5a7ea2	0.053343423
138	0xbf3dd82a	-0.74157965
139	0xbe23e10c	-0.16003817
140	0x3d46b951	0.048516575
141	0x3e38bc68	0.18040621
142	0x3deed190	0.116610646
143	0x3cc6546c	0.024210177
144	0xbd1d5558	-0.03841147
145	0xbe863f39	-0.2622011
146	0xbe6d2755	-0.23159535
147	0xc005caa2	-2.0904927
148	0x3f2d037a	0.6758343
149	0xbe588d71	-0.21147706
150	0x3efd3a97	0.49458763
151	0xbd41d3b5	-0.04732104
152	0xbf9f38e7	-1.243924
153	0xbf6d8b5e	-0.9279078
154	0xbe7a3037	-0.24432455
155	0x3f310083	0.69141406
156	0xbdabc9d9	-0.08388109
157	0x3f86d26b	1.0532964
158	0xbdbd2c04	-0.09236911
159	0xbd598543	-0.053105604
160	0xbb9ae176	-0.004726584
161	0x3e453f8f	0.19262527
162	0xbf302c1c	-0.68817306
163	0x3e88b966	0.26703948
164	0xbcd758f0	-0.026287526
165	0x3e334397	0.17506252
166	0xbfc342b2	-1.5254729
167	0x3fc4afa4	1.5366101
168	0xbfd5308f	-1.6655444
169	0x3faa5483	1.3307041
170	0x40c1850c	6.047491
171	0xc054d419	-3.3254454
172	0x3fdf1f9a	1.7431519
173	0xbfb95c7b	-1.4481348
174	0x3fed72cf	1.8550662
175	0xbfc58809	-1.543214
176	0xbd03cee0	-0.032179713
177	0xbd1d12a3	-0.03834785
178	0x3e0f2ab8	0.1398114
179	0x3ba0fb94	0.004912803
180	0x3e6c0731	0.23049618
181	0xbea9c75d	-0.33159915
182	0x3e9bf6ff	0.3046188
183	0xc001f9b9	-2.0308669
184	0xbeface1a	-0.48985368
185	0xbed44f13	-0.4146658
186	0x3ea5b938	0.32367873
187	0x3fdea37c	1.7393641
188	0xbfb4d404	-1.4127202
189	0x402565b4	2.5843325
190	0x3ef839f2	0.4848171
191	0xbfec4d3d	-1.8461071
192	0x3f344e57	0.7043204
193	0xbff389ae	-1.9026392
194	0x3de263cb	0.1105419
195	0x3d27ca7a	0.04096458
196	0x3d3fce02	0.046827324
197	0x3e2fcf77	0.17168985
198	0x3d89225b	0.06696006
199	0xbe89c460	-0.26907635
200	0xbf0a9f3b	-0.54149216
201	0x3de2f714	0.11082283
202	0x3fa765d3	1.3077949
203	0xbfbfed75	-1.4994341
204	0x3ea3c1a8	0.31983685
205	0x3dcbe4f5	0.099557795
206	0xbf86a294	-1.0518365
207	0x3e9f6988	0.311352
208	0xbabdf8e0	-0.0014493726
209	0x3ed34c40	0.41269112
210	0x3f28a2f7	0.65873665
211	0x3fa0c256	1.2559307
212	0x3e419263	0.18903498
213	0xbd59f63f	-0.053213354
214	0x3beb791b	0.0071860678
215	0x3db46673	0.08808603
216	0x3d75f1a0	0.060044885
217	0x3ea70e89	0.32628277
218	0x3e5c2594	0.2149871
219	0xbf4563ca	-0.7710539
220	0x3f0abb29	0.54191834
221	0xbc1d83bb	-0.0096139265
222	0x3f6b4c35	0.9191316
223	0xbd28a59e	-0.04117357
224	0xbf03c665	-0.514746
225	0x3e1d9ec6	0.15392599
226	0x3e47ac50	0.19499326
227	0xbf24191f	-0.6410083
228	0x3c3cd96a	0.011526445
229	0xbec2f74c	-0.38079298
230	0xbc966387	-0.018358005
231	0xbce338d3	-0.027737057
232	0x3d7dd923	0.061974656
233	0xbddf5648	-0.10905129
234	0xbee2e44e	-0.44314808
235	0x3e60cfd1	0.21954276
236	0x3d6840ef	0.05670255
237	0xbf8a12de	-1.0787008
238	0x3e99ada4	0.3001529
239	0xbece6253	-0.4030939
240	0x3f9e23ef	1.2354716
241	0xbdba979e	-0.0911095
242	0xbc1e39d8	-0.009657346
243	0x3e2bf6fb	0.16793434
244	0x3e0ae7d4	0.13564998
245	0xbe5518d0	-0.20810246
246	0xbf216d71	-0.6305762
247	0xbec71dce	-0.38889927
248	0xbcb37950	-0.021908432
249	0x3d2d182d	0.042259384
250	0xbd85fcb9	-0.06542344
251	0xbd1051df	-0.03523433
252	0x3e098f4f	0.13433574
253	0xbf052c22	-0.52020466
254	0xbda3222d	-0.07965503
255	0xbf3f5c11	-0.7474986

value_dict.value_body.bias f4 [64]
0	0xc082e5e9	-4.090565
1	0x3fe57f3b	1.7929453
2	0xbf9149cb	-1.1350645
3	0x403a7260	2.913231
4	0x3d9cc5dc	0.07654926
5	0xbe354910	-0.17703652
6	0x407d4dda	3.9578767
7	0x40695524	3.6458216
8	0x4068b9f1	3.636349
9	0x3ca3775a	0.019954372
10	0x40584e6c	3.3797865
11	0x4042657f	3.0374448
12	0x4079dcdc	3.9041052
13	0x405a2c26	3.4089446
14	0xbdab23ad	-0.08356414
15	0x4053f67e	3.3119197
16	0x405b505f	3.4267805
17	0x3f7d725e	0.99002635
18	0x40506d79	3.2566817
19	0xbf79430a	-0.9736792
20	0x3d1dea64	0.03855361
21	0xbf88a4af	-1.0675257
22	0x3fc3a81e	1.528568
23	0x40630460	3.547142
24	0xbda04d4b	-0.078272425
25	0xbf7d9f4c	-0.9907119
26	0xbf9db201	-1.2319947
27	0xbd7ae8c5	-0.061257143
28	0x40603542	3.5032506
29	0xbe0080c7	-0.12549125
30	0x3f8941b4	1.0723176
31	0x405c79e8	3.4449406
32	0x407b7612	3.9290814
33	0x403bb6ab	2.9330242
34	0xbfeeacb9	-1.8646461
35	0xbd342ef3	-0.043990087
36	0x402fbec6	2.746019
37	0xbde9256e	-0.11384092
38	0xbe8d0701	-0.27544406
39	0x3e3c7896	0.18405375
40	0xbf06c683	-0.52646655
41	0x407c6069	3.9433844
42	0xbe6e98ff	-0.23300551
43	0x3edb70bc	0.42859447
44	0x3e9daa6d	0.30794087
45	0x3ffabccd	1.9588867
46	0x405f2562	3.4866567
47	0xbf327ac6	-0.6971859
48	0xbf358a7f	-0.70914453
49	0xc0611886	-3.5171218
50	0xbda34f18	-0.0797407
51	0x3e0d6c5e	0.1381087
52	0x403a73c5	2.913316
53	0x405dd616	3.4661918
54	0x3dadd1bf	0.084872715
55	0xbe6edb34	-0.23325807
56	0x4062e378	3.5451336
57	0xbe8e1f39	-0.27758196
58	0x404db77b	3.2143238
59	0xbd9979a3	-0.074939035
60	0x406e9a00	3.7281494
61	0xbf0a1ab6	-0.5394701
62	0x404a2572	3.1585355
63	0x3ecbb504	0.3978654

value_dict.value_head.weight f4 [1, 64]
0	0x3fa1660d	1.2609268
1	0x3dad4273	0.0845994
2	0x3efc9e87	0.49339697
3	0xbef56485	-0.47928253
4	0xbf868584	-1.0509496
5	0x3f42bfe9	0.7607408
6	0xbf8e1bf3	-1.110228
7	0xbf648437	-0.89264244
8	0xbf52da20	-0.8236408
9	0xbfb18c1c	-1.3870883
10	0xbfbade81	-1.4599153
11	0xbf975e3b	-1.1825632
12	0xbeac87ae	-0.33697265
13	0xbe6f696b	-0.23380058
14	0xbd1e43c2	-0.038638838
15	0xbf60d728	-0.878283
16	0xbf2eadcf	-0.6823396
17	0xbf69475b	-0.91124505
18	0xbf42cd0b	-0.7609412
19	0x3f6c3dd5	0.9228185
20	0xbf5257f1	-0.8216544
21	0x3f40e93d	0.75355893
22	0xbe620dcb	-0.22075574
23	0xbfa62ef1	-1.2983075
24	0xbfe34664	-1.7755857
25	0xbe3f9dc3	-0.18712525
26	0xbf5bc2d2	-0.8584415
27	0xbfde5341	-1.7369157
28	0xc02a2118	-2.65827
29	0xbfe3bb46	-1.7791526
30	0xbe77330e	-0.2414057
31	0xbf33c1bf	-0.7021751
32	0xbfdc00a6	-1.7187698
33	0xbff6eef0	-1.9291668
34	0xbf56585d	-0.8372858
35	0x3d87e3a8	0.06635219
36	0xbfbc1ed8	-1.4696913
37	0x3ec4173c	0.38298976
38	0x3f56610a	0.8374182
39	0xc02dd472	-2.7160916
40	0xbe0d5bb6	-0.13804516
41	0xbeb6d4bd	-0.3570918
42	0xbfcc3002	-1.5952151
43	0xbf74778f	-0.9549493
44	0xc0040552	-2.0628247
45	0xbc921d21	-0.017836155
46	0xbee95670	-0.4557376
47	0x3f74f307	0.9568333
48	0x3f37f4ae	0.71857727
49	0xc008ddc5	-2.1385357
50	0xc03b3693	-2.925206
51	0xc01fae42	-2.4950109
52	0xbfb5c752	-1.4201453
53	0xbfac0d87	-1.3441628
54	0xbfff4d3b	-1.9945444
55	0x3f52b2e0	0.8230419
56	0xc01f90fb	-2.493224
57	0x3f9c4300	1.2207947
58	0xbdbf638f	-0.09345161
59	0xc0011808	-2.0170918
60	0xbef8d95d	-0.48603335
61	0x3f0c1901	0.5472565
62	0xbec48c27	-0.38388178
63	0xbfe9bdf0	-1.8261089

action_dict.action_head.weight f4 [5, 64]
0	0xbc912999	-0.01772003
1	0x3ce40c15	0.027837792
2	0xbce46404	-0.027879722
3	0xbd3b2e32	-0.045698352
4	0xbd4e2d57	-0.05033621
5	0xbc055ec8	-0.008140273
6	0xbd31e9fc	-0.043436036
7	0x3dacf70d	0.08445559
8	0xbc9d9f67	-0.019241048
9	0xbc6cb964	-0.014448497
10	0xbd861126	-0.065462396
11	0x3dedd6c1	0.11613227
12	0xbdcc11a8	-0.09964305
13	0xbd1e7657	-0.038687076
14	0xbd1573c7	-0.036487367
15	0x3e05dcea	0.13072553
16	0xbc88694c	-0.016651772
17	0xbcf566a6	-0.029956173
18	0xbd755000	-0.059890747
19	0x3b1e6922	0.002417155
20	0x3d4b0b26	0.04957118
21	0x3bacf0c4	0.005277725
22	0x3db7646e	0.08954702
23	0x3cc020ca	0.023453135
24	0xbcff3a37	-0.031155689
25	0xbaf6f87b	-0.0018842363
26	0x3ddcf357	0.10788601
27	0x3e0f81b1	0.14014317
28	0x3e19003e	0.14941499
29	0x3ce97d8f	0.028502254
30	0x3d9fa4a7	0.07795077
31	0x3e157ae5	0.14597662
32	0xbcc48ceb	-0.023992976
33	0x3dac5bef	0.084159724
34	0xbd9575e5	-0.07297877
35	0x3c8762cb	0.0165266
36	0x3c524fec	0.012836438
37	0x3d343597	0.04399642
38	0xbc886890	-0.016651422
39	0xbd8d0ae1	-0.068868406
40	0x3ca9ce30	0.0207282
41	0xba674e4b	-0.0008823617
42	0xbdc30f92	-0.09524454
43	0x3a8cba63	0.00107367
44	0xbda6c776	-0.08143513
45	0x3d6b8fbe	0.05751013
46	0x3ad68068	0.0016365172
47	0x3d3d5117	0.04621991
48	0xbcd01f68	-0.0254056
49	0xbdfb59fc	-0.122730225
50	0xbd155fc0	-0.036468267
51	0xbda9bf66	-0.082884595
52	0x3d0facbe	0.03507685
53	0xbd9daba6	-0.07698755
54	0xbd8e4e16	-0.069484875
55	0x3cd5e17f	0.026108501
56	0xbb9c4306	-0.004768732
57	0x3cf83c25	0.030302117
58	0x3c1ffe61	0.0097652385
59	0x3de1479f	0.10999989
60	0x3c67a0d2	0.014137464
61	0x3da272ee	0.07932077
62	0x3d9cf5e4	0.076640874
63	0x3d52041f	0.05127346
64	0xba8d0cb1	-0.0010761229
65	0x3cdc8eda	0.026923586
66	0xbd2f324a	-0.04277257
67	0xbd1fdbee	-0.0390281
68	0xbd88a45c	-0.06671974
69	0xba74e116	-0.0009341402
70	0xbe258759	-0.16164912
71	0x3c9dfc21	0.019285263
72	0xbcd76243	-0.026291972
73	0xbd8b9f1d	-0.06817458
74	0xbd8e0443	-0.069344066
75	0x3c87c043	0.01657117
76	0xbd5a9607	-0.053365733
77	0xbca4268a	-0.020037908
78	0xbd127ef6	-0.03576561
79	0x3e99db96	0.30050343
80	0xbd34111d	-0.043961633
81	0xbd9330df	-0.07187056
82	0x3e7a274a	0.2442905
83	0x3e5a94cb	0.21345823
84	0x3d2b24df	0.04178321
85	0x3c86a2b4	0.016435005
86	0x3e7ef3d9	0.24897708
87	0x3ba65576	0.0050761057
88	0x3b3313a7	0.0027324946
89	0x3d64e4da	0.055882312
90	0x3d70d5a9	0.058797512
91	0x3e11f242	0.1425257
92	0x3e065262	0.13117364
93	0x3b657e4a	0.00350179
94	0xbc860e49	-0.016364234
95	0x3db9c43b	0.09070631
96	0xbcff2431	-0.031145187
97	0x3e5c7e13	0.21532468
98	0xbe70ccd5	-0.23515637
99	0xbd8a84de	-0.06763624
100	0x3ec58dcb	0.38584742
101	0x3ec562d2	0.38551956
102	0x3cabd12b	0.020973762
103	0xbd7905d4	-0.060796574
104	0x3d540fc6	0.051772855
105	0xbd4b28c7	-0.049599435
106	0xbd9cffb5	-0.0766596
107	0x3cfc08d9	0.030765938
108	0xbd495e71	-0.049162332
109	0x3d34c290	0.04413086
110	0x3c8bb098	0.01705198
111	0xbacc3868	-0.0015580775
112	0xbc464420	-0.012101203
113	0xbdb9d254	-0.0907332
114	0x3d719409	0.058979068
115	0x3e51d8d1	0.20492865
116	0x3d6b333b	0.057421904
117	0xbd772ae4	-0.060343638
118	0xbdc2ba23	-0.09508159
119	0x3b74ed9d	0.0037373074
120	0xbbc36b30	-0.0059637055
121	0x3ce9382f	0.028469173
122	0x3d34deb1	0.044157688
123	0x3cd7bc43	0.026334887
124	0xbd8f9259	-0.070103355
125	0x3de77642	0.11301853
126	0x3d1cf4fe	0.03831958
127	0x3d90becd	0.07067642
128	0xbcc460d9	-0.023971962
129	0x38ba9db7	8.898548e-05
130	0xbb76ea4c	-0.0037676273
131	0xbd01183f	-0.031517264
132	0xbd454397	-0.04816016
133	0xbd0fc15a	-0.035096504
134	0x3c7613e2	0.015019389
135	0xbbef9a61	-0.0073121046
136	0x3c9aea2f	0.018910496
137	0xbd23e6c6	-0.040015005
138	0xbdbb40b2	-0.09143199
139	0x3df4ca33	0.11952629
140	0xbd314338	-0.043276995
141	0xbd7d4cd6	-0.061840855
142	0xbc5d7bac	-0.013518255
143	0xbd990267	-0.07471161
144	0xbcdc2ae8	-0.026875928
145	0xbdb3775a	-0.08762999
146	0xbe9f5c3f	-0.31125066
147	0xbea26bf3	-0.31722984
148	0x3d04c71f	0.03241646
149	0x3b667278	0.0035163444
150	0xbe240806	-0.16018686
151	0xb98d069c	-0.0002689854
152	0xbd095483	-0.033527862
153	0x3cf61075	0.030037144
154	0x3dad2259	0.08453817
155	0x3e336850	0.17520261
156	0x3e35a5e1	0.17739059
157	0x3d977415	0.07395188
158	0x3d74edd0	0.05979711
159	0x3de290d7	0.11062782
160	0xbd4dd539	-0.050252173
161	0xbd55099f	-0.05201113
162	0x3dbf87cb	0.09352072
163	0x3c662054	0.014045794
164	0xbe9f60bd	-0.31128493
165	0xbe96c77a	-0.29449064
166	0x3bae3354	0.0053161774
167	0xbd713d47	-0.05889633
168	0x3cd37ae2	0.025815431
169	0xbd369e72	-0.0445847
170	0xbe0fc042	-0.14038184
171	0x3cc72025	0.02430732
172	0xbd9595b2	-0.07303943
173	0x3d372b81	0.044719223
174	0x3d1db539	0.038502906
175	0xbb16cf9f	-0.0023011935
176	0xbcee3ad1	-0.02908078
177	0xbdd8f09f	-0.1059277
178	0xbe1d088a	-0.15335289
179	0xbe8aef04	-0.2713548
180	0x3d8991cd	0.067172624
181	0xbde10c62	-0.1098869
182	0xbd8b4bb3	-0.06801548
183	0x3d45ea5d	0.04831921
184	0xbd61bd46	-0.055112146
185	0x3dccf4f1	0.10007656
186	0x3c83f2d6	0.016107004
187	0xbbfd2236	-0.0077250255
188	0xbd48ca96	-0.049021326
189	0x3d4f5d4d	0.050626088
190	0x3d7ff659	0.062490795
191	0x3ca1bb54	0.019742645
192	0xbcbfacc2	-0.023397807
193	0x3c80c89e	0.015720662
194	0xbd338376	-0.043826543
195	0xbdaece8b	-0.08535489
196	0xbd99a0f1	-0.075014
197	0xbccc6e74	-0.024955012
198	0xbea69460	-0.32535076
199	0x3c8596ef	0.016307322
200	0xbba596e1	-0.0050533866
201	0xbd0bb919	-0.03411207
202	0xbda84af4	-0.08217421
203	0x3e0f61ca	0.14002147
204	0xbd85aade	-0.06526731
205	0xbd0f0076	-0.03491255
206	0x3ca6535d	0.020303423
207	0xbda2845e	-0.07935403
208	0xbce000e9	-0.027344184
209	0xbdef4896	-0.116837665
210	0xbe5dbf27	-0.2165495
211	0x3ed4b038	0.41540694
212	0x3dcbfcfa	0.09960361
213	0x3c67459c	0.014115717
214	0x3f043084	0.5163653
215	0x3b8137df	0.003943428
216	0xbd02c53c	-0.03192638
217	0x3cca9d7e	0.024733301
218	0x3d825b46	0.06365065
219	0x3e14a254	0.14515048
220	0x3dcd0820	0.10011315
221	0x3da99f14	0.08282295
222	0x3d166c5e	0.03672444
223	0x3df807fc	0.12110898
224	0xbcb4c2ea	-0.022065599
225	0x3ddfc284	0.10925773
226	0x3dd65ba3	0.10466697
227	0xbd8b4319	-0.06799907
228	0x3e21998f	0.15781234
229	0xbe22a65e	-0.15883777
230	0x3cf02942	0.029316548
231	0xbd4d2b71	-0.050090257
232	0x3d0d4d55	0.034497578
233	0xbd53ab22	-0.051676877
234	0xbdb40e84	-0.08791831
235	0x3d16258f	0.036656912
236	0xbddc29d1	-0.10750163
237	0x3c8c0cce	0.01709595
238	0xbbb992cb	-0.005663251
239	0xbd53bcfd	-0.051693905
240	0x3c870be5	0.016485164
241	0xbdab90ce	-0.08377229
242	0x3e0fbc9d	0.14036794
243	0xbd1215c7	-0.0356653
244	0x3ce1f50c	0.027582668
245	0xbd9297af	-0.071578376
246	0xbdd8502f	-0.10562169
247	0x3d4a7d56	0.049435936
248	0x3bd3b8eb	0.006461253
249	0xbea594b8	-0.32340026
250	0xbc5ae2bf	-0.013359725
251	0x3d2cc779	0.04218242
252	0x3e6c726e	0.23090526
253	0x3d6ff7d8	0.05858597
254	0x3c5ee692	0.013604777
255	0x3da43e93	0.080197476

action_dict.action_head.bias f4 [5]
0	0x3e81f809	0.25384548
1	0x3eafe825	0.343568
2	0xbe92cd0b	-0.2867206
3	0x3ded75b3	0.11594715
4	0xbcea53e6	-0.028604459

action_dict.c_module.weight f4 [64, 64]
0	0x3e40a976	0.18814644
1	0x3d84e865	0.06489638
2	0xbe140c5f	-0.14457844
3	0x3dd70c4b	0.105003916
4	0x3e4b37cb	0.19845502
5	0x3de097cf	0.10966455
6	0x3dce9de0	0.10088706
7	0xbd2d5261	-0.04231489
8	0x3e1d3893	0.15353613
9	0x3d77ba8d	0.060480643
10	0xbdcbf598	-0.09958953
11	0xbc054880	-0.008134961
12	0x3da0a96d	0.078448154
13	0xbe31abeb	-0.17350738
14	0xbce73003	-0.028221136
15	0x3dbccfca	0.0921932
16	0x3d40dab6	0.04708358
17	0x3cadc85e	0.021213707
18	0xbdcf476f	-0.10121047
19	0xbd3cbe0f	-0.04607969
20	0x3da0c952	0.07850899
21	0xbc84a8f9	-0.016193854
22	0x3c00ef3f	0.007869541
23	0xbd509837	-0.050926413
24	0xbde53acd	-0.11192856
25	0xbb9ced3e	-0.0047890237
26	0xbdda6ce0	-0.106652975
27	0xbc8328fc	-0.016010754
28	0xbc9f3055	-0.019432226
29	0x3d47b4ac	0.048756287
30	0x3daba133	0.08380356
31	0x3e027f7f	0.12743948
32	0xbce38e7f	-0.027777908
33	0xbeb0ffe5	-0.34570232
34	0xbbbcd884	-0.0057631154
35	0x3e15e49d	0.1463799
36	0xbd2e051b	-0.042485338
37	0x3e2a8787	0.16653262
38	0x3d6ae73d	0.057349432
39	0xbc3839cd	-0.0112442495
40	0xb99eb13b	-0.00030268155
41	0x3e25256f	0.16127561
42	0xbdb58946	-0.088640735
43	0xbcac31eb	-0.021019896
44	0x3e5ce35d	0.21571107
45	0x3dc1fbf1	0.09471882
46	0x3cd0f5f3	0.025507903
47	0xbe6dbe0a	-0.23217025
48	0x3d6e392f	0.058160003
49	0x3cc54f62	0.024085704
50	0x3d7495b0	0.059713066
51	0x3e03c32e	0.12867424
52	0x3cf7a418	0.030229613
53	0xbd82cff0	-0.06387317
54	0x3d39f3ad	0.045398403
55	0x3d02e1fc	0.031953797
56	0x3d41e694	0.047339037
57	0xbe41b8f3	-0.18918209
58	0xbd175ff4	-0.036956742
59	0x3d48b54e	0.04900103
60	0xbc246e07	-0.010035998
61	0xbe235d9f	-0.15953682
62	0x3de9e08d	0.11419783
63	0xbd67c863	-0.056587588
64	0xbe24975e	-0.16073367
65	0x3e1a903c	0.15094084
66	0xbce3d39a	-0.02781086
67	0xbd4af913	-0.049553942
68	0xbde14cdb	-0.11000987
69	0xbe500de8	-0.20317805
70	0x3d0f7072	0.035019346
71	0xbd8b8186	-0.06811814
72	0x3ce814bf	0.028330205
73	0x3dcba4fd	0.099435784
74	0x3e00fd6f	0.12596677
75	0xbda401b3	-0.080081366
76	0x3cd59385	0.02607132
77	0xbd6e6080	-0.0581975
78	0x3dd6f977	0.104968004
79	0x3d96da1a	0.07365818
80	0x3dc9cd11	0.098535664
81	0x3e0df2a1	0.13862087
82	0x3d5bd710	0.053671896
83	0x3d0c7b37	0.034297194
84	0xbdee74c5	-0.11643366
85	0x3d18127e	0.03712701
86	0xbe272ea5	-0.16326387
87	0x3dc1473f	0.09437417
88	0xbbbd94b3	-0.0057855486
89	0x3d8d09d6	0.06886642
90	0xbdefc6cf	-0.117078416
91	0x3d2afd36	0.041745387
92	0xbdb7b649	-0.08970315
93	0xbdd4be9d	-0.10387919
94	0xbda9058f	-0.08253013
95	0x3dcfd628	0.10148269
96	0x3db4ac20	0.08821893
97	0xbb846007	-0.0040397677
98	0x3db64be7	0.08901196
99	0xbd444fe8	-0.047927767
100	0xbd12d0c5	-0.03584363
101	0xbe125483	-0.14290051
102	0xbe37e593	-0.1795867
103	0x3dc6f0c8	0.09713894
104	0x3d9889a3	0.07448127
105	0xbdb9a78d	-0.09065161
106	0x3e2573e4	0.1615749
107	0xbcd35475	-0.025797108
108	0xbe36e32c	-0.17860097
109	0xbe4d8d0b	-0.20073335
110	0xbde54583	-0.11194899
111	0x3cea4753	0.028598463
112	0x3dcefd8a	0.101069525
113	0xbb4bdb4e	-0.0031106058
114	0xbd7642bf	-0.060122248
115	0xbd7f520f	-0.062334117
116	0x3e020d30	0.12700343
117	0x3cdbdef3	0.026839709
118	0xbe0561a0	-0.13025522
119	0xbc7c2808	-0.015390404
120	0xbd5ac4a3	-0.053410184
121	0xbd3b8d59	-0.045789097
122	0x3d448f50	0.047988236
123	0x3daf5807	0.08561712
124	0x3cba2dde	0.02272695
125	0x3df3f1d8	0.119113624
126	0x3d805402	0.06266023
127	0x3b729bc2	0.0037019108
128	0x3e135c8b	0.14390771
129	0x3d200683	0.03906871
130	0x3e1a74df	0.15083645
131	0xbddbd080	-0.107331276
132	0x3b17d12d	0.002316545
133	0xbcaa7ab5	-0.020810464
134	0x3d1095c7	0.03529909
135	0x3df1095f	0.117693655
136	0xbb6c8bf8	-0.003609417
137	0x3d75f698	0.060049623
138	0xbdc9922b	-0.098423325
139	0x3da4b781	0.08042813
140	0xbd6cdc98	-0.057827562
141	0xbb9f9953	-0.0048705726
142	0xbe0afab4	-0.13572198
143	0xbe0c1d1a	-0.13682976
144	0xbd8b0def	-0.06789767
145	0x3c0bfbf0	0.008543953
146	0x3d518393	0.05115087
147	0xbab714a1	-0.001396794
148	0xbd1a98ba	-0.037743308
149	0x3d9ae296	0.07562749
150	0xbda6bf59	-0.081419654
151	0x3def3bd0	0.1168133
152	0x3ddbd2e2	0.10733582
153	0x3c3449be	0.01100391
154	0xbde8e743	-0.11372235
155	0xbd7268fb	-0.05918215
156	0x3dc08edc	0.09402248
157	0x3e1e6d95	0.1547149
158	0x3d19876f	0.037482675
159	0x3e4f8612	0.20265988
160	0xbca165e5	-0.019701907
161	0xbdc70457	-0.09717625
162	0xbd945c4d	-0.072441675
163	0x3e327f6e	0.17431423
164	0x3d6a2d7a	0.057172276
165	0x3ca633ac	0.020288311
166	0x3d14bc0f	0.03631216
167	0x3d13fa20	0.03612721
168	0xbe182965	-0.14859541
169	0x3df1aa37	0.11800044
170	0xbe16fe79	-0.14745511
171	0xbd17b743	-0.037040006
172	0xbd2199e3	-0.0394534
173	0x3e02704f	0.12738155
174	0x3e7731af	0.24140047
175	0xbdb0d4ad	-0.08634315
176	0xbda4943e	-0.080360875
177	0xbde305bf	-0.1108508
178	0xbb9aaa67	-0.0047200206
179	0x3bf054a5	0.007334309
180	0xbc6769bd	-0.014124331
181	0xbd08b80c	-0.033378646
182	0xbb1a4767	-0.0023541094
183	0xbdb839c6	-0.089953944
184	0xbd21d0dc	-0.039505824
185	0x3d401918	0.04689893
186	0x3c6264d7	0.013817987
187	0xbdac2448	-0.084053576
188	0xbd47848a	-0.048710383
189	0x3e6df5ef	0.23238347
190	0x3ddd8905	0.1081715
191	0x3b03c35f	0.0020105464
192	0x3de279dd	0.110584
193	0x3e7c7297	0.24653088
194	0xbddcbcff	-0.10778236
195	0x3d1c69ca	0.038186826
196	0xbe5da218	-0.21643865
197	0x3e290b5b	0.16508238
198	0x3d065e57	0.032804813
199	0x3ddd436b	0.108038746
200	0x3d4c18e2	0.049828418
201	0xbbbe4067	-0.005806017
202	0xbd7b60a3	-0.061371457
203	0xbd737653	-0.059439015
204	0x3cbf3d88	0.02334477
205	0x3c4e3e9a	0.012588168
206	0xbcd7de7f	-0.026351212
207	0xbda3347d	-0.07968996
208	0x3ce7337f	0.028222797
209	0xbbbe96c9	-0.005816315
210	0x3db4cba9	0.088279076
211	0xbdd1bd8a	-0.1024123
212	0xbd64082d	-0.05567186
213	0xbce84b53	-0.02835623
214	0x3d916d31	0.07100905
215	0xbdb1f8c7	-0.08690029
216	0xbe09ab71	-0.13444306
217	0x3d02889b	0.03186856
218	0xbe8dbd81	-0.27683643
219	0x3cdf0523	0.027224129
220	0x3d8b51fd	0.068027474
221	0xbd36ef4f	-0.044661816
222	0x3d3629d7	0.044473495
223	0x3d90ab7e	0.070639595
224	0xbe37d9e3	-0.17954211
225	0xbd261798	-0.040549845
226	0x3ddbb447	0.107277445
227	0xbcb56267	-0.022141648
228	0x3d06cf1b	0.032912355
229	0xbe03b63f	-0.1286249
230	0xbc391f6f	-0.011298998
231	0xbda7f556	-0.08201091
232	0x3c07d504	0.008290533
233	0x3d950d77	0.07277959
234	0xbd8961fb	-0.067081414
235	0x3e2605f2	0.16213205
236	0xbd6d4178	-0.057923764
237	0xbdcf41a5	-0.101199426
238	0xbdfa94ea	-0.12235434
239	0xbd944859	-0.07240362
240	0xbdb3a513	-0.0877172
241	0x3dfbb46d	0.12290273
242	0x3cc79f2f	0.024367897
243	0xbd886bfb	-0.06661221
244	0x3d2d1d5c	0.042264327
245	0x3d6d257a	0.05789707
246	0xbd9158d5	-0.070970215
247	0xbdace0db	-0.08441325
248	0x3d910d96	0.070826694
249	0x3d321999	0.043481443
250	0x3c00154a	0.007817576
251	0x3c7bccd0	0.015368655
252	0xbd647d82	-0.055783756
253	0x3c934ac2	0.017979983
254	0xbd06906b	-0.03285257
255	0x3deb1aa8	0.11479694

action_dict.c_module.bias f4 [64]
0	0x3bf4ef1f	0.0074747945
1	0x3dbfe161	0.093691595
2	0x3d8d748e	0.06906997
3	0x3cd04fb3	0.025428629
4	0xbd71f861	-0.059074763
5	0x3df7824e	0.120854005
6	0xbe2a84cc	-0.1665222
7	0x3e4110ea	0.18854108
8	0xbb921604	-0.004458191
9	0x3e12100e	0.14263937
10	0x3d53fd37	0.051755156
11	0xbdeaa171	-0.11456574
12	0xbc3a66e3	-0.011377069
13	0x3e223fe0	0.15844679
14	0xbdb831a3	-0.089938425
15	0x3ea09eff	0.31371304
16	0xbde966c1	-0.11396552
17	0x3cb92562	0.022600833
18	0x3ed5b593	0.41740093
19	0xbf155ad8	-0.5834174
20	0xbd7a5fb7	-0.061126437
21	0xbd9504c4	-0.072762996
22	0xbf1719d1	-0.5902377
23	0xbd9201a8	-0.07129222
24	0xbd23bf5d	-0.03997742
25	0x3d8b0f4a	0.067900255
26	0x3e816091	0.25268987
27	0x3d43a031	0.047760192
28	0xbcb7c3f7	-0.02243231
29	0x3ddd7aa6	0.10814409
30	0xbc94c431	-0.018159958
31	0xbe2ec1f1	-0.1706617
32	0x3ca11544	0.01966346
33	0xbe84de2f	-0.25950763
34	0xbe856a4f	-0.2605767
35	0xbe38e26c	-0.18055123
36	0x3e8caeec	0.27477205
37	0xbed6a94b	-0.41926035
38	0xbe1f65d6	-0.15566191
39	0xbd463f6a	-0.04840032
40	0x3db31588	0.08744341
41	0x3e00ca80	0.12577248
42	0x3c1bde23	0.009513411
43	0x3dfebb82	0.12438108
44	0xbd30430c	-0.04303269
45	0x3e7481ab	0.2387759
46	0xbd08f309	-0.0334349
47	0x3e9a22a2	0.30104548
48	0xbd721a1a	-0.059106924
49	0xbcd8a15a	-0.026444126
50	0xbe52ca47	-0.20584975
51	0x3ef036cf	0.46916816
52	0xbe416ebf	-0.18889903
53	0x3d0f3b50	0.034968674
54	0x3dcd8f45	0.10037092
55	0x3ba7caca	0.00512061
56	0x3c9b9211	0.018990548
57	0xbddde1b3	-0.10834064
58	0xbd22b9b5	-0.039727885
59	0x3dca0c88	0.098656714
60	0xbdb4376a	-0.08799632
61	0x3d267af9	0.04064462
62	0xbe2122ee	-0.15735981
63	0x3dcc6d48	0.09981781

action_dict.encoder.weight f4 [64, 18]
0	0x3e94725b	0.28993496
1	0x3e11ae53	0.14226656
2	0x3e601b4a	0.2188541
3	0xbe4c514d	-0.19952889
4	0xbeb4f081	-0.3533974
5	0x3ef1ea04	0.47248852
6	0x3fc3dac7	1.530114
7	0xbf8b0627	-1.0861253
8	0xbf17c02a	-0.59277594
9	0x3e55919b	0.20856325
10	0xbf23c515	-0.639726
11	0x3ef2952d	0.47379437
12	0xbedcd785	-0.43133178
13	0x3ef10f42	0.47081953
14	0x3dc8ee5a	0.09811087
15	0xbbf9fdd7	-0.007629137
16	0xbd827221	-0.063694246
17	0x3e5f4348	0.2180301
18	0x3ea1fd75	0.31638685
19	0xbd7a96af	-0.06117886
20	0xbd48ff7d	-0.049071778
21	0xba4212e4	-0.00074033276
22	0xbe84dad1	-0.25948194
23	0x3dcd80d0	0.10034335
24	0xbe71c088	-0.23608601
25	0x3e1800a6	0.14843997
26	0xbe57f0c4	-0.21087939
27	0x3e235532	0.15950468
28	0xbfe308b9	-1.7737037
29	0x3faaeb72	1.3353102
30	0x3e362f13	0.17791395
31	0xbe171505	-0.14754112
32	0x3ea8c689	0.3296397
33	0x3d8ca285	0.06866936
34	0x3d2cb541	0.042165045
35	0x3e44d320	0.19221163
36	0xbdb3cde9	-0.087795086
37	0x3e466299	0.1937355
38	0x3e2176c2	0.15767959
39	0x3d225c82	0.039639004
40	0x40172089	2.3613608
41	0xbe9c7ea7	-0.30565378
42	0xbec0dfc6	-0.37670726
43	0xbb4e2d66	-0.0031460165
44	0xbf372772	-0.71544564
45	0xbd8ad285	-0.06778435
46	0xbf490f91	-0.7853938
47	0xbc885e0e	-0.016646411
48	0xbf54370f	-0.8289651
49	0x3e958971	0.29206422
50	0x3ddf96ea	0.109174564
51	0x3e1c44af	0.15260576
52	0x3d159b07	0.0365248
53	0xbc6ab58d	-0.014325512
54	0xbe2f978c	-0.17147654
55	0x3d19a268	0.0375084
56	0xbe0e96cf	-0.13924716
57	0xbcf4657d	-0.02983355
58	0x3e98bcb4	0.2983147
59	0x3dbf4de8	0.09341031
60	0x3e6035ac	0.21895474
61	0xbc1f6af3	-0.0097300885
62	0x3e29f17d	0.16596027
63	0x3cdb0ed2	0.026740465
64	0x4000fdc0	2.0154877
65	0x3dd4a83c	0.10383651
66	0xbe9859a5	-0.29755893
67	0xbda87807	-0.082260184
68	0xbe3c78af	-0.18405412
69	0xbcf40f4a	-0.029792447
70	0x3e64ea30	0.2235496
71	0x3d70252a	0.058629192
72	0x3f0903a6	0.5352119
73	0x3cb903c6	0.022584807
74	0x3dd8fb15	0.10594765
75	0x3e21eaee	0.15812275
76	0xbfa2e146	-1.2724998
77	0xbdc0db58	-0.094168365
78	0x3c5cc26b	0.013474087
79	0x3ebdb134	0.37049258
80	0x3e57d95c	0.2107901
81	0x3f4dac90	0.80341434
82	0xbbfab58a	-0.0076510357
83	0x3e98e138	0.29859328
84	0x3e82ec98	0.25571132
85	0xbd068de1	-0.03285015
86	0x3cc23b2a	0.023709852
87	0x3da75d1b	0.08172055
88	0x3dfcc4e8	0.123422444
89	0x3d8d7c00	0.06908417
90	0xbe8bcfb3	-0.273069
91	0xbe219993	-0.1578124
92	0x3e855e7d	0.2604865
93	0x3de8cb6c	0.11366925
94	0xbf497981	-0.78701025
95	0xbd508855	-0.050911266
96	0xbf1ae16d	-0.6050022
97	0xbe17f995	-0.14841302
98	0x3fa1d36d	1.2642647
99	0x3dff855b	0.124766074
100	0x3f48849e	0.7832736
101	0x3e2efb01	0.17087938
102	0x3f2d14cf	0.67609876
103	0x3d8437ee	0.0645598
104	0x3d7ccda0	0.061719537
105	0x3d89b7b0	0.06724489
106	0x3d897b16	0.0671293
107	0xbdc77925	-0.09739903
108	0x3d176094	0.03695734
109	0xbe2388fe	-0.15970227
110	0xbda19a76	-0.07890789
111	0x3d666d2c	0.05625646
112	0xbfdb804d	-1.7148529
113	0x3fc042ce	1.5020387
114	0x3e96d712	0.2946096
115	0xbeecb368	-0.46230626
116	0x3f021a12	0.5082103
117	0xbeed495b	-0.46345028
118	0xbeca3c61	-0.3949919
119	0x3ef815ea	0.4845422
120	0xbeb514cc	-0.3536743
121	0x3f0e39c5	0.555569
122	0xbcd2813f	-0.025696395
123	0x3ae2d3af	0.0017305518
124	0xbde86ca7	-0.11348849
125	0x3d012663	0.03153075
126	0xbcb7d42b	-0.022440037
127	0x3e565108	0.20929348
128	0xbd8263c9	-0.06366689
129	0xbdd9a488	-0.10627085
130	0xbe500c81	-0.2031727
131	0x3f1494b6	0.58039415
132	0xbe6c2ed5	-0.2306474
133	0x3f15476d	0.5831211
134	0x3f01b1d8	0.50661993
135	0xbff337fa	-1.9001458
136	0x3e21528d	0.15754147
137	0xbf15b88a	-0.5848471
138	0x3de4f496	0.111794636
139	0xbf26bb3b	-0.6512944
140	0x3e0f2fd6	0.13983092
141	0x3e1e0ae7	0.15433846
142	0x3dd62dbf	0.10457944
143	0xbe0fd32f	-0.14045404
144	0x3e3e33c9	0.18574442
145	0xbe6a61ab	-0.2288882
146	0x3d664bcd	0.056224633
147	0xbd409282	-0.04701472
148	0x3ba46076	0.005016382
149	0xbbd1f335	-0.0064071664
150	0x3e237ce4	0.1596561
151	0x3da380d3	0.07983556
152	0xc0152741	-2.3305209
153	0x3fb33f28	1.4003649
154	0x3b6799c0	0.0035339445
155	0x3cc4e6a9	0.024035769
156	0xbdd3fb06	-0.10350613
157	0xbd58e6da	-0.052954532
158	0xbd558ba8	-0.05213514
159	0xbce61bfd	-0.028089518
160	0x3cba068c	0.0227082
161	0x3d8bf386	0.06833558
162	0x3e734a8e	0.23758909
163	0xbcbd2828	-0.023090437
164	0xbdd0f3a1	-0.102027185
165	0xbbd315c6	-0.0064418046
166	0xbfd7c835	-1.6857973
167	0x3ec0dbba	0.37667638
168	0xbf5f5c2a	-0.87250006
169	0x3e9d7f5f	0.3076124
170	0x3f3b5a8b	0.7318503
171	0x3d065cc3	0.03280331
172	0x3f00be0d	0.50289994
173	0xbe0fb914	-0.14035445
174	0x3e89421c	0.2680825
175	0xbe647c97	-0.22313152
176	0x3e33c218	0.1755451
177	0x3e12f27a	0.1435031
178	0x3b65d990	0.0035072304
179	0x3cb3eb70	0.021962851
180	0xbe0bb304	-0.13642508
181	0x3e8c382f	0.27386615
182	0x3c736bb2	0.0148572195
183	0xbd08532f	-0.033282455
184	0x3e9553fe	0.29165643
185	0x3d81876b	0.06324657
186	0x3e0fb6fa	0.14034644
187	0xbe2b37fe	-0.16720578
188	0x3e4d2c00	0.20036316
189	0xbe5af460	-0.21382284
190	0xbe5ed5b6	-0.21761212
191	0x3e056aeb	0.13029067
192	0x3f562769	0.83653885
193	0xbfedbc2d	-1.8573052
194	0xbd0a17fd	-0.033714283
195	0xbd63067f	-0.055426117
196	0xbddcd86a	-0.10783465
197	0xbd11b3b3	-0.035571765
198	0x3e46ff6b	0.19433372
199	0x3e0361e6	0.12830314
200	0xbe8cf698	-0.27531886
201	0x3e8818bd	0.26581374
202	0x3e163928	0.14670241
203	0x3d96105d	0.0732734
204	0xbe4b1afc	-0.19834512
205	0xbe50410a	-0.2033731
206	0xbe40d7be	-0.18832299
207	0xbe081837	-0.13290487
208	0xbdccb3de	-0.099952444
209	0x3d8aed20	0.06783509
210	0x3e255307	0.16144954
211	0x3e9a1c5f	0.3009977
212	0x3e01e2b6	0.1268414
213	0x3d66fe5b	0.056394916
214	0x3d9f4984	0.07777694
215	0x3e00f577	0.12593637
216	0xbebcf553	-0.36905918
217	0xbbf23152	-0.0073911333
218	0x3c37af3f	0.0112112155
219	0xbd4fc628	-0.050726086
220	0x3e89f725	0.2694637
221	0x3e7fea27	0.24991666
222	0xbecdbd10	-0.40183306
223	0xbf2a154e	-0.6643876
224	0x3ef79d40	0.4836216
225	0x3cd80437	0.026369197
226	0xbe043b61	-0.12913276
227	0x3e5a6481	0.21327402
228	0x3ec07300	0.37587738
229	0xbe4d8271	-0.2006929
230	0xbd279d6f	-0.040921625
231	0xbdea2adf	-0.11433958
232	0x3dc3a5b4	0.0955309
233	0x3ccb94af	0.024851171
234	0x3d6692aa	0.056292213
235	0x3e113cd7	0.14183365
236	0xbce8375f	-0.028346715
237	0xbd5fd9ce	-0.054651074
238	0xbea5c1c4	-0.32374394
239	0x3f079c88	0.5297322
240	0x3f79946d	0.97492105
241	0xbffc2a63	-1.9700435
242	0xbec40ac3	-0.3828946
243	0x3ef016e8	0.46892476
244	0x3e3c09ad	0.18363066
245	0xbf015a14	-0.50528073
246	0x3e630fb3	0.22173958
247	0xbf0507a2	-0.5196477
248	0x3dfca707	0.123365454
249	0xbe30f2b4	-0.17280084
250	0xbd547aaa	-0.051874794
251	0x3e0403bf	0.12892054
252	0xbdec3aad	-0.11534629
253	0x3e62cedf	0.22149228
254	0x3dda0504	0.10645488
255	0xbccd05a8	-0.025027111

action_dict.encoder.bias f4 [64]
0	0xbfec30f7	-1.8452443
1	0xbf9344a2	-1.150532
2	0xbfc6f4f9	-1.554351
3	0xbf8b3855	-1.0876566
4	0xbfcb1a00	-1.586731
5	0xbee69ff5	-0.45043913
6	0xbf6f3627	-0.93442005
7	0xbf4a1b81	-0.7894822
8	0x3edb7b2e	0.42867416
9	0x3f00dde0	0.50338554
10	0xbf941434	-1.1568666
11	0xbfa01193	-1.2505363
12	0xbfefbb78	-1.8729086
13	0xbf6649b8	-0.89956236
14	0xbf8d65b9	-1.1046668
15	0xbfbb37a2	-1.4626353
16	0xbf8ec975	-1.115523
17	0xbf78d48b	-0.97199315
18	0x3e84c6fc	0.25933063
19	0xbff1b237	-1.8882512
20	0xbf65b1a1	-0.89724165
21	0xbf8fe0f1	-1.1240522
22	0xbfe537ae	-1.7907617
23	0xbfb2b39b	-1.3961061
24	0x3f0e3d7f	0.55562586
25	0xbf8bf953	-1.0935463
26	0xbfe0d16e	-1.7563913
27	0xbf5ab4e0	-0.85432243
28	0xc0023961	-2.0347521
29	0xbff610ce	-1.9223878
30	0xbf9d1fe4	-1.2275357
31	0x3eea88f9	0.45807627
32	0xbff4d0b9	-1.9126197
33	0xbf807032	-1.0034239
34	0xbfd6ea09	-1.6790172
35	0xbf7062fc	-0.9390104
36	0x3f1dcb51	0.6163836
37	0xbf84d223	-1.0376629
38	0x3e9aa55f	0.30204293
39	0xbfec36fe	-1.8454282
40	0xbff743bb	-1.9317545
41	0x3f194ea7	0.5988564
42	0xbfe0158b	-1.7506574
43	0x3f1d804d	0.61523896
44	0xbfa771b1	-1.3081571
45	0xbfaf9ca8	-1.3719683
46	0xbfd17ce9	-1.6366245
47	0x3ea8054e	0.32816547
48	0xbf5d9c87	-0.86566967
49	0xbf73f8a3	-0.95301265
50	0xbfb05be4	-1.3778043
51	0xbfb60b16	-1.4222133
52	0xbfdb1b30	-1.7117672
53	0xbf35e577	-0.7105326
54	0xbf9f4721	-1.2443582
55	0xbfe61e8b	-1.7978071
56	0xbf9c49aa	-1.220998
57	0xbf8d2552	-1.1027014
58	0xbf80741a	-1.0035431
59	0x3f00e158	0.5034385
60	0xbffb6833	-1.9641174
61	0xbff37e1c	-1.902286
62	0xbf83c7a8	-1.0295305
63	0xbff5c5e4	-1.9201016

action_dict.f_module.weight f4 [64, 64]
0	0xbe6eacca	-0.23308101
1	0xbcb4aa71	-0.022053929
2	0xbde26d4f	-0.11056005
3	0x3e145031	0.14483716
4	0x3e4de32f	0.20106195
5	0xbdf76725	-0.1208022
6	0x3c3c2203	0.011482718
7	0xbdacee0f	-0.084438436
8	0xbd383ed7	-0.044981804
9	0x3e19dc22	0.1502538
10	0xbdc957d3	-0.09831204
11	0xbdc30c38	-0.09523815
12	0xbdd21b3d	-0.102591015
13	0x3daf7497	0.085671596
14	0x3e329a3c	0.17441648
15	0xbd04487a	-0.03229568
16	0xbcc1690b	-0.023609659
17	0xbdba8461	-0.091072805
18	0x3e0f84cb	0.140155
19	0x3d4b55b6	0.049642287
20	0x3e4662ff	0.19373702
21	0x3d261c17	0.040554132
22	0x3d38f16b	0.04515211
23	0x3e1a7f69	0.15087666
24	0x3d7a1a82	0.061060436
25	0xbdf7fcd0	-0.12108767
26	0xbd9f9308	-0.07791716
27	0x3d95b0ad	0.07309089
28	0xbcd284cf	-0.025698094
29	0x3e0c994d	0.13730355
30	0xbd996169	-0.07489283
31	0x3ddae277	0.10687726
32	0xbbdf8c78	-0.006822165
33	0xbdd0f940	-0.10203791
34	0x3da3950a	0.07987411
35	0x3cbb5e2a	0.02287205
36	0xbccfe3aa	-0.025377113
37	0xbd8c0739	-0.06837315
38	0xbd6fee4a	-0.05857686
39	0xbd2c66d8	-0.042090267
40	0x3e0699d4	0.13144618
41	0xbc911c3f	-0.017713664
42	0xbcadc4d8	-0.021212026
43	0xbdfd6962	-0.12373616
44	0x3e0ed36f	0.13947843
45	0xbd17a69c	-0.037024125
46	0xbd69ea6d	-0.05710833
47	0xbdf087fb	-0.11744686
48	0xbe3c21c0	-0.1837225
49	0xbbddbee2	-0.00676714
50	0xbe521a42	-0.20517829
51	0x3d17786a	0.03698007
52	0xbdabb71a	-0.08384533
53	0x3d1deb30	0.03855437
54	0xbd7fec4b	-0.062481206
55	0x3d1a9d67	0.037747767
56	0xbd4b2a7d	-0.049601067
57	0x3e4758f7	0.19467531
58	0xbe2b5f4d	-0.16735573
59	0x3dc03226	0.09384565
60	0xbce08a0d	-0.027409578
61	0x3d2da5be	0.042394392
62	0xbd8b5538	-0.068033636
63	0xbcf2e98b	-0.029652378
64	0xbd6b01b7	-0.057374682
65	0xbc3701db	-0.011169876
66	0xbdfcf0b3	-0.12350597
67	0xbd885a31	-0.06657828
68	0x3e51126d	0.20417185
69	0x3bc9a0fb	0.0061532236
70	0x3d32e519	0.043675516
71	0xbded8690	-0.115979314
72	0xbc8ef07c	-0.017448656
73	0x3e09a182	0.13440517
74	0xbde854e0	-0.113443136
75	0xbd97fcbc	-0.07421252
76	0xbc33647b	-0.010949249
77	0xbd7515a3	-0.059835088
78	0xbb09af4e	-0.002100903
79	0x3d474108	0.048646003
80	0x3dd5747a	0.10422607
81	0xbcb1e307	-0.0217147
82	0xbd681483	-0.056660186
83	0x3d158938	0.036507815
84	0x3d9f709d	0.07785151
85	0xbd5c21cf	-0.05374318
86	0x3d8d245f	0.06891703
87	0xbdd7aeb5	-0.105313696
88	0x3c385c7d	0.01125252
89	0x3da925cb	0.082591616
90	0xbe8c7e9b	-0.27440342
91	0xbd7239f5	-0.059137303
92	0xbe18586e	-0.14877483
93	0xbe07d8bf	-0.13266276
94	0xbd1e7667	-0.038687136
95	0x3d64d73b	0.055869322
96	0x3ad79345	0.0016447088
97	0xbe127548	-0.14302552
98	0xbe0590dd	-0.13043542
99	0x3e0f9f9a	0.14025727
100	0x3d22a9cb	0.03971271
101	0xbe89755b	-0.26847348
102	0xbd8875c3	-0.06663086
103	0xbd87009e	-0.065919146
104	0xbd8a47f8	-0.06752008
105	0xbd12a3a7	-0.035800602
106	0xbe1f4959	-0.15555324
107	0x3c0abaf7	0.008467427
108	0xbe03e96b	-0.1288201
109	0x3d2edb94	0.042689875
110	0x3b8eac13	0.004354009
111	0xbc95a050	-0.01826492
112	0xbe8ced54	-0.27524817
113	0x3d8a0c5a	0.06740637
114	0x3df2f88d	0.118638135
115	0xbe166c6a	-0.14689794
116	0x3c4c720b	0.012478362
117	0x3d11daff	0.03560924
118	0x3dc31aec	0.09526619
119	0x3d85e147	0.06537109
120	0x3d168267	0.036745455
121	0x3dac2403	0.08405306
122	0xbde4f61b	-0.111797534
123	0x3bf0ad27	0.00734486
124	0xbd729cb0	-0.05923146
125	0xbe35d6db	-0.17757742
126	0x3de562d5	0.11200491
127	0x3e1babe6	0.15202293
128	0x3c000137	0.00781279
129	0x3dc29f7e	0.09503077
130	0x3de20f88	0.110381186
131	0xbcc08b57	-0.023503942
132	0xbe0fcfd0	-0.14044118
133	0xbd03598a	-0.032067813
134	0xbd84cadb	-0.06484004
135	0x3d1a5235	0.037676055
136	0xbe48e867	-0.19619904
137	0x3dd5d7e5	0.10441569
138	0xbde75913	-0.112962864
139	0xbdf14007	-0.1177979
140	0x3ddd367d	0.108014084
141	0xbd4a5816	-0.04940041
142	0x3cc5d2c4	0.024148352
143	0x3da8896c	0.08229336
144	0xbd913f88	-0.07092196
145	0x3d328020	0.04357922
146	0x3c9af800	0.018917084
147	0xbc928588	-0.017885938
148	0xbd1c4f99	-0.038161848
149	0xbbe324fd	-0.0069318996
150	0x3c3d1f1f	0.011543064
151	0x3d79afba	0.0609586
152	0x3d81ed44	0.06344083
153	0xbe3043d6	-0.17213377
154	0x3dbb52ef	0.09146678
155	0x3c350d97	0.011050603
156	0xbda575dd	-0.08079121
157	0x3dff1798	0.12455672
158	0x3e9bfb00	0.30464935
159	0xbd0a1f1b	-0.03372107
160	0xbd79688f	-0.06089073
161	0xbddb92a2	-0.10721327
162	0xbd4fee45	-0.05076434
163	0x3db0ffd7	0.086425476
164	0xbe5bfc42	-0.21482947
165	0x3d1c6f34	0.03819199
166	0xbd45a7a5	-0.04825558
167	0x3e1c9f68	0.15295184
168	0xbd24472b	-0.040106934
169	0xbdf516a0	-0.11967206
170	0x3d0a5313	0.033770632
171	0xbde97842	-0.113998905
172	0x3bfe0a97	0.0077527273
173	0x3d033cff	0.032040592
174	0xbd70f39b	-0.05882607
175	0xbc5274f8	-0.01284527
176	0x3db45d9c	0.08806917
177	0xbc897f6b	-0.01678439
178	0x3d5780fa	0.052613236
179	0xbda2ae07	-0.07943349
180	0x3e84a0a5	0.25903812
181	0xbdd78b62	-0.10524632
182	0xbd0fc6ce	-0.035101704
183	0x3de3b9a5	0.11119393
184	0xbca24c12	-0.019811664
185	0xbe437c54	-0.19090396
186	0x3cd00b07	0.025395883
187	0xbd72f488	-0.059315234
188	0x3d4abf71	0.04949898
189	0xbe97303b	-0.29528984
190	0x3ccf027a	0.025269736
191	0xbd987b5d	-0.07445405
192	0x3d643c25	0.05572142
193	0x3e0f806d	0.14013834
194	0x3d9802f1	0.07422436
195	0xbd75fc8b	-0.060055297
196	0x3da8e6e5	0.08247165
197	0xbe03764c	-0.12838095
198	0x3d4d0767	0.050055888
199	0xbe170ecc	-0.14751738
200	0xbc7e2b3a	-0.015513236
201	0x3c2afb26	0.010435855
202	0x3da4f45f	0.080544226
203	0x3e3bae8e	0.18328306
204	0x3e049f55	0.12951405
205	0x3e874104	0.2641679
206	0xbc71d3fd	-0.014760015
207	0x3da15fb8	0.07879585
208	0x3dfe7c27	0.12426024
209	0x3bfb0b83	0.0076612844
210	0x3c92355c	0.01784771
211	0x3de07aeb	0.10960945
212	0xba6e8f3a	-0.0009100322
213	0x3de20523	0.11036136
214	0xbdbf7703	-0.093488716
215	0xbcea61ab	-0.028611025
216	0x3e214ff2	0.15753153
217	0x3d483db0	0.048886955
218	0xbc39c455	-0.011338313
219	0xbdef7ba3	-0.11693504
220	0x3d8ec913	0.069719456
221	0x3c9a51cf	0.018837838
222	0xbd876f55	-0.06613032
223	0x3da2c172	0.07947053
224	0x3dd24df5	0.102687754
225	0xbd05a1f7	-0.032625165
226	0xbdc0835a	-0.09400053
227	0x3d656dd8	0.05601296
228	0x3d9d3da3	0.07677772
229	0x3c12f75e	0.00897011
230	0xbe0253d3	-0.12727289
231	0xbdea7147	-0.11447387
232	0xbdad0b43	-0.084494136
233	0x3a56a607	0.0008188192
234	0x3e25354b	0.16133611
235	0xbd06efb8	-0.032943457
236	0xbd8c93f3	-0.068641566
237	0x3d6a9863	0.057274234
238	0xbd307aa6	-0.043085717
239	0xbe595b2a	-0.21226183
240	0xbe2b9688	-0.16756642
241	0xbcc2b919	-0.023769902
242	0x3d0e23ea	0.03470222
243	0xbd217d7d	-0.039426316
244	0x3d058f07	0.032607105
245	0x3dff997a	0.12480445
246	0xbe2f9493	-0.1714652
247	0xbdce3002	-0.100677505
248	0xbddefd68	-0.10888177
249	0x3d950429	0.07276184
250	0xbe855a1b	-0.26045308
251	0x3ded1225	0.115757264
252	0xbcaa99a0	-0.020825207
253	0xbce197f0	-0.02753827
254	0xbdf52767	-0.11970406
255	0xbcaeb080	-0.021324396

action_dict.f_module.bias f4 [64]
0	0xbcdffba0	-0.027341664
1	0xbd740824	-0.059578076
2	0x3d07e600	0.03317833
3	0xbe24a02f	-0.1607673
4	0xbe6b7be0	-0.22996473
5	0x3cc88de9	0.02448173
6	0xbe2eab96	-0.17057642
7	0x3e579260	0.21051931
8	0x3d0ccddf	0.03437602
9	0xbb951e91	-0.004550763
10	0x3e169c25	0.14708002
11	0xbe0530dc	-0.1300692
12	0xbd13f70c	-0.036124274
13	0x3e156338	0.1458863
14	0xbd921368	-0.07132608
15	0x3eddbe56	0.43309277
16	0xbd6d7b27	-0.057978775
17	0xbd601f51	-0.054717366
18	0x3f0d497a	0.5519024
19	0xbf118647	-0.56845516
20	0xbc384687	-0.011247284
21	0x3e1f339d	0.15547033
22	0xbf21d14a	-0.63209975
23	0xbe43d84a	-0.19125476
24	0xbdc0c990	-0.09413445
25	0xbcb0eec5	-0.02159823
26	0x3e43e6e1	0.19131042
27	0x3d6667df	0.056251403
28	0xbd8beb25	-0.0683196
29	0xbd14118d	-0.03614955
30	0xbe1f4877	-0.15554987
31	0x3ca4286c	0.020038806
32	0x3c0233a8	0.007946886
33	0xbe70741a	-0.23481789
34	0xbe1aee63	-0.1513
35	0xbc0ab542	-0.008466067
36	0x3d467ec9	0.048460755
37	0xbed3d59f	-0.41373917
38	0x3d03f660	0.032217383
39	0xbd839d96	-0.064265415
40	0x3ddd14c7	0.107949786
41	0x3e3d2ca0	0.18474054
42	0x3d91acd5	0.07113043
43	0x3dc62699	0.09675331
44	0xbda635af	-0.08115708
45	0x3e3b5da8	0.18297446
46	0x3d3d5478	0.046223134
47	0x3e9c31b4	0.3050667
48	0xbe12e378	-0.14344585
49	0xbde65905	-0.11247448
50	0xbe701bf4	-0.23448163
51	0x3ef4a0cf	0.47778937
52	0xbcc8976f	-0.024486272
53	0x3df0eb11	0.11763585
54	0x3ccdce9c	0.025122933
55	0x3cc6721e	0.024224337
56	0x3da49ec7	0.08038097
57	0xbe19f3ac	-0.1503436
58	0x3e118772	0.14211825
59	0x3dfe0ab5	0.12404386
60	0xbdbcf373	-0.09226122
61	0x3dc6959f	0.09696507
62	0xbe294f02	-0.16534045
63	0xbda986b8	-0.08277649

action_dict.f_modules.0.weight f4 [64, 64]
0	0xbe6eacca	-0.23308101
1	0xbcb4aa71	-0.022053929
2	0xbde26d4f	-0.11056005
3	0x3e145031	0.14483716
4	0x3e4de32f	0.20106195
5	0xbdf76725	-0.1208022
6	0x3c3c2203	0.011482718
7	0xbdacee0f	-0.084438436
8	0xbd383ed7	-0.044981804
9	0x3e19dc22	0.1502538
10	0xbdc957d3	-0.09831204
11	0xbdc30c38	-0.09523815
12	0xbdd21b3d	-0.102591015
13	0x3daf7497	0.085671596
14	0x3e329a3c	0.17441648
15	0xbd04487a	-0.03229568
16	0xbcc1690b	-0.023609659
17	0xbdba8461	-0.091072805
18	0x3e0f84cb	0.140155
19	0x3d4b55b6	0.049642287
20	0x3e4662ff	0.19373702
21	0x3d261c17	0.040554132
22	0x3d38f16b	0.04515211
23	0x3e1a7f69	0.15087666
24	0x3d7a1a82	0.061060436
25	0xbdf7fcd0	-0.12108767
26	0xbd9f9308	-0.07791716
27	0x3d95b0ad	0.07309089
28	0xbcd284cf	-0.025698094
29	0x3e0c994d	0.13730355
30	0xbd996169	-0.07489283
31	0x3ddae277	0.10687726
32	0xbbdf8c78	-0.006822165
33	0xbdd0f940	-0.10203791
34	0x3da3950a	0.07987411
35	0x3cbb5e2a	0.02287205
36	0xbccfe3aa	-0.025377113
37	0xbd8c0739	-0.06837315
38	0xbd6fee4a	-0.05857686
39	0xbd2c66d8	-0.042090267
40	0x3e0699d4	0.13144618
41	0xbc911c3f	-0.017713664
42	0xbcadc4d8	-0.021212026
43	0xbdfd6962	-0.12373616
44	0x3e0ed36f	0.13947843
45	0xbd17a69c	-0.037024125
46	0xbd69ea6d	-0.05710833
47	0xbdf087fb	-0.11744686
48	0xbe3c21c0	-0.1837225
49	0xbbddbee2	-0.00676714
50	0xbe521a42	-0.20517829
51	0x3d17786a	0.03698007
52	0xbdabb71a	-0.08384533
53	0x3d1deb30	0.03855437
54	0xbd7fec4b	-0.062481206
55	0x3d1a9d67	0.037747767
56	0xbd4b2a7d	-0.049601067
57	0x3e4758f7	0.19467531
58	0xbe2b5f4d	-0.16735573
59	0x3dc03226	0.09384565
60	0xbce08a0d	-0.027409578
61	0x3d2da5be	0.042394392
62	0xbd8b5538	-0.068033636
63	0xbcf2e98b	-0.029652378
64	0xbd6b01b7	-0.057374682
65	0xbc3701db	-0.011169876
66	0xbdfcf0b3	-0.12350597
67	0xbd885a31	-0.06657828
68	0x3e51126d	0.20417185
69	0x3bc9a0fb	0.0061532236
70	0x3d32e519	0.043675516
71	0xbded8690	-0.115979314
72	0xbc8ef07c	-0.017448656
73	0x3e09a182	0.13440517
74	0xbde854e0	-0.113443136
75	0xbd97fcbc	-0.07421252
76	0xbc33647b	-0.010949249
77	0xbd7515a3	-0.059835088
78	0xbb09af4e	-0.002100903
79	0x3d474108	0.048646003
80	0x3dd5747a	0.10422607
81	0xbcb1e307	-0.0217147
82	0xbd681483	-0.056660186
83	0x3d158938	0.036507815
84	0x3d9f709d	0.07785151
85	0xbd5c21cf	-0.05374318
86	0x3d8d245f	0.06891703
87	0xbdd7aeb5	-0.105313696
88	0x3c385c7d	0.01125252
89	0x3da925cb	0.082591616
90	0xbe8c7e9b	-0.27440342
91	0xbd7239f5	-0.059137303
92	0xbe18586e	-0.14877483
93	0xbe07d8bf	-0.13266276
94	0xbd1e7667	-0.038687136
95	0x3d64d73b	0.055869322
96	0x3ad79345	0.0016447088
97	0xbe127548	-0.14302552
98	0xbe0590dd	-0.13043542
99	0x3e0f9f9a	0.14025727
100	0x3d22a9cb	0.03971271
101	0xbe89755b	-0.26847348
102	0xbd8875c3	-0.06663086
103	0xbd87009e	-0.065919146
104	0xbd8a47f8	-0.06752008
105	0xbd12a3a7	-0.035800602
106	0xbe1f4959	-0.15555324
107	0x3c0abaf7	0.008467427
108	0xbe03e96b	-0.1288201
109	0x3d2edb94	0.042689875
110	0x3b8eac13	0.004354009
111	0xbc95a050	-0.01826492
112	0xbe8ced54	-0.27524817
113	0x3d8a0c5a	0.06740637
114	0x3df2f88d	0.118638135
115	0xbe166c6a	-0.14689794
116	0x3c4c720b	0.012478362
117	0x3d11daff	0.03560924
118	0x3dc31aec	0.09526619
119	0x3d85e147	0.06537109
120	0x3d168267	0.036745455
121	0x3dac2403	0.08405306
122	0xbde4f61b	-0.111797534
123	0x3bf0ad27	0.00734486
124	0xbd729cb0	-0.05923146
125	0xbe35d6db	-0.17757742
126	0x3de562d5	0.11200491
127	0x3e1babe6	0.15202293
128	0x3c000137	0.00781279
129	0x3dc29f7e	0.09503077
130	0x3de20f88	0.110381186
131	0xbcc08b57	-0.023503942
132	0xbe0fcfd0	-0.14044118
133	0xbd03598a	-0.032067813
134	0xbd84cadb	-0.06484004
135	0x3d1a5235	0.037676055
136	0xbe48e867	-0.19619904
137	0x3dd5d7e5	0.10441569
138	0xbde75913	-0.112962864
139	0xbdf14007	-0.1177979
140	0x3ddd367d	0.108014084
141	0xbd4a5816	-0.04940041
142	0x3cc5d2c4	0.024148352
143	0x3da8896c	0.08229336
144	0xbd913f88	-0.07092196
145	0x3d328020	0.04357922
146	0x3c9af800	0.018917084
147	0xbc928588	-0.017885938
148	0xbd1c4f99	-0.038161848
149	0xbbe324fd	-0.0069318996
150	0x3c3d1f1f	0.011543064
151	0x3d79afba	0.0609586
152	0x3d81ed44	0.06344083
153	0xbe3043d6	-0.17213377
154	0x3dbb52ef	0.09146678
155	0x3c350d97	0.011050603
156	0xbda575dd	-0.08079121
157	0x3dff1798	0.12455672
158	0x3e9bfb00	0.30464935
159	0xbd0a1f1b	-0.03372107
160	0xbd79688f	-0.06089073
161	0xbddb92a2	-0.10721327
162	0xbd4fee45	-0.05076434
163	0x3db0ffd7	0.086425476
164	0xbe5bfc42	-0.21482947
165	0x3d1c6f34	0.03819199
166	0xbd45a7a5	-0.04825558
167	0x3e1c9f68	0.15295184
168	0xbd24472b	-0.040106934
169	0xbdf516a0	-0.11967206
170	0x3d0a5313	0.033770632
171	0xbde97842	-0.113998905
172	0x3bfe0a97	0.0077527273
173	0x3d033cff	0.032040592
174	0xbd70f39b	-0.05882607
175	0xbc5274f8	-0.01284527
176	0x3db45d9c	0.08806917
177	0xbc897f6b	-0.01678439
178	0x3d5780fa	0.052613236
179	0xbda2ae07	-0.07943349
180	0x3e84a0a5	0.25903812
181	0xbdd78b62	-0.10524632
182	0xbd0fc6ce	-0.035101704
183	0x3de3b9a5	0.11119393
184	0xbca24c12	-0.019811664
185	0xbe437c54	-0.19090396
186	0x3cd00b07	0.025395883
187	0xbd72f488	-0.059315234
188	0x3d4abf71	0.04949898
189	0xbe97303b	-0.29528984
190	0x3ccf027a	0.025269736
191	0xbd987b5d	-0.07445405
192	0x3d643c25	0.05572142
193	0x3e0f806d	0.14013834
194	0x3d9802f1	0.07422436
195	0xbd75fc8b	-0.060055297
196	0x3da8e6e5	0.08247165
197	0xbe03764c	-0.12838095
198	0x3d4d0767	0.050055888
199	0xbe170ecc	-0.14751738
200	0xbc7e2b3a	-0.015513236
201	0x3c2afb26	0.010435855
202	0x3da4f45f	0.080544226
203	0x3e3bae8e	0.18328306
204	0x3e049f55	0.12951405
205	0x3e874104	0.2641679
206	0xbc71d3fd	-0.014760015
207	0x3da15fb8	0.07879585
208	0x3dfe7c27	0.12426024
209	0x3bfb0b83	0.0076612844
210	0x3c92355c	0.01784771
211	0x3de07aeb	0.10960945
212	0xba6e8f3a	-0.0009100322
213	0x3de20523	0.11036136
214	0xbdbf7703	-0.093488716
215	0xbcea61ab	-0.028611025
216	0x3e214ff2	0.15753153
217	0x3d483db0	0.048886955
218	0xbc39c455	-0.011338313
219	0xbdef7ba3	-0.11693504
220	0x3d8ec913	0.069719456
221	0x3c9a51cf	0.018837838
222	0xbd876f55	-0.06613032
223	0x3da2c172	0.07947053
224	0x3dd24df5	0.102687754
225	0xbd05a1f7	-0.032625165
226	0xbdc0835a	-0.09400053
227	0x3d656dd8	0.05601296
228	0x3d9d3da3	0.07677772
229	0x3c12f75e	0.00897011
230	0xbe0253d3	-0.12727289
231	0xbdea7147	-0.11447387
232	0xbdad0b43	-0.084494136
233	0x3a56a607	0.0008188192
234	0x3e25354b	0.16133611
235	0xbd06efb8	-0.032943457
236	0xbd8c93f3	-0.068641566
237	0x3d6a9863	0.057274234
238	0xbd307aa6	-0.043085717
239	0xbe595b2a	-0.21226183
240	0xbe2b9688	-0.16756642
241	0xbcc2b919	-0.023769902
242	0x3d0e23ea	0.03470222
243	0xbd217d7d	-0.039426316
244	0x3d058f07	0.032607105
245	0x3dff997a	0.12480445
246	0xbe2f9493	-0.1714652
247	0xbdce3002	-0.100677505
248	0xbddefd68	-0.10888177
249	0x3d950429	0.07276184
250	0xbe855a1b	-0.26045308
251	0x3ded1225	0.115757264
252	0xbcaa99a0	-0.020825207
253	0xbce197f0	-0.02753827
254	0xbdf52767	-0.11970406
255	0xbcaeb080	-0.021324396
