model_save/simple_spread_reinforce_ic3net.pt (torch_old, 148305 bytes, 17 tensors)

value_dict.value_body.weight f4 [64, 18]
000000 46 a4 e2 be b2 d7 35 bc 4e 3e 7c bf bf e5 ea bd
       -0.44265956 -0.011098789 -0.9853257 -0.11469602
000010 2b 67 3d 3e eb 5c ca 3e 9c 9f a7 3f a8 af cf bf
       0.18496387 0.39524016 1.3095584 -1.6225481
000020 c6 73 02 40 1d 97 dc 3f 3f a4 c5 bf cd 71 ca bd
       2.0383162 1.7233616 -1.5440749 -0.09884987
000030 b5 74 ad bf b6 bf 6b be 7b 88 99 bd af 43 8f bd
       -1.3551241 -0.2302235 -0.07496735 -0.069953315
000040 6b 8e 8f 3d a3 8d 7c 3d 91 c9 43 3e 93 eb b2 be
       0.07009586 0.061658513 0.1911986 -0.34945354
000050 84 af 54 3f f6 b7 0d bf 25 ae 01 bd eb dc 07 3e
       0.83080316 -0.5535883 -0.031660218 0.13267867
000060 88 f8 99 be 89 c0 a9 3d b0 56 d4 be f5 37 d5 3e
       -0.30072427 0.08288676 -0.41472387 0.41644254
000070 52 d8 11 3f bb bb dc be 16 c0 1a 3f f2 3d 0d bf
       0.56970704 -0.43111977 0.6044935 -0.55172646
000080 09 af 1b be fc 6d 85 3c 6f da d3 3d ab 94 48 bd
       -0.1520349 0.016287796 0.10344397 -0.048969906
000090 53 a8 89 be 5e 7e ed be 5e a5 a8 bf f3 b3 80 bf
       -0.26886234 -0.46385473 -1.3175466 -1.0054916
0000a0 bc 65 7a 3f 44 57 8a 3f 69 2f a6 be 62 1d 6d 3f
       0.97811484 1.0807881 -0.32458046 0.9262296
0000b0 f3 b0 ef 3f 8e 98 e7 3e b1 7c ca bf d1 49 c1 bf
       1.8725876 0.45233577 -1.5819303 -1.5100652
0000c0 94 d4 b3 bf e3 06 75 bf 2b 22 26 3b c7 b1 de 3c
       -1.4049249 -0.95713633 0.0025349956 0.02718438
0000d0 b2 8c fc 3d fb a5 36 3d 0b dd 6f bc 14 c0 1e 3e
       0.12331523 0.044591885 -0.014640103 0.1550296
0000e0 8f 51 ab be 9d d8 72 3f 93 cb d5 3f 49 fd be 3e
       -0.33460662 0.94861776 1.6702751 0.37302616
0000f0 c3 d2 43 be 75 d7 27 c0 a9 69 94 3f 44 a2 ca be
       -0.19123368 -2.6225255 1.1594745 -0.39576924
000100 f4 53 8d bf 3a e8 a6 3f 28 5e 60 bf c3 8f b6 3f
       -1.1041245 1.303962 -0.8764367 1.4262623
000110 de b3 16 3d 68 13 b3 bd 5b cf d1 bd 37 3f e0 3d
       0.03679263 -0.08743936 -0.10244628 0.10949557
000120 bc 2f 5f be d3 79 2d 3e 9b e8 e6 3e 4e 0c 27 bf
       -0.21795553 0.16941004 0.4509934 -0.6525315
000130 7b e8 c4 bd 2d da b2 3f f2 83 91 be 3a 35 dd 3f
       -0.09614655 1.3972832 -0.2842098 1.7281868
000140 77 b2 c1 bd d3 58 c3 3f f7 85 f0 3e f5 53 e8 bf
       -0.094578676 1.5261482 0.46977207 -1.8150622
000150 14 13 77 3e cb 34 ec bf 57 ec e4 3d 47 70 eb 3c
       0.24128371 -1.8453611 0.11177891 0.028740061
000160 30 71 21 3e aa 1c 73 3d 59 72 76 bd 47 cd f2 3e
       0.15765834 0.059353508 -0.060167644 0.4742224
000170 52 b5 d2 be e2 8b bd be f9 a9 9a 3e b5 b6 9b c0
       -0.4115396 -0.37020785 0.30207804 -4.866053
000180 94 3f 52 bd 36 3b aa 3f 80 50 bb bd d7 54 88 3f
       -0.051330164 1.329932 -0.091462135 1.0650891
000190 7b 8b f9 bd 15 3c b4 bf a6 8c d4 bc b3 f3 bf bf
       -0.12184807 -1.4080836 -0.025945973 -1.4996246
0001a0 23 9f 0c be 15 c6 96 3c 0d 5a ec bd 47 f7 ca 3d
       -0.13732581 0.018405 -0.11540613 0.09910446
0001b0 45 b1 3f 3f 20 cb 02 bf 23 9a 39 40 04 05 39 bf
       0.74879867 -0.51091194 2.9000328 -0.7227328
0001c0 7b c1 e2 bf 72 e0 c3 3e 86 8f e3 bf f5 7a 9e 3e
       -1.7715296 0.38257176 -1.7778175 0.30953184
0001d0 78 0a b5 bf 7c 46 22 3e 02 e0 3a 40 1f 42 8e bf
       -1.414382 0.158472 2.9199224 -1.1113929
0001e0 a9 71 2b 40 99 70 26 bf ab 73 53 3d 48 e6 48 3b
       2.6788123 -0.6501556 0.05162398 0.0030654836
0001f0 0f 5d 9e be 93 66 92 bd d7 1f 45 3d 03 45 06 be
       -0.30930373 -0.07148471 0.048126068 -0.13112263
000200 42 27 16 bf 95 db 70 3e 16 af a3 bd da 4d 0d 3f
       -0.5865365 0.23521264 -0.07992379 0.5519692
000210 87 32 78 3f 0a df 48 3e 2c df 1e 3f f4 12 8b be
       0.969521 0.19616333 0.62059283 -0.27162898
000220 fe 07 0b be ad 43 1e bd e8 e1 b6 be cd 5f aa be
       -0.13577268 -0.03863876 -0.35719228 -0.33276215
000230 cc de 29 3e 37 9f 51 3c f2 9a 7c 3c 36 15 b6 ba
       0.16588897 0.012794307 0.015417801 -0.0013891819
000240 bc 17 0f be 5a f1 08 3f 6a 56 ac bc 1f f9 07 be
       -0.13973898 0.53493273 -0.0210373 -0.13278626
000250 39 13 8f bf 34 81 00 40 b2 39 ab 3f e9 9e c5 bf
       -1.1177741 2.007886 1.3376982 -1.543912
000260 67 0c 88 3e e7 7a 54 bf 1b bb d3 be cb be 58 3f
       0.26571962 -0.83000034 -0.41353688 0.84666127
000270 74 3e 2e 3f 06 18 be bf 3b ae dd ba 6b 44 00 3d
       0.68064046 -1.4851081 -0.0016912887 0.03131525
000280 d5 a9 36 3d df c0 93 3b c5 e7 14 3e 57 b0 28 bd
       0.04459556 0.004509076 0.14541538 -0.041183796
000290 38 64 74 bf 52 c8 04 c0 70 63 d9 bf 07 89 d4 bf
       -0.9546542 -2.0747266 -1.6983471 -1.6604317
0002a0 cb 58 2b 3f d8 71 cb 3e c6 6e 01 bf 1b 74 5c bf
       0.6693236 0.39735293 -0.5055965 -0.8611466
0002b0 44 00 92 bd 4d 55 d5 bd 5a 36 e0 be 25 87 47 bf
       -0.07128957 -0.104166605 -0.43791467 -0.7794059
0002c0 92 83 fe 3c b0 b0 96 3d 65 3e 9f bd ef 7d 92 3b
       0.031068597 0.07357919 -0.07775573 0.004470579
0002d0 0a 0c 94 3f 7f d3 81 bf 4e d3 34 bf 24 e2 83 bf
       1.1566174 -1.0142668 -0.70634925 -1.0303388
0002e0 c2 65 32 3e f6 71 07 3f cf eb 22 bf 20 f0 11 3f
       0.1742163 0.52908266 -0.63641065 0.57007027
0002f0 ae 74 8b be 67 91 28 3f b7 7f 0a 3f df cd ad bf
       -0.27237457 0.65846866 0.5410113 -1.3578452
000300 21 34 ae 3e 8b f5 a2 bf f0 47 67 be 95 30 aa bd
       0.34024146 -1.2731184 -0.22586036 -0.083100475
000310 55 6b a0 bd db 86 ad bc 70 f5 28 be 4c 92 5e 3b
       -0.07832972 -0.021182468 -0.16499877 0.0033961711
000320 3f 3f 19 bf 8d 3c ac 3e b8 e2 96 bf 68 44 b8 bf
       -0.5986213 0.33639947 -1.1787939 -1.4395876
000330 8d ec 3f 3f 30 33 a6 bd 1f bd 1b 40 15 f1 6f be
       0.7497032 -0.08115232 2.433418 -0.23431809
000340 7b af 6c bf f4 7d 2e 3f f2 83 89 bf 1d 4d 65 3f
       -0.9245526 0.6816094 -1.0743392 0.8957079
000350 fb 43 79 3a b4 35 98 bd 56 68 88 bd 85 cf ee bd
       0.0009508726 -0.07432118 -0.066605255 -0.11660675
000360 e2 0c 53 3d 95 7a 87 3e bb d4 0f 3e 3a 41 21 3f
       0.051525958 0.2646071 0.14045994 0.6299015
000370 0d fe 8f bf 17 63 7d bf 65 33 66 bf ea ec b2 bd
       -1.1249405 -0.98979324 -0.8992217 -0.08736594
000380 c4 09 a1 3f d8 b8 38 c0 3c f9 aa 3e f3 ac be 3f
       1.2581105 -2.886282 0.33393276 1.489653
000390 b3 b7 3d 3e 95 2d e5 3f 85 3a c4 3d ef 12 a9 bd
       0.18527107 1.7904536 0.09581474 -0.082555644
0003a0 c6 82 92 bd 6d 2d fa bd f0 ff a7 3e 42 8b a3 bd
       -0.07153849 -0.122156955 0.32812452 -0.07985546
0003b0 e1 06 6f bf 95 37 80 bf 4d 06 aa bd c8 9d 6a 3f
       -0.9336987 -1.0016962 -0.08301983 0.91647005
0003c0 52 a6 ef 3e d0 42 55 3e b9 17 09 40 ea 73 78 bf
       0.4680658 0.20826268 2.142073 -0.9705187
0003d0 5a 31 96 be b2 a8 24 3f 18 b7 ab bf 82 47 85 bf
       -0.29334527 0.6431991 -1.3415251 -1.0412447
0003e0 77 20 58 bd 8f d6 38 3d 6b 3e f9 3c ac 5c 28 3c
       -0.052765336 0.045126494 0.030425271 0.010276001
0003f0 e0 e2 68 bc c8 22 a1 bb 2c 19 d7 3f 02 a2 54 bf
       -0.014214247 -0.0049174763 1.6804557 -0.83059704

value_dict.value_body.bias f4 [64]
000000 23 2e 43 40 f4 59 2b bf ec c1 31 c0 48 68 34 40
       3.049691 -0.6693413 -2.777461 2.8188648
000010 e7 b8 41 be f5 d9 0e bc 7b 74 0c 3f 38 05 56 40
       -0.18918191 -0.008718957 0.54865235 3.3440685
000020 b7 67 a9 be 35 7e 47 c0 5e 7b 6e bf c4 69 33 40
       -0.3308694 -3.117078 -0.93156993 2.8033304
000030 ed db 55 40 74 5f 44 40 5e 6e eb 3f ed 38 4a 40
       3.3415482 3.068326 1.8393056 3.1597245
000040 ae d9 6e 40 5f 25 cd 3d 67 0c f8 be d8 ef 16 40
       3.732036 0.100168936 -0.48446962 2.358389
000050 f5 50 0e 40 f3 80 50 be f1 7d 45 be 93 ba db be
       2.2236912 -0.2036169 -0.19286324 -0.42915782
000060 70 d0 0b be e6 1f 5e 40 c2 a2 97 bd 10 c1 17 be
       -0.13653731 3.470697 -0.074040905 -0.14819741
000070 27 06 4a 40 ae 5a 2f be 18 be b5 3f 8f ae 36 40
       3.1566255 -0.17124435 1.4198637 2.8544042
000080 1c 5d 5b 40 b9 7b 1a be ad 5e 68 40 69 65 02 bd
       3.427558 -0.15086259 3.6307786 -0.031834994
000090 f3 86 cd 3f f6 90 98 be 17 20 b9 bd 19 a5 69 40
       1.6056808 -0.29798096 -0.09039324 3.6507018
0000a0 18 46 4e 40 b7 0e 07 40 12 3f 74 bd 6e 5f 7f 3e
       3.2230282 2.1102731 -0.05963046 0.24938747
0000b0 ff 96 69 40 a6 c1 51 40 d8 93 24 40 bc 10 6d 40
       3.649841 3.2774444 2.5715237 3.7041464
0000c0 9b e5 6e 40 ed e4 c0 be 6f e9 9d 3f ab 11 67 40
       3.732764 -0.37674657 1.2336863 3.6104534
0000d0 db a8 2e c0 28 2f 01 40 b1 88 5e bf 82 98 68 40
       -2.7290561 2.0185032 -0.86927325 3.6343083
0000e0 52 36 fb be 14 b8 65 40 bd 45 5e be fd f2 03 40
       -0.4906488 3.5893602 -0.2170629 2.0617058
0000f0 35 1f 2c 40 f5 14 38 3d a0 3e 67 40 40 94 6e 40
       2.6894047 0.04494186 3.6131973 3.7277985

value_dict.value_head.weight f4 [1, 64]
000000 e7 26 3b bf 98 29 22 be a2 af e6 bf bb fb 85 bf
       -0.73106235 -0.1583618 -1.8022349 -1.0467447
000010 96 f0 c2 bf 3e 45 b7 bf fd 11 53 bf fc 97 24 bf
       -1.5229671 -1.4318006 -0.8244932 -0.6429441
000020 45 0d 4e be 7f 81 64 3f 95 b0 61 be 04 6c 9e bf
       -0.2012225 0.89260095 -0.22040017 -1.2376714
000030 2a 6a 8d bf d7 db 87 be 6e 8a 31 be fb 65 34 bf
       -1.1048024 -0.26534912 -0.17337963 -0.7046811
000040 22 c4 b8 bf 11 de 78 bf 24 a6 5d be 26 78 57 be
       -1.4434855 -0.97213846 -0.21645409 -0.21041927
000050 a5 db 08 3c 15 1a 0f c0 60 a3 2d 3f 44 08 b9 3e
       0.008353149 -2.235967 0.67827415 0.3613912
000060 58 a6 80 bf dc 89 84 bf 63 49 82 3f 5c 53 4c c0
       -1.0050764 -1.0354571 1.0178646 -3.1925879
000070 6e 0a 1b bf b5 68 4a bf 46 a8 ed be 07 a5 69 be
       -0.6056279 -0.7906602 -0.46417445 -0.22816859
000080 8a 88 4a bf c4 bd 1f c0 17 ef 0c c0 9b 6e 7f 3f
       -0.7911459 -2.4959574 -2.202093 0.99778146
000090 6f 30 98 be 20 02 15 c0 5b cc cf bf 57 5b b3 bf
       -0.29724452 -2.3282547 -1.6234239 -1.401225
0000a0 39 a9 ad bf 45 9e 9c bc 91 9d dc bf ec 0c 97 bf
       -1.3567268 -0.019118438 -1.7235585 -1.1800818
0000b0 1e 72 71 be 75 f5 5c bf 1b 6a 06 bf 1d 42 4f bf
       -0.23578689 -0.8631204 -0.52505654 -0.80960256
0000c0 06 1b 23 bf b6 14 6c 3f 40 e6 3f bd 40 34 11 c0
       -0.6371311 0.922191 -0.046850443 -2.268814
0000d0 83 ab a2 bf d0 01 b5 be 73 4d 55 bf a1 33 3f bf
       -1.2708591 -0.35352945 -0.83321303 -0.74688154
0000e0 14 97 75 bc 48 4b 4b bf 90 0c 3d 3f f9 80 6a bf
       -0.014989633 -0.79411745 0.73847294 -0.91603047
0000f0 b5 cb 8e bf 05 d0 7e bf 01 f1 10 bf 93 c8 56 bf
       -1.1155916 -0.9953616 -0.5661774 -0.838998

action_dict.action_head.weight f4 [5, 64]
000000 d6 38 dc bd 36 73 fa 3d 34 bc 30 bd fc cd 41 be
       -0.10753028 0.12229006 -0.043148234 -0.18926233
000010 66 62 b9 bc e4 81 8d bc 33 a1 68 3d 0c 1f 90 3d
       -0.022629928 -0.01727385 0.056794357 0.07037172
000020 cd ff 8d 3d 8b 8f 3b bd aa 30 6c 3d 5d 20 13 3d
       0.06933556 -0.04579119 0.057663597 0.035919536
000030 ed eb 24 3e 6d a1 db 3d 45 8a 5d 3c bf 54 b1 bd
       0.16105624 0.10724149 0.013521736 -0.08658742
000040 01 8a dc 3c 56 f3 80 be 17 79 c8 3d a6 3a a7 3d
       0.026921274 -0.2518565 0.09788721 0.08165483
000050 03 98 8e 3e 09 82 f7 bd 32 7b 5b 3e 47 a8 83 3d
       0.2785035 -0.12085349 0.21433714 0.06428581
000060 5c 67 5e be 13 fc 99 bb 65 1d 0f 3e 5d 5e 46 ba
       -0.21719116 -0.004699239 0.13976057 -0.0007567162
000070 82 7e 4e bb ef 1b 98 3e 83 46 55 3e 05 6e 1e bd
       -0.003150851 0.29708812 0.2082768 -0.03867914
000080 2a bf d8 3d f3 e5 1a 3d bf 83 1e 3e a1 5e 89 3d
       0.10583337 0.037816953 0.15479945 0.06707502
000090 0c c8 1f bd 10 c5 2f bd 2d 00 14 3e 7d 2c 8e bd
       -0.03900914 -0.042912543 0.14453192 -0.06942079
0000a0 fc 5d 37 3d 6d de 2e 3d 05 3c d3 3d 43 37 d6 3d
       0.044767365 0.04269259 0.10314182 0.10459759
0000b0 97 a1 e6 bd c4 5d f4 bd f2 2c 08 be eb 43 d4 be
       -0.112612896 -0.11931947 -0.13298395 -0.41458067
0000c0 8b 32 d9 bd 19 56 2b bc 14 00 24 be 6e 1d a0 3d
       -0.106053434 -0.010457539 -0.16015655 0.07818113
0000d0 05 a9 e0 bd a7 b3 80 bd 5e 0d c7 be 28 c9 9d 3c
       -0.10969738 -0.06284266 -0.38877386 0.019260958
0000e0 ef 79 f8 bd 67 5c f6 3c 8e 9c d6 bd cf 8e 74 bd
       -0.12132632 0.030073358 -0.10479079 -0.059706505
0000f0 44 8f 07 3e 1a 71 ef 3d 94 75 05 bd c9 ec c1 bd
       0.13238245 0.11691494 -0.032582834 -0.09468991
000100 58 a9 2d 3e 70 48 9c bd ae 57 60 3c 11 36 80 3e
       0.16959131 -0.07631004 0.0136927795 0.2504125
000110 55 2e a3 3e 51 19 8e be 01 b8 e7 3e ac 3e 19 bf
       0.31871286 -0.2775369 0.4525757 -0.59861255
000120 54 5f a3 be 93 7f 99 3b 19 76 08 bf 3c 2b bf bd
       -0.31908667 0.0046843975 -0.533052 -0.09334418
000130 6c dd 85 3e 42 2f a7 be 89 ba 5c 3e d1 ad 3a 3e
       0.26145494 -0.32653242 0.21555533 0.18230368
000140 fb 44 2d 3e 03 55 cf 3c 58 75 8d be 1a 13 bb bd
       0.16920845 0.025309091 -0.2762859 -0.09134503
000150 9e d0 5c 3e a7 bb 0e 3e b1 8e 88 3b bd 93 98 3e
       0.21563956 0.13938771 0.0041674008 0.29800215
000160 3b 23 35 be 50 7e a6 3d 16 a9 73 3e 81 dd 22 3e
       -0.1768922 0.08129561 0.2379497 0.1590481
000170 25 eb aa 3d 98 40 69 3e bb 3c 02 bf 10 47 30 be
       0.083456315 0.22778547 -0.5087392 -0.17214608
000180 9b 90 90 bb da 57 f5 3d ed 52 dd be 84 4b 3c be
       -0.0044117696 0.11979647 -0.4322733 -0.18388182
000190 cb 0a 16 3f 24 6d 27 bf 4f f5 71 be c9 46 d2 3e
       0.5861022 -0.6540091 -0.23628734 0.4106963
0001a0 f7 93 f9 be 20 3d 92 3e 62 52 01 bd 14 31 b0 be
       -0.487457 0.2856226 -0.031572707 -0.34412444
0001b0 1d c5 aa 3e 38 27 94 be 9e 69 36 3e 08 b6 35 bf
       0.3335351 -0.28936172 0.17813727 -0.7098088
0001c0 b9 eb dd 3d 24 a0 83 3e f2 c6 2a bd 06 22 02 3e
       0.10835976 0.25708115 -0.041693635 0.12708291
0001d0 35 94 74 3e d3 50 57 be 2d 3c 2c bd 39 68 89 3c
       0.23884661 -0.21026926 -0.042049576 0.01677333
0001e0 ea ce e0 bd 13 ed 57 bc 81 12 1e be 08 59 9e 3e
       -0.10976966 -0.0131790815 -0.15436746 0.309273
0001f0 b3 3d 82 be a9 db 81 bb 40 8d c3 3d 5f 37 8d 3e
       -0.25437698 -0.003962953 0.09548426 0.27581307
000200 d8 41 df bd 50 40 b4 3d 8e cb 9f 3d ae a1 ad 3e
       -0.109012306 0.08801329 0.07802497 0.33912414
000210 f4 40 82 be 5b 6f a3 3e f4 ff 0e bf dc 25 1b 3f
       -0.2544018 0.31920895 -0.55859303 0.60604644
000220 da 82 f9 3e 59 0e 36 bd c7 78 d2 3e 0a 92 f2 3d
       0.48732644 -0.044447277 0.4110777 0.11844261
000230 26 c3 cd be aa 5b ea 3e c8 16 51 3d e2 ab d9 bd
       -0.4018795 0.4577306 0.051047117 -0.10628487
000240 51 3b 97 be 19 64 c7 bc ca e1 46 3e 27 92 32 bd
       -0.29537442 -0.024339722 0.19422069 -0.043596413
000250 19 f4 89 be a6 a5 a1 bd c2 de 54 bd a0 d1 dd bd
       -0.26944044 -0.07892923 -0.05197025 -0.108309984
000260 14 80 14 3e e5 38 89 3e 4e 4e 47 bd 11 e7 4a be
       0.14501983 0.2680122 -0.04865866 -0.19814707
000270 29 3e 64 be 3d 5a 6b 3e 86 0e fd 3e 97 21 2d 3d
       -0.22289337 0.22983642 0.49425143 0.042268362
000280 bf 6f 57 3e 23 05 57 bd 72 18 ec 3d 6f eb 50 3e
       0.21038722 -0.052495133 0.115281 0.20402311
000290 78 8e 34 bf c5 d9 36 3f a8 00 57 be d5 4b 19 bc
       -0.7052989 0.7142604 -0.20996344 -0.009356459
0002a0 48 78 f3 3e d3 6c c3 bd 25 91 78 bd 7e 57 98 3e
       0.47552705 -0.09542241 -0.060685296 0.2975425
0002b0 60 a7 28 be 80 88 a8 3e db f7 04 be dd 15 a1 3e
       -0.16470098 0.3291664 -0.12985174 0.31461993
0002c0 f0 43 8d bd 93 dc a5 be 29 ca 71 3e 10 2b e6 3d
       -0.06897724 -0.32394847 0.23612274 0.11238682
0002d0 09 10 51 be e4 12 95 3e 8e c6 27 3e 43 45 07 be
       -0.20416273 0.29115975 0.16384336 -0.13210015
0002e0 ce 9e 30 3e ee c2 cb 3d 64 ea 69 3d ab cf f5 bd
       0.17248079 0.09949289 0.057108298 -0.120025
0002f0 43 ca 94 3e 92 3d 93 be e8 14 a5 3d c2 22 4b bf
       0.29060563 -0.28757912 0.08060628 -0.7934991
000300 ef 15 48 bd c8 06 80 3d ae 1c 0b bd 57 27 8f 3e
       -0.048849043 0.062512934 -0.033962898 0.279597
000310 d7 c8 4e 3f 15 ba 6e be 0e d0 1b 3f 22 02 d2 3e
       0.8077521 -0.23313172 0.6086434 0.41017252
000320 f1 d3 b9 3e 4d 02 44 3e b2 6f 04 3f e3 92 5e bd
       0.3629451 0.19141503 0.51732934 -0.0543393
000330 c5 a8 8a be f3 5f d4 be f8 97 cd 3e 0c d0 91 3c
       -0.27081886 -0.41479453 0.40155005 0.0177994
000340 a1 02 a3 3b 50 f2 dc 3d 5a 04 a8 bd 3d fb eb bd
       0.0049746786 0.10788405 -0.08203955 -0.11522529
000350 2d d2 38 3c 51 30 9b bd d1 58 9d 3e 58 10 11 be
       0.011280579 -0.07577575 0.30731824 -0.14166391
000360 fd 1c 97 bd 4f 2f 6b bd 61 f4 c5 3e bd fd 06 be
       -0.07378576 -0.057418164 0.3866301 -0.13182731
000370 d5 c6 b6 3e c5 80 e1 3c f7 86 dd bd c8 ad 9b be
       0.35698572 0.027527222 -0.10816758 -0.30406022
000380 30 21 e4 3e 4a 21 12 3f 30 1e c4 be f0 f8 8a 3d
       0.4455657 0.57082045 -0.3830428 0.06785762
000390 68 23 ad 3e 50 a5 c7 3e 41 ff 38 3e 20 a0 0d be
       0.33816075 0.3899331 0.18066122 -0.13830614
0003a0 89 58 b0 be 79 3f 58 bd 19 5b c4 bc 96 d0 8e bd
       -0.34442547 -0.052794907 -0.02396922 -0.06973378
0003b0 10 fc 8d 3e 58 23 97 be 6a 30 b6 3d 15 69 ce 3d
       0.2773137 -0.29519153 0.08895953 0.100786366
0003c0 fa e2 d6 be d1 ea 40 be 96 d8 bb 3d 71 af 4b be
       -0.41970044 -0.18839575 0.0917217 -0.19891144
0003d0 a0 0c b4 be 03 2f e5 3d 7a dc 9e be 25 a8 30 3d
       -0.35165882 0.111906074 -0.31027585 0.043129105
0003e0 2d ae 1d 3d 87 f5 91 3e 27 f6 1c be 41 4f 39 3c
       0.038496185 0.28507635 -0.15328275 0.0113103995
0003f0 7d a7 a3 3e ad f1 e2 3d 62 a7 e6 bd 27 fd 62 be
       0.3196372 0.11081252 -0.112623945 -0.22166882

action_dict.action_head.bias f4 [5]
000000 12 36 74 3e 4a 05 cd 3d 4e a6 50 bd 75 55 e0 bd
       0.23848751 0.100107744 -0.05093985 -0.109538
000010 bd bd ca 3d
       0.09899471

action_dict.encoder.weight f4 [64, 18]
000000 65 cc 76 bd f7 72 90 be ca 55 00 3f b1 cd dd bd
       -0.06025352 -0.2821271 0.50130904 -0.10830248
000010 49 2a c7 bb 56 ad f5 be 93 0a df be 86 bc 47 bd
       -0.006078039 -0.47983807 -0.43562755 -0.048763774
000020 e4 a6 5b be d8 31 f7 bc a0 58 67 3e ca 2e f6 bd
       -0.21450382 -0.030175135 0.22592402 -0.12020643
000030 ed 48 07 3f 9d 1f cb 3e 65 09 a2 bd 88 38 40 3c
       0.5284565 0.39672557 -0.07911948 0.011732228
000040 47 2b d3 3d 5f 34 49 be 94 6f 23 bd ca b4 5f be
       0.10310989 -0.19648884 -0.03990133 -0.2184631
000050 74 e4 38 3c ad 0f e7 3d 58 85 34 bd 0e ee 0a 3e
       0.011284936 0.11282287 -0.04407248 0.13567373
000060 07 17 d3 bd b1 c9 bc bd bf 93 c0 be 32 9a 49 be
       -0.103071265 -0.09218157 -0.3761272 -0.19687727
000070 25 a0 8e 3f bc 07 8e 3f 6c bd 86 bf 12 cc 91 bf
       1.1142622 1.109611 -1.0526557 -1.1390402
000080 3b 6b 21 3e bb 95 22 be 02 d7 1f 3d b8 34 04 3e
       0.15763561 -0.1587743 0.039023407 0.12910736
000090 b2 d6 f8 3e 75 4a 9a 3d 4f c9 27 3c d0 73 90 3e
       0.486013 0.07533733 0.010240867 0.28213358
0000a0 10 03 20 3e f4 0e 22 3e dc b8 c9 3e 45 d7 85 be
       0.15626168 0.15826017 0.3939885 -0.261408
0000b0 22 a3 2c be ed f9 6e 3b c2 12 b2 be af 71 71 bd
       -0.16859105 0.0036464885 -0.34779936 -0.058946308
0000c0 13 90 6a 3d e1 50 75 3e 71 96 88 3d d8 d1 62 bd
       0.057266306 0.23956634 0.066693194 -0.055375904
0000d0 f3 65 c5 3d fc fd 96 3d 7b 42 f9 be c3 ac a0 3e
       0.09638586 0.073726624 -0.48683533 0.31381807
0000e0 cf 64 7e bd 67 34 8c 3d e1 fa 17 40 62 8a c2 bf
       -0.062107857 0.068459325 2.3746874 -1.5198481
0000f0 bb 16 96 bd b6 df 62 3d fa fc 73 bd dd 6d cd 3d
       -0.07328554 0.05538913 -0.05956743 0.100307204
000100 c1 94 da 3d 8c 35 93 bd ae 04 d3 3c 4d 19 87 bd
       0.10672904 -0.07187948 0.025759067 -0.065966226
000110 d7 c6 39 3e 80 d9 e2 bc 7a 09 fd 3d 4b 3e 5a bd
       0.18142258 -0.027691603 0.12355323 -0.053282063
000120 d2 56 36 3c d4 ab de 3e f3 a4 ed 3d f8 d1 5f 3e
       0.011129098 0.4349047 0.11603727 0.2185744
000130 94 60 b5 bd 24 15 a4 be 0b 68 64 be b3 8c 9e be
       -0.088563114 -0.3204738 -0.22305314 -0.3096672
000140 ae 1b 67 3d ff dc 00 bd e7 e7 06 bf 91 0e b0 bf
       0.05642288 -0.03146076 -0.52697605 -1.3754445
000150 37 72 ab 3e ce 94 5b 3f 2b ec 87 bc 8a 66 57 3d
       0.33485577 0.8577393 -0.016592106 0.052588023
000160 09 dc 03 3c 47 e1 81 3d d7 c8 d2 3d 3c d2 98 bd
       0.008048066 0.06341796 0.102922134 -0.07461974
000170 48 ff 8b be f2 af a7 3e e0 d8 d3 bd 87 83 0d 3e
       -0.27343202 0.32751423 -0.103441 0.13819705
000180 40 3d 16 be 58 28 c2 3d dc 5f ae be 96 f2 9e 3e
       -0.14671803 0.09480351 -0.3405751 0.31044453
000190 76 0a 8f bc 94 46 65 3e 37 4d b7 bb 7d 7e ff be
       -0.017461043 0.22390205 -0.0055939215 -0.4990119
0001a0 18 40 2f be f0 6f 71 3d aa d2 5c 3c 6d db 68 3d
       -0.17114294 0.058944643 0.013477961 0.056849886
0001b0 97 b5 24 3e 67 10 83 3c 0f ce 0a be 55 54 01 be
       0.16084896 0.015999032 -0.13555168 -0.12629826
0001c0 5d be 29 be c9 ea bc 3d d5 19 2b be 30 8c 27 3d
       -0.16576524 0.09224469 -0.16709073 0.040905178
0001d0 cb dc 76 be 50 9e 93 bc 3f fa 31 bd 65 df 73 be
       -0.24107663 -0.018019825 -0.043451544 -0.23815687
0001e0 b4 e4 f1 bd 50 28 2f be 24 6e ab bd d3 96 b1 3c
       -0.118112 -0.17105222 -0.08370617 0.021678364
0001f0 23 46 b3 bb 36 b5 92 3b bd 25 3d 3f c8 30 6e 3d
       -0.0054710074 0.0044771684 0.7388571 0.05815199
000200 bf 00 f3 3e 55 1c 0d 3d f9 c9 8a bd 4b 97 57 bc
       0.47461507 0.034450848 -0.067768045 -0.01315863
000210 db 86 6e bd c4 20 c1 3e 53 7d 92 be 1a 8d 92 3d
       -0.058234077 0.3772031 -0.2861124 0.07155819
000220 92 89 e1 3e f7 70 d4 be 63 fb e8 3e 0b bd 1a 3d
       0.4405027 -0.41492435 0.45504293 0.03777794
000230 73 42 d3 bc ad ed c3 bd 44 b4 a1 3d f3 ab 5e bd
       -0.025788521 -0.095668174 0.07895711 -0.054363202
000240 56 c8 24 3c b2 bd 0e 3f 4e 50 f1 3d 31 21 f6 3c
       0.010057529 0.557582 0.11782895 0.030045124
000250 f8 cf 26 be e5 f6 9c 3e ee 65 ae 3c 30 4f ac 3d
       -0.16290271 0.30657116 0.021288838 0.08413541
000260 5f a7 b6 3e b7 4a 0e c0 0c da 10 3d eb f4 29 be
       0.3567457 -2.2233102 0.035364196 -0.16597335
000270 14 00 e1 bd 86 22 31 be 94 01 8e 3e 55 83 a6 bc
       -0.10986343 -0.17298326 0.2773558 -0.020326296
000280 34 a3 83 bd d1 b7 a4 3c 6a 53 75 be 1d da c5 be
       -0.06427613 0.020107182 -0.23957601 -0.3864297
000290 ad 32 ec bd 25 03 87 be 5f 31 8a 3e 6f 70 a1 3f
       -0.11533103 -0.26369587 0.26990792 1.2612437
0002a0 54 49 1a bf 7c 12 00 3e 30 29 0f bf eb 7a d2 be
       -0.6026814 0.12507051 -0.5592222 -0.41109404
0002b0 fc f1 2c be 02 7a 09 bf c1 de 64 be 26 ad 18 bf
       -0.16889185 -0.53701794 -0.22350599 -0.59639204
0002c0 60 eb c0 3d c9 48 ad 3c e3 d2 c2 bd 87 43 5e bd
       0.09419894 0.02115287 -0.0951288 -0.054263618
0002d0 2c f2 7b 3e 19 ac 20 3e c8 e4 a3 3e 27 f4 d2 3d
       0.246041 0.1569065 0.32010484 0.103004746
0002e0 e2 a6 c4 3e f3 ae 9d 3b 61 30 db 3d 53 65 2b bf
       0.3840857 0.0048121153 0.10702587 -0.66951483
0002f0 40 43 a0 3e d1 d6 e1 be 44 90 15 3f 34 eb 9d 3e
       0.31301308 -0.44109204 0.58423257 0.30843508
000300 bc d7 a7 be fa 98 ba 3c bf 7d a6 3d 8a 14 2c 3d
       -0.3278178 0.022778023 0.08129453 0.042011775
000310 8c f1 cb 3d 0a 12 ce bd 60 5e 65 3e a9 7f b7 be
       0.09958181 -0.100620344 0.22399282 -0.35839584
000320 c8 c0 a3 3c 1c a5 f7 be 14 a9 5a 3e 38 48 92 3e
       0.019989386 -0.48368156 0.2135356 0.28570724
000330 82 8e 14 3d d6 a8 b7 bd ab 98 37 bd 3d b9 9a bc
       0.03626872 -0.0896775 -0.04482333 -0.018887157
000340 9f e9 29 bd 42 6a ac 3f 86 d9 40 be 9b 95 66 bf
       -0.041482564 1.3469927 -0.18832979 -0.9007203
000350 db f4 fc bc e2 40 22 be f1 fc 9e 3d b0 96 13 3c
       -0.030878475 -0.15845063 0.077630885 0.009008095
000360 e9 85 58 be 3c 4f c7 3e 48 5a f6 3d ec 70 ce 3e
       -0.21144833 0.3892764 0.120289385 0.40320528
000370 ce da 87 be 8c 0f a8 be fe 73 09 be 78 7a f8 be
       -0.26534122 -0.3282436 -0.13423154 -0.48530936
000380 90 ba 9d be 95 f9 93 bd f5 28 23 3c 56 b0 51 3f
       -0.30806398 -0.07225338 0.009958495 0.8190969
000390 c8 6a ad bd 4f 51 ae bf 3d 20 d5 bc 10 77 a3 3d
       -0.084676325 -1.3618563 -0.026016349 0.07981694
0003a0 a8 31 d3 3c 5b 26 2f 3c fd ab 85 be aa 61 63 be
       0.025780514 0.010690297 -0.2610778 -0.22205225
0003b0 b0 28 a5 be 3a 9b 90 3e 04 f8 b2 be 73 66 58 3e
       -0.32257605 0.28243428 -0.34954846 0.21132831
0003c0 48 b7 ac 3f e7 61 37 bd 1c be b8 be 32 43 cc be
       1.3493433 -0.0447711 -0.36082542 -0.39895016
0003d0 f2 1b 8f bf 93 6e 2c 3f 24 37 43 bf e6 dc e3 be
       -1.1180403 0.6735622 -0.7625601 -0.4450447
0003e0 b7 5b 4e 3e 4f dc e7 3d 53 38 25 bd 6d 88 5b bd
       0.20152174 0.113213174 -0.040336918 -0.053596903
0003f0 59 f7 b2 be 8f 3c 91 3e 71 f3 df bd 15 3b 8f 3e
       -0.34954336 0.28366515 -0.10935105 0.27974764

action_dict.encoder.bias f4 [64]
000000 5a f9 c6 bf 9c 38 21 bf 23 b7 dc bf 17 ef 9e 3e
       -1.5544846 -0.62977004 -1.7243389 0.31041786
000010 db 5c 8b bf e7 d8 e8 bf 64 a1 a3 bf 6d 73 d9 bf
       -1.0887712 -1.8191193 -1.2783628 -1.698835
000020 51 95 d5 bd 76 88 bf bf a3 06 9f bf 4d 86 bf bf
       -0.104288705 -1.496352 -1.24239 -1.496286
000030 a1 fb 9c bf 91 59 d3 bf 2f af 6a bf 34 76 46 bf
       -1.2264291 -1.6511708 -0.9167356 -0.77524114
000040 0e 53 e3 bf 89 d2 b5 bf 81 8a 4d bf db 35 33 bf
       -1.7759721 -1.4204875 -0.80289465 -0.7000405
000050 bf 0b ea be 1f 8e e3 3e 44 7c 75 bf f8 a3 5f 3f
       -0.45712087 0.44444367 -0.9589274 0.8735957
000060 a3 cd 9e bf 93 34 9f bf fb 5e ba bf 97 21 9e bf
       -1.2406505 -1.2437919 -1.4560236 -1.2354001
000070 49 c8 b3 bf 10 cc 26 be bf 4a 79 3f de 5d f0 bf
       -1.4045497 -0.16288781 0.9737968 -1.8778646
000080 ce c1 0e be f9 fe de bf ce 6c 19 3f 82 33 80 bf
       -0.13941118 -1.7421561 0.5993165 -1.0015719
000090 f5 44 1b be 94 bb 89 bf 64 47 ca bf 06 44 b4 bf
       -0.15163024 -1.0760369 -1.5803037 -1.4083259
0000a0 09 69 df bf 7d b6 bb bf 2f f3 d0 bf 7b b8 9e bf
       -1.7453929 -1.4665066 -1.6324214 -1.2400049
0000b0 f0 91 6d 3f 01 b9 8b bf fb 57 13 3f f8 87 a4 bf
       0.9280081 -1.0915834 0.5755612 -1.2853994
0000c0 32 38 05 be ff 9c c2 bf f9 98 b4 be 83 31 d0 bf
       -0.13009718 -1.5204161 -0.3527296 -1.626511
0000d0 ac 37 b8 3e b5 3f c6 bf 2c e0 c5 bf 11 ba d3 bf
       0.35979974 -1.5488192 -1.5459037 -1.6541158
0000e0 3a c7 e9 bf 32 85 aa bf 5f 1b 9b 3d ec cf 4d 3f
       -1.8263924 -1.3321898 0.0757358 0.8039539
0000f0 a0 cf b0 bf 6e f0 bf be 5c 83 d1 3e 82 46 bc bf
       -1.3813362 -0.3748812 0.40920532 -1.4709017

action_dict.f_module.weight_ih f4 [256, 64]
000000 f4 8f 58 be 78 1d eb be c9 18 0c be 86 52 6f bf
       -0.21148664 -0.4592092 -0.1368133 -0.93485296
000010 7f fb 5e 3e cc 90 81 bf 11 9f 8a bc 73 0f 1b be
       0.21775626 -1.0122313 -0.016921552 -0.15142612
000020 24 89 64 bf 41 83 8f be 99 c8 09 bf 1b 19 e5 bc
       -0.8927176 -0.28029826 -0.5382171 -0.027966073
000030 b3 a8 90 bf 84 f9 7f bf 19 69 fc be 02 63 35 bf
       -1.1301483 -0.99990106 -0.49298933 -0.708542
000040 ee c7 8f bf b8 7f f0 be db dc ab be dd cd 03 3e
       -1.1232889 -0.46972442 -0.33566937 0.128715
000050 59 fc 2c bf 24 bd 11 bf 92 93 9a be a7 6f c2 be
       -0.6757255 -0.5692923 -0.30190712 -0.3797581
000060 05 a3 1b 3d b1 7f ce 3e 62 ca e0 be db 9a 62 3e
       0.037997264 0.40331796 -0.43904406 0.22129385
000070 4d 6a 38 be 14 e8 11 bf e3 00 1c bf 22 03 4f be
       -0.180093 -0.5699475 -0.60938853 -0.20216039
000080 2a ab e7 be a0 c4 55 3c be b2 fe be e2 e3 d3 be
       -0.45247775 0.013047367 -0.49745744 -0.41384798
000090 49 d4 30 3b 5c 70 c4 3d 47 ee 42 3f b6 2e eb bc
       0.0026982 0.09591743 0.7614483 -0.028708797
0000a0 dd 46 d4 3e e3 b8 42 be 42 4d 4d bf 67 8e 10 bf
       0.41460314 -0.19015841 -0.8019601 -0.5646729
0000b0 4a a9 0b bf fc fd 0e 40 3a ae 26 bf 5e ba bd 3d
       -0.5455519 2.234252 -0.651096 0.09264062
0000c0 f5 47 9b bf 6b f6 bb 3e bf 77 9b bf c9 52 92 be
       -1.2131335 0.3671144 -1.2145919 -0.28578785
0000d0 80 ca 3f bf 00 4c bd be 40 0b c7 be 9b f3 7e be
       -0.74918365 -0.36972046 -0.3887577 -0.24897616
0000e0 8b 20 a7 be 8f f2 83 3d b3 1f 3f bf 44 7b 0f bf
       -0.32642016 0.06442749 -0.74657744 -0.56047463
0000f0 41 ab 2d bf 8c 9d 31 bf ed 31 f4 be 8d d7 ce be
       -0.6783944 -0.6938102 -0.4769434 -0.40398827
000100 a8 45 6a bd cb 3f 9a bf a3 07 93 be 7e 2e fc 3d
       -0.057195336 -1.2050718 -0.28716764 0.12313555
000110 f5 4e bb 3e 92 fc 09 3f c0 e3 3c 3f ec c6 e8 3e
       0.36583677 0.53901017 0.7378502 0.45464265
000120 b2 17 a8 bf 05 4b bb be 4c ea ae be f6 59 a4 bd
       -1.3132231 -0.36580673 -0.3416313 -0.08024971
000130 f5 60 bd bf d3 d3 5d be 99 03 99 3f bf d0 97 be
       -1.4795214 -0.21662836 1.1954223 -0.29651448
000140 f8 e7 c8 be 51 3f e0 3c 64 1f 28 bf cd 6f d6 3c
       -0.39239478 0.027373942 -0.656729 0.026176358
000150 f7 07 63 3f 58 89 e0 bf 69 6d 4e bf 9b 8c 71 bf
       0.8868403 -1.7541914 -0.80635697 -0.9435517
000160 c8 35 c0 bf 5f 87 08 bf 8f be 21 3f 41 1f db be
       -1.5016413 -0.5333156 0.63181394 -0.42797282
000170 9c 64 64 3e 2e ed 7a ba 86 d7 15 bf 10 a9 af 3e
       0.22304004 -0.00095720857 -0.5853199 0.34308672
000180 d2 60 39 bc 4b 73 5b be 1b d7 8f be 4a eb d8 be
       -0.011314588 -0.214307 -0.280938 -0.4236701
000190 68 f9 e1 be 7b 30 ff 3e 77 c6 1c 3f 88 10 04 bf
       -0.44135594 0.49841675 0.61240333 -0.51587725
0001a0 d4 ac 2c bf fa e1 0c 3e 0b 32 b8 bd ba 4d 53 3d
       -0.67451215 0.13758078 -0.0899392 0.051587798
0001b0 eb ef 57 bf 9f 19 10 be 20 18 46 3e 02 3a 12 bf
       -0.8435046 -0.14072274 0.1934514 -0.5711976
0001c0 bd b7 df 3c a2 ed 0b 3e 11 93 c0 3e 35 07 97 bc
       0.027309293 0.13664868 0.37612203 -0.018436054
0001d0 9b 42 96 bf 7e 26 8b bf 8d e2 51 bd c2 2e 0e 3e
       -1.1739076 -1.0871122 -0.051241446 0.13885024
0001e0 c3 b6 d1 be a6 6c c4 bc 4c 46 f0 be 9d 4b 15 bf
       -0.4095975 -0.023977589 -0.46928632 -0.583185
0001f0 73 83 f6 be c1 62 26 bf 91 06 5b bf a9 fa 26 bf
       -0.48147163 -0.64994437 -0.85556895 -0.6522623
000200 d2 68 44 be d1 c5 22 3e 4c 44 e6 bc af 0c 2c bf
       -0.19180611 0.15895773 -0.028108738 -0.67206854
000210 df 52 60 bf 27 26 27 bf 82 98 b5 be dc 67 30 3e
       -0.8762645 -0.6529259 -0.35467917 0.17227119
000220 f5 5d 03 bf a8 9b 27 be c4 0f 90 bd e1 2f af be
       -0.5131524 -0.16367972 -0.07034257 -0.34216216
000230 5a f5 c0 bd 88 fa 3a be 69 d9 50 bf 08 c9 5e be
       -0.09421797 -0.18259633 -0.8158174 -0.21756375
000240 d9 dc db be 02 b8 a2 bd d7 47 a6 be 12 f6 93 3b
       -0.4294193 -0.07945253 -0.32476684 0.004515418
000250 12 89 01 bf fb 9e ec 3c 40 e2 96 be 01 e5 74 bf
       -0.5059978 0.028884402 -0.2946949 -0.9566193
000260 72 20 72 3e bf 0b 0b be 0b 04 30 3d f7 f3 49 3f
       0.2364519 -0.135787 0.042972606 0.78887886
000270 3d 3c 85 bd ee 06 2a 3f 89 e6 15 bf ee 56 a1 be
       -0.0650563 0.66416824 -0.58554894 -0.31511635
000280 58 f2 0b be f1 72 6d 3d d7 5c 29 bf 5d fd 2f bd
       -0.13666666 0.057970945 -0.6615729 -0.042966235
000290 9c ae 38 bf 14 91 83 be 49 3c 7a be cc d0 7a be
       -0.7214143 -0.25696623 -0.2443706 -0.24493712
0002a0 bf 45 dc 3e dd 96 9f 3e 35 cc b2 be 05 33 2c 3d
       0.43021962 0.31169787 -0.34921423 0.042040844
0002b0 8b d8 70 bf ff a0 0c 3f 94 db 4e bf d8 cd fd bc
       -0.9408042 0.5493316 -0.808038 -0.030981943
0002c0 ae de eb be 3b 5b 3a 3e 5c 1d 35 bf e5 aa 49 3e
       -0.4606833 0.18198864 -0.70747924 0.19694097
0002d0 b8 c4 30 bf 4d a5 de bd 8f 26 0a 3e e2 06 b3 3e
       -0.6905017 -0.10871372 0.13491271 0.3496619
0002e0 dc 01 68 be 70 65 7d be 80 9e 94 be a1 f0 d8 be
       -0.2265696 -0.24745727 -0.29027176 -0.42371085
0002f0 a9 0b 20 bf bd 2e 5e bf 39 50 53 bf 15 02 1f be
       -0.6251779 -0.86790067 -0.82544285 -0.15528138
000300 08 e5 46 3f ff cb 03 3f e0 49 73 bd 23 22 a2 be
       0.77693224 0.5148315 -0.059396625 -0.3166667
000310 5a e4 22 be fa fb 66 bf 6f 05 3f bf 8c ce 43 bf
       -0.15907422 -0.90228236 -0.74617666 -0.7648704
000320 90 81 7f 3f 19 8f 9c 3e 5b 1f 07 bf 0e 28 53 3e
       0.9980707 0.30577925 -0.5278222 0.20620748
000330 f0 e1 8a bf b8 78 8c 3e 96 20 61 be 8a f7 63 bf
       -1.0850201 0.2743585 -0.21985087 -0.8904959
000340 06 d4 7d bf 71 7d 27 3e 6e 20 5c be 0d db 85 bf
       -0.9915165 0.16356446 -0.21496746 -1.0457474
000350 1b da 39 bf b0 b9 2c 3f 7b 3f 84 be 29 66 29 be
       -0.7259843 0.67470837 -0.25829682 -0.16542877
000360 ab 85 17 bd 75 1f 4d bf e5 02 c1 be 39 a9 69 be
       -0.03699271 -0.80126125 -0.3769752 -0.2281846
000370 9c 69 8d bf 90 f2 d5 be e0 ba fc 3d 89 c8 8a 3e
       -1.1047854 -0.41786623 0.12340331 0.2710612
000380 5d 82 5b 3e af 1e 30 3f ad dd 1b c0 89 53 db bf
       0.21436448 0.6879682 -2.435405 -1.7134868
000390 4c 6d 89 3c 7d 93 3c 3f 72 c9 4d 3e 33 8f b6 3e
       0.01677575 0.7366255 0.20096377 0.35656127
0003a0 7d a3 35 3f c9 e7 c2 3e 79 dc d0 3e bb 99 64 3f
       0.7095259 0.38067463 0.40793207 0.89297074
0003b0 e6 af 91 bf c9 cb f1 3f 00 9f d0 be 27 36 fa be
       -1.1381805 1.8890315 -0.40746307 -0.4886944
0003c0 d6 45 bd 3e e8 89 2f 3f f4 f2 9a bf f5 f5 a8 3e
       0.36967343 0.68569803 -1.2105393 0.3300015
0003d0 c5 46 61 be a4 e6 85 3e 60 ee ad 3e 6f fd 0a bf
       -0.21999653 0.26152527 0.33970928 -0.5429296
0003e0 75 cf e3 be 37 de 8d be 23 2c c5 bf 2f 8e 58 bf
       -0.44494215 -0.277086 -1.5404094 -0.84591955
0003f0 6a c3 0c 3f 52 d8 0e bd e3 ed 2d 3f 36 b4 98 bf
       0.5498568 -0.034874268 0.6794111 -1.1929996

action_dict.f_module.weight_hh f4 [256, 64]
000000 b3 cb 64 3d b9 5a ca 3e ea a8 79 ba 32 0f 66 3c
       0.055858325 0.3952234 -0.00095237663 0.014041709
000010 dd 82 53 bf 40 62 84 bf eb 91 80 be 92 40 ab 3e
       -0.82621557 -1.0342484 -0.25111327 0.334477
000020 2d 1c 99 bf 37 30 91 3d 29 fe 7b 3d 4d 66 0f 3f
       -1.1961724 0.070892744 0.061521683 0.56015474
000030 96 3c e8 be 3d 2e 89 3f 8d 4a 8f be f0 37 8c 3e
       -0.45358723 1.0717236 -0.27986565 0.27386427
000040 29 54 ac be b4 66 07 3d 5f 81 91 be 9f 1d 65 3d
       -0.3365796 0.03305693 -0.28419015 0.055936452
000050 bf dd 14 3e d0 32 3d 3b 81 41 0e 3f 2a 20 78 bc
       0.14537714 0.0028869398 0.555687 -0.015144387
000060 3c 42 9b 3e c3 21 99 3d cd d0 1f 3c df a9 7c 3d
       0.3032397 0.07477143 0.009754372 0.06168544
000070 0f f7 f1 bd 75 99 04 3e ee ce 4a bf 9e 89 35 be
       -0.11814701 0.12949164 -0.79222 -0.17728278
000080 3e 25 34 bf 4c 8a 39 3f d1 86 e6 3c f6 db 29 be
       -0.7036933 0.7247665 0.028140457 -0.16587815
000090 59 ce c8 3e 56 b2 50 3f 18 49 55 be 0c 9a 44 3d
       0.3921993 0.8152212 -0.20828664 0.047998473
0000a0 17 4f 0d bd 5a 67 47 be 42 2a 12 be 33 f4 66 3f
       -0.034499254 -0.19473019 -0.14273933 0.9021637
0000b0 b9 e1 d8 3e e4 77 d5 bd 3c 1c eb 3e 9b cd 00 3e
       0.42359713 -0.10423258 0.4591998 0.12578432
0000c0 10 04 24 3f 99 17 a1 be 6f 66 ba 3e ca 13 48 3e
       0.640687 -0.31463316 0.36406276 0.19538799
0000d0 1b b3 0c bf b4 b7 e4 3e c8 db 19 be 60 89 a8 3e
       -0.54960793 0.44671404 -0.15025246 0.3291731
0000e0 4e 49 a6 3e e3 bf 01 be 0f fc dc b8 b4 e9 68 bf
       0.32477802 -0.12670855 -0.00010537367 -0.909816
0000f0 9d 05 88 3f 7a e0 20 bf 1e e7 59 3d a9 b8 cc bd
       1.0626713 -0.62842524 0.053198926 -0.09996159
000100 bd b2 10 3e 84 b1 b8 3e 76 73 62 bc bc a9 a6 be
       0.14130683 0.36072934 -0.013821473 -0.32551372
000110 14 2f e2 bd 9f c6 af bf a8 2c c2 be c6 d9 f6 be
       -0.11044136 -1.3732489 -0.37924695 -0.48213023
000120 a8 7b 8f 3e 28 47 9e 3e 1c 19 a6 3e 4f ab 9f bd
       0.2802403 0.30913663 0.32441032 -0.077963464
000130 51 71 1d 3f cb d3 dc be bb d4 53 bf f5 48 7d bd
       0.6150103 -0.43130335 -0.82746476 -0.061837155
000140 b2 1b 28 3f 1c 07 30 be 5a 3a 89 3e 67 b1 cc 3c
       0.6566726 -0.17190212 0.2680233 0.024986936
000150 e0 e1 16 bf 8e 4c 6e be c6 01 d7 bd c5 5c 54 be
       -0.5893841 -0.23271391 -0.10498385 -0.20738514
000160 82 d5 b0 3f 86 29 05 3f d3 86 3e 3c 26 04 f2 3e
       1.3815157 0.52016485 0.011628824 0.4726879
000170 21 cd fd 3e 0d 55 a8 bd f7 80 98 3e e2 39 de 3b
       0.49570563 -0.08219347 0.29785892 0.0067818025
000180 40 62 65 bf 00 ce 17 3f 79 54 16 3f 33 76 75 3e
       -0.8960304 0.59298706 0.58722645 0.2397087
000190 9e 68 b7 3f 1d 98 ca 3e 4b fd 90 3d 2d f7 76 bf
       1.4328802 0.39569178 0.07079562 -0.9647091
0001a0 23 70 88 3c 47 01 b2 3f 08 04 40 3e ef d4 9f 3e
       0.016655033 1.390664 0.18751538 0.31217143
0001b0 9d cb 1a be b6 1b 61 3f 9d 17 14 3f 14 82 11 3f
       -0.15116735 0.8793291 0.5784853 0.5683911
0001c0 97 1f 2d bc d3 f5 be 3c 36 4a 2e be aa c1 b8 be
       -0.010566614 0.023310577 -0.17020497 -0.36085254
0001d0 84 37 32 3e a9 86 d4 3f 5e d9 7e 3e 21 ec 84 bf
       0.1740399 1.6603595 0.24887607 -1.0384561
0001e0 cc 5c 8a bf 55 44 9c 3e 3e a0 68 bd 33 7f 84 bf
       -1.0809569 0.30520883 -0.056793444 -1.0351318
0001f0 17 c2 00 bf f3 f9 17 be b7 8a 2b 3e f3 05 7a be
       -0.5029616 -0.14841442 0.16752134 -0.24416332
000200 ed 83 8f 3d 1e f7 19 3e b8 fd 69 be e4 f3 81 bd
       0.07007585 0.15035674 -0.22850692 -0.063453466
000210 ed c2 73 bf 03 34 a1 b9 79 e3 bd 3c a8 54 22 bf
       -0.9521931 -0.00030747065 0.023179756 -0.63410425
000220 57 db 6a 3e 51 ba 9f bd b8 46 98 3e cf 5d 6d 3e
       0.22935234 -0.07799209 0.29741454 0.23180316
000230 88 47 c1 bd 49 2e cf be eb b3 5c bf b6 65 05 3f
       -0.09437472 -0.40465 -0.86212033 0.52108324
000240 59 d8 8d 3c b8 04 c8 bc ef 4d 68 be 63 29 22 3e
       0.017315077 -0.024416313 -0.2268598 0.158361
000250 13 ad 62 3e 1a 77 95 3e ad c2 e3 bd d1 08 c0 3d
       0.22136335 0.2919243 -0.11121116 0.093766816
000260 8c b6 1d 3f b8 5c d0 3c d0 30 e5 be 37 84 f6 bd
       0.6160667 0.025434837 -0.44763803 -0.12036937
000270 84 b9 28 3e dd 3c 32 3e 5a f7 e2 3e 31 a1 87 be
       0.16477019 0.1740603 0.4432934 -0.26490167
000280 88 48 0e bf 2b 33 95 3e 4e 85 f8 3d 8e fc 4c 3e
       -0.55579424 0.291406 0.12134801 0.20018217
000290 4d 71 98 bc 7e 63 b1 3d 5f 5b 87 3e 47 b8 11 3d
       -0.018608714 0.08661555 0.26436898 0.03557613
0002a0 33 7f f2 3e 6d c1 8d be 3c cc 36 be 22 85 a1 3e
       0.4736267 -0.27686635 -0.17851347 0.31546885
0002b0 9a 2d bf bc 03 48 1f 3f e3 3e 4b 3c 84 74 73 be
       -0.023337174 0.62219256 0.01240513 -0.23774916
0002c0 73 15 d8 3e 0b 32 03 3f 2c c9 11 3f 75 7b 4c be
       0.42203864 0.51248235 0.5694759 -0.1996897
0002d0 62 d2 1f be 5c ea 2a 3f 1a 41 ff be 2c 0a 20 be
       -0.15607598 0.66763854 -0.49854356 -0.1562888
0002e0 e8 82 ab bd 59 1a 0b be fe 05 1d bc 05 9f f9 be
       -0.08374578 -0.1358427 -0.009583948 -0.48754135
0002f0 e1 f5 ba 3e 0a 9d 5c be 1c e3 93 3c 21 b2 a5 bc
       0.36515716 -0.2154428 0.01805263 -0.02022654
000300 4f 4b d1 bd 64 13 41 3e f4 76 09 3a ca df 5f 3f
       -0.10219442 0.18855053 0.00052438607 0.8745085
000310 71 da 0a 3f 6d 28 bd bf 74 f5 9f 3f 8f c0 f0 be
       0.54239565 -1.4777962 1.2496781 -0.4702191
000320 17 89 8c bf 0f 84 11 bf 6b dc 2d 3f 2b 2d 39 3d
       -1.0979337 -0.5684213 0.67914456 0.04520909
000330 b7 67 32 bf 36 c8 20 3f a9 7f 77 be bc 9f c1 3e
       -0.69689506 0.628055 -0.24169792 0.3781718
000340 c8 9b bb 3f 9b ab 12 be f6 db 09 3f 90 c8 1c be
       1.4656916 -0.14323275 0.5385126 -0.15310884
000350 12 c8 0c bf ce 3d 28 bf 18 1d 44 3f c9 7d 36 3e
       -0.54992783 -0.65719306 0.76606894 0.1782142
000360 d3 fb 86 3d db 37 a9 bd 60 3c 86 3e ef f7 0f bf
       0.065910004 -0.08262607 0.26217937 -0.5623769
000370 e8 c2 2e 3f 7f 04 b8 bd 5a c9 94 3e 9f e2 bb be
       0.68266153 -0.089852326 0.2905987 -0.36696336
000380 7c 04 d2 3e df 21 fc 3f 97 31 87 3e 02 11 04 3f
       0.41019046 1.9697837 0.26405022 0.5158845
000390 2c 95 8a 3f 5a 7e b1 3e 65 3a 8a 3f ac 86 66 3f
       1.0826774 0.3466671 1.0799071 0.9004924
0003a0 f2 74 f9 3e 72 4e 8e 3d e5 9d 97 bd 45 1b 17 40
       0.48722035 0.06948556 -0.07403163 2.3610394
0003b0 d6 ae 2a be e6 0a dc 3e b7 31 01 bf cf 86 87 bf
       -0.16668257 0.42977065 -0.50466484 -1.0588015
0003c0 27 f1 f7 3f f2 c6 60 3e e0 de 0f bf 77 4f 3b 3f
       1.9370469 0.21950892 -0.56199455 0.7316813
0003d0 98 0b 1c 3f 15 79 22 be 82 a7 35 bf a9 97 52 3f
       0.6095519 -0.15866502 -0.7095872 0.82262665
0003e0 71 a5 b2 3e ab 19 1c bf a8 97 0d 3e 3c d8 77 bf
       0.34891847 -0.60976666 0.13827384 -0.9681432
0003f0 38 3c 06 40 36 12 9a bf 33 56 e1 bc 91 f4 13 bf
       2.0974255 -1.2036808 -0.027506923 -0.57795054

action_dict.f_module.bias_ih f4 [256]
000000 bc e4 56 bf d4 91 14 bf 1c d8 7d bf 64 e6 22 bf
       -0.8394277 -0.58035016 -0.9915788 -0.636328
000010 87 c5 75 bf c9 04 3c 3f 06 ea 61 be dc 13 16 bf
       -0.9600453 0.734448 -0.22061929 -0.58624053
000020 9d 45 14 bf 7d 8a 2f bf c8 13 8e be f6 6f 0b bf
       -0.5791872 -0.6857069 -0.27749467 -0.54467714
000030 69 d0 6a bb 72 ac 68 3e ef f0 a5 be 7d 7e 4d bf
       -0.0035829789 0.22722033 -0.3241038 -0.8027113
000040 a2 1f 1e 3f 6a ee 7a be cb af 99 bf cc 95 45 bf
       0.6176702 -0.2450501 -1.2006773 -0.77181697
000050 20 d6 cc be be 36 3c bf 2f ec 8a be 49 d5 75 bf
       -0.40007114 -0.7352103 -0.2713332 -0.9602857
000060 42 1e 8c 3e 3b 3a 5c bf 54 f3 fe be c3 80 32 bf
       0.27366835 -0.8602635 -0.4979502 -0.69727725
000070 82 88 c9 bd 63 a2 42 bf f7 d9 4f 3e c7 e7 19 bf
       -0.0984049 -0.7602903 0.2029799 -0.6011929
000080 8d 70 80 bf 72 df b5 3f 96 86 9f 3e f6 2d c8 3e
       -1.0034348 1.4208815 0.31157368 0.39097565
000090 39 b2 8d be 2b 7c 93 3d 50 75 35 bf a7 d5 2a 3e
       -0.27675036 0.072014175 -0.7088213 0.16683064
0000a0 18 2b 81 3e 8c 45 10 3e 59 fb 1b be e1 d1 e3 be
       0.2522819 0.1408903 -0.152326 -0.44496062
0000b0 4f ff 82 bf 9d b7 4f be 10 73 5a bf b7 fb 0c bf
       -1.0234164 -0.20284887 -0.8533182 -0.55071586
0000c0 bf 07 ae be 7d 45 8c be b2 47 1c 3e b3 ed 25 3d
       -0.33990285 -0.27396765 0.15261725 0.04050989
0000d0 56 27 a6 bd cf 6a 09 bf 28 78 2d bf f0 94 0f bf
       -0.081129715 -0.536786 -0.6776147 -0.56086636
0000e0 bd 28 f8 3d b8 06 30 bf 9a c9 f4 be 6f 19 81 bf
       0.12117145 -0.6876025 -0.4781006 -1.0085887
0000f0 55 aa 6a 3e 6d b5 4a 3f c4 e5 30 bf 5a dd 63 3d
       0.22916539 0.79183084 -0.69100595 0.05563102
000100 36 c3 0f bf e9 b1 4b bf 34 88 a9 be d6 43 f9 be
       -0.56157243 -0.79568344 -0.33111727 -0.48684567
000110 c9 68 af bf 6d f3 02 bf 0c 35 dc bc d9 e5 69 bd
       -1.3703853 -0.5115269 -0.026880763 -0.057103965
000120 70 f5 4f bf 9e 1e 9a be 6e ac 4e bf 02 5f 44 bf
       -0.8123388 -0.30101484 -0.80731857 -0.7670747
000130 ec d8 43 be f6 2c 4a be eb f4 10 3e 78 3b 8e bf
       -0.19125718 -0.19743714 0.14155929 -1.1111898
000140 2b f1 65 bf 9b 53 73 bd 82 f4 30 bf 20 9f 79 be
       -0.8982112 -0.059405904 -0.6912309 -0.24377108
000150 5e 97 8d bf 53 d8 bd be c6 2b 3e bf a4 b6 7a be
       -1.1061819 -0.37079105 -0.7428554 -0.24483734
000160 d2 1e 5a bf 9f fd cd be 84 f6 f5 be a2 05 08 bf
       -0.8520328 -0.4023256 -0.4803964 -0.53133595
000170 ef 0c c6 be 3f b6 9a 3c 98 a0 09 bf b3 21 20 3c
       -0.38681743 0.01888573 -0.5376067 0.0097736595
000180 7b 74 e5 be e6 93 06 be 69 c3 13 bf 71 53 79 be
       -0.4481543 -0.13142356 -0.5772005 -0.24348237
000190 77 38 b5 bf 30 3e f3 bd e4 3e 17 bf 6f 8b c4 be
       -1.4157857 -0.11877096 -0.5908034 -0.3838763
0001a0 0a 95 46 bf c0 43 92 bf 80 be ea 3d e2 b2 77 3e
       -0.77571166 -1.1426926 0.11462116 0.24189332
0001b0 d0 e9 0d bf d1 d1 af bf 35 45 2a bf 11 bc c2 bf
       -0.55434895 -1.3735906 -0.6651185 -1.5213643
0001c0 38 7e d9 be 45 90 3f bf bd a7 38 bf b4 18 83 bf
       -0.4247911 -0.7482951 -0.7213095 -1.0241914
0001d0 e7 cd 63 bf 3a 0b 65 bf 91 4c 0a bf a3 ac 3d bf
       -0.8898606 -0.89470255 -0.5402308 -0.7409155
0001e0 d3 b2 5d bf f2 5b 31 bf a6 29 ee be d5 f1 54 bf
       -0.8660099 -0.6928092 -0.4651615 -0.83181506
0001f0 27 2f a5 be fc 59 1a bf a0 e7 f8 be 5d 1e 53 bf
       -0.32262537 -0.60293555 -0.48614216 -0.82468206
000200 1a 78 84 3d 79 b0 48 be fb d9 62 bd 85 18 17 be
       0.0646822 -0.19598569 -0.055383664 -0.14755447
000210 52 e4 96 be 6e 76 07 be 8a 57 1d bf 46 cb de be
       -0.2947107 -0.13228771 -0.614617 -0.4351446
000220 c3 47 29 3f 9d e7 14 3e a4 28 11 bf 79 55 af be
       0.66125125 0.14541478 -0.5670264 -0.34244898
000230 3f f3 7e 3e a5 0e 36 3f f5 69 17 bf 43 64 87 be
       0.24897479 0.71116096 -0.5914605 -0.2644368
000240 e0 4a be bd c9 24 94 3d 22 22 49 be e4 40 f5 ba
       -0.09291625 0.07233579 -0.19641927 -0.0018711356
000250 61 a1 d8 3e 05 5c 3f 3e 0c 29 5b bf c3 68 08 3e
       0.42310622 0.18687446 -0.8560951 0.13321213
000260 90 e2 99 3e c4 17 80 be 6b c0 41 3f 2c 5f c7 bc
       0.30055666 -0.25018132 0.7568423 -0.024337374
000270 78 ab d9 be 32 7d 57 be ff 0b 1c 3f 93 5a 5f be
       -0.42513633 -0.21043852 0.60955805 -0.21811895
000280 35 49 64 3e 9e 1d 0c bf 41 1c 26 bf 45 26 29 be
       0.22293551 -0.5473269 -0.6488686 -0.16518505
000290 bc 40 ac 3e 94 83 bd be e2 ff 47 be 21 cd d2 be
       0.33643138 -0.3701445 -0.19531205 -0.41172126
0002a0 42 4e a8 bd ec e8 09 be 74 39 ae 3d 89 18 b6 be
       -0.082180515 -0.13467759 0.08507052 -0.35565594
0002b0 6c 94 75 bc c1 a9 6f bf 4e 87 00 bf b5 5e b9 3e
       -0.014989 -0.936184 -0.5020646 0.36205068
0002c0 e4 f1 89 be ef 34 05 3e 3c 15 47 bf a9 a8 36 3e
       -0.2694236 0.13008474 -0.77766776 0.17837776
0002d0 8d 2c 05 bf fe bc 6e 3e ff 8e 64 3f 81 47 5f 3e
       -0.52021104 0.23314282 0.89280695 0.2180462
0002e0 09 12 c4 be 9e 3f a1 be 68 67 a0 3c 59 c9 8d 3e
       -0.3829501 -0.3149385 0.019580558 0.2769268
0002f0 dd f6 16 bf f8 e1 4c 3f 0b 16 c7 be 91 4b fe 3e
       -0.58970433 0.800323 -0.38884005 0.49667028
000300 9a 73 d2 be 2d d4 47 bf 8c 1b 85 bf 4a 0a 55 be
       -0.41103822 -0.7805813 -1.0399032 -0.20804706
000310 f3 7c 3b bf 7b 6b 6c 3e 43 a2 20 be 1c f8 5f be
       -0.7323753 0.23087876 -0.15686898 -0.2187199
000320 98 61 f7 be 68 70 63 bf 42 4c e3 be 7f cd 76 bf
       -0.48316646 -0.88843393 -0.44394118 -0.9640731
000330 39 1a 35 bf 1e 28 bd bc 5b bf 78 bf e6 82 3a bf
       -0.7074314 -0.023090418 -0.97166985 -0.72855985
000340 4b 57 88 bc 26 18 c5 be af 4b 0f bf 15 91 6e be
       -0.016643187 -0.38494986 -0.5597486 -0.23297532
000350 7d 20 19 bf a8 bf 9d bf d4 8d c6 be 1e fd 72 bf
       -0.598152 -1.2324114 -0.3878008 -0.94917476
000360 da e2 7f 3d 18 cb 0c bf c9 b2 e8 be 05 61 a1 bf
       0.062472202 -0.54997396 -0.45448902 -1.2607733
000370 22 6a 6f bf 8a 4f 39 bf c1 ce 9e be 04 c9 4b bf
       -0.9352132 -0.7238699 -0.31017116 -0.796036
000380 63 3f 3b bf ef 6f 48 3f 0a 86 50 bf 57 e8 e6 bd
       -0.73143595 0.782958 -0.8145453 -0.11274784
000390 55 60 40 be 52 35 fe be 13 a5 60 3c c1 88 90 bc
       -0.18786748 -0.49650055 0.013711232 -0.017643334
0003a0 75 7c 95 be f4 c8 69 3e 15 4d 80 bf f2 e9 ae be
       -0.29196516 0.22830564 -1.0023524 -0.3416286
0003b0 45 9e 57 bf 44 e0 8e 3d e9 61 18 bf 8c ff 3e bf
       -0.84225875 0.06976369 -0.595244 -0.74608684
0003c0 38 2c e4 be 41 26 d4 be d5 68 1e 3f 1d 51 8e be
       -0.44564986 -0.41435435 0.6187871 -0.2779626
0003d0 18 ea cd 3d 4a 65 df be 48 0d d1 be fb ea 32 bf
       0.100544155 -0.43631965 -0.40830445 -0.698898
0003e0 1a 07 db bc c5 b7 64 bf 61 0e 6a bf ed 69 0f bf
       -0.026736785 -0.8934291 -0.9142819 -0.56021005
0003f0 f8 c7 31 3f 36 07 34 3f c8 41 d9 be 26 29 a6 bc
       0.69445753 0.70323503 -0.42433 -0.020283293
